losses/models/ann12.pth (torch, 68636 bytes, 10 tensors)

weight f4 [128, 40]
000000 cc b3 7f bd 85 6c da bd 70 39 33 bc 89 ad 1b 3e
       -0.062427327 -0.1066523 -0.010938987 0.15202917
000010 b0 a8 53 3c 5d b3 1c be 70 4a 3a 3c 00 5b 0e 3b
       0.012918636 -0.15302797 0.011370286 0.002172172
000020 32 ba 8f bd ce 23 02 be 76 15 be 3d 4a 7c 33 bd
       -0.07017936 -0.12708971 0.09281437 -0.043819703
000030 f6 12 52 bd 48 30 0d bd 2a 9e a0 3d f1 e0 10 3e
       -0.051287614 -0.034469873 0.078426674 0.14148308
000040 5a 1e e1 3d 72 ba ee 3d 07 b7 f0 bd 8e 94 bc 3d
       0.10992117 0.11656655 -0.1175366 0.09208022
000050 3e eb 09 bd 58 2b b9 3c 3a df e4 3d 68 db af 3c
       -0.03367161 0.022603676 0.111753896 0.021466926
000060 9c 94 07 be 30 50 56 3c 9f 71 0b 3e 5c 44 14 be
       -0.13240284 0.013080642 0.13617562 -0.14479202
000070 34 b2 19 be 7d e2 a9 bd 64 60 11 bd 8e a1 0e bd
       -0.15009385 -0.08295152 -0.035492316 -0.03482204
000080 ce 6e aa 3d 89 6c 03 3e c0 de 73 bd 00 35 84 bc
       0.083219156 0.12834372 -0.059538603 -0.016138554
000090 a0 81 1d 3c 20 e8 7e 3d ff c7 19 3e 0e 6d 83 bd
       0.009613425 0.06223309 0.15017699 -0.06417285
0000a0 fa 97 97 3d 14 e8 04 be 28 68 cf bc d0 53 0c bc
       0.07402034 -0.12979156 -0.02531822 -0.008564904
0000b0 3e cc 24 bd 48 bf fa bc c6 79 f4 3d bf 0c bc bd
       -0.040233843 -0.030608788 0.11937289 -0.091821186
0000c0 d0 52 38 3c 80 82 77 3b 66 6a e5 3d ca e3 c0 3d
       0.011250213 0.0037766993 0.112019345 0.09418447
0000d0 b0 53 b8 3d 00 51 48 3d 54 53 78 bd 4c 2f 68 3d
       0.09000337 0.048905373 -0.060626343 0.05668573
0000e0 8a e6 e1 bd c9 3b a1 bd d3 cd c9 bd 78 d3 e5 3c
       -0.110303 -0.07872731 -0.09853711 0.028054938
0000f0 c6 bf 52 bd 9c 28 4a 3d 2c 33 ac 3d 80 19 a3 3a
       -0.05145242 0.049355134 0.08408198 0.0012443513
000100 b0 1e af 3d 3a 00 da 3d 50 35 ec 3c 6e 57 c4 3d
       0.08550775 0.106445745 0.028834015 0.095869884
000110 1f f9 06 3e c6 83 e7 bd 7a 55 1f be a0 74 b8 3c
       0.1318097 -0.11304431 -0.1555995 0.022516549
000120 db f4 90 bd 32 56 ed bd 82 20 ca bd 0f 5c a2 bd
       -0.070779525 -0.11588706 -0.098694816 -0.07927715
000130 82 5f dd 3d da 22 ef bd 70 23 8a 3c 00 18 8f ba
       0.10809232 -0.11676569 0.016862601 -0.0010917187
000140 2b 7f 14 be e6 1f c1 bd 05 62 0c be 60 a8 e7 bd
       -0.14501636 -0.09429912 -0.13709266 -0.11311412
000150 00 54 28 3d f8 65 a0 3c 11 6f 06 3e 52 25 eb 3d
       0.041095734 0.019579872 0.13128306 0.11481728
000160 ce 7d 8d bd 38 b8 86 3d c0 64 30 bb 12 f8 c7 3d
       -0.06908761 0.06578106 -0.002691552 0.097641125
000170 d6 49 fc 3d 78 89 94 bc a6 16 61 bd d0 cc 7a bd
       0.123187706 -0.018131956 -0.05495324 -0.06123048
000180 58 23 91 bc 5e 8b da 3d 6d c5 1b 3e 99 0d 12 3e
       -0.017717049 0.106711134 0.1521203 0.14263
000190 a2 ad 18 bd e7 d6 05 3e dc 81 1c 3d 76 57 b7 3d
       -0.037274964 0.1307026 0.03820978 0.08952229
0001a0 ce 83 fc bd 5d d0 04 be 6f 04 11 be 9f 0a 1b be
       -0.12329827 -0.1297011 -0.14161848 -0.1514077
0001b0 c8 17 e0 bc 74 9b 67 3d ba bb 19 be 69 b2 bf bd
       -0.02735509 0.056544736 -0.15013018 -0.09360201
0001c0 3c 8e cd bd ae 90 d2 3d e7 bd 06 be a4 a6 8d 3d
       -0.10036895 0.10281502 -0.1315838 0.0691655
0001d0 81 cc 19 3e df 11 05 3e 57 5f 15 3e c0 08 4a 3d
       0.15019418 0.12995099 0.1458715 0.04932475
0001e0 a5 6c 12 be 5e e7 08 bd b8 d0 a4 bd 7e a5 98 3d
       -0.14299257 -0.033423774 -0.080476224 0.0745344
0001f0 2c 6a 16 be 98 e8 f6 3c ec 9a ce bd d6 e4 d1 3d
       -0.14688939 0.030140206 -0.10088143 0.10248725
000200 9d 26 19 be da e6 bb 3d 2e 81 f3 3d 66 52 6e bd
       -0.14956136 0.09174891 0.118898734 -0.05818405
000210 68 1f 75 bd 08 58 35 3d b1 12 f2 bd 88 55 e8 3c
       -0.059844404 0.044273406 -0.11819971 0.028361097
000220 88 eb df bc 88 be b9 bc 9c e6 30 3d bc ab b5 3d
       -0.02733399 -0.02267386 0.043188676 0.08870646
000230 f6 c0 f8 bd 94 8d 0f bd 9c 02 8c bd 46 5b e6 3d
       -0.121461794 -0.03504713 -0.06836435 0.11247878
000240 f0 c1 b0 3c e4 b1 2a 3d 19 73 9c bd e0 c8 db 3c
       0.021576852 0.041673556 -0.07639141 0.026829183
000250 80 ee e5 bb 7b c6 a4 bd d1 d4 b5 bd eb 23 d4 bd
       -0.007016957 -0.0804567 -0.08878482 -0.10358413
000260 18 28 b2 3c 2a c8 f9 3d 47 fc f1 bd 58 25 9a 3c
       0.021747634 0.121963814 -0.11815696 0.018816635
000270 ea 99 b3 3d 60 3d fa bb ea 9f 0b bd 38 b8 ff bc
       0.08769591 -0.007636711 -0.034088053 -0.031215772
000280 00 ca a0 3c b3 5e de bd c0 b5 cb bc a0 bb a9 3c
       0.019627571 -0.10857906 -0.024866939 0.02071935
000290 16 a1 4c bd fb 8f 87 bd 40 73 48 3d ee 67 e6 bd
       -0.04995831 -0.06619259 0.048938036 -0.11250292
0002a0 4d 30 00 3e 92 00 bf 3d c9 19 0b be be 62 47 bd
       0.12518425 0.09326281 -0.13584055 -0.048678152
0002b0 d3 38 be bd 17 98 90 bd 2c 88 ef bd 80 65 8c 3c
       -0.09288182 -0.07060259 -0.116958946 0.017138243
0002c0 ed 88 e6 bd e0 6b bc 3c b2 cd a4 bd 19 ef e3 bd
       -0.11256585 0.023000658 -0.08047046 -0.11129589
0002d0 bf bc bc bd 0e 59 91 3d 90 da 07 be 10 4a 8f 3d
       -0.09215688 0.07097064 -0.13266969 0.06996548
0002e0 50 3d 93 bc f5 d1 0e be 6e 92 a2 bd e0 dc 02 3d
       -0.017973572 -0.1394728 -0.079380855 0.031948924
0002f0 80 60 9d bb 58 51 86 bd 06 e3 ea bd c8 38 9f 3d
       -0.0048027635 -0.06558484 -0.114690825 0.07774502
000300 38 23 06 be ac 13 16 3d 00 bc d6 3a de 0c c3 3d
       -0.13099372 0.036639854 0.0016382933 0.095239386
000310 33 26 15 be ee 76 33 bd 4c de b7 bd f0 3e 23 3d
       -0.14565353 -0.043814592 -0.08977947 0.039854944
000320 2f 02 23 3e bd 96 a6 bc ea 37 1a 3e e8 03 f7 3c
       0.15918802 -0.02033555 0.15060392 0.03015323
000330 b4 64 fc bc cf 44 0e be 9c 2d 1b be a3 27 b8 3c
       -0.030809738 -0.13893436 -0.15154117 0.022479838
000340 dc b4 d2 3c b7 54 0f be c2 88 86 3d da 43 80 3d
       0.025721006 -0.1399716 0.06569053 0.06262942
000350 26 5f 40 3c 14 07 6a bc 98 9b 16 3d 08 d9 1e 3e
       0.011741435 -0.014283914 0.03676948 0.15512478
000360 b9 45 ef 3d 08 fc c0 bc ae 12 61 bb 35 bf 21 3e
       0.116832204 -0.023557678 -0.003434341 0.15795596
000370 4e 63 8e bd 0e 5e aa bc 4a b2 11 bd c1 98 19 3c
       -0.069525346 -0.020796802 -0.03557042 0.009374798
000380 7b f8 fb 3d 15 dd 2b 3d 9d 95 43 3d fc 89 ed 3d
       0.12303253 0.041958887 0.047750104 0.11598584
000390 13 4b 07 3e e3 96 80 3d 59 87 14 bb 8e 4e f8 bd
       0.13212232 0.06278779 -0.0022663681 -0.12124358
0003a0 50 64 b3 bd d7 9f 6d bb 4b 35 23 3d 26 a6 bd 3d
       -0.087593675 -0.0036258602 0.039845746 0.09260206
0003b0 c9 6f f2 bd 91 a9 b9 3d 3d 06 ca 3c 94 1f 8a 3d
       -0.118377276 0.09065545 0.024661178 0.06744304
0003c0 d0 36 89 bc d5 aa b9 bd 61 4c 1b 3e 82 85 ca 3d
       -0.01674977 -0.09065787 0.15165855 0.09888746
0003d0 1b df e4 bd ff e0 21 3e e8 16 1c be 00 ce 1f 3a
       -0.111753665 0.15808485 -0.15243113 0.0006096065
0003e0 f5 0f 07 3e de b8 d5 bd 90 18 b8 3d f1 33 09 3e
       0.13189681 -0.10435651 0.0898906 0.1339872
0003f0 96 f6 02 be 24 12 03 3d 48 ae 52 3d 6d 6d a6 bd
       -0.12789378 0.031999722 0.05143574 -0.0812634

bias f4 [128]
000000 56 9e 48 bd ed d0 04 3e 10 cb be 3c f5 1b 18 be
       -0.048979126 0.12970324 0.023290187 -0.14854415
000010 ba a1 bd bd cb 40 e2 bd 30 1c 41 bc 72 e3 c5 3d
       -0.092593625 -0.110475145 -0.011786506 0.096625224
000020 10 d0 21 bd 99 93 09 3e df 85 de 3d 71 89 71 3c
       -0.039505064 0.1343521 0.10865378 0.014742241
000030 e4 74 60 3d a4 68 74 bc c2 54 08 3c ef b0 b1 3d
       0.054798976 -0.014917526 0.008320989 0.086763255
000040 54 4a 01 3d b8 81 12 3d a9 29 14 3e 86 be 9d bd
       0.031565025 0.03576824 0.14469017 -0.07702355
000050 68 69 03 be d9 6b 63 3d 63 4c 16 3e af 9b 99 bd
       -0.12833178 0.055522773 0.14677577 -0.075003974
000060 f8 bd 96 bd 3e e7 8c bd 83 e7 0e 3e c7 80 08 3e
       -0.073604524 -0.068800434 0.13955502 0.13330375
000070 a9 68 e1 bd 10 ac 7f 3c e8 c5 25 3d 01 85 9a bc
       -0.110062905 0.015604988 0.04047194 -0.01886225
000080 fa f0 b4 3d 94 25 0b 3e 6a c3 d0 3d dd fb 1b 3e
       0.08835025 0.13588554 0.10193522 0.15232797
000090 94 07 38 3d b0 55 ae 3c 44 1f ba 3d 8d 8d ac bd
       0.044929102 0.021281093 0.09087995 -0.08425436
0000a0 a0 0d 65 bc 69 72 fd 3d 6e e2 63 bb 79 c0 15 3e
       -0.013980299 0.12375338 -0.0034772414 0.14624204
0000b0 3b 49 82 bc e6 b4 fd 3d a6 09 86 bd c2 b5 6c bd
       -0.01590406 0.12388019 -0.06544809 -0.057790525
0000c0 15 61 10 3e 29 21 07 be 9b 6c d7 3c 98 e8 da 3c
       0.14099534 -0.13196243 0.026296904 0.026722237
0000d0 07 79 1d 3e a0 98 0d 3c 3b a7 d6 bd 32 3c e5 bd
       0.153782 0.008642346 -0.104811154 -0.11193122
0000e0 95 31 fc 3d 04 e4 59 3d d3 b2 01 be fa 72 59 bd
       0.123141445 0.05319597 -0.12665872 -0.053088166
0000f0 9d ea 81 bd b6 55 c2 bd 5d 1e b2 bd 63 7c 25 be
       -0.06343577 -0.09489004 -0.086971976 -0.16160731
000100 bc 1f 44 bd 90 3f 01 3c f7 dd 1f be 82 90 11 3e
       -0.047881827 0.00788869 -0.15612017 0.14215282
000110 ba bc fd 3d 52 27 b6 3d c0 3c 37 bd 95 6e e3 bc
       0.12389512 0.088942185 -0.04473567 -0.02776269
000120 1b 5e aa bd b8 c2 b6 bd 12 62 cc 3d 11 2e 4e bd
       -0.083187304 -0.089238584 0.09979643 -0.0503369
000130 80 79 04 be 8d e9 19 3d 7c 1a eb bd 78 a2 30 3d
       -0.12936974 0.037576247 -0.11479661 0.043123692
000140 dd 32 23 be 37 84 d0 bd 76 34 0a 3e 4d 23 02 be
       -0.15937372 -0.10181468 0.13496575 -0.12708779
000150 22 ea b4 bd c2 38 ce bd ec 82 45 3d 43 77 22 be
       -0.0883372 -0.100694194 0.04822056 -0.15865807
000160 36 91 08 3e 52 67 f0 3d 23 5f 56 bd 7f 94 09 3e
       0.13336644 0.11738457 -0.052336823 0.13435553
000170 64 b6 da bd 5f 52 05 3e e7 4a 0b 3e e4 6b a1 3d
       -0.106793195 0.13019703 0.13602792 0.07881907
000180 5f e5 f0 bd e0 1f 28 be 0c 71 0b be 60 82 ed bb
       -0.11762499 -0.1641841 -0.13617343 -0.007248208
000190 fe 3b 59 bd b6 db 47 3d 33 b7 c3 bd 51 23 9c bd
       -0.05303573 0.048793517 -0.09556427 -0.076239236
0001a0 28 74 e6 bc b4 f3 04 3e 1e b3 c9 3d 6e c4 b8 bd
       -0.02813156 0.1298359 0.09848617 -0.09021841
0001b0 2e 87 95 3d f9 b8 8d bd 2d de 06 3e 8a 6b f7 bd
       0.07301174 -0.06920046 0.13170691 -0.12081058
0001c0 63 44 13 be e3 80 82 3d 33 1a 47 3d 81 97 06 be
       -0.14381556 0.063722394 0.04860897 -0.13143732
0001d0 ad 24 03 be a5 05 12 be e0 34 0d bc 7d c8 b6 bd
       -0.1280696 -0.14259966 -0.008618563 -0.08924959
0001e0 4f d7 f8 bd 10 46 98 bc d5 9d 8c bd 19 82 17 be
       -0.12150442 -0.018588096 -0.068660416 -0.14795722
0001f0 9c 8d c3 bd cb 62 1d 3d a0 89 8a 3b 3a c7 e3 3d
       -0.09548494 0.038424294 0.004227832 0.11121984

weight f4 [64, 128]
000000 07 98 ac 3d b0 5b 79 bc 2b 84 36 bd e8 be 8e bc
       0.084274344 -0.015219614 -0.04455964 -0.017425016
000010 b2 30 06 bd 51 bc 52 3d 80 dc ed 3a a0 72 b0 bd
       -0.032761283 0.051449124 0.0018147379 -0.08615613
000020 16 26 4b bd 28 a8 aa bc 1b 3c b8 bc f5 68 3b bd
       -0.04959687 -0.020832136 -0.022489598 -0.04575439
000030 97 2b aa bd 71 f7 4b 3d f1 86 88 3d 9a 65 00 bc
       -0.08309095 0.049796525 0.06666363 -0.007836724
000040 69 3c 8b bd 98 f8 8b 3d 96 92 36 bd 14 2d 96 3c
       -0.06798632 0.06834525 -0.04457339 0.018332042
000050 22 35 82 bc 48 44 3d 3c d2 a8 5a 3d 91 ac 8f bd
       -0.015894476 0.011551924 0.053383656 -0.07015336
000060 92 e0 1d bd 32 74 5e 3b e2 66 76 3d 60 7f ce bc
       -0.038544245 0.003394377 0.06015671 -0.025207222
000070 f7 49 c8 bd 11 57 93 3d b0 2a 7f bd 97 20 b3 bd
       -0.09779733 0.07194341 -0.06229657 -0.087464504
000080 bb 95 9c 3d 86 55 f8 ba 52 a8 97 bd 65 e6 9f 3d
       0.07645746 -0.0018946386 -0.074051514 0.07807616
000090 28 ab 25 3c 5f 64 a9 bd 12 03 9e bd e2 bc 3b 3d
       0.010111608 -0.082710974 -0.07715429 0.04583443
0000a0 7e 7d 64 3d 97 a1 8d bd 10 74 c3 bd d1 84 db 3b
       0.05578374 -0.069155864 -0.095436215 0.0066991826
0000b0 bb 2c af bd 5d 7c 99 bd c0 98 9a bc 26 75 a4 bd
       -0.085534535 -0.074944235 -0.018871665 -0.08030157
0000c0 93 37 21 bd 33 64 f0 3c 12 f5 be bc 00 91 3b 3c
       -0.03935964 0.029344654 -0.023310218 0.011448145
0000d0 69 a6 af bd 7f 8e a3 3d 81 a1 28 bc 1b 21 56 3c
       -0.08576662 0.07986163 -0.010292412 0.013069416
0000e0 9b 3b 79 bc 44 4d 5c 3d 8e 92 79 3d 50 40 d0 3b
       -0.015211965 0.053784624 0.06093078 0.006355323
0000f0 2b ce 8f 3d 7c 9d 86 3c fc 50 c1 3c ee 6d dd bc
       0.07021745 0.016432516 0.023598187 -0.027029958
000100 2b 4a 5a 3d 5c 7a a9 bd bd 50 51 3b 0f d3 08 3c
       0.05329339 -0.08275291 0.0031938993 0.008351102
000110 81 8f 95 3d 6c d8 b4 bc b5 5f d4 bc 4b 90 a9 bd
       0.07302762 -0.022075854 -0.025924543 -0.08279475
000120 9b 20 15 bd 40 98 4c 3b 6e 17 9b 3d c7 f9 ab 3c
       -0.036408048 0.0031218678 0.07572828 0.020993127
000130 3c 1a 89 bc 30 c5 b8 bd c2 a0 78 bd f4 dc da bc
       -0.016736142 -0.090219855 -0.060700186 -0.026716687
000140 45 b1 49 3d ac 28 5a bd eb e0 06 bd 33 cc aa 3d
       0.049241323 -0.053261444 -0.032929342 0.08339729
000150 67 32 07 3d e3 13 b0 bc 48 12 32 bc d8 99 16 3d
       0.03300705 -0.021493858 -0.010868616 0.03676781
000160 92 ec 1d bd 51 35 a2 3d de db 1b bd 08 6c 22 bd
       -0.03855569 0.079203255 -0.03805148 -0.039653808
000170 53 ac 86 3d 4e 8f af bd f8 f4 4d 3c 72 67 be bd
       0.06575837 -0.08572255 0.012570612 -0.092970744
000180 95 c3 88 bd 66 c6 9c bc 27 ca 2c 3c ce 65 02 3d
       -0.06677929 -0.019137572 0.010546244 0.03183537
000190 4d 14 23 bd 25 f4 00 3d d9 67 11 bd 8a 9a 73 3d
       -0.039814282 0.031482834 -0.035499427 0.05947355
0001a0 8c b3 bc 3c 4d 6e 2c 3d 2b 28 9f 3d a3 68 9d 3d
       0.023034833 0.04209738 0.07771333 0.076859735
0001b0 46 95 4b 3d 82 ad 4f bd 9d 7b ae bd 00 92 04 3b
       0.049702905 -0.05070258 -0.08519671 0.0020228624
0001c0 40 d7 92 ba 04 80 60 3d e9 9f 4c bd 08 d8 7c 3d
       -0.0011203066 0.054809585 -0.04995719 0.06172946
0001d0 90 d1 34 bc e2 73 7e 3c cf 6a a1 3d 1a 9e 82 3c
       -0.011036292 0.015530558 0.078817 0.01594453
0001e0 4e 05 43 3d 15 98 70 bd 50 c1 b5 bd 40 e9 d5 ba
       0.04761248 -0.058738787 -0.08874762 -0.0016320124
0001f0 a0 90 9c bd 7f a3 9d 3d 17 45 6d bd 9d 10 af bd
       -0.076447725 0.076972 -0.057927217 -0.085480906
000200 18 2b 8f bc 3d 93 5e bd b1 78 8a 3d 76 c3 75 3d
       -0.017476603 -0.054339636 0.06761301 0.06000086
000210 65 aa 9a 3d 15 64 3a bd 52 f2 45 bd 20 0d 76 bc
       0.075520314 -0.045505602 -0.048326798 -0.015017778
000220 58 73 36 3c f0 7f 67 bc 9d 55 a4 bd 94 0a a6 3c
       0.0111358985 -0.014129624 -0.08024142 0.020268716
000230 83 32 62 bd 0a af ab bd 96 48 06 bd 71 cc c1 bd
       -0.055223953 -0.083829954 -0.032784067 -0.09462822
000240 83 b0 ae bc 74 35 bc bc 60 93 f2 bc ec 5c a4 3c
       -0.021324402 -0.022974707 -0.02961129 0.02006384
000250 fa 0c 78 bd bf 9a 34 bd 38 f9 45 bc be d0 49 3d
       -0.06055925 -0.04409289 -0.012083344 0.049271338
000260 02 81 6b 3d ad 1b 05 3b 08 b8 95 3c 0c 22 cc bc
       0.05749608 0.0020310686 0.01827623 -0.024918579
000270 15 f9 56 3d 00 a0 75 bb 39 37 4e bd da 8d 7f bc
       0.052483637 -0.00374794 -0.050345633 -0.015597785
000280 35 4f 61 bd 85 d5 b7 bd de e4 94 bd 0e e8 46 bc
       -0.05500718 -0.089762725 -0.072702155 -0.012140287
000290 84 c4 8d 3c 05 20 91 3d b6 ec 7c 3d dc 03 e7 bc
       0.01730562 0.07086185 0.061749183 -0.028200082
0002a0 a5 12 4b bd 09 1c 5f 3d b2 f6 51 bc 2f b4 56 bc
       -0.049578328 0.054470096 -0.012815164 -0.013104483
0002b0 f9 b8 56 3d 68 14 89 3d 79 e3 25 bd a0 81 f7 bc
       0.052422497 0.06693345 -0.040500138 -0.030213177
0002c0 07 1e 7c bd 94 39 88 bd 08 f4 05 bd 57 78 9a bd
       -0.061552074 -0.06651607 -0.03270343 -0.07542484
0002d0 af 4a 93 3d 49 1f 82 3d bc b1 9d 3d b3 19 72 3d
       0.07191979 0.063536234 0.07699916 0.05910654
0002e0 0f ca 2c bc 1a fa 33 bc f3 55 02 3b 58 c8 be bc
       -0.010546221 -0.010984922 0.0019887656 -0.02328889
0002f0 d4 6e ea 3c 3e d4 b4 bd a6 10 4c bd 9c c0 55 3d
       0.0286173 -0.088295445 -0.049820565 0.05218564
000300 a8 db bc ba 4f a9 81 3d 32 ee 3f bd 6b 34 24 3d
       -0.0014408724 0.06331121 -0.04685802 0.040089052
000310 20 de 4a 3b af 1f b2 3d fb 72 9e 3c 5b 86 82 3d
       0.003095515 0.086974494 0.019341936 0.063732825
000320 4e 7c 05 3d 84 50 ba bc fb 3a b7 bd a0 e5 0e 3d
       0.03258925 -0.022743471 -0.089467965 0.034886956
000330 52 46 bc 3c 45 56 37 3d 55 56 1c bd c8 98 8d bc
       0.02298275 0.044760007 -0.03816827 -0.017284766
000340 ba 54 18 bd 04 d1 0d bd 1d 29 62 3d e4 8f a3 bd
       -0.037190177 -0.03462316 0.05521499 -0.07986429
000350 8b fd 8b 3d a4 d8 d3 3c c0 78 c4 bb db f0 aa 3c
       0.06835469 0.025860138 -0.00599584 0.020866802
000360 45 08 1c 3d e9 ba 8a 3d de 15 23 3d ff 36 b4 3d
       0.038093824 0.067739315 0.039815776 0.08799552
000370 d0 b1 a9 bc 91 81 97 3d 96 4b a0 bd 12 21 4a bc
       -0.02071467 0.0739776 -0.07826917 -0.012336986
000380 ce 98 18 3d fb 9c 39 bd b7 f3 a2 3d e8 3e 84 bc
       0.0372551 -0.045315724 0.07956641 -0.016143277
000390 13 63 24 bd 72 9b 20 3d 71 a0 c7 3c 1d b1 9f 3d
       -0.040133547 0.039210744 0.024368497 0.077974536
0003a0 aa f3 93 bd 2c b3 ba bd de 7f 53 3d f8 c2 4b 3c
       -0.072242096 -0.091162056 0.051635616 0.012436621
0003b0 d4 78 92 3c 25 24 9e 3b a5 f3 58 bd c8 44 ab 3c
       0.017879881 0.004826086 -0.052966733 0.02090682
0003c0 41 e3 81 bd 88 4c 84 3d 74 dd 9a 3d 0e 18 9d bd
       -0.06342173 0.0645991 0.0756177 -0.07670604
0003d0 b0 39 27 bc 86 0b 36 bc 68 3c cb bc 08 f0 0b 3d
       -0.010206625 -0.011111146 -0.024809077 0.03416446
0003e0 54 7e 06 bd c6 fa 5f 3d a5 fb 93 bd b0 f7 61 bd
       -0.03283532 0.054682516 -0.07225732 -0.055167854
0003f0 a1 75 48 bd 07 92 b9 bd ad da 9a bd 3b 98 a8 3d
       -0.048940305 -0.09061056 -0.0756124 0.08232161

bias f4 [64]
000000 c4 3d 37 3c 0a 3b df 3c 35 8b 83 3d 9f 4d 67 bb
       0.01118416 0.027249832 0.06423036 -0.0035294069
000010 c8 7e 6a 3d 3e 4f 15 3d ee 37 3c 3d ac 0b 49 bd
       0.057249814 0.036452524 0.045951776 -0.049083397
000020 64 7a 76 bd 0f f5 9e 3d 58 20 e8 3c d6 a4 3f bb
       -0.060175315 0.07761585 0.028335735 -0.0029242537
000030 72 83 80 bd 14 78 88 bd 9f 9f f6 bb f0 0d 0f bc
       -0.06275071 -0.06663528 -0.0075263525 -0.00873135
000040 a8 1c b2 bc c0 da fc 3a 0c 8a 86 3c b6 26 e7 3c
       -0.02174218 0.0019291267 0.016423248 0.028216701
000050 53 55 9c bc 45 81 38 bd 8c b0 d6 bc 84 83 10 3d
       -0.019083655 -0.045045156 -0.026207231 0.035281673
000060 15 53 96 3d dd 74 09 bd 1b f9 9b bd 69 6d a5 3d
       0.073400654 -0.033558715 -0.076158725 0.08077509
000070 36 bb 52 3d 82 89 93 3d 2e 46 07 3d e7 ce 9a 3d
       0.05144807 0.07203962 0.033025913 0.07558995
000080 45 35 52 bd 7b 6f b1 3d 8e 27 8d bd 2c b7 80 bc
       -0.051320333 0.08663841 -0.0689231 -0.015712343
000090 78 d8 fa 3c 19 65 b0 3c 40 e1 9a bc f6 9e e2 3c
       0.030620798 0.021532582 -0.018906236 0.02766369
0000a0 31 12 d1 bb f9 81 73 bd 0c c5 81 3d 70 2d 6b 3d
       -0.0063803424 -0.059450123 0.06336412 0.05741638
0000b0 28 40 a4 bd 27 36 d4 3b 3f a1 9c 3d 55 3d 3b 3d
       -0.08020049 0.006476182 0.07647943 0.045712788
0000c0 6e 44 0d bd d6 b7 55 3d 1c a1 db 3c eb fb a5 3d
       -0.034489088 0.052177273 0.026810221 0.0810469
0000d0 17 d4 a1 3d 3a e8 99 3d d1 d8 6c bd 7a 68 6e 3d
       0.07901781 0.07514997 -0.05782396 0.058205105
0000e0 6b 8f a2 3d 2d 44 8b 3d 70 db 91 3d 31 b5 9d 3d
       0.07937511 0.06800113 0.071219325 0.07700575
0000f0 d0 06 cd bc fb e6 83 bc d4 81 88 bd 44 8d 45 bd
       -0.025027663 -0.016101351 -0.06665388 -0.048230425

weight f4 [32, 64]
000000 cf 1f a9 bc 4d fc 8d bc 04 0f 8e 3d d1 5f 14 3d
       -0.02064505 -0.01733222 0.06936458 0.03622419
000010 8c 79 81 bd 90 18 2b 3d 91 35 19 3d a2 ef 86 bd
       -0.06322011 0.04177147 0.0374046 -0.06588675
000020 90 40 fa 3d 84 73 4e bd 64 79 e5 bd be 4b 2f bd
       0.122193456 -0.050403133 -0.11204794 -0.042796843
000030 6a d0 ba 3d 08 96 1d bd e0 42 60 bd 46 35 b7 3d
       0.09121783 -0.03847316 -0.054751277 0.08945708
000040 c4 bf f9 bc f4 ca f9 bd 34 97 ce bd c0 b7 3b bc
       -0.030486949 -0.12196913 -0.100874335 -0.011457384
000050 ad ae e7 bd f8 c1 84 3d 10 16 48 bd 1f f7 23 bc
       -0.11312614 0.06482309 -0.048849165 -0.010007649
000060 9c f7 77 bd cb 2a db bd 56 a8 a8 3d c0 88 28 3b
       -0.060538873 -0.107015215 0.082352325 0.0025716275
000070 7c 3e f8 bd bb 7b c7 bd 80 5e 37 bb 78 99 33 3d
       -0.12121293 -0.097403966 -0.002797991 0.04384753
000080 54 8f 8f 3d 44 f2 9d 3d 2d 2a 90 3d 44 ca 0e 3d
       0.070097595 0.07712224 0.070392944 0.034860864
000090 d2 51 83 3d 33 29 e3 bc 40 6b 34 bd 9d 55 59 bd
       0.0641209 -0.027729606 -0.044047594 -0.053060163
0000a0 c7 5c 03 bc 97 f1 00 be 1c 2d fb 3d cc f1 65 3c
       -0.008017725 -0.12592159 0.12264463 0.0140347
0000b0 42 60 cb 3b 50 02 c2 3d 00 e0 0d b8 1e 7a 8c 3c
       0.006206543 0.09473097 -3.3825636e-05 0.017148074
0000c0 9a a5 86 3d b8 37 70 3d e0 e3 05 3d 94 11 e8 bd
       0.06574555 0.058646888 0.03268802 -0.11331478
0000d0 00 69 a2 bc 3f 89 b1 bd e2 74 d2 3c 06 fb f3 bc
       -0.019825459 -0.08668756 0.0256905 -0.029782783
0000e0 84 d0 f9 bd 36 59 91 3d 86 69 8b bd f0 62 8f 3d
       -0.12197974 0.07097094 -0.068072364 0.07001293
0000f0 c6 81 86 bd d7 90 02 be 0c 3a ce bd 79 81 af bc
       -0.06567721 -0.12750565 -0.10069665 -0.021424042
000100 10 3c 6c bd 10 60 bb 3c 74 56 61 bd 56 d2 bc bd
       -0.057674468 0.022872955 -0.05501409 -0.09219806
000110 38 f7 05 3d 4e eb 87 bd 5c f2 7e 3d ec bb 2b 3d
       0.03270647 -0.06636678 0.06224285 0.041927263
000120 9c b0 e0 bd ae d0 f1 bd 28 2d e4 3c 0a 14 b7 bd
       -0.109711856 -0.118073806 0.027853563 -0.08939369
000130 30 f6 9e 3c 46 50 fd bd 50 b5 79 bd d8 e1 a6 3c
       0.0194045 -0.123688266 -0.06096393 0.020371363
000140 e8 b1 c2 bd 00 93 8b 3c a0 bb cb bd e2 ab e0 3d
       -0.09506589 0.017037868 -0.09947896 0.10970284
000150 70 23 15 bd c0 02 5e bc b0 4c 24 3d 6c be d2 bd
       -0.03641075 -0.01355046 0.040112197 -0.10290226
000160 76 9a cb bd 4a 14 fc bd 6e 09 d1 bd d0 6d b1 bd
       -0.099415705 -0.12308557 -0.10206877 -0.08663523
000170 be 4d df 3d 60 75 6a 3c 74 5c 06 bd 00 ff a4 bd
       0.109035 0.014310211 -0.032803014 -0.0805645
000180 26 07 ab bd c0 d4 71 3d 9e aa c7 bd dc 48 96 3d
       -0.08350973 0.059040785 -0.097493395 0.073381156
000190 80 2a 7c bc 48 17 a3 bd 50 a5 c9 bd 00 fa 83 3d
       -0.015390992 -0.07963425 -0.09845984 0.06444168
0001a0 34 34 d9 3d 86 10 b0 bd d8 e9 be bc 22 85 b0 bd
       0.1060566 -0.085969016 -0.023304865 -0.08619143
0001b0 ba 23 c8 bd f0 40 09 bd 48 cb 19 3d 46 e7 cf bd
       -0.09772439 -0.033509195 0.03754738 -0.10151534
0001c0 00 3d 2c 3c a6 92 c6 bd 72 00 e7 bd 10 37 0f 3c
       0.01051259 -0.0969594 -0.11279382 0.008741155
0001d0 d0 2a 64 bd 28 23 cb bd 70 4a ff 3c 06 f8 fd bd
       -0.05570489 -0.09918815 0.031163424 -0.12400822
0001e0 16 04 b9 3d e8 c4 a9 3d 00 a0 d2 39 de 64 81 3d
       0.090339825 0.0828951 0.0004017353 0.06318067
0001f0 a2 15 91 3d 74 a6 f4 3d e8 b8 d7 bd 3c 6e 8d bd
       0.07084204 0.11945811 -0.10533315 -0.06905791
000200 0c 3d c8 3d 9b f2 14 bd 24 13 a0 bd aa 27 a2 bd
       0.09777269 -0.03636418 -0.07816151 -0.079177216
000210 ce d8 cf 3d 20 cb 17 bc 40 4f 73 3b 90 c1 a6 3d
       0.10148774 -0.009264737 0.0037126094 0.08142388
000220 c6 2a cd bd 70 2a 46 3c 30 bf 88 bd 4a 38 e0 bc
       -0.10017924 0.012095079 -0.06677091 -0.02737059
000230 3c a1 f3 3d 76 26 d3 bd 7b 9b 51 3d 68 75 f3 bd
       0.118959874 -0.1031007 0.05117367 -0.11887628
000240 9c 1c fb bd 14 b5 41 bd 80 a7 3d 3c fd 02 03 3c
       -0.12261316 -0.04729183 0.01157558 0.007996318
000250 e8 a4 ba bd eb a1 a7 bd c0 79 46 bb 64 44 fe 3c
       -0.091134846 -0.0818518 -0.003028497 0.03103847
000260 af 2c f4 bd 54 59 3e 3d a6 ae c7 bd b4 15 8b 3d
       -0.11922585 0.04647191 -0.097501084 0.06791249
000270 64 1f d5 3d 0c 72 6f bd d0 ea a1 bd 1c b2 ec bd
       0.10406378 -0.058458373 -0.07906115 -0.11557409
000280 56 b1 d0 3c 30 48 01 bd 4d 09 85 bc d8 74 05 3d
       0.025475185 -0.031562984 -0.016239787 0.032582134
000290 90 ff ca bc c8 ee 6e 3d 50 6d bd 3d 2c 16 8e bd
       -0.024780065 0.05833319 0.09249365 -0.06937823
0002a0 b9 92 87 bd f0 06 85 bc 30 b7 23 bd 2e 7b ed 3d
       -0.06619782 -0.01623866 -0.039969623 0.1159576
0002b0 6b 88 6b 3d e5 38 e5 3c 10 c2 63 3d e6 33 cb 3d
       0.057503145 0.027981231 0.055604994 0.09922008
0002c0 0c f3 af bd ee 18 ab bd 30 6a 2d 3d 88 75 12 bd
       -0.085912794 -0.08354364 0.042337596 -0.035756618
0002d0 b0 e3 a8 bc 72 41 bc 3d d8 1f ff bd 3e 39 91 bd
       -0.020616382 0.0919217 -0.124572456 -0.07090996
0002e0 60 d3 af bb 8c 5a 63 3d 50 e7 1c 3c 0c b0 c7 3d
       -0.005365774 0.055506274 0.009576634 0.09750375
0002f0 20 e1 03 3c 48 46 c6 bc 94 ca 01 bd 0f cc dc 3d
       0.008049279 -0.024203435 -0.031687334 0.107811086
000300 f1 bd d1 bd 3f f5 d2 3d 98 fa 01 3d a6 1a d6 bd
       -0.102413066 0.10300683 0.031733125 -0.104543015
000310 38 83 04 3d b8 48 2c bd 94 b4 9f 3c 1c e9 d0 3d
       0.032351702 -0.042061538 0.019495286 0.10200712
000320 6e b3 53 bc c8 0f 80 bd a4 c4 5e bd 85 0a 17 3d
       -0.012921197 -0.0625301 -0.05438675 0.036875267
000330 b8 e9 5d bd d8 f8 57 bd 96 38 35 3d 14 d7 d5 3d
       -0.05417797 -0.05272755 0.044243418 0.104414135
000340 ba 8d c6 bc 80 0b 2f 3c 90 16 1c 3c 24 2f 5d 3d
       -0.024237502 0.010683894 0.009526864 0.054000035
000350 ae 7a 7e bc 32 c0 dc bd 86 a7 8e 3d 65 65 b1 bd
       -0.015532179 -0.10778846 0.06965546 -0.086619176
000360 b7 6b 82 3d da 31 c5 3d ee da 94 3d 76 9d df bd
       0.06368201 0.09628649 0.0726832 -0.10918705
000370 60 bb 9e 3b 60 5f 90 bb d8 b5 b4 3d 4c 0d 1b bd
       0.004844114 -0.004405901 0.088237464 -0.037854478
000380 a0 22 db 3d 3c b7 0a 3d 8c 78 dd bd fa 8e fa bd
       0.106999636 0.033866152 -0.10814008 -0.12234302
000390 00 24 37 bb 56 9e 91 bd ee b9 c4 bd 52 01 20 bd
       -0.0027945042 -0.07110278 -0.09605776 -0.03906376
0003a0 20 9d 56 bd 42 ca 9a bd e6 11 76 bd d5 8a 02 be
       -0.05239594 -0.07558109 -0.060075663 -0.12748273
0003b0 70 e6 e3 3d d6 01 f6 bd 60 d2 48 3d cd 58 58 bd
       0.11127937 -0.12012069 0.049028754 -0.052819062
0003c0 de e0 5e bb 10 1c aa 3d f8 0b e4 3c 76 39 83 bd
       -0.0034008543 0.08306134 0.027837738 -0.06407444
0003d0 54 a7 d8 3d 36 73 a8 bd 9e fd 85 bd e8 77 8c bd
       0.1057879 -0.082251 -0.06542514 -0.06858808
0003e0 18 67 da 3c 78 ea e6 3c 9f 89 8e 3d c0 64 52 bb
       0.026660487 0.028187975 0.06959843 -0.0032103509
0003f0 46 d4 fe bd c6 01 6b 3c 0e 1f dd 3d 5f 37 ae bd
       -0.12442832 0.014343685 0.10796939 -0.08506655

bias f4 [32]
000000 67 4f b9 3d 70 b8 a2 bd 52 33 87 3b 14 7a b3 3b
       0.09048348 -0.07945335 0.004125991 0.0054771993
000010 ea 61 d2 bd 7a 2f 12 bd cb 62 da bc cb a7 d7 bb
       -0.10272582 -0.03568981 -0.026658436 -0.006581282
000020 82 a1 fd 3c 68 71 12 bd 0e 3c e5 bd fd 4c cb bd
       0.030960802 -0.035752684 -0.11193095 -0.09926794
000030 b5 41 a4 3d fd e3 de 3d eb 72 d2 3d fa b7 84 3c
       0.08020345 0.10883329 0.10275825 0.016201008
000040 49 cf 7e bc 95 df e0 3d fc b6 fa bd 81 6a 83 bd
       -0.01555235 0.10980145 -0.12241933 -0.064167984
000050 70 d2 e3 3d 28 8f dd 3d a8 c2 59 bd 4f 6d d3 3c
       0.11124122 0.108183205 -0.053164154 0.025808958
000060 70 b8 5a 3d d1 5b ef bc 84 29 0a bd c2 90 85 3d
       0.05339855 -0.029218586 -0.033731 0.06521751
000070 8f f9 9f bd bf 4a 52 bd b8 1e 69 3d 58 40 b5 3c
       -0.078112714 -0.051340815 0.05691406 0.022125408

weight f4 [8, 32]
000000 cc f1 09 3d c8 3c 7a 3d 8c 48 34 bd ea fd 14 be
       0.03367786 0.06109312 -0.0440145 -0.14549986
000010 e1 2c 04 3e 4e 7d 94 3d 40 eb dc 3b 38 c3 22 bd
       0.12907745 0.072504625 0.006741911 -0.039736956
000020 12 2c ac bd 4d 77 18 bb 41 97 e6 bd b9 13 e5 3d
       -0.08406843 -0.0023264468 -0.11259318 0.111854024
000030 c6 d1 d8 3d 44 6d 3a 3c 56 ef b1 bd f5 57 a8 3c
       0.10586886 0.01137859 -0.08688228 0.020549754
000040 f2 14 cc 3d 54 5b 0a bd 42 0c e3 3d ab 2e 23 3e
       0.099649325 -0.033778504 0.11086322 0.15935771
000050 78 0f 88 bc 28 7a d7 3c b0 8d d1 3b 93 d3 11 3e
       -0.016608939 0.026303366 0.0063950643 0.14240865
000060 92 91 02 be d0 7b 86 3d 88 b6 db bd 20 ca 14 3d
       -0.12750843 0.06566584 -0.107281744 0.036325574
000070 8b 23 1b 3c de 6a 3b be ff 1b 03 3e 60 87 a5 3b
       0.009468923 -0.18302485 0.12803648 0.0050515383
000080 8b 1c fa 3d 50 49 19 3d 43 7b b8 bd b9 9e 0e 3e
       0.122124754 0.037423432 -0.09007885 0.13927735
000090 c5 60 e6 bd be 59 9a bd 42 f8 ce bd 02 97 8c 3d
       -0.11248926 -0.07536648 -0.10105945 0.0686474
0000a0 7c 22 ed bd 37 e7 19 3e 04 74 3f be 4c 62 9d bd
       -0.11578843 0.15029608 -0.186966 -0.07684764
0000b0 bf 1b 21 3d 8d 39 3a 3d d4 21 e2 3d a3 26 18 be
       0.0393331 0.04546504 0.110416085 -0.14858489
0000c0 81 bc b3 3d 73 ad 0e bc e8 1a 79 3d b8 26 2b 3c
       0.08776189 -0.008708346 0.060816675 0.010446243
0000d0 96 61 1d be b9 ad f9 3d 97 1a ba 3d a7 40 01 3e
       -0.15369257 0.12191338 0.09087103 0.12622319
0000e0 01 ef 82 bd 18 2f 15 3e d4 d6 46 3d ab e2 9a bd
       -0.063932426 0.14568746 0.04854472 -0.07562765
0000f0 79 89 8d bc 3b 1a 3c 3c 00 d4 85 b9 19 6e a4 bd
       -0.017277466 0.011480863 -0.0002552569 -0.08028812
000100 43 a2 0a 3e 0c 68 71 bd 1c 57 29 be 3e c0 71 bd
       0.1353846 -0.058937117 -0.16537136 -0.059021227
000110 cc dd 0b be 5b c6 bf bd e0 1d d1 bb 42 51 07 be
       -0.13658828 -0.09364005 -0.006381735 -0.13214591
000120 94 92 09 3d 6c 79 80 3d e4 55 23 bd a0 4e bd bd
       0.033587053 0.062731594 -0.039876834 -0.09243512
000130 90 bc 51 3d a8 29 82 3c 83 1b b3 bd ca 2d 6b bd
       0.051205218 0.015889004 -0.08745482 -0.057416715
000140 b0 73 88 bc 9e e9 83 bd a5 66 01 3e 86 07 df 3d
       -0.016656727 -0.06441043 0.12636812 0.10890107
000150 f2 01 b3 3d f4 35 04 be 74 e3 ec bd e2 84 93 bd
       0.087406054 -0.12911206 -0.11566821 -0.0720308
000160 5c df bd bd 00 71 4d bc 80 d6 6e 3b 46 b5 e9 3d
       -0.09271118 -0.012539148 0.003644377 0.11411528
000170 97 2f c1 bd 00 39 dc 3a b0 0b c8 bd d4 af 91 bd
       -0.09432905 0.0016801655 -0.09767854 -0.07113615
000180 b4 09 18 3d 10 f7 11 be 24 fa 29 bd 96 22 73 bd
       0.03711863 -0.14254403 -0.04149832 -0.059359156
000190 6b 2c 08 be 78 74 97 3c fc 08 30 be 44 3a 85 3d
       -0.13298194 0.018488154 -0.17190927 0.06505254
0001a0 05 30 02 be da b0 08 be ca 92 bf 3d 80 d9 ae 3c
       -0.1271363 -0.13348714 0.0935417 0.021343946
0001b0 cd 67 21 be 68 ef 90 bd 0c b0 64 bd 28 49 a4 bc
       -0.15762253 -0.07076913 -0.055831954 -0.020054415
0001c0 38 9d f5 3c 9f f8 29 be 5a f5 6f bd 4d 56 24 3e
       0.029982194 -0.16598748 -0.058583595 0.16048546
0001d0 7e 06 83 3d 50 30 87 3d 7d c9 bc bd 88 60 aa bd
       0.06397723 0.06601012 -0.09218118 -0.08319193
0001e0 1a 30 0f be b1 c7 31 be 48 77 b5 bd fd 85 d8 bd
       -0.13983193 -0.17361332 -0.08860642 -0.10572431
0001f0 5c ad 44 bd ca bf a5 3d 30 41 55 3d a8 9d e6 bc
       -0.04801689 0.080932215 0.05206412 -0.028151348
000200 85 28 d6 bd 70 f5 b2 bd a2 0f e9 3d 2c 62 6c 3d
       -0.10456947 -0.0873822 0.11379935 0.05771081
000210 40 d7 36 bb 6a 03 0c be 30 b7 7a 3c 28 44 67 3d
       -0.0027899295 -0.13673177 0.015302464 0.056461483
000220 6e 60 f9 3d 80 ae a4 ba c9 02 25 be 8e d9 c0 bd
       0.12176596 -0.0012564212 -0.16114344 -0.09416495
000230 50 f1 16 3d a1 47 f6 bd 51 74 0b 3e 8e 45 fe bd
       0.036851227 -0.12025381 0.1361859 -0.1241561
000240 ca dd 0b be 9f 2e b8 bd 32 2b 8a 3d 1c 5b 21 be
       -0.13658825 -0.08993267 0.0674652 -0.15757412
000250 00 f5 a9 bb 60 23 e7 3b 77 dd d1 bd d4 4d 39 bd
       -0.005186677 0.0070537776 -0.10247319 -0.04524024
000260 a8 7f e1 bc 00 38 36 bc 27 5d 19 3e dc c3 2d bd
       -0.027526692 -0.01112175 0.14976941 -0.042423114
000270 46 b1 f6 bd 04 b7 e8 bd a8 eb 8e 3c 6e d3 0b be
       -0.12045531 -0.113630325 0.017446354 -0.13654873
000280 b4 7f 2c be 6e 5e b3 bd 00 17 f9 3a 6c f3 ba 3d
       -0.1684559 -0.087582454 0.0019004047 0.0912846
000290 5c 28 e1 bd e3 b5 fa bd f6 39 9e 3c 12 a9 ca 3d
       -0.10994026 -0.122417234 0.019314747 0.09895529
0002a0 9a ed 94 3d 9e 98 80 3d 8d 4b be bd 76 54 10 3e
       0.072718814 0.062791094 -0.09291754 0.1409472
0002b0 e1 06 b4 bd 95 db c2 bd 41 bc 10 3e 0b e8 ea 3d
       -0.087903745 -0.09514538 0.14134313 0.1147004
0002c0 e2 2b 03 be f5 c9 2a bc 06 c5 f6 3d 8c 2a ad bd
       -0.12809709 -0.010424127 0.12049298 -0.08455381
0002d0 78 0b ee 3c 68 09 80 bc f6 18 ca 3d 09 02 ae bd
       0.029058203 -0.015629485 0.09868042 -0.08496482
0002e0 00 f2 4d 3b 83 62 b7 3d bf 27 31 be 1a 53 e0 bd
       0.003142476 0.089543365 -0.17300318 -0.1095335
0002f0 e0 43 15 be bb c4 41 be 6c df 38 3d c0 89 d6 bb
       -0.14576674 -0.18922703 0.045134947 -0.006547183
000300 ff 42 0a bd 40 d1 f2 bd d5 f2 97 3d db 50 a3 bd
       -0.0337553 -0.118563175 0.074193634 -0.07974406
000310 a0 64 94 3d ed 9a de bd 20 52 cb 3d 64 1e b6 bd
       0.07245755 -0.108693935 0.099277735 -0.08892515
000320 78 09 a9 3d ef d0 14 3e ab ea 0f be 81 61 28 3e
       0.08253759 0.14532827 -0.14054362 0.16443445
000330 c8 3a 8c 3d 50 eb 9d 3c 44 f7 01 be e0 2e ee bb
       0.06847149 0.019277245 -0.1269198 -0.0072687715
000340 a0 50 ee 3b d3 2f 9a bd 4a 1a b0 bd 68 ae 1e be
       0.007272795 -0.07528653 -0.08598764 -0.15496218
000350 e0 6a a1 bc fd 33 06 3e 5a ce 2c be 00 f0 18 be
       -0.019704282 0.1310577 -0.16875592 -0.14935303
000360 ca 91 b9 3d 4d aa 17 be 32 6f e4 3d db f4 0a 3e
       0.0906101 -0.14811058 0.11154021 0.13569967
000370 5f c9 db 3d 8c ba e1 3d c4 23 a6 bd 3c 45 3d bd
       0.10731768 0.11021909 -0.081122905 -0.046208605
000380 01 8e ac bd d8 68 f0 3c f2 41 2d be 84 73 2c be
       -0.084255226 0.029346868 -0.16919687 -0.1684094
000390 66 a9 97 bd cb 69 a6 bd 2c f2 f5 3c eb a0 2e bc
       -0.07405357 -0.08125647 0.030022703 -0.010658483
0003a0 52 7c 80 3d 33 72 a1 3d df 26 5a bc c8 3e 57 bd
       0.06273712 0.0788311 -0.013314932 -0.052550107
0003b0 61 60 7f 3d 1d 34 1a be 7d 6b 61 3c 1c f2 4f bd
       0.062347773 -0.15058942 0.013758537 -0.050768003
0003c0 bf 5e 18 be 15 b9 10 bd c0 3a 35 bc 42 10 10 3d
       -0.14879893 -0.035332758 -0.01106137 0.035171755
0003d0 c9 8e 34 3e 73 ca b0 bd 30 e5 40 be cf d7 1e 3e
       0.17632593 -0.08632364 -0.18837428 0.15512012
0003e0 2f ec c6 bd f9 53 04 be dd ff 2c 3e cc fc 05 be
       -0.09713017 -0.12922658 0.16894479 -0.13084716
0003f0 58 b3 07 3d ef 9b e0 3c c0 4c 43 bd 91 f8 be bd
       0.03313002 0.027418105 -0.047680616 -0.09324754

bias f4 [8]
000000 8b 0e f1 bc 5a 8c db 3d fc 49 1f be 20 e8 94 3d
       -0.02942588 0.10720129 -0.15555567 0.07270837
000010 d7 52 dd bd 30 c3 27 3d 55 c9 67 bc 3f 5e 95 3d
       -0.10806816 0.04095763 -0.014147122 0.07293367

weight f4 [4, 8]
000000 9a b2 7e 3e 28 27 7e 3d 79 54 9f 3e d8 e5 ba bd
       0.24872819 0.06204906 0.31119135 -0.091258705
000010 a0 a9 19 bd 64 ee dd bd b5 e1 94 3e fa 20 64 be
       -0.037515283 -0.10836485 0.2907845 -0.22278205
000020 ba 36 81 be 80 32 4b bd 94 c0 0c 3e 42 1a 46 3e
       -0.25237066 -0.049608707 0.13745338 0.19345954
000030 dd ce 56 be 5e 1c 7a 3e 1d 13 a8 3e c0 1b c2 bc
       -0.2097735 0.24424884 0.32827082 -0.023694873
000040 4a 0b a6 be 81 2d 80 3e f0 f9 36 bd 94 83 a2 bd
       -0.32430488 0.25034717 -0.044671953 -0.07935253
000050 a0 c5 c9 3c 6a 70 25 3e b4 13 ad bd 94 9c 5f be
       0.024630368 0.16156164 -0.08451024 -0.21837074
000060 86 51 3e 3e f4 73 fc 3d ca 3c 6d 3e 0c 18 9f 3d
       0.18585786 0.12326804 0.2316772 0.077682585
000070 80 f1 f8 3b 78 fd a6 bd 2c 27 a5 3d 60 e8 9b 3d
       0.0075971484 -0.08153814 0.08064112 0.076126814

bias f4 [4]
000000 5b bb 97 3e 80 42 ea 3c 2c 4b aa be 80 1a 28 bc
       0.29635128 0.028596163 -0.33260477 -0.010260224
