losses/models/ann18.pth (torch, 68636 bytes, 10 tensors)

weight f4 [128, 40]
00000000: cd78 2fbd 0181 0f3e 8157 1ebe 70b0 50bd
00000010: be43 acbd 6727 043c 7287 673d 358b c7bd
00000020: 7a98 e0bd 3be9 10be e384 d53d 2944 94bd
00000030: 8431 543e d157 8c3d 3b25 a3bd 9947 90bd
00000040: 1dd7 5dbc 0c29 3cbe 1bf1 d8bd 1174 15bd
00000050: ad9f bf3d 040c 853e 101a 2e3e 3a61 723e
00000060: c3e4 5fbe dd17 543e 7652 d03a 31eb 02bd
00000070: ffd2 543c cd2f 82be 9e75 323d 0d89 553e
00000080: 98e2 6a3e 882a 13be 70f2 dfbb cf25 24bd
00000090: 9bcd 0fbe feb1 d0bc 142d 85bd c16a 48be
000000a0: 07df 1bbc 3546 183e 91d9 d1bc b0be 94bd
000000b0: b803 c03d a9aa 22bd 8f63 dc3d d719 afbd
000000c0: 0649 fdbd 8230 48be 9b47 153e 90a8 063e
000000d0: a052 f0bd 83a6 81be da25 93bc 5202 9e3e
000000e0: 140f 38be 238b e43c 8e97 833d 248c bdbc
000000f0: da98 24bc 1601 c83d a249 c2bd f212 5c3b
00000100: f552 da3e 0406 0fbc 3c0c 06bd ca29 4b3e
00000110: bd17 a7be 4716 193e bd88 ae3d 2154 81be
00000120: 0b40 303e 8efb cf3d 066e 4e3d 87c9 953b
00000130: 8721 76bc df1b 69bb e1ca 0b3d c15e b8bd
00000140: 7386 76bd e400 bc3d c327 173d e4e3 6a3d
00000150: 9697 8c3e ce8f 9d3d fe59 08be 326c 1f3d
00000160: 54a9 61be 6c58 3abe 2145 633e 81e2 3abd
00000170: 6dee ca3d 7ae4 b33d e843 8a3c 53d3 85bd
00000180: 27ea 473c e659 28be 94b6 98bd b365 19be
00000190: be2d 2fbe 6db6 933e 2f13 723e c3de a4bd
000001a0: aa07 9ebe da5c 023e 0515 1c3e 59aa ecbd
000001b0: 3cb5 8bbe dde1 7ebd 1455 55be 3579 ce3c
000001c0: a2c7 813e c4ec 19be 2dcc 8bbc dcf3 aa3c
000001d0: 9882 83bd 73cb a7bc d9ed b9bd 33c6 12bd
000001e0: 0eaf 9ebd 7701 f03c 368b 6fbe 3e5a 683e
000001f0: a62f 05bb 0b48 333e 33f9 c63c 944c 54bd
00000200: 2704 df3d c294 62be 12dd 863e 06b7 f63d
00000210: fab7 1bbe 7931 3dbe 2a79 a43d 6e74 703e
00000220: 6e69 75be 4aa4 3f3e b258 e6bd 7d40 fe3b
00000230: d9ad 8c3d 3f67 51bd 0df3 debd e651 3bbe
00000240: f330 d63e 6455 c2bd 9319 98bd 07c4 c23d
00000250: ed35 22be dc31 293e 89c4 51b9 8bbf 8abe
00000260: 6d13 833d 577b 8a3d 740c 56bd 691c 4bbd
00000270: 63be db3d 91df d9bc 21ff 57be 1c93 4c3e
00000280: 5214 dc3d a4f5 a1bd de69 e23d 6095 b2bb
00000290: 3a6d 04be 3210 c53d 98e6 d63c 9290 17bd
000002a0: 40cd a4bc a6a8 973d 1658 fe3d 0a03 c8bd
000002b0: b48f debd 3002 c93c d0b1 02be 88c0 35bd
000002c0: 60c7 b1bb 7e93 63bd d0b5 aa3c 288d babc
000002d0: 58ea ea3c 2e44 aa3d 4e8b b53d d0a8 49bd
000002e0: 9196 a6bd 3ea8 b33d 7861 bb3c d40d cdbd
000002f0: 1757 bcbd 5f3e 88bd aea1 0abe d890 d1bc
00000300: 1989 143e 12d4 f13d 0278 1abd d87b c8bc
00000310: e094 a8bb 4964 11be 10d1 173d db44 bcbd
00000320: eada 1e3e 291e 0b3e c877 18be bb72 58ba
00000330: 4955 ec3c 3ec8 4abe 2160 00be 64c8 0dbe
00000340: 0888 4d3d 0d5b ca3d 45a8 97be 90ed 3dbe
00000350: c796 42bd 1ebc 603e d1d5 983c 04c2 0a3b
00000360: e2a6 84bd c2b3 373e 3fea ecbd c7a1 06be
00000370: a1fc 073d 6549 dcbc 6fbd 46bd 8208 2e3d
00000380: 9e03 4cbe b9c1 59bd ced5 863d 7b98 8dbd
00000390: c1ab 1e3e d4f7 3abd 3dba a23c c538 403d
000003a0: b9ae 5bbe 5976 aebd 2632 7abd c7fe c6bb
000003b0: a94d a73a 620a b2bd f302 973b bd55 943d
000003c0: 499f 99bd 8ba8 0d3d a1dc 25be cde5 2d3d
000003d0: 7e74 4e3c fb9e 2cbe 936e f03d 2476 9cbd
000003e0: beed 383d 4a00 41bd 5207 9d3d c007 5fbe
000003f0: 9224 573e f7b7 153b 09f0 3b3e 254a 933c
-0.042839814 0.14014055 -0.15463068 -0.050949514 -0.08411358 0.008066035 0.056525655 -0.097433485
-0.109665826 -0.1415147 0.10425737 -0.07239563 0.20722014 0.06852687 -0.079660855 -0.07044906
-0.0135400565 -0.18375033 -0.10592862 -0.036487643 0.093566276 0.2598573 0.1700213 0.23669901
-0.2186461 0.20712228 0.0015893716 -0.031962577 0.0129897585 -0.25427094 0.0435692 0.20853062
0.22938001 -0.14371693 -0.0068343207 -0.04007512 -0.14043276 -0.025475498 -0.065027386 -0.19571973
-0.009513623 0.14870532 -0.025616439 -0.07262933 0.09375709 -0.039713535 0.10761177 -0.085498504
-0.12367444 -0.19549754 0.14578097 0.13150239 -0.117345095 -0.2532235 -0.017962385 0.30861145
-0.17974502 0.027898377 0.06425391 -0.023138113 -0.010046208 0.09765832 -0.094867006 0.0033580628
0.42641416 -0.008729462 -0.03272651 0.1984016 -0.32635298 0.14949904 0.085221745 -0.25259498
0.1721193 0.10155402 0.050397895 0.004571143 -0.015022642 -0.003556959 0.034129027 -0.09002448
-0.060186815 0.091798574 0.036903154 0.05734624 0.274594 0.07693444 -0.1331558 0.038921542
-0.2203725 -0.18197793 0.2219434 -0.045626167 0.09908757 0.08783813 0.016878083 -0.065344475
0.012201822 -0.16440544 -0.07456699 -0.14980201 -0.17107293 0.28850117 0.2364013 -0.08050301
-0.30865222 0.12730733 0.15242393 -0.11555929 -0.27286708 -0.06222712 -0.20833236 0.02520428
0.2534762 -0.15031725 -0.017065132 0.020868234 -0.06421393 -0.020482754 -0.09078569 -0.03583355
-0.07748233 0.029297573 -0.23392949 0.22690675 -0.002032259 0.17507951 0.02428875 -0.051830843
0.10889464 -0.22127059 0.26340538 0.12046628 -0.152069 -0.18475904 0.08030923 0.23481914
-0.23966 0.18715015 -0.11247386 0.0077591524 0.06869096 -0.051123854 -0.10886202 -0.1829296
0.4183422 -0.09488943 -0.07426753 0.095100455 -0.15840884 0.16522926 -0.00020005008 -0.2709926
0.064001895 0.067618065 -0.05225797 -0.04958764 0.10729673 -0.026595863 -0.21093418 0.19977993
0.10746063 -0.0790818 0.11055349 -0.005449936 -0.12932292 0.0962223 0.026233003 -0.037003107
-0.020117402 0.07405214 0.12419145 -0.09766205 -0.10867253 0.024537176 -0.12763143 -0.044373065
-0.0054253787 -0.05556058 0.020838648 -0.022772387 0.028676197 0.083137855 0.08864461 -0.049233258
-0.08134187 0.08772324 0.022873625 -0.10012403 -0.091962986 -0.06652521 -0.13538238 -0.025581762
0.14505424 0.11808027 -0.037712105 -0.024473116 -0.0051447004 -0.14198412 0.037064612 -0.09192821
0.15513197 0.13585724 -0.14889443 -0.0008256842 0.02884926 -0.19802949 -0.1253667 -0.13845974
0.050178558 0.09880648 -0.29620567 -0.18547654 -0.047507074 0.21946761 0.018656643 0.0021172771
-0.06477143 0.17939666 -0.115681164 -0.1314765 0.03319991 -0.026890466 -0.0485205 0.042488582
-0.19923255 -0.053163264 0.06583749 -0.06913849 0.15495206 -0.045646504 0.019864196 0.04692914
-0.2145337 -0.08518667 -0.06108298 -0.0060728523 0.0012764233 -0.086933866 0.004608506 0.07242916
-0.07501084 0.034584563 -0.16197444 0.042455483 0.012601016 -0.16857521 0.1173984 -0.07639721
0.045148604 -0.047119416 0.07667412 -0.217803 0.21010044 0.0022845247 0.18353285 0.01797969

bias f4 [128]
00000000: fc2d 093e fff6 ebbd 1fd4 8e3d dd17 ba3d
00000010: 9be1 b4bd 37bd ac3d 0db6 50bd b2cc 933d
00000020: 208a 98bb 1f30 973d 4bd6 6d3d 7435 0fbb
00000030: d786 123e b3d2 c6bd db65 9f3c f8ab 073e
00000040: 3408 8e3d 4e94 eb3d f053 283e a86d 733d
00000050: 1c7b 443d 34cc 5a3d 267c 15bd 8aea 9a3d
00000060: 3514 b33b 4d63 843d 7c06 5abd eafd 0fbd
00000070: f2ed 55bd 7204 d93d 1066 f0bc 9a76 bd3d
00000080: de8d 13be 4141 2b3d 6e2e ee3d 6058 05bc
00000090: ac16 afbd 305e 023e f466 39bd f926 153e
000000a0: c40b 1bbe 5f06 d53c 7eec b63d 1318 9b3d
000000b0: 2b74 10be 8029 5ebc 9396 043e e3ca f2bd
000000c0: 7c1d d3bb caef e83d c04d 253d a2e7 2c3d
000000d0: c0fa 97bb 7015 30bd 5ed8 59bd 713a 8cbd
000000e0: 1639 383d 06fa bdbd e000 94bc fbd2 163e
000000f0: aad5 cb3d c082 82bb 4b9d 0a3e b0d3 0fbe
00000100: d4a7 183e e6a4 d13d 4b9e e2bd 3583 e5bd
00000110: 7e45 c9bd 1fc0 cd3d 9150 f13d 5073 6ebd
00000120: db14 58bd b415 52bd 949e ef3d c1a2 a8bd
00000130: 109d a5bd 61d3 1cbe fe66 22be c26d 933d
00000140: 6e57 8fbd 4b3a afbd f8f1 973d 3956 cfbd
00000150: 8e36 8abd 652a debd f243 c33d 44ac 5a3d
00000160: 8432 74bd b30c 423d 3898 b5bd 96f0 a13d
00000170: 3687 90bd 55ce 713d 6ed2 dbbd 8720 1a3e
00000180: 5524 043e 1938 d4bd 9d3b 003e ba8a 9b3b
00000190: 801e 25bd eb96 be3d 7c26 8c3b 12ef c13c
000001a0: 956d a73d 7202 54bd 12cc 1dbd 189c 5e3d
000001b0: 19d3 b43d 25e6 a6bd e96c ec3d 80c1 9a3b
000001c0: b09c 263e 8634 053d d83a 293d fd1d b03d
000001d0: 68d3 ba3c d681 e03d 5206 adbd 50cf 953c
000001e0: fd26 c53d 4d39 c7bd e806 b53d 2d95 153e
000001f0: 1cb6 253d 3a25 14be 1c92 4a3d 951a d0bd
0.13396448 -0.1152172 0.06974053 0.09086583 -0.08832093 0.08434527 -0.050954867 0.07216777
-0.0046551377 0.07382225 0.058065694 -0.002185193 0.1430925 -0.097081564 0.019457748 0.13249195
0.06935158 0.11502896 0.1643827 0.05943075 0.04796897 0.0534174 -0.03649535 0.07564266
0.0054650554 0.064642526 -0.05322884 -0.03515426 -0.052228875 0.10596551 -0.029345542 0.09251137
-0.14409587 0.041810278 0.116299495 -0.008138746 -0.08549246 0.12731242 -0.0452642 0.14565648
-0.15141207 0.026004015 0.08931826 0.07572951 -0.14106815 -0.013559699 0.12948065 -0.11855104
-0.006442724 0.11373861 0.04035735 0.04221309 -0.004638046 -0.042989194 -0.05318486 -0.06847084
0.044976316 -0.09276204 -0.018066823 0.1472892 0.099528626 -0.003982872 0.13536565 -0.14045596
0.14907771 0.1023653 -0.11065348 -0.112066664 -0.09827708 0.1004641 0.11782945 -0.05821544
-0.052754264 -0.05129023 0.11700168 -0.08234168 -0.08086598 -0.1531501 -0.15859601 0.07198669
-0.06999098 -0.085560404 0.07419199 -0.101238675 -0.06748687 -0.1084793 0.09534444 0.05338694
-0.059618488 0.047375392 -0.08866924 0.07907216 -0.070570394 0.059034664 -0.10733496 0.1505147
0.12904485 -0.10362262 0.1252274 0.004746762 -0.04031229 0.09306129 0.0042770486 0.023673568
0.08175198 -0.051760145 -0.038524695 0.05434808 0.08829326 -0.08149365 0.115442105 0.004722774
0.16270709 0.032520793 0.041315883 0.0859947 0.022805884 0.10962264 -0.08448471 0.01828733
0.09626577 -0.09727726 0.08839208 0.14607687 0.040456876 -0.14467326 0.049455747 -0.1016132

weight f4 [64, 128]
00000000: a357 693d 4e0e 833d 21da 9cbd 81d2 ab3b
00000010: 7835 3f3c af82 483d 75c4 cb3d 5d6d b7bd
00000020: 9448 843c 172a 8c3d f506 bcbc 53c6 a73c
00000030: b745 8f3d c01d f5bb 91e0 9ebd bf72 59bc
00000040: 7c15 043d 3114 90bd 2a66 65bc c337 9dbd
00000050: 5e92 27bd 939c 903d d10e 3fbd dc03 d03c
00000060: 2095 503c 0ca8 bebb 2946 993d 5899 76bc
00000070: e25c 5b3d 2ba9 903d c6e6 56bd fac2 82bd
00000080: f88a 71bd c16b 0cbe 6070 2bbb f2ed b0bd
00000090: 5da3 90bd 3865 a3bd c246 5f3d af36 86bd
000000a0: 40ca 94bd 636c 9dbd 6833 8cbc 5a87 6bbd
000000b0: ced4 103d 9411 a5bc 7cd2 bcbc 67a0 ec3d
000000c0: 6968 1fbd 6381 ddbd 2811 6e3c f329 463d
000000d0: f8e2 5fbd ed9a aabd 31b6 af3d e4b5 49bd
000000e0: bad9 fabc 65a0 9cbd 9e63 213d 1910 ddbc
000000f0: 850d 6cbb 3e3d 37bd 5ad9 653d bc9a 80bc
00000100: 1b12 7d3d 9844 c43c 4d4b 88bd 627b 06bd
00000110: 3827 12bd 7f94 a13d 1d78 06bd 9e6b 043d
00000120: 9cc2 443c b591 6ebd 65d2 3c3d 1adf 09bd
00000130: 0236 393d a6a2 183d 6d0e afbd a49c bebc
00000140: 40a2 fb3c ea10 97bd 085e 08bc 02e7 eb3d
00000150: 7dec 953d 3e9f b2bd caef 9ebd 604d 4bbb
00000160: fecd 6b3d 68f3 953d 26e4 453d 76d4 23bd
00000170: 2d8d abbc e9a6 ae3d 256a 213d 304c f93c
00000180: 7e95 95bd 8dbe a23d 0970 8c3d 50a4 c93c
00000190: 3e9e 2f3d a8e5 893d 924b 753d b5f0 6a3d
000001a0: d6d1 9ebc 2eee 0cbd bd0f f1bd 2a28 1d3d
000001b0: f78f adbd 702c d0bc 9a44 49bd 322c 5a3d
000001c0: 590f 19bc ef0d bf3c 183f 283d c2ea c53d
000001d0: 86d8 45bd 4eb8 743d 486f 333c 14c2 8cbc
000001e0: cbf0 50bd 3bda 3fbb 65e6 f03c 7aa4 c23d
000001f0: 80cc a33b a744 fabd 1f21 8e3d 102c e9bc
00000200: 4455 2439 5ae6 da3b 884f 2abd d2b3 4ebd
00000210: 3e78 563d e651 ec3c e404 98bd a4a7 37bd
00000220: 3bb7 a3bd 5f67 433c 9452 553c d5b3 623c
00000230: b587 803d 2354 9abd 9fdc 283c 56fe 583d
00000240: 7a47 94bd 583c b0bc ff83 103d 90c7 ed3b
00000250: 32e0 303d 461b 103d 9cab 00bd c13c 25bb
00000260: 5142 4bbd ef8c e7bc c95f 0c3b e0aa c3bb
00000270: 70b0 5abd 0f06 73bd bfed 9c3d 001c 8db8
00000280: f363 e4bc ee54 023e e005 443c e380 833d
00000290: 2bfa 40bd dc80 c9bb 2785 0fbd f103 863d
000002a0: 96cc 2b3d 082c d23d 02bc 723d 3b7a 983d
000002b0: 177e 9abd fb6b 19bd 21c2 21bd 549d 7bbb
000002c0: 64a0 9cbd 61d3 613d 29a4 ae3d 86a2 abbc
000002d0: 280e c2bc 987c 0cbc 6ad5 653d 69d8 13bc
000002e0: ea32 af3d 27f8 373d ac7a 113d 9d45 2a3d
000002f0: 17c7 a9bd 685f 45bc d99e 9cbd 5077 8f3b
00000300: 0483 ccbd 5a98 3a3d 7364 af3d 079e a93d
00000310: 260f f2bc 5562 7f3d a2a1 023e 2d25 5b3d
00000320: 1e6c bbba 2a60 1b3d 4523 a8bd a5c5 973d
00000330: ecda 8bbc c0a5 a1ba 38fa 013e c014 1d3c
00000340: 8eba 8abd 905b 81bc 5a2e b0bd e3bf 2dbb
00000350: ae27 34bd 7bfe ed3c c883 7c3c 0797 af3d
00000360: 903a 5abc 98f8 9fbd dc50 a4bd b42e 86bd
00000370: 6617 e83c cafa 5c3d 595a e03d 194f 843d
00000380: 938d 393d 2682 66bd cc0c 04bd 0ca5 a1bd
00000390: 76bd 593d c3c0 b6bd d10d 673d 91e3 483d
000003a0: 53a3 31bd 9a3f 1d3d 6854 323e d4cc 0b3d
000003b0: ce43 cf3c 286b b4bd e292 813a e48d 9abc
000003c0: 3d78 a73d 2aa8 283d a726 be3d d50e b8bd
000003d0: ad6b 68bd ec12 823c 2058 65bb 19a1 8a3d
000003e0: 29bc ac3d 58fc 81bd 7412 60bc efed e3bc
000003f0: e118 44bd a693 603d 13b9 9c3d d3bf b43c
0.056968343 0.06399213 -0.07658792 0.0052436 0.011670463 0.048952755 0.099495806 -0.08956406
0.01614789 0.068439655 -0.022952536 0.02048031 0.06995719 -0.007480353 -0.077576764 -0.0132719865
0.03224705 -0.07035101 -0.014001409 -0.07676651 -0.04091107 0.07061114 -0.04664499 0.025392465
0.012730867 -0.0058183726 0.07484085 -0.015051208 0.053555377 0.07063516 -0.052466176 -0.06384845
-0.05897042 -0.1371298 -0.002615951 -0.086391345 -0.07062409 -0.0797829 0.05451084 -0.06553399
-0.072651386 -0.07686689 -0.017114356 -0.05750213 0.035359196 -0.020149983 -0.023049586 0.11554032
-0.038917933 -0.10815694 0.014530458 0.04837985 -0.054659814 -0.08330331 0.08579672 -0.04924573
-0.030621398 -0.0764778 0.039401643 -0.026985215 -0.00360188 -0.04473614 0.056115486 -0.015698783
0.061784845 0.02395849 -0.066549875 -0.03283251 -0.035681933 0.078896515 -0.032829393 0.032329194
0.012009289 -0.058244426 0.046099085 -0.03366003 0.04521752 0.03726449 -0.085476734 -0.023268051
0.030717015 -0.07376273 -0.0083232 0.115186706 0.07320497 -0.08721779 -0.0776058 -0.003102146
0.057569496 0.07321817 0.048313282 -0.03999754 -0.020941341 0.08527929 0.039407868 0.030431837
-0.07303904 0.07946501 0.068573065 0.024614483 0.04287552 0.067332566 0.059886523 0.057358462
-0.019387167 -0.034406833 -0.1177058 0.03836838 -0.08474725 -0.025411814 -0.04913769 0.053264804
-0.009342038 0.023322074 0.041075796 0.09663917 -0.048302196 0.05974608 0.0109518245 -0.017182387
-0.051010888 -0.0029274363 0.029406736 0.09504028 0.0049987435 -0.12220126 0.06939911 -0.028463393
0.00015672023 0.006680292 -0.041579753 -0.05046446 0.052360766 0.028847646 -0.07422808 -0.04483761
-0.07993933 0.011926501 0.013020176 0.013836821 0.06275884 -0.07535579 0.010306506 0.05297693
-0.072401956 -0.02151315 0.03528213 0.0072564557 0.04318256 0.03518226 -0.03141366 -0.0025213214
-0.04962379 -0.028265445 0.0021419397 -0.0059712976 -0.05339092 -0.05933195 0.07662534 -6.728619e-05
-0.02787969 0.1272771 0.011964291 0.064210676 -0.04711358 -0.0061493944 -0.035039093 0.065437205
0.041943155 0.102623045 0.05926133 0.074451886 -0.07543581 -0.037456494 -0.039491776 -0.0038393335
-0.076477796 0.055133227 0.08527405 -0.02095152 -0.02368839 -0.008574627 0.05611173 -0.009023764
0.08554633 0.04491439 0.03551738 0.041570295 -0.082899265 -0.012046672 -0.07647485 0.004378237
-0.09985927 0.04555545 0.08564081 0.082820944 -0.029548239 0.062349636 0.1275697 0.05350225
-0.0014299189 0.037933506 -0.08209852 0.074107446 -0.017072164 -0.0012332723 0.12693107 0.009587467
-0.06773864 -0.01579073 -0.08602591 -0.0026512078 -0.043983154 0.02905201 0.0154122785 0.08573728
-0.013319626 -0.07811087 -0.08023235 -0.06551877 0.02833147 0.05395011 0.109547324 0.06460399
0.04530103 -0.056276463 -0.032238767 -0.07892808 0.0531592 -0.08923485 0.05640966 0.04904515
-0.04336865 0.038390733 0.17415011 0.034130886 0.025300886 -0.08809501 0.0009885693 -0.018866487
0.081772305 0.041176 0.09284716 -0.08987204 -0.056743313 0.015878163 -0.0034995154 0.06769008
0.08434326 -0.06346959 -0.013676275 -0.027823417 -0.04787529 0.05482831 0.076524876 0.022064125

bias f4 [64]
00000000: 3d70 833d 1313 6d3d ae6a f93c a7e3 9ebd
00000010: 626a 743d 095b 323c 2043 2dbc 20b9 bd3c
00000020: b572 093d 0008 7e3a ba61 6a3d 3a75 393d
00000030: 32f0 073d e3dc 923d 33ff a1bd 9648 4cbb
00000040: 1f51 943d 0043 a3ba 3a82 27bd fd3e 17bd
00000050: 8406 3cbd 785d 993c 358c 1cbd 27f7 1dbb
00000060: 8f2e 353c fb01 823d baaf 59bb 4b81 afbd
00000070: c127 34bd 948b b63c 8026 0f3a 1647 5e3c
00000080: 8055 b3bd e3e6 653d 9ca9 eabc 6259 20bd
00000090: be7a 48bd 4925 4bbd 362f 35bd 9a8c f8bc
000000a0: d9f2 953c 1cc7 8b3c 4056 da3c e9c4 39bd
000000b0: a2a9 80bc 14b8 e93c ed85 6a3d f486 0a3d
000000c0: d7d0 4bbb 46cc b5bd 1d93 9e3d 9a8a 593d
000000d0: 7f5b 34bd 6dac 41bd dbcd d53c 6966 513d
000000e0: 41a9 00bd 9e40 673d 65fe 4e3d 7805 13bd
000000f0: 60a1 493c 46c1 b13d 7a11 89bc 12ea 583d
0.06417892 0.05787952 0.030446377 -0.07758265 0.059671767 0.010885962 -0.010575086 0.023159564
0.03355666 0.0009690523 0.057222106 0.04527781 0.033188052 0.07171037 -0.079100035 -0.0031171194
0.07242035 -0.0012455881 -0.040895678 -0.036925305 -0.04590465 0.018721327 -0.03821965 -0.0024103613
0.011058464 0.06348034 -0.0033216313 -0.085695826 -0.043983225 0.022283353 0.0005460754 0.013566753
-0.08756542 0.056128394 -0.02864533 -0.039147742 -0.04894518 -0.049596105 -0.044234477 -0.030340482
0.018304275 0.017062716 0.026652455 -0.045353804 -0.015705887 0.028530158 0.057256628 0.033820108
-0.003109982 -0.08876853 0.077429034 0.053110696 -0.04403257 -0.04728358 0.026099136 0.051123057
-0.031411413 0.056458108 0.05053558 -0.035893887 0.012306541 0.08679442 -0.016731966 0.0529576

weight f4 [32, 64]
00000000: d079 d1bd a4a4 5e3d 8089 e1bd 10ef 193c
00000010: 1019 89bd 6ccb 3c3d 5813 3d3d 7047 553c
00000020: dcfb 693d 0e21 bfbd aa1a d33d 5ca2 143d
00000030: f80a d33c bac9 d83d e628 9cbd b460 f9bd
00000040: 34c9 59bd 1eca 88bd b08d b2bd c25c e63d
00000050: a0c8 543d 2087 063c e0a4 5dbd 2087 f8bc
00000060: 9622 edbd 085e 43bd 5460 63bd 30cc e6bd
00000070: 2c5a a1bd 685e 8ebc 0487 22bd 9440 52bd
00000080: 42db b83d b023 72bd 3254 fd3d c486 eb3d
00000090: a0fc 303d 60b8 b6bc 5621 c03d 7806 99bd
000000a0: 3cfc 193d 90e9 63bc b257 80bd 1e20 bcbd
000000b0: 84be 7fbd 70bf 913d d8f9 70bd e88d 593d
000000c0: 0047 893d 00ea ff39 1ce2 fe3d f09d d83c
000000d0: 089f 9d3d b449 103d c485 34bd 6824 e6bd
000000e0: 4051 5d3c ae14 c53d 4272 8b3d d85b f1bd
000000f0: e840 a33d 74a4 fdbd 5817 723d 88b4 a93c
00000100: 1fe2 b83d 26af 81bd 3592 f7bc d2a4 bb3d
00000110: 54eb 653d ce3b f7bd 1880 7b3d d22f d7bd
00000120: 45c8 e3bd 1cb8 45bd 7a8c d4bd 8084 d83d
00000130: a5c4 bb3d 22c6 ff3d 4a46 d03d e651 e4bd
00000140: dce4 89bd 6c99 91bd b843 b2bd f7ce af3c
00000150: a231 e73d eea7 86bd 0952 853d 6437 ae3b
00000160: 3039 293e e40a c23d c13e 813d d47e c1bd
00000170: 916d aabd 1985 0fbe c03f 6dbb 2b5a 853d
00000180: 0851 d23d 6673 9a3d 45ee 2b3d 5e4c 2c3d
00000190: 62d2 f33d 8aa8 b13d 0876 80bc 94fb abbd
000001a0: 626d 92bd b2a2 d53d 1055 df3d 5532 053e
000001b0: 3d49 85bd 606b 803b b618 d0bd ffb4 c6bd
000001c0: 3d9b 50be 522e d8bc 5886 e2bd c4c4 fa3d
000001d0: a205 3abe dcd8 7dbd 4903 fa3d ed09 67bd
000001e0: b007 003d e978 233b 0ecb 2a3b 78e6 6bbd
000001f0: 2a3d b73d 58ad 7abd fcd3 d9bd 4e72 fdbd
00000200: 91c0 cf3d 6a7b aebd 958a 89bd 7a62 c5bd
00000210: dca8 023d 6065 b73d 7860 e1bc 4853 aabc
00000220: 5497 843c 84a6 8e3d 58bd 4fbd 1a7c 933d
00000230: cc50 9fbd f040 a8bd d264 e7bd 57cf 033d
00000240: 0043 f53b 80f6 39bd c4d4 7b3d 80c4 aabc
00000250: caf1 f8bd 1870 2e3d c1d7 41bc 76d8 b13d
00000260: f6c1 3c3d 7167 ebbc 8303 473d 3679 fd3d
00000270: af49 a33c bbeb e43b 18de d53c ef81 b5bd
00000280: 88a3 123d 42a4 55bd dfd1 2bbd f7dc 68bd
00000290: 45c6 debd 5c26 debd d0e8 abbd 5852 773d
000002a0: c3da c3bd b02b b73d beb7 d73d 58d8 533d
000002b0: d7e6 5f3d b086 cf3c e213 9abd 84be e6bd
000002c0: f2ba a13d c70c bd3d c6b9 d3bd fc1d d8bd
000002d0: 608b 2cbd b8c7 e73d cc20 ea3d 33f7 5e3d
000002e0: 3b6e 12bc 8586 6e3d 2c25 373d a0f3 1dbd
000002f0: 7223 ff3d fb56 d9bd dc91 16bd 0821 fbbc
00000300: 29dc 60bd f72a 7bbd c6a8 e63d ca9c 9a3d
00000310: 22ba c23d 47ea cc3d 8470 5b3d a0fe 8f3c
00000320: 2488 2ebd 208f c9bb 105b 56bd 8404 ef3d
00000330: 1819 1d3c a4ce 06bd 98e1 eebd da37 913d
00000340: 10aa a43c 5292 bf3d c869 01bd 4bb2 50be
00000350: ca50 bf3d 2a0a e23d ef6b c93d 770e 9abd
00000360: 694e 0b3e 3ec5 503d dcba 053d 6cad 87bb
00000370: 6bef 19bd a068 28be 1403 8abd f85c 1a3e
00000380: 463c a7bd 2630 583d a1a5 903c 5709 d83c
00000390: d49e ca3d 9cd8 bfbd a0fb a23d 002a f13b
000003a0: bbf1 59bc 0dcb 09be 10ba b33c bd2c 193e
000003b0: c8f3 dc3d 6ee1 933d f00c 18be b931 6f3d
000003c0: 4c71 c5bc c8c5 933d a622 dc3d eef4 c33d
000003d0: e188 b33d a0c0 fbbd 5b2c d4bc 18a3 d4bd
000003e0: ee82 c03d 25a6 f3bd 7f4a 2e3e 8217 b0bd
000003f0: 50ae bebc 0c24 40bc 2e9c d9bc c8c4 19bd
-0.10228312 0.054356232 -0.11012554 0.009395376 -0.066942334 0.046092436 0.046161026 0.01301752
0.057124957 -0.093324766 0.1030782 0.03628765 0.025762066 0.10585351 -0.07624988 -0.12176648
-0.053170398 -0.06679176 -0.08718431 0.11248161 0.051949143 0.008210927 -0.054112315 -0.03033787
-0.11578862 -0.047697097 -0.055511788 -0.112694144 -0.07878527 -0.017379 -0.039679542 -0.051331118
0.09026195 -0.059116066 0.123695746 0.11500314 0.043209672 -0.022304714 0.09381358 -0.07471937
0.037594065 -0.013910666 -0.062667266 -0.09185813 -0.06243755 0.07116592 -0.05883202 0.053113848
0.06702995 0.00048811734 0.12445471 0.026442498 0.076963484 0.03522654 -0.04407288 -0.11237413
0.013508141 0.09623085 0.06808902 -0.11785096 0.07971364 -0.123848826 0.059104294 0.020715967
0.09027504 -0.06332235 -0.030221084 0.09162296 0.05613263 -0.12071954 0.061401457 -0.10507168
-0.11122183 -0.048271284 -0.10378356 0.10572147 0.09168366 0.12488963 0.101696566 -0.111484334
-0.067331046 -0.07109341 -0.087043226 0.021460993 0.112887636 -0.06574999 0.065097876 0.0053166617
0.16525722 0.094747335 0.063107975 -0.09448019 -0.083216794 -0.14015616 -0.0036201328 0.06511339
0.10269362 0.07541542 0.04197528 0.042065017 0.11905362 0.086747244 -0.015681282 -0.08397594
-0.07149769 0.10431422 0.10904896 0.13007481 -0.0650811 0.00391905 -0.10160963 -0.09702491
-0.20371719 -0.026389275 -0.1106078 0.12244561 -0.18166211 -0.06197439 0.12207658 -0.05640595
0.03125733 0.0024943894 0.0026060971 -0.05759284 0.08947213 -0.06120047 -0.10636136 -0.123753175
0.10144151 -0.08519633 -0.067158855 -0.096379235 0.031899318 0.089548826 -0.02751182 -0.020791665
0.01618544 0.06965354 -0.05071768 0.07201405 -0.07779083 -0.08215511 -0.11298527 0.032180157
0.0074847937 -0.045401096 0.061482206 -0.020845652 -0.121554926 0.04258737 -0.011831225 0.08683865
0.046083413 -0.028735848 0.048587333 0.12376635 0.019932596 0.006986109 0.02610688 -0.088626735
0.035800487 -0.0521586 -0.041948196 -0.056851353 -0.10877661 -0.1084716 -0.08394015 0.060381263
-0.0956321 0.089438796 0.10533093 0.051719993 0.054663505 0.025332779 -0.075233236 -0.11266807
0.07896985 0.09230953 -0.10338168 -0.10552594 -0.042125106 0.1131739 0.11432037 0.054434966
-0.008937414 0.058233757 0.044713184 -0.038562417 0.124579325 -0.10612293 -0.036760196 -0.030655399
-0.05489746 -0.06132027 0.1126266 0.075494364 0.09508158 0.10005622 0.0535741 0.01757747
-0.042610303 -0.006151095 -0.052332938 0.11670783 0.009588502 -0.03291191 -0.11664122 0.07090731
0.020100623 0.0935408 -0.03159502 -0.20380513 0.09341581 0.11037095 0.0983504 -0.0752229
0.1360413 0.050969355 0.032648906 -0.0041405465 -0.037581842 -0.16446161 -0.06738868 0.15074527
-0.08165793 0.052780293 0.017657103 0.026371641 0.09893575 -0.09367487 0.0795815 0.007359743
-0.013302262 -0.13456364 0.021939307 0.14958473 0.10788685 0.07220732 -0.14848685 0.05839703
-0.024101876 0.07215458 0.10748796 0.09568201 0.08766342 -0.122926 -0.025900057 -0.1038267
0.09399973 -0.11896924 0.17020606 -0.08598234 -0.023276478 -0.011727344 -0.02656373 -0.03754118

bias f4 [32]
00000000: dc39 773d 0a10 163d a204 88bd 8c59 96bd
00000010: 7115 04be 14d0 1d3d d81a f5bd 36ef 83bd
00000020: 0d03 75bb 938d 99bd 069b d7bd d532 dcbd
00000030: 1359 06bd c473 e8bd 22d5 f2bd e928 5dbc
00000040: 9fbb 573d e9d0 4d3d 1a90 ff3c 3a65 df3d
00000050: 0789 cabc fc2c 93bd 00da 463b 92b3 c0bd
00000060: 2abb 433c 961c acbd d8c8 043d 69fd 1cbd
00000070: 8244 e7bd a30d f1bc 9a52 c9bd ea30 a43d
0.060357913 0.03663639 -0.06641509 -0.073412985 -0.12898804 0.038528517 -0.11968011 -0.0644211
-0.0037385852 -0.07497706 -0.10527615 -0.10751883 -0.03279979 -0.113502055 -0.11857058 -0.013498523
0.052669164 0.05024806 0.031196643 0.10907979 -0.024723543 -0.071863145 0.003034234 -0.0940925
0.011946479 -0.0840389 0.032418102 -0.03832761 -0.11292364 -0.029425448 -0.09830208 0.08017142

weight f4 [8, 32]
00000000: e82a 283d 5740 00bd dbc2 263e 4cbd 2ebe
00000010: 8a9e 813d e628 debd f023 493c aef7 cabb
00000020: 3784 e0bd e134 ec3d 04a1 1a3d f4e2 64bd
00000030: f1ee 28be 8331 19be 96bc 1f3e 100b 3abd
00000040: b1c4 113e c2d7 0ebd a2d8 ac3c 42e3 493d
00000050: 5b52 03be 3535 b3bd 5576 15be 221b b3bd
00000060: 7bf9 35be a1ca 723d 333e 233e 6b69 293e
00000070: 2b27 8fbd bc83 013d 5d59 7abc 5a08 0cbe
00000080: 8971 95bd 8222 69bd 4a0f b5bd e054 ba3b
00000090: 80d6 79bb c40c 1e3d 880b ee3c bef7 9d3d
000000a0: 3651 c63d ccb6 853d b046 333c 88c1 fe3c
000000b0: b95a 95bd b60e edbd 02f3 33be 089d 03be
000000c0: 887d 0bbe 8bc3 043e f32e c7bd 1cd2 25bd
000000d0: e6ab 92bd 1df5 093e 7e81 ff3d d164 07be
000000e0: 0c6c 72bd 54fe aabd c1d5 e6bd 4058 a2bc
000000f0: e1e7 233e e06d 61bd f0cd 8a3c 1cf8 353d
00000100: 1a3d b0bd f4b6 28be 104b 28bd 60c1 0f3d
00000110: 1ab1 21be d6e3 7d3d 50e1 113d ff71 1dbe
00000120: b6cd c73d 0c20 6c3d 4df5 ca3c 369b a6bd
00000130: fe4c 65bd de33 fd3d 1170 2d3e a6b0 86bd
00000140: 3f56 053e e1e6 e23d edb2 d1bd 6bc4 c839
00000150: 78f0 72bd 18c8 6e3d 9121 95bd 696f 55bc
00000160: fc10 1f3e 8ad3 863d a7a7 80ba ba80 2fbe
00000170: c74a 2cbe 5054 7cbc 21ce e6bd 30a4 643d
00000180: 610d b7bd a5ab 77bd 5f39 0a3e 7bd7 4abe
00000190: 4905 303e 1849 1a3e 4667 04be cc63 8bbd
000001a0: 91fb 32be 463e 983d 0df7 76bd 7463 603d
000001b0: d1fc 1f3d bbc8 ae3d 6ad9 1f3e b899 73be
000001c0: ed88 d0bd 8f60 25bd 6082 803d 7e34 283e
000001d0: e3dd 57bb 0043 cdba 244f febd c006 f33c
000001e0: 0003 6ebd e498 64bd 0373 1e3c 2604 523d
000001f0: 787b 14bd b06c 08be e847 64bd 2272 8cbd
00000200: c703 253e d353 6cbe 81f2 0ebe c25f 58be
00000210: dab8 193e 2641 c2bd c02b 2abb fffe 6c3e
00000220: 61be 06be 8f53 193d aee0 adbd 1aa3 1ebe
00000230: 047c 3c3e cdaa 083e 44eb 533e 0311 303e
00000240: 43ae d6bc 8737 da3d fda5 673c 7d02 ea3d
00000250: 3a29 01be 848e 183d a8d3 efbc f336 2d3e
00000260: 4a57 8f3e 2065 f4bd a5ed 3dbe b07b 603c
00000270: 3b7d 1b3e 24fb 8fbe fda1 ad3d 7458 353e
00000280: f4ef 463d 7013 cdbc eebb 8cbd 92a6 77bd
00000290: db4b f9bd d7d9 babd 404d ed3b 0020 f43a
000002a0: e245 22be 88cf 953c de0c bb3d 0ed7 943d
000002b0: 7841 d33c b435 023d 30bd ef3c 98a0 33be
000002c0: 6133 123e aac5 fbbd 332c f1bd d857 b6bc
000002d0: 90ac 27be 00d8 973a 6d70 2c3e a8d7 34be
000002e0: 38a2 203d 2ab8 8ebd 72d5 d83d d0cf 503d
000002f0: 2cac aabd 5e8c e63d f237 f43d c46d 30bd
00000300: ceb2 d3bd fd23 19be a0dd 7d3d a537 cb3d
00000310: 9f67 b0bd 95c0 3b3c 307f 48bc 56da 92bc
00000320: 93ef b33d 26ec 223e c236 e8bd f2fe 823c
00000330: 60e7 22bd 5e9c a93d d0e7 c73d cf61 89bd
00000340: cf00 fdbd 7f25 d3bd 2706 54bd c1ff dbbd
00000350: 05a6 dd3d f98d c6bd 2252 bf3d f34a 123e
00000360: e929 323d b4e4 bc3d 9564 b5bd 8474 0c3e
00000370: f136 2ebe 47fc ea3d 2440 3bbe 98b8 143e
00000380: a8a6 febc ce6c ccbd 4538 26be 0c1c 0bbe
00000390: a09b 60bd 9409 2dbe e8df 193d 407d b3bb
000003a0: 1491 33be f43c 83bd 4221 da3d 38a8 c1bd
000003b0: c8b6 f1bc b082 0f3d afb8 2fbe c4d4 463d
000003c0: 3ad7 8d3d 7813 343d 9e02 c43d 6b26 2bbe
000003d0: 0a63 95bd 2582 d8bd 1c49 593d 2281 e13d
000003e0: 785f 23be b470 28be d528 30be a477 16be
000003f0: ad05 1b3e f005 6f3c 3aaa a53d 2b7e 2d3e
0.041056544 -0.03131136 0.16285269 -0.17064399 0.06329067 -0.108476445 0.012276635 -0.0061940765
-0.10962718 0.11533523 0.037751213 -0.055880502 -0.16497399 -0.14960293 0.15599284 -0.045420706
0.14235188 -0.03487373 0.021099392 0.049288996 -0.12824385 -0.08750383 -0.14595921 -0.087454095
-0.1777095 0.059275273 0.15941696 0.1654412 -0.069898926 0.031619772 -0.015280095 -0.13675061
-0.07297046 -0.056917675 -0.08840807 0.0056863874 -0.0038122237 0.038586393 0.029058233 0.07713269
0.096834585 0.06529006 0.010942146 0.031098142 -0.072926946 -0.115750715 -0.17573169 -0.12852871
-0.13622105 0.12965219 -0.09725752 -0.04048358 -0.07161693 0.1347241 0.124758705 -0.13222052
-0.059185073 -0.083492905 -0.11271239 -0.019817472 0.16006424 -0.055036426 0.016943902 0.04442607
-0.08605404 -0.16476041 -0.04108721 0.035096526 -0.15790215 0.06198486 0.035615265 -0.15375517
0.09756033 0.05764775 0.024775172 -0.08135073 -0.05598163 0.123634085 0.16937281 -0.06576662
0.13021182 0.11079193 -0.102392055 0.00038293315 -0.05931136 0.058296293 -0.07281793 -0.0130270505
0.15533823 0.065833166 -0.0009815589 -0.17138949 -0.168254 -0.015400961 -0.11269785 0.055820644
-0.08938099 -0.060466427 0.13498448 -0.19808762 0.17189516 0.15066946 -0.1293002 -0.06806144
-0.17478777 0.07433753 -0.0602942 0.054782346 0.039059464 0.0853438 0.1561028 -0.23789108
-0.101823665 -0.04037529 0.06274867 0.16426274 -0.0032938651 -0.0015660226 -0.124174386 0.029666305
-0.05810833 -0.05580987 0.009670976 0.051273488 -0.03625056 -0.13322711 -0.055732638 -0.068577066
0.16114722 -0.23078851 -0.13959695 -0.21130279 0.15011922 -0.09485082 -0.0025966018 0.23144148
-0.13158561 0.037433203 -0.0849012 -0.15491906 0.18406683 0.13346405 0.20695215 0.1719399
-0.026206141 0.10655122 0.014138696 0.11426256 -0.12613383 0.03724529 -0.02927573 0.16915493
0.27996284 -0.119333506 -0.18547685 0.013701364 0.1518449 -0.28121293 0.084781624 0.17709523
0.04856868 -0.025033683 -0.06871782 -0.06046159 -0.121726714 -0.09123581 0.007241875 0.0018625259
-0.1584697 0.018287435 0.091333136 0.07267581 0.025788054 0.031789497 0.029265016 -0.1754173
0.14277412 -0.12293561 -0.117760085 -0.022258684 -0.16374421 0.0011584759 0.16839762 -0.17660391
0.039217204 -0.0696872 0.105875865 0.050979435 -0.083336204 0.11257242 0.11924733 -0.04307343
-0.10336839 -0.14955135 0.061978936 0.09922723 -0.08613514 0.011459489 -0.012237355 -0.017926376
0.087859295 0.15910396 -0.11338569 0.015990708 -0.039771438 0.08281778 0.097610116 -0.06708109
-0.1235367 -0.10309886 -0.05176368 -0.107421406 0.10822681 -0.09695048 0.093418375 0.14286403
0.043497 0.09223309 -0.08857075 0.13716322 -0.17013146 0.11473899 -0.18286186 0.14523542
-0.031085327 -0.0998169 -0.16232403 -0.13584918 -0.054835916 -0.16898185 0.03756705 -0.0054775774
-0.17535812 -0.0640811 0.10650875 -0.09455913 -0.029506102 0.035036743 -0.17160295 0.048542753
0.06925817 0.04396388 0.09570812 -0.16713874 -0.07294281 -0.10571698 0.05304824 0.11010958
-0.15954387 -0.16449243 -0.17203076 -0.14694077 0.15138884 0.014588818 0.08089109 0.1694266

bias f4 [8]
00000000: a09e c83d a002 d2bb 986b 34bb 144e f13d
00000010: 03b6 a8bc 5ef9 b13d f240 553d 07be 333e
0.0979588 -0.0064090043 -0.0027529951 0.1178247 -0.020594602 0.08690141 0.05206389 0.17552958

weight f4 [4, 8]
00000000: 88b0 0c3d 7e57 8bbe 005d d23b 7c05 9cbe
00000010: 61e4 a53e a318 1cbe 403d 933d 9c35 aabe
00000020: bee8 6e3e 6ca8 bebd 68b3 94be 1cbe e53d
00000030: d575 aebe f874 bcbd 7cc5 3fbe f097 d2bc
00000040: 904d ea3c 2879 b3be dc9f c7bd 004a 843a
00000050: ca30 683e c65b 88be a234 0b3e f72d 3bbe
00000060: 3056 263d 46ad 59be d6ef 60be 95c2 823e
00000070: 5641 7bbe a087 01bd b272 28be 61e5 76be
0.03434804 -0.2721519 0.006419778 -0.30472934 0.32400802 -0.15243773 0.07189417 -0.33244026
0.23330972 -0.09309468 -0.29043126 0.11217901 -0.34074274 -0.092019975 -0.18727678 -0.025707215
0.028601438 -0.35053372 -0.09747288 0.0010092854 0.22674862 -0.26632518 0.13594297 -0.18279253
0.04060954 -0.21257505 -0.2196649 0.2553908 -0.24536642 -0.031623483 -0.16450003 -0.24110939

bias f4 [4]
00000000: 00df dc3c 044b 8ebe aeb3 253e fd2a a63e
0.026961803 -0.27791607 0.16181824 0.32454672
