losses/models/ann14.pth (torch, 68636 bytes, 10 tensors)

weight f4 [128, 40]
00000000: 8008 113e 2482 c7bb c231 e23d 4fca 923e
00000010: 73ab c2bd c5b8 3e3e cf9c 0abe 2fea 123e
00000020: acd2 df3e 3980 753c f143 88be bc3f a03e
00000030: a8db 0bbe 8bb0 e73d 0943 eb3d cf54 bc3e
00000040: 8304 b8be 4c1f 5a3d 58c8 6bbe 2115 b53e
00000050: 9450 913e abac 4cbf c7b7 d7be 991d dfbd
00000060: 5539 133f 7af1 93be 77be debd 2cc4 6d3e
00000070: 2b48 6b3e 0986 a53e 6968 a33d 5b44 9cbe
00000080: 11a3 8b3d ccdb 3b3e 2506 c3bc 0d56 3ebd
00000090: 1c9b d83d 6ba5 35be 333a 653d 7150 043e
000000a0: 50f6 9c3d 3c49 af3d 0c6d 383d c075 9c3e
000000b0: b256 ddbd bfa3 533e e9f9 69bd 0f70 013d
000000c0: b552 3c3e 52cf 883d f7c8 d0bd 4220 2f3e
000000d0: f215 5ebd d043 f63d 22ce e13d 147c 643e
000000e0: 21df 85be f8b2 683e 155e 26be 2241 d73e
000000f0: 2463 a43e 6cd6 24bf 2a76 a2be 44e3 fdbd
00000100: 8b1f 123f 3c91 65be 238a 9f3c 774b 763e
00000110: 1eaf b13d 799e 033e 38d7 693d a3c7 bbbe
00000120: d850 55be e051 bd3d 46e0 21bc b6ce 0ebe
00000130: 3cf7 ef3c ec93 09be ef5a c0b9 cfd9 343d
00000140: bb6f 773d 5210 133e ff71 2abe a9f5 a9be
00000150: b06c 1a3e 3f8e 6ebe 325d a4bc 29f4 fdbc
00000160: 9c6c 96be cadd 8a3c 0612 893d 6a9d 35bb
00000170: d97a d5bd 5830 03be 95a1 37bd f0b9 c2be
00000180: d28a 9a3e 0175 8d3c 52d6 41bd 5453 e8bd
00000190: 81cd a4be 29fc 013f 16cd 653e 5a72 663d
000001a0: 5730 a1be a721 523e f1b2 19bd 3a73 44be
000001b0: d458 25bd 7c0c 80be f4ed b1bd 8b1d 9f3e
000001c0: a15d 3bbf 3af7 dbbd dc27 953e 3f4e 273e
000001d0: a5bd 133e dfe0 09be 4dcd cebd c7e5 c43d
000001e0: d60d a3bd 8bc6 b93c 939f 033f 6895 66be
000001f0: a58b a53b 55b8 e93d 3340 373e cdb2 823d
00000200: 76a8 05bc e059 1dbe b308 d53b f0d0 96be
00000210: 8fd7 6f3e 9faf debe 358c b23e dd70 99be
00000220: a5d2 983e 1ab1 3ebe 78bd 53bd 4921 99be
00000230: e6f6 f8be 8fcb 0e3f c283 823e edb3 e2bd
00000240: d89d 15bf d600 5b3e 6ab1 ca3d f2ff 903e
00000250: 5c51 bdbe b5d0 41be 1d12 823d fada bc3c
00000260: 0cf6 713e afae 253e 9c4f 48be 33cf 92bd
00000270: db8b 0bbe 0e12 a93d c342 b33d 3ea8 ac3d
00000280: a9ab b8bd b8cc cf3d b399 97bc c457 85be
00000290: bcc0 233e 7701 eabe 3e42 123e ddfa 403d
000002a0: 6207 3abe b589 573e 43f2 4abe 46c1 48be
000002b0: 2d5f 3dbd 1d1f 48be c450 22be 232d 12bf
000002c0: 3d4d b53e e7d0 b6bd 0681 11be 318c adbe
000002d0: b3d8 b0bd 64b2 e83e 93c2 09bd b648 413d
000002e0: c6d7 01bf 02db 97bc 9b64 86be d8a3 52bd
000002f0: 1ad6 7a3e 8e28 98be 8eed be3d 6eb5 463e
00000300: 3641 39bf 7e41 3fbb 0127 973e 4670 af3e
00000310: 142f 0c3d ec84 cdbd df70 7cbe 3e72 e93e
00000320: a06b 453c d368 b8bd f61a 28bd 3e93 a93d
00000330: e8e7 aa3d 03a7 b5bd a593 0cbe c457 09be
00000340: 1e13 823d 55c9 ddbd 94f5 ac3d d4ae 33bd
00000350: 549e 393d e648 c6bd 19b5 12be f8ca 843d
00000360: a899 a5bc 10e0 5ebd 2033 ae3b 7e1d cf3d
00000370: b852 f4bd d375 0a3e 2af9 c23d b49e 173d
00000380: 1664 9f3d a2a3 de3d 80d7 b03b 1890 0f3d
00000390: 5e6f 923d 50f9 01bd d6e4 ffbd 643d 10be
000003a0: 2a23 3fbd a806 8f3d 1e10 e23d 70a3 ec3c
000003b0: 20a3 433d d12e 8dbd 808b 323c 356c d1bd
000003c0: a14d d83d c5d2 8a3d 5218 c4bd 2af3 b4be
000003d0: ef27 5f3e a59c 92be a0b5 c9bd 88b3 c0bd
000003e0: 24dc 9d3d 0373 c03d 9e99 71be e153 15be
000003f0: 29e5 ad3d 9f03 923e 29c6 89bd e0fe 71be
0.14163399 -0.006088512 0.11044647 0.28669974 -0.095053576 0.18625171 -0.1353638 0.14347146
0.43715417 0.014984184 -0.26614335 0.31298625 -0.13658011 0.1131297 0.11487395 0.36783454
-0.35940942 0.053252503 -0.23025644 0.35367683 0.2838179 -0.7995097 -0.42132398 -0.10894317
0.57509357 -0.2889517 -0.10876172 0.23219365 0.22976749 0.32328823 0.07978899 -0.305209
0.06818212 0.18345565 -0.02380664 -0.046468783 0.1057646 -0.17738883 0.055963706 0.12921311
0.07664168 0.0855889 0.04502587 0.30558586 -0.108075514 0.20667933 -0.0571231 0.031601008
0.18390925 0.06680168 -0.10194581 0.17102149 -0.054220147 0.12024653 0.11025645 0.22312957
-0.26146796 0.22724521 -0.16246827 0.4204188 0.32106888 -0.6438968 -0.31730777 -0.12396863
0.5707938 -0.22418684 0.019475048 0.24052225 0.08675979 0.12853421 0.057090014 -0.36675748
-0.2083162 0.09244132 -0.009880131 -0.13946041 0.029292695 -0.13435334 -0.00036688845 0.04415303
0.06040929 0.14361694 -0.16645049 -0.33195236 0.15080523 -0.2329645 -0.02006397 -0.031000214
-0.29379737 0.01695146 0.06692891 -0.0027712234 -0.10423822 -0.1281141 -0.04483183 -0.38032484
0.30184036 0.017267706 -0.047323532 -0.113440186 -0.32188037 0.5077539 0.22441515 0.056261398
-0.31482193 0.2052065 -0.037524167 -0.1918458 -0.040367916 -0.25009525 -0.08687964 0.31077227
-0.7318974 -0.10740514 0.29131973 0.16338442 0.14427812 -0.13464688 -0.10097752 0.09614139
-0.07961623 0.02267768 0.51415366 -0.22517931 0.0050520473 0.11412112 0.17895584 0.0638176
-0.00815784 -0.15366316 0.006501281 -0.29456282 0.23422073 -0.43493363 0.34872594 -0.2996892
0.2984821 -0.18622246 -0.051694363 -0.29908207 -0.4862587 0.55779356 0.25491148 -0.11069474
-0.58443975 0.21387038 0.0989712 0.2832027 -0.36976135 -0.18927272 0.06351111 0.023053635
0.23629016 0.16179918 -0.19561619 -0.07168426 -0.1362757 0.08255397 0.08752968 0.08430527
-0.090171166 0.10146469 -0.018505907 -0.26043522 0.15991491 -0.45704243 0.14283082 0.047114242
-0.18166879 0.21048625 -0.19818978 -0.19604978 -0.046233345 -0.19543119 -0.15851122 -0.57100123
0.3541049 -0.08926564 -0.14209375 -0.3389602 -0.08635082 0.454486 -0.033632826 0.047188483
-0.5071987 -0.018537048 -0.2624863 -0.051425785 0.24495736 -0.2971844 0.09322654 0.19405147
-0.7236513 -0.0029183323 0.29521945 0.34265345 0.034224585 -0.100351185 -0.24652432 0.45594972
0.012049586 -0.09004369 -0.041041337 0.08280037 0.08345014 -0.088697456 -0.13728197 -0.13412386
0.063513026 -0.10829417 0.08445278 -0.0438679 0.04531701 -0.09681873 -0.14326896 0.06484026
-0.02021487 -0.0544129 0.005316153 0.10113047 -0.1192984 0.13521509 0.095201805 0.037016585
0.07782762 0.10871054 0.0053967834 0.035049528 0.07150148 -0.031731904 -0.12494819 -0.14085919
-0.046664394 0.069836915 0.1103823 0.028886527 0.04776299 -0.06893695 0.010897517 -0.10225717
0.105616815 0.06778482 -0.09574951 -0.3534177 0.21792577 -0.28635135 -0.09849095 -0.09409243
0.07708004 0.09396937 -0.23593757 -0.14582779 0.084909745 0.28518388 -0.06727249 -0.23632383

bias f4 [128]
00000000: 3a1d 7ebd 570a b9bd 014f ae3c a977 f9bd
00000010: 9137 e0bd 085f 5b3d 3013 8b3c 80cb b83a
00000020: 35a3 0b3e a60b 9bbc 8c82 f7bd 68d6 02bd
00000030: a59e 183e 34a3 b53d 3173 083e 1f43 633d
00000040: eba7 d63d 2144 91bd 5c6b 3f3d 0c6d 493d
00000050: 5197 373d b046 d6bc 1a85 4dbe 3f0a 08be
00000060: d77f 073e 8d16 2cbd 1e0f d2bd 573b eebd
00000070: 4445 8dbd 662b 40bd ad70 bb3d 80ca ce3a
00000080: 523c da3d c6f7 bcbd 4a7a 9e3d b822 2a3d
00000090: 6ce9 42bd 77d5 0c3e a81e 96bd f039 853d
000000a0: 1e1c e93b a27f 863d 5d42 0cbd 1c39 4cbd
000000b0: 93bb 0c3e 8a24 27bd d2d9 8a3c aae7 293e
000000c0: 6197 a3bd 41a9 d0ba 6881 d4bc f7d2 f03d
000000d0: 9066 303c 9855 a43b 191f 13be b794 203e
000000e0: 1251 1fbe 6a3e 2abd 00f8 c23c 9683 ca3d
000000f0: 4048 abbb cbba f1bd baac 853d dd6c 8b3d
00000100: 6d1c 093e 73b9 073e 290c 2bbc 3c29 1abc
00000110: e7d7 063d c332 febd bfd2 cbbd 222b 853d
00000120: 0b18 84bd 4109 003c ddad 17be 4fab 873c
00000130: cedd 0bbe 94fd 193d d879 293d e18e 0bbe
00000140: 8861 9dbd ba24 da3d 48d2 8a3d 78b3 e4bd
00000150: bcb3 3b3d 28bb 943c b88f a63d 1fc2 373e
00000160: f35a 84bd ce6f a23d 3586 103e ab61 12be
00000170: 554b 81bd 10d5 733c 40fc 02bb 8ec1 48bd
00000180: 745b 9fbc 27e3 b6bc 8a9c 2fbe 8863 bcbd
00000190: eda0 0abe 5952 0e3e fb03 2dbe 1f42 733c
000001a0: 9297 d1bd 60c0 c73d 3340 123d 772c af3a
000001b0: 7f74 babd 8624 d23d 40c1 983d a8e7 413d
000001c0: a841 4dbd da36 e13d 066a 8abd 6834 e43d
000001d0: 6263 84bd 701f 9fbd b8a6 b13d 0b09 0c3e
000001e0: 16e4 35bd 1400 4d3d 281c d1bc 6bb0 983d
000001f0: b102 6a3d a93a 00be c859 0d3d e0e3 2ebe
-0.06203959 -0.09035175 0.021277906 -0.121810265 -0.109480985 0.053557426 0.016976923 0.0014098734
0.13636477 -0.018926453 -0.12085447 -0.031942755 0.14904268 0.08869019 0.13325192 0.055483934
0.104812466 -0.07093073 0.046733245 0.04917626 0.04482204 -0.026156753 -0.20070305 -0.13285159
0.13232361 -0.042013694 -0.102567896 -0.11632412 -0.06897977 -0.046916388 0.091523506 0.0015776902
0.106560364 -0.092269465 0.077381685 0.041537017 -0.04758589 0.13753305 -0.07330066 0.06505191
0.0071139475 0.06567313 -0.034242976 -0.04985915 0.13743429 -0.04080633 0.016949568 0.16592279
-0.079878576 -0.0015919582 -0.025940612 0.11758988 0.01076664 0.0050150864 -0.14367332 0.1568173
-0.1555827 -0.04156343 0.023799896 0.09888379 -0.0052271187 -0.11803206 0.065270856 0.068078734
0.1338975 0.13254337 -0.010439911 -0.009409245 0.032920744 -0.12412026 -0.09952306 0.065023676
-0.06449898 0.007814706 -0.14812417 0.016561178 -0.1365883 0.037595347 0.041375965 -0.13628723
-0.07684618 0.10651536 0.06778389 -0.111670434 0.045825705 0.01815565 0.08132881 0.17945145
-0.0646266 0.07931481 0.14113696 -0.1429507 -0.063131966 0.014882341 -0.0019986778 -0.049012713
-0.019452788 -0.022325112 -0.17149559 -0.091986716 -0.13537951 0.138986 -0.1689605 0.0148473075
-0.10233988 0.097534895 0.035705756 0.0013364692 -0.09104251 0.102608725 0.074587345 0.047340065
-0.050111443 0.1099679 -0.067585036 0.11142808 -0.06464268 -0.07769668 0.08674377 0.13675325
-0.044406973 0.050048903 -0.025526121 0.07455524 0.057131473 -0.12522377 0.03450945 -0.17079115

weight f4 [64, 128]
00000000: 0e7a 48bb 93e0 88bb ae30 de3d 1601 37be
00000010: cb57 7abc d0fc ce3c 8b07 50bc a8f3 80bd
00000020: 4684 9cbd 5cae b03d 6512 eb3d bcbe 5abd
00000030: 505d 1bbc e499 173e ea11 9fbb 4af2 04be
00000040: 7c48 84bd 0077 083b dcae 8b3c 51c0 983d
00000050: 078a 873d 0522 a73d 0bf6 be3d b122 433d
00000060: e076 5c3d 7673 90bd 5f55 99bd 1c1d 9abc
00000070: 6d1d 543d de6b 933d ed93 31bd d812 6bbc
00000080: 50e8 b3bb dabb 1c3d 37b6 9f3d 62b6 513d
00000090: f12b 2abd e5be e83c 107a b53c 7abf 1f3d
000000a0: 9f4e 853c 0f05 d23d 91fe 42bc e495 233d
000000b0: e3cc 963d 3900 80bd 6555 173d 4a6d 9c3d
000000c0: 0476 273e 2a89 5d3d ee59 b1bd ef97 1d3e
000000d0: e06c ce3c c84c aebd 3468 cc3c 43f7 9c3d
000000e0: c00e ff3b b5cf 1dbd 34e2 fa3c 201b 613b
000000f0: 7f7c 76bd 81eb dd3d 6ec8 86bd 14b5 073e
00000100: 2008 2e3b e02f 5dbc ada8 b2bd 9472 083d
00000110: 821d b8bd 497f 993d b9b6 29bc f291 8e3b
00000120: 54d1 f0bc a174 403e 0ec4 6b3d bf06 2fbe
00000130: 00dd 55bd 1122 69bd a9e3 823d b731 4f3d
00000140: 57c6 b33d 0895 47bc e816 bb3c 5b53 b73d
00000150: d50e 8f3d b155 233d f804 2ebc 1fc8 1ebe
00000160: 0468 92bc 006e 7db9 45a2 253d 2ecd e1bc
00000170: 575e 4fbd 43d1 94bd 6bf6 aebd 503b d3bb
00000180: 5788 dfbd 4e54 b03d 1484 e23b 0063 27bb
00000190: 4168 5ebd 60fd b43c a77b d33d 8f8e 99bd
000001a0: e2a5 893d d6f2 c7bb 06ac b5be 8525 0dbe
000001b0: 9ea8 e9be 51bb 943d 0d53 923d 2b6d 42bd
000001c0: 6bf5 a8bd fa5e 093e 4aff ab3b f0ef 91be
000001d0: f7fc 9e3d 1ba3 0abd fb9a a23d fa64 7cbd
000001e0: ac6a 8d3c b56e 64be f606 a9bd e575 90bd
000001f0: 8dee c6bc 9acd 9cbd c01c 5ebb b9d2 d2bc
00000200: 9372 163e c19a 9c3d e6a3 9cbd 1151 2abe
00000210: 821c b13d 980a 7d3c 072d 85bd bc37 c8bc
00000220: b05d 8fbd 6277 9b3d 1f23 abbd 8b4e 9abd
00000230: ea0c 2f3d b205 a73d f24b 833d 7fd2 183c
00000240: c5db a7bc 167b 90bd 057b 64bd 7cb4 a0bc
00000250: e38e 793c 00ea e139 a867 8cbd dafe ab3d
00000260: 58ca 043d 6fe0 f53c d995 95bd b02c eebb
00000270: 0a41 60bd 153f 35bd b367 5bbd 6e41 9ebd
00000280: 9854 643c c4c7 a63c 7da5 69bd 5720 933d
00000290: a4db e93c c143 1c3d 7928 b43d c0af 9bba
000002a0: 594d 633d c4c3 5fbb 54d1 d23c 0f7c 313d
000002b0: 8655 12bd ec32 a0bd 4f41 c33d 6c28 cbbc
000002c0: f5e2 a83c 4517 83bc add9 59bd 4d03 073e
000002d0: 9657 60bd 9fde c83c c85e 37bc 68dd a0bd
000002e0: 82cb 7c3d 96ee 103d bce4 87bd e569 993d
000002f0: 4909 8b3d a9f3 d43d bb4e 03bd c6b1 ea3c
00000300: 9c6a d1bc 5548 59bd bd7e edbc 511a fa3d
00000310: 9534 85bd 4c78 82bd 12fe f4bd d68c 353e
00000320: c397 4cbd e99d a23d cc8e 9c3c bdbb a23d
00000330: 4db1 12bd 20c5 e13b 7085 a6bc 5798 883d
00000340: 14ab 863c 7a3d a4bd f000 803c 6dce 0ebd
00000350: 8025 f4ba 2578 e83d 22fd 88bd fe72 19be
00000360: 340f 80bd 1c0c 9dbd 2926 d73c f01e c53c
00000370: 3048 ac3c 3690 a1bd a20e 663d e057 30bb
00000380: 48a6 473d a64e 903d b4cc 9bbd 62a8 7abd
00000390: 6448 ecbb ace6 aabd fa8e 843d d99c 07bd
000003a0: 88f7 ab3d 9f2f 623d 71e7 dabd 5276 6b3d
000003b0: 26eb c03d 50ec 8fbc 8ee4 773d 785d 62bc
000003c0: 4eca ef3b 7bc7 7bbd a79a db3c 09a3 523d
000003d0: a8a3 e13c 132b 9d3d e8af 6dbc 7fd7 38bd
000003e0: 9d80 923d 44f8 c3bd e9db 953d b505 7cbd
000003f0: 1836 41bd 1013 19bd b0f9 593c 756a 53ba
-0.0030590328 -0.004177162 0.10849129 -0.17871508 -0.015279721 0.025267035 -0.012697111 -0.06296474
-0.07642417 0.086270064 0.11478118 -0.053404555 -0.009482697 0.14804798 -0.0048544304 -0.12983051
-0.06459138 0.0020822883 0.017051153 0.074585564 0.066181235 0.081607856 0.09324273 0.047640506
0.053824306 -0.070532724 -0.07486986 -0.018812709 0.051785875 0.071983084 -0.043353964 -0.014347754
-0.0054903403 0.038265087 0.077984266 0.051199324 -0.041545812 0.028411338 0.02215293 0.039000966
0.016272841 0.10254871 -0.011901514 0.03993787 0.07363298 -0.062500425 0.036946673 0.07638033
0.16353613 0.054085888 -0.08659731 0.1538999 0.0251984 -0.085107386 0.024952032 0.07664349
0.0077837408 -0.038528163 0.03062544 0.0034348443 -0.060177322 0.108359344 -0.06581198 0.1325267
0.0026555136 -0.013500184 -0.087235786 0.033312395 -0.08990003 0.07494981 -0.010358506 0.004350894
-0.02939669 0.1879449 0.05756002 -0.17092417 -0.052212715 -0.056917254 0.06391079 0.05058452
0.08778065 -0.012181528 0.022838071 0.08951446 0.06985251 0.039876644 -0.010621302 -0.15506028
-0.017871864 -0.00024168938 0.040437955 -0.027563658 -0.05062708 -0.07266476 -0.08543094 -0.0064462796
-0.10914677 0.0860983 0.0069127176 -0.0025541186 -0.054298643 0.022093475 0.10326319 -0.07497894
0.06721093 -0.0061019463 -0.35482806 -0.13783844 -0.45636457 0.0726229 0.07144747 -0.047467392
-0.08249935 0.13415137 0.0052489387 -0.2850337 0.07763093 -0.033846956 0.079397164 -0.061619736
0.01726278 -0.22307856 -0.08253281 -0.070537366 -0.024283672 -0.07656403 -0.0033891648 -0.025735246
0.14692144 0.076467045 -0.07648449 -0.16632487 0.086480156 0.01544442 -0.06502729 -0.024440639
-0.07000291 0.0759113 -0.08356308 -0.07534512 0.042736925 0.08155383 0.0641097 0.00932753
-0.020490536 -0.07054727 -0.055781383 -0.019617312 0.015231821 0.00043089688 -0.06855708 0.083982185
0.032419533 0.030014245 -0.07303972 -0.0072685108 -0.054749526 -0.044249613 -0.053565692 -0.077273235
0.013936184 0.020358928 -0.057042588 0.07183903 0.028547116 0.038150553 0.08796782 -0.0011877939
0.055493686 -0.0034143785 0.025734581 0.043331202 -0.035726093 -0.078222126 0.09533941 -0.024799548
0.020616034 -0.016002307 -0.053186107 0.13184853 -0.05477103 0.024520217 -0.011192031 -0.0785473
0.061717518 0.035383783 -0.066354245 0.07490901 0.067888804 0.10398037 -0.032057505 0.028649222
-0.02556353 -0.053047497 -0.028991098 0.12212051 -0.0650417 -0.06370601 -0.119625226 0.17729506
-0.04994942 0.07940275 0.01911106 0.079459645 -0.03581362 0.006889954 -0.0203273 0.066696815
0.016438998 -0.08019538 0.015625447 -0.03486483 -0.0018626899 0.11351041 -0.06688906 -0.14985272
-0.062529 -0.07668325 0.026263313 0.024062604 0.021030515 -0.07888834 0.0561663 -0.0026907846
0.048742563 0.07046251 -0.076074034 -0.06119574 -0.007210778 -0.083447784 0.06472583 -0.033108566
0.08396822 0.055221196 -0.10688675 0.057485886 0.09419851 -0.017568737 0.0605207 -0.01381623
0.007317818 -0.061469536 0.026807142 0.051425014 0.027543858 0.076742314 -0.014507271 -0.045127388
0.07153437 -0.09568837 0.07317335 -0.06152888 -0.04717073 -0.037371695 0.013304159 -0.00080648746

bias f4 [64]
00000000: b59d 9ebd a090 9d3b 9217 0abd 7ae0 e13c
00000010: 1827 153c dcf0 1e3c 983a a33d 1edf a43d
00000020: 92b6 233d 3b84 8b3d 13b7 b9bc 6e54 08bd
00000030: 71ec 69bd 2708 bbbc 924c 163b 802b 873c
00000040: ce3e 5d3d 2b32 9a3d 59d9 c8bd 44d9 0d3d
00000050: d25c 363d 81f6 4dbc b9f1 acbd 23a8 5fbd
00000060: 7807 fcbc b072 96bc 72a1 713d 8310 24bd
00000070: 5705 c9bc 2f6f a53d 3d49 8c3d c61b 13bd
00000080: 9d87 10bd a823 f2bc e3f5 8f3d 7dde 7fbd
00000090: 1e28 a53d be88 61bd 5018 0c3c febb 8fbd
000000a0: 655e 2b3d 1622 6c3d 6e9b 7ebd 08b1 49bc
000000b0: e040 2a3c 973e 883d 0e96 1bbd cbb2 c43d
000000c0: 1841 da3d 240c ea3c e9dc b43d 90a8 813b
000000d0: 85f8 b2bd a02a 403d 8408 2abc 1e5f 853d
000000e0: d99c 9dbd 5336 49bd c375 a33d 92f0 b9bd
000000f0: c016 9ebc 70c5 b1bc 30de da3c 1099 8b3c
-0.07744924 0.0048085004 -0.033713885 0.02757286 0.009103559 0.00970098 0.0797016 0.08050369
0.039969034 0.0681233 -0.022670304 -0.033283643 -0.057110254 -0.022831036 0.0022933823 0.016500235
0.054014973 0.075291 -0.09807081 0.03463103 0.044522114 -0.012570978 -0.084445424 -0.054603707
-0.03076528 -0.018365234 0.058991857 -0.04005481 -0.024538679 0.08077847 0.068499066 -0.03591516
-0.03528558 -0.029558018 0.07029321 -0.06246804 0.08064292 -0.055062048 0.008550718 -0.070182785
0.04183807 0.057649694 -0.062159948 -0.012310274 0.010391444 0.06652563 -0.0379849 0.096044146
0.10656947 0.028570242 0.08831198 0.003956862 -0.087388076 0.04691565 -0.010378007 0.06512283
-0.07695932 -0.049124073 0.07981446 -0.09079088 -0.019297957 -0.02170059 0.026717275 0.01704076

weight f4 [32, 64]
00000000: 7cbe 693e 831c 833d 51ae a2bc 0da9 8cbd
00000010: c464 27bd 441f 0f3e ec0e 90bc 513a 32bd
00000020: 04ff a6bd 40e5 063c 2ebc 313e c2ce dabd
00000030: 7096 ad3d 05f4 453e 5dc7 0e3e 88d9 46bd
00000040: b0a4 4dbc 37d4 093d a2c5 4b3c f779 8a3d
00000050: 4eb0 f0bd 4d1d 093e ecca fe3d 9195 2a3e
00000060: 2471 6b3d f8e2 73bd c776 39bc bd45 993d
00000070: 97f7 6c3e 6425 db3d 000e 0e3a 1329 7dbe
00000080: cf14 143e 246c c4bd 7247 2e3e a1fc d2bd
00000090: 55e5 073d 933b cd3d 12c9 ed3d c936 0b3d
000000a0: f935 5bbe a402 6d3d 3545 473d 1264 95bd
000000b0: 00ca 1c3b c6f1 1e3e acb9 d83d 1514 93bb
000000c0: f4f8 e3bd c09f 8e3c e4db 0d3d 3c7b c9bd
000000d0: f00e 7e3c b6b2 aabb f850 983d f318 56bd
000000e0: e8ef e13c ed97 5ebb d4c7 7fbd f024 b0bd
000000f0: a812 07be 3070 2c3d 0cd7 b1bd d757 b2bd
00000100: 2777 b53d ec8d a43d 01fc 17bd 0ef2 f93c
00000110: 0e5e b13d 699f 8e3d 930b 5b3d 0289 623d
00000120: 00ba b3bb 0c1d cf3d 3161 593d 731a 69bc
00000130: c0f6 c3bb 798a 5bbd 50e4 043a 8e98 eebd
00000140: 22ec f9bd f314 e0bd 2b14 253d bb2a 84bc
00000150: d020 863c 52bb 853d 4a46 86bd 2048 00be
00000160: 3aae bfbd a4f0 18bd 4355 62bd a819 7d3d
00000170: 0a3d c13c e691 df3d 1ce3 e4bd 0954 17be
00000180: 361d 4fba 2a88 85bd 4270 0dbd 9c46 cbbc
00000190: 0f82 1bbe f35e a43c 80b7 e3bb eda4 c0bd
000001a0: 2497 a4bc 72ff c8bd af4d 9a3d e04b 16bc
000001b0: 16c4 ae3d 207a f93d d05b 893d 5c8a d4bd
000001c0: 90a7 37be 10c0 26bc 5059 68bc 8062 c6bb
000001d0: c08d a0bd 8c31 8c3c 919f 093e 01f3 763d
000001e0: 982b f9bc 86ff 313e 8849 bcbc 47ca c5bd
000001f0: a806 99bd e8da 90bd 408f 5cbd 37b2 c73c
00000200: 4864 b8bc 946a df3d 2627 f2bd 3e1e d3bd
00000210: 2e3e ea3d 321d cebd 8c57 573d a8a3 383d
00000220: 7c2b 293d 183c ab3d 8c35 cfbd 1a85 873d
00000230: f6ae eabd e8c4 ae3d 902b 66bd 40e1 503d
00000240: 20ae 533c d6fb ac3d 5201 953d c087 703b
00000250: 4ce9 273d aef2 c0bd 2c71 653d a032 9ebb
00000260: 38c5 eabc ca7d dc3d 0e94 c9bd c00a 153c
00000270: 38c6 073d e80c ffbd 8c93 613d d817 a9bc
00000280: 40c6 09bb 7202 b3bd 8682 f2bd 1092 91bc
00000290: 28b2 aabc fcb4 6f3d 567c cc3d 6e2f ddbd
000002a0: 6cb6 b6bd 96d7 8cbd 58a0 efbc 40a5 df3b
000002b0: 44c0 363d 387c 1fbd d8cf 5d3d 26a1 94bd
000002c0: 8091 2e3d e8ff 11bd eea3 fdbd 7031 91bd
000002d0: 42dc fa3d 30ee 9e3d 0492 37bd 0024 623b
000002e0: 7476 53bd bc9a 4abd e8ad debd 9a5c e63d
000002f0: a8f4 cb3c 20ee b93c 0063 cdbc 60bc ee3b
00000300: 71c5 7a3d 64e0 cbbd 04ca 893d 4f59 93bd
00000310: 388d edbd f5d1 8b3c 25c5 193d 02c4 c7bb
00000320: 5c0d b8bd 9887 ac3d 6bfa fd3d c96b 0bbc
00000330: c492 403d 4c60 303d d122 8e3d f0f8 49bd
00000340: 2481 ac3d 8d7d ddbd 9cdb e1bd 509f e0bd
00000350: 7098 9ebd 90f8 183d 50c1 e9bd 7c5b db3d
00000360: 565d cdbd f4c4 dcbd 252b 8c3d d9dc 97bc
00000370: da6b 8ebc c0bc 6abb ae52 a03d 4f3b 1dbe
00000380: fea4 0dbc 6026 c13c 62d1 86bc 3807 9fbd
00000390: 937d d93d 1ba6 033e bab5 d73d da2e ccbd
000003a0: 60b9 1dbe 2000 1f3d d7ad 483d 30ce a1bd
000003b0: 84da 6bbd 137e 6dbb e41e cfbd e498 c83d
000003c0: 6a90 54bd 46f0 993d e068 423c 3045 413c
000003d0: 34bf a5bd d9cd 2c3b eb9f 93bc d8e1 abbd
000003e0: 2819 f73d 6564 64bd 40bf 273d 3586 cf3d
000003f0: cc69 00be 0f50 a23d cc9c a4bd 3a98 c6bc
0.2282657 0.064019226 -0.019858511 -0.068681814 -0.040867582 0.1397677 -0.01758524 -0.043512646
-0.08154109 0.008233368 0.17356941 -0.10683967 0.08475959 0.19331367 0.13943239 -0.048547298
-0.012551472 0.03364965 0.012437256 0.06761544 -0.117523775 0.13390084 0.12441048 0.16658618
0.057480946 -0.059542626 -0.011319823 0.07484005 0.23141323 0.10700491 0.0005418956 -0.247227
0.14461063 -0.09590939 0.17019442 -0.103020914 0.033177692 0.100211285 0.11610617 0.033987794
-0.21407308 0.057863846 0.048649985 -0.072944775 0.0023924112 0.15521917 0.10582289 -0.004488478
-0.111314684 0.01741016 0.034633532 -0.09837958 0.015506491 -0.0052092923 0.074373186 -0.052269887
0.027580217 -0.0033965067 -0.06244643 -0.08600795 -0.1319071 0.042099178 -0.08683595 -0.0870816
0.08860617 0.08034882 -0.037105564 0.030510928 0.08660518 0.06963999 0.053477835 0.055306442
-0.0054848194 0.10112962 0.053071205 -0.014227497 -0.0059803426 -0.053598855 0.00050694216 -0.11650191
-0.12203242 -0.10941496 0.040302437 -0.016133657 0.016373068 0.06529869 -0.06556375 -0.12527514
-0.09359403 -0.037338868 -0.055257093 0.061792046 0.023588676 0.109165 -0.1117613 -0.1477815
-0.0007900776 -0.06520112 -0.034530886 -0.024813943 -0.15186332 0.020064807 -0.006949365 -0.09406457
-0.0200916 -0.09814347 0.07534348 -0.009173363 0.08533494 0.121814966 0.06706965 -0.103779525
-0.17935014 -0.010177627 -0.01418145 -0.0060542226 -0.07839537 0.01711347 0.13439776 0.06029034
-0.030416295 0.1738263 -0.022984281 -0.09657722 -0.07471973 -0.07073003 -0.05384755 0.024376972
-0.022508755 0.10909 -0.11823873 -0.103085026 0.11437641 -0.10064162 0.052573726 0.04507795
0.041301236 0.08361071 -0.10117635 0.06617184 -0.114591524 0.08533651 -0.05619389 0.050996065
0.012919933 0.084464714 0.072756425 0.0036702007 0.040993974 -0.094212875 0.056016132 -0.0048278123
-0.028658494 0.1076618 -0.09842692 0.009096801 0.03314802 -0.124536335 0.055072352 -0.020641252
-0.0021022707 -0.08740701 -0.118413016 -0.017769843 -0.020836905 0.05852221 0.09984653 -0.10800062
-0.08921513 -0.06877057 -0.029251263 0.0068251193 0.044616953 -0.038936824 0.054153293 -0.07257299
0.04261923 -0.03564444 -0.12384783 -0.070895076 0.12249042 0.077602744 -0.044816986 0.003450632
-0.051626638 -0.049463972 -0.10873014 0.11248131 0.024896935 0.022696555 -0.025071621 0.0072856396
0.06122345 -0.099549085 0.067279845 -0.07194769 -0.11599201 0.017067889 0.037541527 -0.006096364
-0.08986923 0.084243 0.12401279 -0.008509585 0.047014967 0.043060586 0.069402345 -0.04930967
0.08423069 -0.108149625 -0.11028215 -0.109678864 -0.07743919 0.037346423 -0.114138246 0.10710809
-0.10027568 -0.10779753 0.06844167 -0.018537926 -0.017385412 -0.003581807 0.0782827 -0.15354656
-0.008645294 0.023577869 -0.016457263 -0.07765049 0.106196545 0.12856333 0.105327085 -0.09969874
-0.15402746 0.03881848 0.04899391 -0.07900655 -0.05758144 -0.0036238476 -0.10113314 0.097947866
-0.051895536 0.07516532 0.011865824 0.011796281 -0.0809311 0.0026367812 -0.01802059 -0.08392686
0.12065345 -0.055759806 0.040953875 0.1013302 -0.12540358 0.07925426 -0.08037719 -0.02424251

bias f4 [32]
00000000: 8db7 db3c 3180 d23d f076 80bd e15a d93d
00000010: 5cbb cebd 7ce4 ecbd 9abe 3abd 81d6 b3bd
00000020: 48d6 a13d 8c06 8f3a 2c4d bd3c 70bf e3bc
00000030: d15d f83c 83d6 49bd f4d7 f23d 9177 e3bc
00000040: e8b8 1b3d d206 afbd 5969 ddbd e626 ddbc
00000050: 7972 a5bd d02b 62bc 0e8d ba3d 2a6a b13d
00000060: 4cf8 cdbd b0d4 88bd 12f4 bfbd f02f 153c
00000070: e97b 08bc 000f 8fbb 5440 b4bd 2e3d 873d
0.026820922 0.10278357 -0.062726855 0.10613037 -0.1009433 -0.115670174 -0.045591928 -0.08781148
0.07902199 0.0010911985 0.023108087 -0.027801245 0.030318173 -0.04927684 0.11857596 -0.027766975
0.038018137 -0.08546223 -0.10811109 -0.026996087 -0.080784746 -0.013804391 0.09108935 0.08662827
-0.100571245 -0.06681192 -0.093727246 0.0091056675 -0.008330324 -0.004365802 -0.08801332 0.06603466

weight f4 [8, 32]
00000000: 7995 e13d 0bf6 0bbe 32a3 f93d 3b02 65ba
00000010: 3e48 eebe e62d 38be 3c56 10bd 32e6 123e
00000020: 908a 15be 07cf 11bd 98cb 923b a9c5 0c3e
00000030: 405b a23d 4c8e 163e 16fb 0ebe b211 cbbb
00000040: 08d9 a1bd 1cf5 a3bc b713 df3c 1891 2cbe
00000050: 3a03 46be c236 1b3e 6a9a aabe 142b 2abd
00000060: 2c3e 53bd fb4e f23d 04f6 34bd 40c4 943b
00000070: 177c 0a3e 6e83 d33d 6f34 03be 00b0 0438
00000080: 1a46 33be 27af 323d 5aca c33d d2ff 96bd
00000090: bfd7 2abe dc67 5b3d a3ae 30be b192 523d
000000a0: c044 0fbd 369a eb3d 2e4b 62bd 6c57 46bd
000000b0: 32f6 943d f689 d6bd 0ff9 aebd 5e5f 8fbd
000000c0: 0758 c7bd b8f1 563d 3b10 9e3d 1c0e 88bd
000000d0: 1052 32bd c81a 543d b23a b93d a0fd 483c
000000e0: a81e 0abe 2711 823c f782 10be d937 9cbd
000000f0: ed7b 31be ea44 9fbd 9662 2fbe 189d 053d
00000100: 314d d03d 75be f2bd 4047 833b b66c c83c
00000110: ebae 463e 79d5 da3d 227b fc3d fe21 afbe
00000120: a8da 803c 3302 9fbd 10e5 ddbe 521b c53d
00000130: 261f 3a3e e2c2 bd3c 8c00 953d cbd2 413e
00000140: 62c0 edbd 4641 a03d 55fc 9cbd eb2c 073e
00000150: 2ee0 f93c 089b 22bd ad2d 933d 5e43 df3d
00000160: 33da 91bd 9263 bb3d f791 07be f11c 2e3e
00000170: e0ef bbbc e8f6 4fbd 6a5b 2bbe 5b97 a6bd
00000180: 5f28 e13d 7aa3 0a3e ca83 56bd 5902 3d3e
00000190: f5b0 0ebe be31 3a3e dd48 ddbd aa77 ae3d
000001a0: c0e7 57bb 3c38 7a3d ec42 51be 5815 2abe
000001b0: f5e3 86bd 321a a2bd 0497 953d b4c1 d5bd
000001c0: 20b2 5abd 8cbf 243e 80f4 963d c279 a63b
000001d0: 2d23 d5bd 3bbc aebd a383 e4bd c096 dd3c
000001e0: 6619 cb3d 5e26 253e 009f 79bb 8ce3 dabd
000001f0: 1fd4 5f3e 5e56 15be 00dc a9bb afbf d0bd
00000200: b684 9d3d d30f 3e3e 6ba0 143e 3b01 81bd
00000210: 67fe 213e 8169 10be 805d 993c ed0b 3f3e
00000220: 793d 0c3e 0767 043e ba22 29bc ece1 3cbd
00000230: f94b 3a3e 3599 063e 58ab ab3c 7513 aebe
00000240: 20f2 273d b009 eaba ec2b 363e 19e9 2fbe
00000250: efaa 133e cb2b c4bd c627 653e be98 2ebe
00000260: 50dd c93c 23c2 153d b64f a53d 1447 2abe
00000270: ff09 fc3d 0028 dd39 20a8 dd3c 90eb 6b3c
00000280: a3d1 65bd f564 113d 001e 01ba c9bc 33be
00000290: 492a 203e e2b4 7cbd 0d3c 1d3e 9466 443d
000002a0: d881 013d e1c8 0ebe 3eee 523d 08eb 543d
000002b0: 7127 8a3b d2f8 833d d2fb 84bd 3e9b 07be
000002c0: 34d2 443d ca4f 8a3d 89c2 f6bd 27d8 bebd
000002d0: dc42 25bd b8eb b13c c5b7 0c3e ff23 023e
000002e0: da04 a13d 609e c9bc ac33 0bbe 4066 ba3b
000002f0: f02f 1d3d bcf5 9fbd 10d8 d9bd 885f 83bc
00000300: d68b 9a3b 414a 58bd 901e 31be d3c7 723d
00000310: 0e34 a0bd 53cb 183e 70dd cfbc 1301 2abe
00000320: b61d ad3d 71b6 623d db77 a7be a298 c93d
00000330: 07af ffbc b071 eabd 236e 1abe adcb 373d
00000340: 4fbd 9dbd 46db 1d3d 6f8d 13bd 0751 50bc
00000350: 72b9 bdbd 541c 0dbe 40d5 0c3b 6bc3 183e
00000360: 2820 c63c 495e 2fbe 6437 53bd a89c c9bc
00000370: 73b4 6cbc 9a0f b83d 7e33 ffbd 9a48 97bd
00000380: c099 eabd 2a20 b7bd 5dd9 dcbd f4c2 f2bd
00000390: 4bb2 92be 3264 1b3e 9a45 e6bd be3a 753d
000003a0: da5a f53d 6d65 96bd d064 d8be 828f 6ebd
000003b0: 9d33 aebd a54b d43d b84c 933d 69f3 82bd
000003c0: 460e a23d c03a 003d 4d0d df3d 035e ee3d
000003d0: 64ef 593d b11a 75bd 3f6d 123e c8c9 1a3d
000003e0: a44e 8c3d 2a6d 09bd a0d1 0c3c 66dd 963d
000003f0: 3e0b 103e a85d 043d 2282 fabd 50ce ca3c
0.11014838 -0.13668077 0.1218933 -0.0008735989 -0.4653949 -0.17986259 -0.03523849 0.14345625
-0.14603639 -0.035597827 0.0044798367 0.13747276 0.07927561 0.1470272 -0.13962969 -0.006197178
-0.079027236 -0.020014338 0.02723108 -0.16852224 -0.19337168 0.15157607 -0.33320934 -0.04154499
-0.051572964 0.118314706 -0.04417993 0.0045399964 0.13523899 0.103278026 -0.1281297 3.1635165e-05
-0.1750721 0.04362407 0.0956008 -0.073730126 -0.16683863 0.053565845 -0.17254119 0.051409427
-0.034977674 0.11504023 -0.05524748 -0.048423216 0.072735205 -0.10475533 -0.08543598 -0.07000612
-0.09733587 0.052476615 0.077179395 -0.06643316 -0.043535292 0.051783353 0.09044398 0.0122675
-0.13488257 0.01587732 -0.14112459 -0.076278396 -0.1733243 -0.07776816 -0.17127451 0.03262052
0.10170973 -0.11852733 0.0040062964 0.0244659 0.19402663 0.10685248 0.12328173 -0.3420562
0.015729263 -0.07764091 -0.43338823 0.096243516 0.18175945 0.023164216 0.07275495 0.18928067
-0.1160896 0.0782495 -0.07665316 0.13200729 0.030502405 -0.03969863 0.07186446 0.10901521
-0.07121696 0.09149851 -0.13239275 0.17003228 -0.02294153 -0.050772578 -0.1673409 -0.081343375
0.10994028 0.13538924 -0.052371778 0.18457927 -0.13934691 0.18183038 -0.10804913 0.08518918
-0.003294453 0.061088786 -0.20435685 -0.16609704 -0.06586448 -0.079151526 0.073041946 -0.104373366
-0.05339253 0.16088694 0.073708534 0.0050804326 -0.104071 -0.08531996 -0.1115792 0.027049422
0.09916954 0.16127917 -0.0038089156 -0.10687932 0.21858262 -0.14583728 -0.0051836967 -0.10192811
0.07691328 0.18560724 0.1451432 -0.06299063 0.15819703 -0.14102747 0.018721342 0.18656893
0.13695325 0.12929927 -0.010323221 -0.046113893 0.18193044 0.13144381 0.020955727 -0.3399922
0.041002393 -0.001785567 0.17790192 -0.17178763 0.14420675 -0.09578665 0.22378454 -0.17050454
0.024641663 0.036562096 0.08071844 -0.16628677 0.12306594 0.00042182207 0.027057707 0.014399424
-0.05610813 0.03549667 -0.000492543 -0.17552485 0.1564113 -0.06169594 0.15354939 0.04794939
0.03161797 -0.13943817 0.051496737 0.051981956 0.0042161276 0.06443943 -0.064933434 -0.13242814
0.048052028 0.067535 -0.120488234 -0.093185715 -0.040346965 0.021718845 0.13741978 0.12709044
0.078622535 -0.024611652 -0.1359393 0.0056884587 0.038375795 -0.07810542 -0.10636914 -0.016036764
0.004716377 -0.05280519 -0.17296815 0.0592726 -0.07822429 0.14921312 -0.025374144 -0.16601972
0.084529325 0.05534977 -0.3270863 0.098435655 -0.03121139 -0.114474654 -0.15081076 0.044871975
-0.077021234 0.038539194 -0.036023553 -0.012714631 -0.092638865 -0.13780338 0.0021489412 0.14918296
0.024185255 -0.1712581 -0.051566496 -0.024610832 -0.014447319 0.08987351 -0.12460993 -0.073868945
-0.11455107 -0.08941682 -0.10783646 -0.118535906 -0.28651652 0.1517494 -0.11243744 0.059870474
0.11980219 -0.07343564 -0.42264414 -0.05824233 -0.08505938 0.103659905 0.07192367 -0.06394083
0.07912879 0.03130603 0.10891209 0.11639025 0.053206816 -0.059839908 0.14299487 0.03779009
0.06850937 -0.033551373 0.0085949 0.07366447 0.14066789 0.03231588 -0.12231852 0.02475658

bias f4 [8]
00000000: 06c1 e6bd 5099 3cbe 8866 e1bd debb dcbd
00000010: 6696 b1bd 20f3 3bbc 6ac8 34be 4114 2bbe
-0.11267285 -0.18417859 -0.110058844 -0.1077802 -0.08671264 -0.01147154 -0.17654577 -0.16706945

weight f4 [4, 8]
00000000: 5e24 283e f298 313e 40c3 74bd 9bbd 17be
00000010: fc44 f13d 2004 acbc 9375 34be 204d 733c
00000020: 2bcf 8d3e a0c9 a23c ce9e 1e3e 5c4f 8ebe
00000030: b0b9 dabc 383f 22bd 6ffd a6be 3eca a2be
00000040: 663a 343e f070 cfbc 401d 073c aa36 7e3e
00000050: 4c8f 92be e14c 883e 12a5 49be e036 a5be
00000060: f77a 27be 10c0 d03c 76c0 6f3e bcd4 77be
00000070: 8ff1 903e c6d7 273e 9741 843e bc88 8f3d
0.16420123 0.173435 -0.059756517 -0.14818422 0.11780736 -0.02099806 -0.17622976 0.014849931
0.2769712 0.019871533 0.15490267 -0.2779492 -0.02669987 -0.03961107 -0.3261523 -0.31794924
0.17600402 -0.025322407 0.00824672 0.2482554 -0.28624952 0.26621154 -0.19691876 -0.3226843
-0.16355501 0.025482208 0.23413262 -0.24202245 0.28309295 0.16390905 0.2583129 0.07008502

bias f4 [4]
00000000: f7c9 29be 52a2 383e 055c 77be e5f0 b13e
-0.1658095 0.1803067 -0.24156196 0.347541
