losses/models/ann10.pth (torch, 68636 bytes, 10 tensors)

weight f4 [128, 40]
0.13391031 -0.11841749 -0.019354194 -0.049623825 -0.12373049 -0.02317901 0.013904929 -0.15339644
-0.025852323 0.06632914 -0.08902111 -0.10045249 0.011815146 0.070624456 0.0068314224 0.035932392
0.033133864 0.05274272 -0.015646294 -0.08907963 0.15701436 0.112165466 -0.14702615 -0.100737855
0.0033300072 -0.0024272501 -0.12506533 0.017021582 -0.010528401 -0.10409455 -0.07421103 -0.074843325
-0.08810171 -0.04448896 0.05084686 0.01987721 0.08170836 0.043990597 0.14341022 0.03316571
0.03143537 -0.057350203 0.0099374205 0.053274423 -0.12677097 0.038983196 -0.10070312 0.07663314
0.072125986 -0.0776641 0.08759834 0.13454114 0.15357529 -0.1408003 -0.007747069 0.05260025
-0.0019215047 0.008421689 -0.054383896 0.0815099 0.109246746 -0.03154047 0.04096237 -0.035279028
0.15400402 0.11404933 -0.12895124 0.016203165 -0.020222485 0.15579961 0.1236424 -0.009017631
-0.035502024 -0.03870652 0.08999151 -0.027222306 -0.047439396 -0.13338535 0.10413192 0.015754089
-0.039556056 -0.0012089201 -0.5853094 -0.52304554 0.6604942 -0.5368413 0.033174507 -0.29278034
-0.9111142 -0.23362145 -0.11734386 0.14568603 -0.29294032 -0.826982 -0.002888753 -0.957095
0.50281173 0.20015907 -0.13021444 -0.5923081 -0.46629316 0.7673398 0.009453682 -0.06402895
-0.9558932 0.5539969 0.031696767 -0.15778704 -1.4521588 -0.40811643 -0.6282977 0.38716185
-1.0579517 -0.3079466 0.523016 0.48131475 0.04437709 0.15878457 -0.6074565 0.53252685
-0.0823438 -0.1044167 -0.008060515 0.08721283 -0.041125044 0.059484825 0.14941402 -0.098130204
0.012318492 0.019903868 0.11159001 0.136185 0.048979253 -0.02192308 -0.11202571 0.01652293
-0.108101495 0.14017989 0.12388937 -0.08059082 -0.010835066 0.005459234 -0.092379555 0.047417834
0.14048536 -0.037674837 0.051323473 -0.058542415 -0.017377108 -0.10719069 -0.04075235 -0.14960936
-0.08902808 0.10903917 0.126583 0.09706189 0.02208808 -0.12534133 -0.012323707 -0.12811126
0.0263883 0.01875666 1.8650668 -0.49884632 0.5756756 -0.33319578 -0.93260586 -0.47144514
0.11859471 1.148579 -0.951022 -0.3507297 0.07125114 1.1617787 -0.61701655 -1.7851031
1.2476084 1.0850953 -0.2179199 -0.79082155 0.1686303 -0.052773587 -0.6874405 0.5168549
-0.5747338 -1.0280074 -0.31662935 -0.046260446 1.0388577 -0.57057524 0.21483277 -0.0026492004
-1.4610198 -1.0004915 1.409914 1.0640968 0.40143758 -1.3053304 0.6005972 0.06788127
-0.13270335 -0.039013654 -0.11854197 0.0647576 0.09939937 -0.07667947 0.13130216 0.07611816
0.1395113 -0.11220313 -0.11744285 -0.0364578 -0.023697525 -0.030975148 -0.10111421 0.0008382201
-0.038131125 -0.08284739 -0.09994851 -0.09055823 -0.07415814 -0.15231511 -0.021827236 -0.04693614
0.109142706 -0.12492594 0.060535565 -0.02358763 -0.1325936 -0.1509033 0.13787629 -0.15524204
0.122233644 0.111998364 -0.01115033 -0.009553626 -0.11198692 -0.09749097 -0.022304446 0.032530457
0.16227303 -0.027760511 1.9150195 0.62524176 -0.8322662 0.33921766 0.61779237 -0.7736536
1.3878273 0.074209005 -0.12462931 -0.10802785 -0.014924135 0.78921497 -0.5475141 1.5131397
00000000: c91f 093e de84 f2bd b08c 9ebc 5a42 4bbd
00000010: 6966 fdbd e8e1 bdbc 80d1 633c f513 1dbe
00000020: 40c8 d3bc 92d7 873d b350 b6bd 09ba cdbd
00000030: 5094 413c 8ea3 903d 20da df3b d82d 133d
00000040: 60b7 073d c008 583d a82c 80bc 626f b6bd
00000050: 5fc8 203e 02b7 e53d 068e 16be a64f cebd
00000060: 403c 5a3b 8012 1fbb 2011 00be d870 8b3c
00000070: 507f 2cbc 862f d5bd f4fb 97bd 7547 99bd
00000080: ab6e b4bd 0e3a 36bd cc44 503d 88d5 a23c
00000090: b656 a73d 7c2f 343d 21da 123e c4d8 073d
000000a0: 60c2 003d 0ce8 6abd 90d0 223c 4836 5a3d
000000b0: 40d0 01be d8ac 1f3d 703d cebd d6f1 9c3d
000000c0: cab6 933d 5b0e 9fbd c266 b33d 27c5 093e
000000d0: d742 1d3e f42d 10be 20db fdbb 5c73 573d
000000e0: 00db fbba 20fb 093c a6c1 5ebd aaee a63d
000000f0: c2bc df3d 9430 01bd 28c8 273d be80 10bd
00000100: 3bb3 1d3e b292 e93d cb0b 04be 80bc 843c
00000110: a0a9 a5bc ef89 1f3e 3a38 fd3d b0be 13bc
00000120: 926a 11bd ba8a 1ebd 784d b83d 5001 dfbc
00000130: d04f 42bd 2b96 08be 1e43 d53d b80e 813c
00000140: 8805 22bd a174 9eba d6d6 15bf 50e6 05bf
00000150: 2616 293f 6e6e 09bf fee1 073d 4ee7 95be
00000160: c83e 69bf 763a 6fbe fa51 f0bd b82e 153e
00000170: 46fc 95be 18b5 53bf 3c51 3dbb 2e04 75bf
00000180: 45b8 003f 80f6 4c3e ef56 05be 81a1 17bf
00000190: fabd eebe 6270 443f 9ee3 1a3c 9c21 83bd
000001a0: 6bb5 74bf bed2 0d3f 78d4 013d ed92 21be
000001b0: 57e0 b9bf a3f4 d0be 1ed8 20bf 143a c63e
000001c0: f66a 87bf 2dab 9dbe 60e4 053f e36e f63e
000001d0: c0c4 353d 6c98 223e 4582 1bbf ae53 083f
000001e0: dea3 a8bd 6cd8 d5bd 4010 04bc a49c b23d
000001f0: bc72 28bd 5ca6 733d fdff 183e 7df8 c8bd
00000200: 80d3 493c 700d a33c 4e89 e43d 1574 0b3e
00000210: 789e 483d 0898 b3bc bc6d e5bd 185b 873c
00000220: 5164 ddbd 518b 0f3e b6b9 fd3d cd0c a5bd
00000230: 9085 31bc 60e3 b23b 7e31 bdbd 3439 423d
00000240: 65db 0f3e ee50 1abd 9038 523d 2cca 6fbd
00000250: 705a 8ebc cb86 dbbd f0eb 26bd 3233 19be
00000260: 5b54 b6bd ee4f df3d f99e 013e 62c8 c63d
00000270: 10f2 b43c 7a59 00be 60e9 49bc 992f 03be
00000280: 472c d83c 91a7 993c 82ba ee3f c968 ffbe
00000290: 7a5f 133f a398 aabe 42bf 6ebf 4261 f1be
000002a0: c9e1 f23d a304 933f 2e76 73bf d892 b3be
000002b0: 1eec 913d 2ab5 943f ccf4 1dbf 427e e4bf
000002c0: a2b1 9f3f 67e4 8a3f 6526 5fbe 4873 4abf
000002d0: 6cad 2c3e 1e29 58bd 1afc 2fbf 9a50 043f
000002e0: c121 13bf bf95 83bf 3e1d a2be 987b 3dbd
000002f0: 4af9 843f 3811 12bf 1ffd 5b3e 359e 2dbb
00000300: b202 bbbf 1b10 80bf 1078 b43f 5334 883f
00000310: 3a89 cd3e 1115 a7bf bdc0 193f 5605 8b3d
00000320: 63e3 07be c8cc 1fbd 22c6 f2bd a29f 843d
00000330: e691 cb3d 200a 9dbd 1374 063e d6e3 9b3d
00000340: 0ddc 0e3e c1ca e5bd e085 f0bd c654 15bd
00000350: 5021 c2bc 98bf fdbc f814 cfbd 00bc 5b3a
00000360: 622f 1cbd e4ab a9bd ceb1 ccbd 9876 b9bd
00000370: 39e0 97bd 7ef8 1bbe 08cf b2bc 1c40 40bd
00000380: 3686 df3d 2cd9 ffbd 24f4 773d d83a c1bc
00000390: 9ec6 07be 6586 1abe 712f 0d3e c5f7 1ebe
000003a0: a255 fa3d 665f e53d e0af 36bc d086 1cbc
000003b0: 6659 e5bd 58a9 c7bd d0b7 b6bc a83e 053d
000003c0: e72a 263e 036a e3bc 5c1f f53f d80f 203f
000003d0: 660f 55bf f0ad ad3e a427 1e3f 2a0e 46bf
000003e0: 53a4 b13f e4fa 973d a73d ffbd b53d ddbd
000003f0: 5c84 74bc fe09 4a3f e229 0cbf 90ae c13f

bias f4 [128]
-0.10207196 -0.07283146 -0.055935353 0.01683481 -0.1756112 0.11933918 0.034537196 -0.08676117
-0.1226649 0.029774472 0.076083094 0.063013725 -0.08594135 0.07506637 0.054300543 0.06614809
0.0022333146 -0.013890982 -0.11233682 0.12983176 0.051320456 -0.01675113 -0.112615325 -0.006865478
-0.13665101 -0.13966307 -0.124411754 -0.23407899 -0.12981932 -0.116326414 -0.29190308 -0.090963535
-0.12431866 -0.14773917 0.035425276 0.0012704952 -0.15529756 0.016565148 -0.13476019 -0.0435165
-0.12705979 -0.08162471 -0.057281725 -0.12197323 0.055235684 0.12088625 -0.0036034286 0.12764177
0.12159754 0.055057958 -0.07928664 0.10726632 0.038420722 0.08347346 0.0006583342 -0.26375145
-0.066477 -0.13800867 0.13260166 0.04163713 0.0390281 0.1810242 0.123646185 0.06774108
-0.013206035 -0.039995633 -0.17612275 -0.16233672 -0.091495275 -0.20505589 -0.023858875 0.0038981459
-0.2146714 0.03521211 -0.174888 -0.094631664 0.06299643 -0.12391214 -0.08750386 -0.29883656
-0.10777596 0.05843094 -0.054799 -0.21658503 -0.038029738 -0.12787625 0.11845386 0.093535796
-0.19980133 0.028297886 -0.30605376 -0.03133042 -0.20136817 -0.14898917 -0.058231942 -0.1408742
-0.18899786 0.07288355 -0.09971113 0.14919613 0.0031230003 0.13193901 -0.103505105 -0.12610532
-0.03582622 0.07194422 -0.11991655 0.0847075 0.14446746 -0.06931719 -0.04027663 -0.025199572
0.03639634 -0.11879072 -0.15526652 -0.046384215 -0.18361571 0.0709753 -0.07688222 -0.16015823
0.0870526 0.15560137 -0.008119468 0.036392268 -0.035447948 0.14067586 0.14837898 -0.14607084
00000000: 1b0b d1bd a928 95bd 781c 65bd 28e9 893c
00000010: 6cd3 33be 1a68 f43d e076 0d3d d7af b1bd
00000020: bc37 fbbd 98e9 f33c 74d1 9b3d 570d 813d
00000030: 0502 b0bd 66bc 993d 3f6a 5e3d a678 873d
00000040: cd5c 123b 0097 63bc d910 e6bd 9ef2 043e
00000050: 6635 523d aa39 89bc dda2 e6bd cef7 e0bb
00000060: 3eee 0bbe d603 0fbe 97cb febd 67b2 6fbe
00000070: 5bef 04be 8b3c eebd 5274 95be 174b babd
00000080: c89a febd f048 17be 181a 113d bf86 a63a
00000090: 5306 1fbe a2b3 873c 93fe 09be 5c3e 32bd
000000a0: f61b 02be db2a a7bd 3ea0 6abd 1acd f9bd
000000b0: d03e 623d 3693 f73d 8027 6cbb 86b4 023e
000000c0: 2208 f93d 7484 613d 0961 a2bd 72ae db3d
000000d0: 0c5f 1d3d 22f4 aa3d 0f94 2c3a 6e0a 87be
000000e0: 1825 88bd 2552 0dbe bbc8 073e b28b 2a3d
000000f0: eedb 1f3d 685e 393e 363a fd3d d6bb 8a3d
00000100: 205e 58bc 76d2 23bd 8659 34be 993b 26be
00000110: e061 bbbd 2cfa 51be b073 c3bc 0978 7f3b
00000120: d2d2 5bbe 933a 103d d715 33be 3fce c1bd
00000130: 4604 813d a6c5 fdbd 3935 b3bd 1b01 99be
00000140: a4b9 dcbd 4855 6f3d eb74 60bd 77c8 5dbe
00000150: 12c5 1bbd fef1 02be f097 f23d b28f bf3d
00000160: b898 4cbe f8d0 e73c 14b3 9cbe 5454 00bd
00000170: 7533 4ebe 9e90 18be 9e84 6ebd 5441 10be
00000180: a888 41be f843 953d 5935 ccbd dfc6 183e
00000190: 40ab 4c3b 051b 073e 7cfa d3bd c121 01be
000001a0: 84be 12bd 7e57 933d cf96 f5bd 207b ad3d
000001b0: 47ef 133e 2cf6 8dbd 1cf9 24bd 556f cebc
000001c0: 5414 153d 8d48 f3bd 30fe 1ebe 60fd 3dbd
000001d0: c205 3cbe 805b 913d 6d74 9dbd 8500 24be
000001e0: a248 b23d f755 1f3e 8407 05bc 0f10 153d
000001f0: de31 11bd 550d 103e a9f0 173e 9893 15be

weight f4 [64, 128]
0.004732594 -0.059437737 -0.020607345 -0.030098885 0.081543125 0.019180216 0.2693703 0.060730085
0.052010722 0.07338501 0.03382963 -0.038710915 0.05214051 0.037469905 -0.10158118 0.10340027
-0.062164094 -0.08581698 0.058552407 0.17246227 -0.25297976 0.037010666 -0.20410982 0.054330807
0.055252295 -0.011892345 0.041167833 -0.037531856 -0.0019415021 0.015947836 0.110925466 -0.051289912
-0.091878265 -0.07531433 -0.34740087 -0.008732378 -0.03258627 0.032487337 -0.064042665 -0.015753945
0.121131614 0.03455714 0.04335777 0.062543444 0.04666879 0.012998775 -0.02559425 0.23487145
-0.06539887 -0.02097229 -0.022224963 -0.00022497773 0.07102554 -0.05734521 0.0042104796 -0.022416288
-0.101737976 0.007384382 -0.036460217 0.6628802 0.02566616 0.36257592 0.04318232 0.052446112
0.03528618 0.07921589 0.008560269 0.40041098 0.0066887992 0.09169211 -0.06257513 0.08966335
0.07042329 0.054926608 0.06972533 0.047526427 -0.033729956 0.031922784 0.08801576 -0.042186644
0.06779742 0.009482674 0.084747635 0.10270202 0.0066431314 0.04069556 0.024200918 0.06712649
0.015695281 -0.035311766 0.029245041 0.0011519492 -0.092729755 0.058412425 0.050523393 0.0945702
-0.033002883 0.037353523 0.099966526 -0.031523325 -0.08051822 -0.057907365 -0.024338804 -0.09415701
0.06782835 0.08390147 -0.03195774 -0.070025966 -0.081115246 0.5319218 -0.00909061 0.012564687
0.08025419 0.5889439 -0.0139196385 0.02027198 0.035669904 0.007380426 0.071976356 0.12099808
0.24150345 0.07353311 0.52846086 0.02852249 -0.067429416 0.044870682 -0.048318684 0.010911733
-0.0025544167 0.040924035 -0.011164525 -0.067894556 -0.061985392 -0.066280626 -0.021742167 -0.03580663
-0.063390516 -0.06891017 -0.03567834 -0.043470107 0.044245444 -0.017314745 0.0022306913 -0.10978703
-0.00065626425 -0.027826898 -0.041872784 -0.11853113 -0.057546943 -0.10468258 -0.07747444 0.028762974
0.009960852 -0.11556752 -0.07728988 0.006280026 0.003282003 -0.11324956 0.01613235 -0.004614815
-0.04299676 -0.0731776 0.019035721 -0.059609488 0.034639016 -0.064161554 -0.05947869 -0.11957803
-0.027906394 -0.0060837194 0.013246955 -0.042084534 0.040879987 0.062376924 0.0069981366 0.03540417
-0.012221567 -0.012055971 -0.10391915 0.048775055 0.018237934 -0.071958765 0.044950612 0.032778453
-0.17547259 -0.01209411 -0.07433275 -0.10555574 -0.03666349 -0.008049471 -0.078194655 -0.099521056
-0.076363556 0.048936553 -0.012631788 -0.14793578 -0.03328472 -0.10547082 0.01167275 0.0038796228
-0.09876279 -0.06434021 0.04519595 -0.11397296 -0.012325034 -0.057658646 0.024821438 -0.024834184
-0.053379748 -0.03234547 0.030311164 0.005998936 0.031016 -0.031076122 0.04692783 0.080643944
-0.08162212 -0.02169332 -0.048550993 -0.003247194 0.031776357 0.046928264 -0.051119447 0.0220619
-0.08657479 0.018170148 0.04552329 0.03110423 0.017984472 0.025912568 -0.04792494 -0.043809246
-0.08199474 -0.028806612 -0.05278173 -0.042609926 -0.035943702 -0.018708372 0.011478461 0.04401256
-0.031210732 0.027684798 -0.09664886 -0.04440438 -0.033019114 -0.018988736 -0.0152188465 0.024418987
-0.039510813 -0.049203854 -0.08378013 0.010788117 0.01124499 -0.06312012 -0.049683064 0.08053415
00000000: e013 9b3b fc74 73bd bcd0 a8bc f091 f6bc
00000010: 1500 a73d d41f 9d3c e7ea 893e 1cc0 783d
00000020: 3209 553d e14a 963d f090 0a3d 568f 1ebd
00000030: 4a91 553d 0b7a 193d cb09 d0bd 85c3 d33d
00000040: c79f 7ebd d0c0 afbd a6d4 6f3d f399 303e
00000050: 9086 81be 7f98 173d 2a02 51be fb89 5e3d
00000060: 3b50 623d 1cd8 42bc 9a9f 283d 01bb 19bd
00000070: 007a feba 09a5 823c e42c e33d 5f15 52bd
00000080: ac2a bcbd 663e 9abd 87de b1be 3f12 0fbc
00000090: 2e79 05bd 7111 053d cd28 83bd 6b0e 81bc
000000a0: da13 f83d ca8b 0d3d eb97 313d c716 803d
000000b0: c627 3f3d d0f8 543c 08ab d1bc 2482 703e
000000c0: d8ef 85bd 14ce abbc 2011 b6bc 00e8 6bb9
000000d0: d775 913d d0e2 6abd 10f8 893b 5da2 b7bc
000000e0: 005c d0bd b0f8 f13b 4f57 15bd 84b2 293f
000000f0: d741 d23c 8da3 b93e f2df 303d bcd1 563d
00000100: 3e88 103d f13b a23d 5f40 0c3c ab02 cd3e
00000110: b72d db3b 13c9 bb3d 6427 80bd 6ba1 b73d
00000120: 163a 903d b9fa 603d 27cc 8e3d 12ab 423d
00000130: 6c28 0abd 77c1 023d 9b41 b43d e7cb 2cbd
00000140: 60d9 8a3d 385d 1b3c 2b90 ad3d 7055 d23d
00000150: a0ae d93b 63b0 263d 0141 c63c 9d79 893d
00000160: 6493 803c 12a3 10bd 4c93 ef3c 00fd 963a
00000170: 19e9 bdbd de41 6f3d 9ef1 4e3d 05ae c13d
00000180: 082e 07bd 0200 193d 40bb cc3d 9a1e 01bd
00000190: bde6 a4bd 4630 6dbd 2c62 c7bc 64d5 c0bd
000001a0: 97e9 8a3d 89d4 ab3d 1fe6 02bd c669 8fbd
000001b0: c01f a6bd 072c 083f c8f0 14bc 1edc 4d3c
000001c0: 4f5c a43d 07c5 163f 320f 64bc 6c11 a63c
000001d0: 9b1a 123d 80d7 f13b 5768 933d d7cd f73d
000001e0: ae4c 773e 8798 963d 3649 073f ffa7 e93c
000001f0: 6f18 8abd 52ca 373d d0e9 45bd 20c7 323c
00000200: 0068 27bb f69f 273d 69eb 36bc 4d0c 8bbd
00000210: 65e4 7dbd 23be 87bd a11c b2bc f9a9 12bd
00000220: e3d2 81bd c620 8dbd 7323 12bd b60d 32bd
00000230: b63a 353d a7d7 8dbc ca30 123b 06d8 e0bd
00000240: 2609 2cba 3cf5 e3bc cc82 2bbd 73c0 f2bd
00000250: 58b6 6bbd d263 d6bd ebaa 9ebd 54a0 eb3c
00000260: d732 233c aaae ecbd 284a 9ebd adc8 cd3b
00000270: e016 573b 63ef e7bd fd27 843c e037 97bb
00000280: 5f1d 30bd 23de 95bd cdf0 9b3c 1429 74bd
00000290: a4e1 0d3d 2267 83bd ed9f 73bd 54e5 f4bd
000002a0: f39b e4bc f059 c7bb c209 593c d560 2cbd
000002b0: c671 273d f27e 7f3d a050 e53b f703 113d
000002c0: f83c 48bc 6886 45bc 90d3 d4bd 5ac8 473d
000002d0: b867 953c 1e5f 93bd 221e 383d b342 063d
000002e0: 16af 33be 6026 46bc c53b 98bd 9c2d d8bd
000002f0: 752c 16bd eee1 03bc 8524 a0bd b2d1 cbbd
00000300: 7f64 9cbd b271 483d 8ff5 4ebc 7a7c 17be
00000310: 8f55 08bd 1601 d8bd 103f 3f3c 4541 7e3b
00000320: 2544 cabd cdc4 83bd 631f 393d a86a e9bd
00000330: f0ee 49bc 792b 6cbd 5456 cb3c 0f71 cbbc
00000340: b9a4 5abd af7c 04bd 1e4f f83c b992 c43b
00000350: 4415 fe3c 5a93 febc 6537 403d a728 a53d
00000360: 8029 a7bd 30b6 b1bc 68dd 46bd e0ce 54bb
00000370: ed27 023d da37 403d a062 51bd 28bb b43c
00000380: 204e b1bd 90d9 943c a176 3a3d 4cce fe3c
00000390: 2c54 933c 9846 d43c f14c 44bd 5371 33bd
000003a0: dcec a7bd d8fb ebbc a831 58bd bf87 2ebd
000003b0: b439 13bd 4d42 99bc 2810 3c3c 8446 343d
000003c0: a6ad ffbc 3bcb e23c d6ef c5bd 5ee1 35bd
000003d0: 0d3f 07bd 448e 9bbc 7858 79bc 540a c83c
000003e0: 17d6 21bd fb89 49bd eb94 abbd a4c0 303c
000003f0: e83c 383c 1f45 81bd 7880 4bbd 17ef a43d

bias f4 [64]
0.15127516 -0.04275711 0.11835078 0.013498028 0.03800002 0.031602185 -0.05910019 -0.12331465
-0.020809745 -0.050319504 -0.018058965 -0.15569304 0.014810775 0.0886122 0.035459217 -0.00012433219
-0.11963823 0.030982273 -0.079932794 -0.008406979 0.015211704 0.013227436 0.005178802 -0.17916115
0.17915733 -0.035928786 -0.10361638 0.073202826 0.038220678 0.0065195314 -0.020854753 -0.14323454
-0.05190006 -0.12713516 0.22877173 0.059277367 -0.115307555 -0.08152295 -0.05650507 -0.06356744
0.11115847 0.037672 0.053539947 -0.23119447 -0.11523507 -0.03437918 -0.031884022 -0.023011357
-0.13515836 -0.06060446 0.118699215 -0.09923238 -0.22230275 0.041053027 0.13814256 -0.08086441
-0.058082815 -0.033230584 -0.026729997 -0.05986069 -0.11872937 0.18572186 -0.047063056 0.037513733
00000000: e0e7 1a3e 1422 2fbd e561 f23d d526 5d3c
00000010: e9a5 1b3d 4b71 013d 0a13 72bd 648c fcbd
00000020: 3379 aabc d31b 4ebd 65f0 93bc ff6d 1fbe
00000030: e5a8 723c 507a b53d af3d 113d 2b5f 02b9
00000040: e304 f5bd 89ce fd3c ceb3 a3bd 6dbd 09bc
00000050: 833a 793c e3b7 583c f1b2 a93b 0576 37be
00000060: 0575 373e 102a 13bd d334 d4bd 5deb 953d
00000070: 498d 1c3d cba1 d53b 96d7 aabc 13ac 12be
00000080: 2895 54bd b82f 02be 2343 6a3e d3cc 723d
00000090: 5e26 ecbd 81f5 a6bd dc71 67bd a52f 82bd
000000a0: 0da7 e33d f44d 1a3d b44c 5b3d 3ebe 6cbe
000000b0: 5d00 ecbd 2fd1 0cbd d298 02bd 5082 bcbc
000000c0: f466 0abe 623c 78bd 9318 f33d 593a cbbd
000000d0: 55a3 63be 3827 283d 3e75 0d3e 3d9c a5bd
000000e0: 3fe8 6dbd cb1c 08bd def8 dabc 7c30 75bd
000000f0: 6228 f3bd df2d 3e3e 31c5 40bd 00a8 193d

weight f4 [32, 64]
0.06074908 -0.07163066 -0.09838955 -0.06768977 -0.13561986 0.046710163 -0.035315722 -0.06185479
-0.07054173 0.033943787 -0.061673716 -0.03345234 0.077932976 -0.21880138 -0.13591772 -0.13942061
0.06285962 -0.09232184 0.041429237 -0.11348845 0.08515402 0.07798403 0.04906553 -0.10058972
-0.12756735 -0.006859262 0.12021561 -0.08162737 -0.0793948 -0.14946927 -0.02908966 -0.051369905
-0.134394 -0.0968959 -0.07481866 -0.15317792 0.045192324 -0.008973462 0.11579195 0.07353375
-0.09196075 -0.0505371 0.03689292 -0.12360454 0.020197421 0.02599845 -0.0922416 -0.035306204
0.02874799 0.07862373 -0.0596067 0.06979032 -0.07357133 0.03163446 0.07487147 0.057375304
0.05447936 -0.11293186 -0.06662944 -0.06505747 0.015126557 -0.17697614 0.04190263 -0.13949703
-0.052026194 0.08956407 -0.141972 0.010983437 0.03331679 -0.051213734 -0.11848703 -0.0260797
-0.13793147 0.06861864 0.0027247518 -0.17983119 -0.10070783 -0.17503719 0.04813768 -0.011674012
-0.028966457 -0.117468745 -0.05156879 0.006469354 -0.1448118 0.0021989085 -0.11825438 -0.057368115
-0.017713498 -0.0040405095 0.091933 -0.08404033 0.04149793 0.10602181 -0.019109622 0.07888237
-0.07448374 -0.058606878 0.01730292 -0.16780542 -0.09480795 0.07181186 0.1000942 -0.041695923
-0.0983047 -0.084500484 0.1093577 0.022456095 -0.087059245 0.067967415 -0.1153499 -0.25688314
-0.11963937 0.07416123 -0.36557806 0.08795449 -0.011824414 -0.09602624 -0.056253575 0.017426591
0.047188044 -0.06783299 -0.06117087 -0.0506978 -0.08367181 0.042696446 0.10760309 -0.09258433
-0.07245766 0.035981834 -0.091156386 -0.034134492 -0.06101407 -0.17306425 0.018803148 0.032896474
0.009238571 0.013426572 -0.09864016 -0.17909674 0.043078303 -0.17400922 0.082304746 -0.08549212
0.050591588 0.0034680665 -0.01615803 -0.12154107 -0.035814583 0.08842646 0.010860816 0.07739341
-0.2862872 -0.107185155 0.06370427 -0.08285019 -0.010408208 0.0017491281 -0.11708683 -0.0048933476
0.015104577 -0.09950684 -0.1975346 0.026857076 -0.04407136 -0.10341276 0.019127995 -0.04266359
-0.088273026 -0.032348648 0.03315091 -0.050747115 -0.071780816 0.03833583 0.11326267 0.0052486868
-0.028680757 0.11696631 -0.4093987 0.119844526 -0.09062396 0.054827213 -0.04236729 -0.019946367
0.073304415 -0.035350874 -0.011697516 -0.012132246 -0.05196789 -0.17456204 -0.031591013 -0.022429958
-0.20497552 -0.09954509 -0.05257051 -0.058492467 -0.093653396 -0.23715141 0.07098952 0.09705818
0.0045009404 0.047166735 -0.053546667 -0.086475484 -0.005488515 -0.0045917183 0.022959888 -0.03172207
-0.051486135 -0.07811473 0.112199664 0.057798564 -0.009514511 0.018000513 -0.10184406 -0.05902706
-0.15618573 0.0053590983 0.08903025 -0.23679061 -0.10063335 0.01650621 0.0398238 -0.106105536
0.060340792 -0.041821867 -0.113110915 -0.22357936 -0.0018168092 0.021920308 -0.015696332 0.03984195
-0.2512665 -0.14052169 0.10726388 -0.07575038 0.118857145 0.014822051 0.06221205 0.004148528
0.117198154 -0.043300524 0.045821205 0.021553531 0.09699951 0.11355461 -0.11114751 -0.05248007
-0.04418342 0.06518133 -0.015796944 -0.09940301 -0.08512159 -0.113221325 -0.010813922 -0.08963202
00000000: 07d4 783d 18b3 92bd 7680 c9bd efa0 8abd
00000010: efdf 0abe 2853 3f3d 38a7 10bd 735b 7dbd
00000020: 2f78 90bd a408 0b3d 949d 7cbd 5205 09bd
00000030: 539b 9f3d 780d 60be 042e 0bbe 47c4 0ebe
00000040: 8bbc 803d 3c13 bdbd b4b1 293d a26c e8bd
00000050: 3b65 ae3d 17b6 9f3d f0f8 483d fc01 cebd
00000060: 04a1 02be a9c3 e0bb 9a33 f63d 402c a7bd
00000070: be99 a2bd 790e 19be 704d eebc 4069 52bd
00000080: 959e 09be 5c71 c6bd 873a 99bd acda 1cbe
00000090: 961b 393d 6d05 13bc 5424 ed3d dd98 963d
000000a0: eb55 bcbd fdff 4ebd 081d 173d 6124 fdbd
000000b0: 1075 a53c b4fa d43c 2ae9 bcbd 3d9d 10bd
000000c0: e880 eb3c 7a05 a13d 2826 74bd 3aee 8e3d
000000d0: 91ac 96bd 2393 013d 3756 993d 5e02 6b3d
000000e0: c025 5f3d d248 e7bd 0475 88bd da3c 85bd
000000f0: 61d5 773c 3c39 35be 18a2 2b3d 4fd8 0ebe
00000100: 6b19 55bd 5e6d b73d 1c61 11be e0f3 333c
00000110: 3077 083d 7ec5 51bd 54a9 f2bd 18a5 d5bc
00000120: e83d 0dbe ee87 8c3d c091 323b ab25 38be
00000130: e83f cebd f33c 33be 042c 453d 5b44 3fbc
00000140: 104b edbc 7493 f0bd cc39 53bd e0fc d33b
00000150: 8b49 14be 901b 103b 5a2f f2bd d4fa 6abd
00000160: e61b 91bc 4066 84bb 5e47 bc3d 561d acbd
00000170: bcf9 293d f621 d93d c88b 9cbc 148d a13d
00000180: ee8a 98bd c40d 70bd dabe 8d3c 2fd5 2bbe
00000190: ac2a c2bd 1912 933d 30fe cc3d 58c9 2abd
000001a0: f953 c9bd 970e adbd eef6 df3d d8f5 b73c
000001b0: 1e4c b2bd 8032 8b3d 923c ecbd 3086 83be
000001c0: 7c05 f5bd d8e1 973d 0c2d bbbe 7c21 b43d
000001d0: 30bb 41bc 68a9 c4bd 266a 66bd 36c2 8e3c
000001e0: 4048 413d 06ec 8abd 4e8e 7abd 7fa8 4fbd
000001f0: 205c abbd 78e2 2e3d 025f dc3d da9c bdbd
00000200: af64 94bd b061 133d 33b0 babd 9cd0 0bbd
00000210: e4e9 79bd c137 31be 0f09 9a3c 74be 063d
00000220: 605d 173c 20fb 5b3c da03 cabd 2365 37be
00000230: e072 303d 792f 32be 648f a83d 7e16 afbd
00000240: 2039 4f3d 8048 633b d85d 84bc 86ea f8bd
00000250: 50b2 12bd ef18 b53d 90f1 313c 7080 9e3d
00000260: 3c94 92be e483 dbbd 6277 823d 5cad a9bd
00000270: 3087 2abc 0043 e53a 38cb efbd 6058 a0bb
00000280: 3079 773c 3eca cbbd 8346 4abe 5f03 dc3c
00000290: 2c84 34bd 12ca d3bd 50b2 9c3c 04c0 2ebd
000002a0: 7dc8 b4bd 0480 04bd 40c9 073d 35dc 4fbd
000002b0: d201 93bd 0806 1d3d 42f6 e73d 2dfd ab3b
000002c0: e8f3 eabc 088c ef3d b59c d1be 0c71 f53d
000002d0: 0e99 b9bd 8092 603d 5389 2dbd 9066 a3bc
000002e0: a020 963d 14cc 10bd f0a6 3fbc 54c6 46bc
000002f0: 48dc 54bd 64c0 32be 9465 01bd 08bf b7bc
00000300: 1ae5 51be 4cde cbbd 2d54 57bd cc95 6fbd
00000310: 5acd bfbd d2d7 72be f462 913d 70c6 c63d
00000320: a07c 933b e831 413d c053 5bbd 0f1a b1bd
00000330: 00d9 b3bb 2076 96bb 6016 bc3c 00ef 01bd
00000340: 20e3 52bd 9efa 9fbd f0c8 e53d 30be 6c3d
00000350: c0e2 1bbc d075 933c 9e93 d0bd 5cc6 71bd
00000360: 27ef 1fbe 609b af3b 7e55 b63d 3d79 72be
00000370: dc18 cebd 0838 873c 481e 233d dc4d d9bd
00000380: e827 773d 684d 2bbd b2a6 e7bd fdf1 64be
00000390: 0022 eeba 3892 b33c 9895 80bc 5031 233d
000003a0: 01a6 80be ebe4 0fbe 2aad db3d 0423 9bbd
000003b0: 606b f33d 30d8 723c 10d2 7e3d 60f0 873b
000003c0: 9605 f03d e45b 31bd 04af 3b3d 0891 b03c
000003d0: aea7 c63d 528f e83d 4ea1 e3bd 58f5 56bd
000003e0: acf9 34bd ca7d 853d 9868 81bc ce93 cbbd
000003f0: 3a54 aebd 95e0 e7bd e02c 31bc fe90 b7bd

bias f4 [32]
-0.032860562 -0.14683515 -0.26705277 -0.2661334 -0.08084362 -0.13651618 0.032914624 -0.22955792
-0.14534995 0.020108212 -0.03129589 -0.12022267 -0.24373183 -0.14261034 0.13467386 0.011644845
0.063659035 0.090870686 0.33414438 -0.091172986 0.127495 0.04633014 0.05614493 -0.1269171
-0.012572756 -0.16694187 0.3060644 -0.13864496 -0.11606695 0.080127746 0.013875988 -0.075566225
00000000: cc98 06bd f45b 16be 24bb 88be a342 88be
00000010: 5791 a5bd e6ca 0bbe 7cd1 063d 3b11 6bbe
00000020: 9ed6 14be fab9 a43c 1f30 00bd 4e37 f6bd
00000030: d694 79be 7208 12be f2e7 093e 05ca 3e3c
00000040: ab5f 823d 691a ba3d f914 ab3e e7b8 babd
00000050: 0d8e 023e acc4 3d3d 3af8 653d 8ef6 01be
00000060: f6fd 4dbc cff2 2abe 79b4 9c3e f2f8 0dbe
00000070: 82b4 edbd 041a a43d 1d58 633c 77c2 9abd

weight f4 [8, 32]
-0.16462964 0.17308687 0.030579433 0.09514068 0.06487021 0.061050743 -0.10591802 0.10325648
0.027358681 -0.036388427 -0.14536111 -0.033237085 -0.11675252 -0.15678474 -0.16993868 -0.080245994
0.15941687 0.0040449286 -0.08847001 -0.10949669 0.17215337 -0.07826621 0.09324591 0.018154547
0.10536416 0.04077977 -0.06483225 0.13222246 -0.15252061 -0.21566637 -0.07434891 -0.17079026
-0.08615351 0.06631214 -0.15030874 -0.08957454 -0.13126451 0.061830927 0.019116806 0.0749999
0.48936358 0.13879423 -0.62023515 -0.07978149 -0.17089829 0.036291048 0.57409537 -0.0658596
-0.11026846 0.25659952 0.2725977 0.053277098 -0.14425595 0.021512182 0.35497054 -0.42984247
0.14557831 0.15367945 -0.062439177 -0.092435054 -0.039679408 -0.023079485 -0.13129835 -0.10037751
-0.21832958 -0.018205777 -0.032029573 -0.21478784 -0.0009142202 -0.16065204 -0.099912666 0.109100804
-0.16825907 -0.16375288 0.51676065 -0.035886925 -0.22054425 -0.04459148 -0.014085256 0.0621019
0.04040908 0.29543152 0.19885546 0.12052526 0.05718807 0.05786222 -1.0270249 0.5360724
0.06436372 -0.98384297 0.19864504 -0.012735155 0.11733122 -0.016174074 -0.008076996 0.06861667
-0.00047116456 -0.1213805 -0.11872279 0.043463763 0.033243928 -0.121423 0.061144423 -0.29444855
-0.19950654 -0.43905276 -0.19358136 0.08060983 0.05118658 -0.04614106 -0.80151004 0.1461053
-0.033795796 0.0632766 0.17191939 -0.8983253 0.043246653 0.04962182 0.22411238 -0.22812474
0.011142958 -0.6650445 0.41523427 0.019673953 -0.29121467 0.1824879 -0.10473424 -0.25145018
0.004876565 0.17022696 0.080419905 -0.1467691 -0.16076298 0.1492701 -0.03499633 -0.07796069
-0.5151488 -0.91590905 0.0833803 0.0035598874 -0.1475391 -0.116458416 -0.40132177 0.11028514
0.09409198 -0.643247 0.20790865 0.7435243 0.048123855 -0.08247236 -0.013739151 -0.37630445
-0.06291414 0.17959012 -0.13560878 0.03175559 -0.14011021 0.23160113 -0.039794125 0.0046582674
0.074937984 0.03461567 -0.14577505 0.158659 -0.22226217 -0.079464346 -0.003642362 0.039775833
0.04465525 -0.08526257 0.002684422 0.10613783 -0.11265359 -0.18607882 -0.27397767 -0.13089103
0.038106617 -0.1653379 0.092406034 -0.19278535 0.118599184 0.13673027 -0.5299385 -0.3226233
-0.17625253 -0.09163193 -0.06546494 0.017316386 0.0068392158 -0.155801 0.10490163 -0.10339024
0.11409043 -0.09745596 -0.1547452 -0.055522174 0.10256533 -0.12622502 -0.16062912 -0.051487327
-0.019980296 0.12574463 -0.06683837 -0.046374068 0.08938898 0.17047589 0.003246799 -0.109370984
-0.1648098 -0.16971263 -0.16495256 -0.06591788 0.020276263 -0.08744019 -0.1514642 -0.10589596
-0.039827928 0.10866512 -0.09088582 -0.15661642 0.101178005 -0.017672852 -0.08946178 -0.1314854
0.054893035 -0.18117467 0.10733496 -0.16955301 -0.16242903 -0.06766937 0.021941032 -0.10244078
0.099703394 0.12172639 -0.010011423 0.018372491 -0.06899012 -0.06864438 -0.11098388 0.06595593
-0.12452714 -0.6960286 -0.0930969 0.027911209 -0.18801779 0.107328966 0.1115732 0.07336747
0.10914111 0.10295436 0.12537144 0.17605759 0.026739271 -0.09651925 0.119073085 0.007876217
00000000: ac94 28be af3d 313e b881 fa3c 1ed9 c23d
00000010: acda 843d 5810 7a3d 8ceb d8bd 2278 d33d
00000020: 501f e03c 080c 15bd 8bd9 14be 9c23 08bd
00000030: f21b efbd 2e8c 20be 6804 2ebe 0358 a4bd
00000040: 2d3e 233e 528b 843b c42f b5bd cd3f e0bd
00000050: f948 303e 094a a0bd b6f7 be3d d8b8 943c
00000060: 2ac9 d73d b008 273d c5c6 84bd 5365 073e
00000070: 5d2e 1cbe a5d7 5cbe 3e44 98bd a4e3 2ebe
00000080: 4071 b0bd a9ce 873d 89ea 19be db72 b7bd
00000090: 346a 06be 6d42 7d3d d99a 9c3c 8c99 993d
000000a0: dd8d fa3e 1320 0e3e bbc7 1ebf 7a64 a3bd
000000b0: f6ff 2ebe eca5 143d eaf7 123f 66e1 86bd
000000c0: 6ed4 e1bd 0361 833e ed91 8b3e 1639 5a3d
000000d0: d5b7 13be 513a b03c b3be b53e 5014 dcbe
000000e0: 7b12 153e 255e 1d3e 39c0 7fbd 974e bdbd
000000f0: e086 22bd 3011 bdbc 1373 06be b992 cdbd
00000100: ca91 5fbe 4824 95bc 7131 03bd 58f1 5bbe
00000110: 47a8 6fba f881 24be 039f ccbd 3e70 df3d
00000120: 1b4c 2cbe d6ae 27be 6d4a 043f 2bfe 12bd
00000130: 5ad6 61be 8ea5 36bd d8c5 66bc 905e 7e3d
00000140: fe83 253d cd42 973e c4a0 4b3e f3d5 f63d
00000150: 0a3e 6a3d ef00 6d3d 8d75 83bf 0a3c 093f
00000160: 20d1 833d 22dd 7bbf 9b69 4b3e 1da7 50bc
00000170: 5a4b f03d 7e7f 84bc 6055 04bc e686 8c3d
00000180: a306 f7b9 5796 f8bd ef24 f3bd 0f07 323d
00000190: c92a 083d 9fac f8bd 9372 7a3d f6c1 96be
000001a0: 714b 4cbe 86cb e0be 313a 46be c416 a53d
000001b0: 05a9 513d 68fe 3cbd c32f 4dbf a19c 153e
000001c0: 766d 0abd 2997 813d a30b 303e a6f8 65bf
000001d0: 6723 313d 4040 4b3d b77d 653e 8899 69be
000001e0: f490 363c 5b40 2abf 9699 d43e 452b a13c
000001f0: 171a 95be 1cde 3a3e e87e d6bd 14be 80be
00000200: 98cb 9f3b fa4f 2e3e 31b3 a43d a44a 16be
00000210: 0d9f 24be 43da 183e 5058 0fbd dba9 9fbd
00000220: cbe0 03bf 0479 6abf 4ac3 aa3d 004d 693b
00000230: 7d14 17be c081 eebd 0c7a cdbe 2ddd e13d
00000240: 4cb3 c03d d6ab 24bf 01e6 543e 9c57 3e3f
00000250: 851d 453d 45e7 a8bd 2d1a 61bc faaa c0be
00000260: 21d9 80bd 79e6 373e 07dd 0abe 2612 023d
00000270: 0d79 0fbe d928 6d3e 2aff 22bd 61a4 983b
00000280: 1679 993d 29c9 0d3d 0e46 15be 8177 223e
00000290: b298 63be 34be a2bd b2b4 6ebb fceb 223d
000002a0: 6ce8 363d 249e aebd 21ed 2f3b ca5e d93d
000002b0: edb6 e6bd 728b 3ebe cd46 8cbe 4c08 06be
000002c0: af15 1c3d 574e 29be 603f bd3d 8669 45be
000002d0: 21e4 f23d 0503 0c3e 0daa 07bf e22e a5be
000002e0: 8b7b 34be 85a9 bbbd 7c12 86bd 18db 8d3c
000002f0: 801b e03b 4c8a 1fbe aad6 d63d 43be d3bd
00000300: 3ea8 e93d fe96 c7bd 8775 1ebe 386b 63bd
00000310: c60d d23d 2241 01be f67b 24be 60e4 52bd
00000320: b8ad a3bc 33c3 003e 8ee2 88bd bcf2 3dbd
00000330: 9211 b73d 3b91 2e3e 40c8 543b e5fd dfbd
00000340: e6c3 28be 26c9 2dbe 53e9 28be f4ff 86bd
00000350: 681a a63c d813 b3bd 6e19 1bbe fbdf d8bd
00000360: 9c22 23bd d28b de3d 5822 babd 0e60 20be
00000370: 6a36 cf3d a8c6 90bc bd37 b7bd 1ca4 06be
00000380: 85d7 603d da85 39be 6ed2 db3d 4e9f 2dbe
00000390: cc53 26be 3d96 8abd aebd b33c 79cc d1bd
000003a0: 4b31 cc3d b04b f93d f406 24bc e881 963c
000003b0: b14a 8dbd 6d95 8cbd 844b e3bd e713 873d
000003c0: 1608 ffbd ee2e 32bf 96a9 bebd 0ca6 e43c
000003d0: bc87 40be 4acf db3d 7d80 e43d af41 963d
000003e0: 6085 df3d bcd9 d23d 5f61 003e 7148 343e
000003f0: 510c db3c e2ab c5bd 97dc f33d 400b 013c

bias f4 [8]
-0.079466805 0.34985265 0.1794068 0.2878194 -0.07857534 0.13205919 -0.14192738 -0.11824484
00000000: 7ebf a2bd e31f b33e 6bb6 373e 105d 933e
00000010: 1cec a0bd 863a 073e 6955 11be 5a2a f2bd

weight f4 [4, 8]
0.1311923 -0.21407792 -0.22411485 -0.18801923 0.077357054 -0.013602376 0.2463384 -0.10565874
0.18222305 -0.040542245 0.27354267 0.31915006 -0.019294083 0.298318 -0.12222414 0.30751458
0.1950933 0.30459103 -0.07789096 0.1838626 0.16775265 -0.04832512 0.23696145 -0.14687493
-0.17304581 0.3399121 0.20968744 0.27153954 0.23994729 -0.14753382 0.2494174 0.13455024
00000000: 4657 063e 3e37 5bbe 5d7e 65be 1d88 40be
00000010: 606d 9e3d 80dc 5ebc 2240 7c3e 9c63 d8bd
00000020: ae98 3a3e a00f 26bd c90d 8c3e a367 a33e
00000030: a00e 9ebc 23bd 983e a650 fabd 8d72 9d3e
00000040: 8ac6 473e 5bf3 9b3e 4c85 9fbd 7a46 3c3e
00000050: 5ac7 2b3e 90f0 45bd 06a6 723e 6266 16be
00000060: ec32 31be f508 ae3e 4eb8 563e 3b07 8b3e
00000070: beb4 753e 1b13 17be 4667 7f3e 8ac7 093e

bias f4 [4]
-0.23249334 0.13253286 -0.17984663 0.29208395
00000000: bc12 6ebe b2b6 073e b729 38be 078c 953e
