losses/models/ann21.pth (torch, 68636 bytes, 10 tensors)

weight f4 [128, 40]
0	0xbcb33c98	-0.02187948
1	0xbe17e996	-0.148352
2	0x3cf08f98	0.029365346
3	0xbceef828	-0.029171064
4	0xbc65eba0	-0.014033228
5	0x3df8d452	0.12149872
6	0x3e0c1977	0.13681589
7	0xbdef1660	-0.116741896
8	0xbc6e50d0	-0.014545634
9	0xbde82d50	-0.11336768
10	0x3e184d49	0.14873232
11	0xbda03355	-0.07822291
12	0x3d10586c	0.035240576
13	0x3e139919	0.14413871
14	0x3ba98580	0.005173385
15	0x3c9d2eb0	0.019187301
16	0xbd8403a3	-0.06446006
17	0xbdef55e9	-0.11686308
18	0x3d985d24	0.0743964
19	0x3e0f6687	0.14003955
20	0xbd1e9b18	-0.038722128
21	0xbd24e4b6	-0.04025718
22	0xbe03040d	-0.12794514
23	0x3e1aebf7	0.15129076
24	0x3c9bd608	0.019022956
25	0x3b8a81a0	0.0042268783
26	0x3cbb55e8	0.022868112
27	0x3c922a78	0.017842516
28	0x3d0c98b0	0.0343253
29	0x3e208217	0.15674625
30	0xbd970a97	-0.07375067
31	0xbd39c5f2	-0.04535479
32	0x3c4424e0	0.011971682
33	0x3e16554d	0.14680977
34	0x3e1fba11	0.15598322
35	0x3cdfe400	0.027330399
36	0xbcce3a88	-0.025174394
37	0x3c572d60	0.013133377
38	0x3e138be7	0.14408837
39	0xbdf4ba71	-0.119496234
40	0xbf76c64f	-0.96396345
41	0x3e6d2140	0.23157215
42	0x40111616	2.266973
43	0xbf6c80e0	-0.9238415
44	0x401fa34a	2.4943414
45	0x404bad78	3.1824627
46	0xbfca332e	-1.5796869
47	0xc02880bc	-2.6328573
48	0xc0385cee	-2.880672
49	0xbf51517e	-0.8176497
50	0x3d81a0cb	0.06329497
51	0xc05fb75a	-3.495566
52	0x3f3e5e90	0.7436304
53	0x3f4ccf3c	0.80003715
54	0xbf0de063	-0.5542051
55	0xc09c3190	-4.88105
56	0x40480f8c	3.125949
57	0x40339b7e	2.8063655
58	0xbfb76d29	-1.4330188
59	0xc05c215e	-3.4395366
60	0xbf139b37	-0.57658714
61	0x408180ed	4.046988
62	0x3f3e0810	0.7423105
63	0xbf5255e7	-0.82162327
64	0x3f4c802a	0.7988306
65	0x3fd6d2d5	1.6783091
66	0x3fbdb589	1.4821025
67	0xbfa101de	-1.2578695
68	0xc07a72bc	-3.9132528
69	0xbecdab7e	-0.401699
70	0xc026ec97	-2.6081903
71	0x401ad727	2.4193819
72	0xc0467152	-3.1006665
73	0x400dda92	2.2164655
74	0xbf50e9a4	-0.8160651
75	0x40214f7a	2.5204759
76	0xc039ce67	-2.9032228
77	0x408d9de0	4.425522
78	0xc0062b19	-2.0963805
79	0xc0150afa	-2.328795
80	0xbe0385c7	-0.12844001
81	0xbdc0fc41	-0.094231136
82	0x3e0f3807	0.13986216
83	0x3d972e40	0.07381868
84	0x3df0998a	0.11748035
85	0x3c9d0ea8	0.019172028
86	0xbd9d57a4	-0.07682732
87	0x3de91e6e	0.11382757
88	0x3dc4fc0a	0.09618385
89	0xbd8966ad	-0.06709037
90	0x3e08934b	0.13337438
91	0xbe162b15	-0.14664872
92	0xbe0acb55	-0.13554128
93	0x3ce3d888	0.027813211
94	0xbd115062	-0.03547705
95	0x3e064f89	0.13116278
96	0xbc395ce0	-0.011313647
97	0x3dcf8096	0.10131948
98	0x3d289af0	0.041163385
99	0x3d2df3fc	0.04246901
100	0x3df9e6f6	0.122022554
101	0xbdb36576	-0.087595865
102	0xbcd0e898	-0.025501534
103	0xbe0aebd2	-0.13566521
104	0xbb8b18e0	-0.0042449087
105	0x3d9cdc1a	0.076591685
106	0xbe090188	-0.1337949
107	0x3bef6000	0.0073051453
108	0x3e14ac51	0.14518858
109	0xbbdc4d60	-0.006723091
110	0xbccc0848	-0.024906293
111	0xbde0813e	-0.10962151
112	0x3dfdd682	0.1239443
113	0x3ca5d490	0.02024296
114	0xbd8ec1c5	-0.06970552
115	0x3da68ff0	0.08132923
116	0x3cc9a520	0.02461487
117	0xbcc61e10	-0.024184257
118	0xbe10f0c4	-0.14154345
119	0xbdacf09c	-0.0844433
120	0x3cb4bc00	0.022062302
121	0xbcfcd480	-0.030863047
122	0xbd94ffb0	-0.07275331
123	0xbca12e30	-0.019675344
124	0xbe1b7f73	-0.15185337
125	0x3e1e6663	0.15468745
126	0xbc353690	-0.011060372
127	0x3df1b682	0.11802389
128	0x3ce93248	0.028466359
129	0x3d683e20	0.056699872
130	0xbc7618e0	-0.015020579
131	0xbb079a00	-0.0020691156
132	0x3e141ca5	0.14464052
133	0x3ccd0000	0.025024414
134	0xbdaa3ec2	-0.08312751
135	0x3d0203e0	0.031741977
136	0x3d355678	0.044271916
137	0x3d3f9540	0.046773195
138	0xbdbb0b4c	-0.09133014
139	0x3d408330	0.04700011
140	0xbdf5a106	-0.119936034
141	0x3cf2bc60	0.02963084
142	0xbcf79690	-0.030223161
143	0x3e1412cb	0.14460294
144	0x3d8ae170	0.0678128
145	0xbc7d0240	-0.015442431
146	0x3b722940	0.0036950856
147	0xbe040666	-0.12893066
148	0x3d879b5a	0.06621428
149	0x3df5e0de	0.12005781
150	0xbdccd88c	-0.100022405
151	0x3e071263	0.13190608
152	0xbd611cd0	-0.05495912
153	0xbe0e5d7e	-0.13902852
154	0xbd64ad4a	-0.055829324
155	0x3dbb29ea	0.09138854
156	0x3dcfd3c2	0.101478115
157	0xbd2c458a	-0.042058505
158	0xbd6daeb6	-0.058027945
159	0x3cc6d2c0	0.024270415
160	0xbe0ce476	-0.13759026
161	0xbda4aad2	-0.08040394
162	0x3e0dd6d5	0.13851483
163	0x3e01af97	0.12664638
164	0xbe0fe9ad	-0.14053984
165	0xbe0b0952	-0.13577774
166	0x3a0bfc00	0.000533998
167	0x3db3db62	0.08782078
168	0x3d349b18	0.04409322
169	0x3e103e45	0.14086254
170	0x3ba96380	0.005169332
171	0xbcc5d9c8	-0.024151698
172	0xbdd4f95a	-0.103991225
173	0xbd703838	-0.058647364
174	0x3c9c0830	0.019046873
175	0xbddcc368	-0.10779458
176	0x3c4cf460	0.012509435
177	0x3c951440	0.018198133
178	0xbc355600	-0.011067867
179	0x3e1bf311	0.15229441
180	0x3be3eae0	0.0069554895
181	0xbc134b30	-0.008990094
182	0xbe1b996f	-0.15195249
183	0xbdc5c156	-0.096560165
184	0x3dfd8746	0.12379317
185	0x3d047668	0.032339483
186	0xbda2dce2	-0.07952286
187	0x3dd03802	0.10166933
188	0xbe1487c6	-0.14504918
189	0xbdc3103f	-0.09524583
190	0xbdbd61cc	-0.09247169
191	0x3d863120	0.065523386
192	0x3c1c9300	0.009556532
193	0xbe1a8932	-0.15091398
194	0xbe1bea6d	-0.15226145
195	0xbe0615ed	-0.13094302
196	0xbc583520	-0.01319626
197	0x3df26f7a	0.11837669
198	0xbd05e7a0	-0.032691598
199	0xbdf4f03b	-0.11959883
200	0xbe06d852	-0.13168457
201	0xbe1c3a4b	-0.15256612
202	0x3d106d9c	0.03526078
203	0x3e0dafe7	0.13836633
204	0x3dadc9b2	0.08485736
205	0x3e15a3a9	0.14613213
206	0xbd005c1c	-0.031337842
207	0xbd2d7de0	-0.042356372
208	0x3dcc95a2	0.09989478
209	0x3d29c580	0.041448116
210	0x3e0ba879	0.13638486
211	0x3e0d139d	0.13777013
212	0x3d1556ec	0.03645985
213	0x3b9ac0e0	0.0047226995
214	0x3c4bb390	0.012432948
215	0x3d2bfc38	0.04198858
216	0xbda39b39	-0.07988591
217	0x3e18a23b	0.14905636
218	0xbcb3a298	-0.021928117
219	0xbd775936	-0.060387813
220	0xbd0804c4	-0.03320767
221	0xbdcfee22	-0.10152842
222	0x3ddbe97e	0.107378945
223	0xbdfe8b62	-0.12428929
224	0xbe154c18	-0.14579809
225	0x3c87f998	0.016598508
226	0xbe17bad2	-0.1481736
227	0xbd56a2c0	-0.052401304
228	0xbd454548	-0.048161775
229	0x3d2b2834	0.041786388
230	0x3db4662e	0.08808552
231	0x3e19288f	0.14956878
232	0x3d8c2b72	0.06844224
233	0x3e0d8ae7	0.13822518
234	0x3e0205c3	0.1269751
235	0x3d669dd0	0.056302845
236	0x3e0815ef	0.13289617
237	0x3ddc3ba2	0.107535616
238	0xbd58aaa6	-0.052897118
239	0x3cc526a8	0.024066284
240	0xbba27d86	-0.004958811
241	0xbd6050b8	-0.05476448
242	0xc00fac38	-2.2448864
243	0xbf0efc17	-0.5585341
244	0x3ed2e40d	0.41189614
245	0xbf88e5bc	-1.0695109
246	0xbf85ca9b	-1.0452455
247	0xbed90485	-0.4238626
248	0x3eeb0f22	0.45909983
249	0x3f8ca481	1.0987703
250	0xbfac371c	-1.3454318
251	0xbf6ea059	-0.9321342
252	0xbd8ee246	-0.06976752
253	0x3e9f60d6	0.31128567
254	0xbeb65bf9	-0.35617045
255	0xbf7b2bbd	-0.98113614

bias f4 [128]
0	0x3d1576e4	0.036490336
1	0xbe4e062d	-0.20119543
2	0x3ddb2c42	0.10701801
3	0x3ddf860e	0.10914241
4	0xbe1eafcb	-0.15496747
5	0xbe00ac2c	-0.12565678
6	0xbdfd8223	-0.12378337
7	0x3d43bb46	0.04778602
8	0xbda14884	-0.078751594
9	0xbdbff21d	-0.09372351
10	0xbe02e6be	-0.12783334
11	0xbd889778	-0.06669515
12	0xbe3d628e	-0.18494627
13	0xbdad33bd	-0.08457134
14	0x3dbacd68	0.091212094
15	0xbd904a4e	-0.070454225
16	0xbd3d1cc8	-0.046170026
17	0x3e404bcc	0.18778914
18	0x3ecda635	0.40165868
19	0xbd3aeb78	-0.045634717
20	0xbb66b700	-0.0035204291
21	0xbe8e175d	-0.277522
22	0xbe681b29	-0.22666611
23	0xbe337222	-0.17524007
24	0x3e13b503	0.14424519
25	0x3da9096f	0.082537524
26	0xbdaf1d93	-0.08550563
27	0xbe761978	-0.24033153
28	0x3e1e89ec	0.154823
29	0xbdf0e9c0	-0.11763334
30	0xbdab26ca	-0.08357008
31	0xbe0cbb2c	-0.13743275
32	0xbb667340	-0.003516391
33	0xbe56f609	-0.20992292
34	0xbdc80724	-0.09766987
35	0x3d0160c0	0.03158641
36	0xbde4308d	-0.11142073
37	0xbe6bb53b	-0.23018353
38	0xbe0e51c9	-0.13898386
39	0xbbabd6a0	-0.005244091
40	0x3d498b16	0.04920491
41	0x3e197655	0.14986546
42	0x3df190f2	0.11795224
43	0x3cf40c58	0.029791042
44	0x3d9ae50e	0.0756322
45	0xbe59c041	-0.21264745
46	0x3dc25c41	0.09490252
47	0xbdbad608	-0.091228545
48	0xbd9d137e	-0.076697335
49	0xbbb4aa50	-0.005513467
50	0xbd96a6d2	-0.07356037
51	0x3cf7b010	0.03023532
52	0xbd2ac9ee	-0.04169648
53	0xbdfb632e	-0.122747764
54	0xbe2258aa	-0.15854135
55	0x3cfd0228	0.030884817
56	0xbe380e37	-0.17974173
57	0xbe4758f0	-0.1946752
58	0xbe057e0a	-0.13036361
59	0xbbab27e0	-0.0052232593
60	0xbdd093e8	-0.10184461
61	0x3d3a65a4	0.04550709
62	0xbdee7386	-0.11643128
63	0x3c2d5c35	0.010581066
64	0xbd38a534	-0.045079425
65	0xbe725bbf	-0.23667811
66	0xbd9d8086	-0.076905295
67	0x3e06379b	0.1310715
68	0xbe073451	-0.13203551
69	0x3d20bccc	0.03924255
70	0xbdb06688	-0.08613306
71	0xbed7c119	-0.4213951
72	0xbde6726c	-0.11252293
73	0xbdebf4d7	-0.11521309
74	0x3b9797f8	0.0046262704
75	0x3dc437fe	0.09580992
76	0xbec0a173	-0.37623176
77	0xbaec7200	-0.0018039346
78	0xbd2d6206	-0.04232981
79	0x3cf073d8	0.029352114
80	0xbdd5affa	-0.104339555
81	0x3de4dc32	0.111748114
82	0x3da3402c	0.07971224
83	0xbe91a1d0	-0.28443766
84	0xbe23aa4f	-0.15982936
85	0xbd2c80ca	-0.04211501
86	0xbe288ee7	-0.16460763
87	0xbc052fa0	-0.0081290305
88	0xbe242075	-0.16028006
89	0xbdf6dcf5	-0.12053863
90	0xbd02ed34	-0.031964496
91	0x3e03f631	0.12886883
92	0x3da579a4	0.08079842
93	0xbe88db7a	-0.26729947
94	0xbe720f3b	-0.23638622
95	0xbeb14618	-0.3462379
96	0xbd489428	-0.048969418
97	0x3dad402e	0.08459507
98	0x3c554560	0.013017029
99	0xbdba1f9e	-0.09088062
100	0xbd3eab7f	-0.04655027
101	0xbd886711	-0.06660283
102	0x3d0f92c4	0.035052076
103	0x3ca8cf90	0.020606786
104	0x3d2f45d4	0.042791203
105	0xbdc1cbb5	-0.09462682
106	0x3d908687	0.07056909
107	0xbd78168a	-0.06056837
108	0xbdbac3e2	-0.09119393
109	0xbd9004d4	-0.07032171
110	0xbe402a79	-0.18766202
111	0xbd32e4b8	-0.043675154
112	0xbe167408	-0.146927
113	0x3c964ec0	0.018348098
114	0x3cf60d58	0.03003566
115	0x3dc919fa	0.09819408
116	0xbd7d4977	-0.06183764
117	0xbe4df439	-0.20112695
118	0xbdc9ca49	-0.09853036
119	0xbe64b89b	-0.22336046
120	0xbe166285	-0.1468602
121	0xbe40933c	-0.18806165
122	0xbce9a888	-0.028522745
123	0xbdba5efe	-0.091001496
124	0xbe7c4eb9	-0.24639405
125	0xbeac8ba4	-0.33700287
126	0xbe17558c	-0.14778727
127	0x3e0275bf	0.12740229

weight f4 [64, 128]
0	0x3d73bfd2	0.059509106
1	0xbe1b5941	-0.15170766
2	0xbdb2804a	-0.087158754
3	0xbb2791c0	-0.0025569052
4	0xbc9ade10	-0.018904716
5	0xbd7e5eb9	-0.062102053
6	0xbde1bb8a	-0.11022098
7	0xbd50c2da	-0.050967075
8	0xbd1748e7	-0.03693476
9	0xbe14aea3	-0.14519744
10	0xbd88977f	-0.066695206
11	0xbd841abb	-0.06450411
12	0xbddf0c25	-0.10890988
13	0x3ced7210	0.028985053
14	0x3dac3bdf	0.08409857
15	0xbc0c35d8	-0.008557759
16	0xbe05cfc7	-0.13067542
17	0xbe0f9ea1	-0.14025356
18	0xbcf47d56	-0.029844921
19	0x3c286a40	0.010279238
20	0xbb801380	-0.0039085746
21	0xbe084aa5	-0.13309725
22	0xbdef40f8	-0.11682314
23	0xbda0edb2	-0.07857837
24	0x3c905238	0.01761733
25	0xbe3834f6	-0.17988953
26	0x3dab7b3f	0.08373117
27	0xbe35df65	-0.17761
28	0xbe26c678	-0.16286647
29	0xbd30f2fc	-0.043200478
30	0x3c4faac0	0.012674987
31	0xbd713296	-0.058886133
32	0x3d6708a6	0.056404732
33	0x3c724038	0.014785819
34	0xbdb05adc	-0.0861108
35	0xbd0cdaf4	-0.034388497
36	0x3dac43c1	0.084113605
37	0xbbec5181	-0.0072118645
38	0xbc873a34	-0.016507246
39	0x3dafd415	0.08585373
40	0x3d55cbc2	0.05219627
41	0xbdb1e907	-0.086870246
42	0x3d199852	0.03749878
43	0x3cec6d84	0.028860815
44	0x3d8413f5	0.06449119
45	0x3d9e763f	0.077373974
46	0x3c9da924	0.019245692
47	0x3cae7854	0.021297611
48	0xbc9bff28	-0.019042566
49	0xbd741a91	-0.05959565
50	0xbad56c00	-0.0016282797
51	0xbd49b0a6	-0.04924073
52	0x3d7a2d9e	0.06107866
53	0xbce66800	-0.028125763
54	0x3da374c5	0.079812564
55	0x3d6a8366	0.057254218
56	0xbdacb5ac	-0.08433089
57	0xbda96c73	-0.08272638
58	0xbd875320	-0.06607652
59	0xbc99bd20	-0.01876694
60	0x3d6be5e2	0.05759228
61	0xbd7d4195	-0.061830122
62	0xbd0ed97f	-0.03487539
63	0xbd6bc667	-0.057562258
64	0xbe35f726	-0.17770061
65	0xbe2a158b	-0.1660978
66	0xbd26dc77	-0.040737595
67	0x3b023620	0.0019868687
68	0xbd81068b	-0.06300076
69	0x3caef780	0.021358252
70	0xbdf7c484	-0.12098029
71	0xbd83ecb5	-0.06441633
72	0xbd98cd45	-0.07461027
73	0x3cfdc778	0.030978903
74	0xbd1d4cd1	-0.038403336
75	0xbd1ec58c	-0.038762614
76	0xbc28387d	-0.010267374
77	0x3d8ea51b	0.06965085
78	0xbd919152	-0.07107796
79	0x3dac48f7	0.084123544
80	0xbcab7fa0	-0.02093488
81	0x3c8057e0	0.015666902
82	0xbd0ff6d0	-0.035147488
83	0xbcc5a57a	-0.024126757
84	0xbdbba61d	-0.09162543
85	0xbd4f3162	-0.050584204
86	0xbc8ee6c0	-0.017444015
87	0x3d882dcd	0.06649361
88	0xbdd86a90	-0.105672
89	0xbda1d09a	-0.07901116
90	0xbd312a4b	-0.043253224
91	0x3d89e24b	0.06732615
92	0x3ce2d2e8	0.027688459
93	0xbe2cadef	-0.16863225
94	0xbd7b477e	-0.061347477
95	0xbcbf2f0f	-0.023337869
96	0x3d431442	0.04762674
97	0xbe1c61df	-0.1527171
98	0x3d8a5f2d	0.067564346
99	0x3da013fb	0.07816311
100	0x3d17b6c2	0.037039526
101	0x3d861097	0.06546133
102	0xbe2ffda3	-0.17186598
103	0x3d72e412	0.059299536
104	0x39bc0900	0.0003586486
105	0xbd5062b3	-0.050875377
106	0xbd64f03f	-0.05589318
107	0x3d33030e	0.043704085
108	0xbc98d772	-0.01865742
109	0x3d8f5b5b	0.069998465
110	0xbda587ac	-0.08082518
111	0xbcc24940	-0.023716569
112	0xbd855b19	-0.06511516
113	0x3d02c65c	0.03192745
114	0x3d98f3ef	0.07468402
115	0x3d41b666	0.04729309
116	0xbddb51df	-0.10708975
117	0xbe13b5f2	-0.14424875
118	0x3db076ff	0.08616447
119	0xbd848310	-0.06470311
120	0xbdba2784	-0.09089568
121	0xbe0304df	-0.12794827
122	0xbc2f2838	-0.010690741
123	0x3cb12d5c	0.021628074
124	0xbd2282fc	-0.039675698
125	0xbde76939	-0.112993665
126	0xbe01c45b	-0.1267256
127	0xbd4deaff	-0.050272938
128	0xbd2f6895	-0.042824347
129	0xbcbc9478	-0.023020014
130	0x3bb26ab0	0.005444847
131	0x3c63c240	0.013901293
132	0xbbb570d0	-0.00553713
133	0xbcffa984	-0.031208761
134	0xbdb9977d	-0.09062097
135	0xbcca1097	-0.024666114
136	0xbdb055aa	-0.08610089
137	0x3c19797e	0.009367345
138	0x3ca11dd4	0.019667543
139	0xbbefc75e	-0.0073174676
140	0xbd0cf3c5	-0.034412164
141	0xbb97dc70	-0.0046344325
142	0x3d74d0d6	0.059769474
143	0x3be24ce3	0.0069061383
144	0xbe50e779	-0.204008
145	0xbca3049f	-0.019899664
146	0xbea0c7c8	-0.3140242
147	0x3d8dee97	0.06930273
148	0x3da6d047	0.081451945
149	0x3ce657d0	0.028118044
150	0x3c1b3a83	0.0094743995
151	0xbd789d3a	-0.060696818
152	0xbd6ec24c	-0.058290765
153	0x3ba6bb52	0.0050882483
154	0xbb6ec71a	-0.0036434592
155	0x3c5134d6	0.012768945
156	0x3d7d7087	0.061874893
157	0x3ba0d7b0	0.0049085245
158	0x3d4e5baa	0.050380386
159	0xbd244629	-0.040105972
160	0xbcbf8a40	-0.023381352
161	0x3e059867	0.13046418
162	0x3d13784b	0.036003392
163	0x3c7a7020	0.015285522
164	0xbdf59337	-0.1199097
165	0x3d312c70	0.04325527
166	0xbd4b8fc2	-0.049697645
167	0x3d97a07f	0.07403659
168	0xbc363fad	-0.01112358
169	0x3ce11a78	0.027478442
170	0x3dab0b25	0.08351735
171	0x3d35a1a6	0.044343613
172	0x3d3054a2	0.043049462
173	0x3d93636b	0.07196697
174	0x3d47ae01	0.048749927
175	0x3e0f1425	0.13972528
176	0xbc4273e0	-0.011868447
177	0x3cc34e48	0.023841038
178	0x3d5aafb2	0.053390212
179	0xbda0769b	-0.07835122
180	0xbd8be7b4	-0.06831303
181	0x3dada9ba	0.084796384
182	0xbd254c5c	-0.040356025
183	0x3b99baa0	0.004691437
184	0x3d8d6015	0.06903092
185	0x3daf0d9d	0.085475184
186	0xbc2b12c0	-0.010441482
187	0xbc8c4338	-0.017121896
188	0x3a11b080	0.00055576116
189	0xbc2d4d60	-0.01057753
190	0x3c44b0c0	0.012005031
191	0x3d8d8550	0.06910193
192	0x3d30badc	0.043146953
193	0xbd3ad7ba	-0.04561589
194	0xbd1104aa	-0.03540484
195	0xbd80a37d	-0.06281183
196	0x3cf22105	0.02955676
197	0x3d177ef2	0.0369863
198	0xbbc385c3	-0.0059668734
199	0xbd6fa4ef	-0.058506902
200	0x3d2bbefa	0.041930176
201	0x3db3eced	0.087854244
202	0xbd600541	-0.05469251
203	0xbc6b0d98	-0.014346503
204	0xbead8293	-0.33888683
205	0x3a6b1800	0.0008968115
206	0x3d825a5b	0.0636489
207	0xbd29a6cf	-0.041418847
208	0x3d6fa3ea	0.05850593
209	0xbdae3c95	-0.08507649
210	0xbddd4a88	-0.10805231
211	0x3d341a80	0.043970585
212	0x3cf54a69	0.029942708
213	0xbd7de2ef	-0.061984
214	0x3c96e665	0.018420408
215	0x3d4bee62	0.049787886
216	0xbd9a7dff	-0.07543563
217	0xbe37a739	-0.17934884
218	0x3d9fd4d5	0.07804266
219	0x3d1c4d5e	0.03815972
220	0x3d4f70d2	0.050644703
221	0x3ce06344	0.027391084
222	0x3d83db08	0.06438261
223	0xbc348cad	-0.011019868
224	0x3ccf3874	0.025295474
225	0xbda0d7df	-0.07853674
226	0xbd83db99	-0.06438369
227	0x3ccf06fc	0.025271885
228	0xbd30ce98	-0.043165773
229	0xbce93528	-0.02846773
230	0xbe9fe57d	-0.31229773
231	0xbc23da78	-0.0100008175
232	0xbc4b82c8	-0.012421317
233	0xbc3ca588	-0.011514075
234	0xbcf7ef96	-0.03026561
235	0xbd38c547	-0.045110013
236	0x3cf18649	0.029482977
237	0x3d8911e9	0.06692869
238	0x3db39026	0.087677285
239	0x3c2b65a8	0.010461248
240	0x3d51b10a	0.05119423
241	0x3c294310	0.01033093
242	0xbd24cb87	-0.04023316
243	0xbcb7b55c	-0.022425346
244	0xbd23dc56	-0.04000505
245	0xbdf43b71	-0.119254
246	0xbd94c98a	-0.07265003
247	0xbd9ff243	-0.0780988
248	0x3d73f8f3	0.05956359
249	0xbb2d8a55	-0.0026480157
250	0x3d90c4e9	0.07068808
251	0xbd63f55e	-0.055653922
252	0xbda1e2e8	-0.07904607
253	0xbce5d3cd	-0.028055096
254	0xbd559da7	-0.052152302
255	0xbba21da0	-0.004947379

bias f4 [64]
0	0xbdd16496	-0.10224263
1	0xbdff3d7e	-0.124629006
2	0xbe0168c3	-0.1263762
3	0xbd3bb17a	-0.04582355
4	0x3e0c0780	0.13674736
5	0xbea06464	-0.31326592
6	0xbe625b10	-0.2210505
7	0x3e862d22	0.2620631
8	0xbee29293	-0.44252452
9	0xbf872255	-1.0557352
10	0xbd34f0fb	-0.04417513
11	0xbf199369	-0.59990555
12	0x3e8f3f2d	0.27977887
13	0xbe4d7c91	-0.2006705
14	0xbea58778	-0.32329917
15	0x3fbda1b0	1.4814968
16	0xbec9a2cf	-0.39382026
17	0xbd0d069b	-0.034430128
18	0xbe156134	-0.14587861
19	0xbdee4929	-0.11635048
20	0xbece97c0	-0.4035015
21	0xbeb35df1	-0.3503261
22	0xbec0c73f	-0.37652013
23	0xbe81431b	-0.2524651
24	0xbe4b6e50	-0.198663
25	0xbea36483	-0.31912622
26	0x3f2d526f	0.6770391
27	0x3f5646dd	0.8370188
28	0x3eea3d99	0.4575012
29	0x3f3f1f96	0.7465757
30	0xbe2ea98f	-0.17056869
31	0x3cac2954	0.0210158
32	0xbdd50881	-0.104020126
33	0xbe1c1e99	-0.15246047
34	0xbd82161a	-0.06351872
35	0xbf517d75	-0.8183206
36	0xbf3435a9	-0.7039438
37	0xbe7ca22e	-0.24671242
38	0xbd622471	-0.055210534
39	0xbec3c1ed	-0.3823389
40	0xbe861bd4	-0.26193106
41	0xbea4716f	-0.32117793
42	0xbd6d5bc2	-0.057948835
43	0xc017e807	-2.3735368
44	0xbe257d45	-0.16161068
45	0xbeb97f44	-0.36229908
46	0xbea14c7b	-0.31503662
47	0xbdd1a815	-0.10237137
48	0xbf0ad210	-0.5422678
49	0xc0375fdd	-2.865226
50	0x3de9a757	0.11408871
51	0xbe244a51	-0.16043974
52	0xbe5b20d8	-0.21399248
53	0xbe0f0ee1	-0.1397052
54	0xbe059ff3	-0.13049297
55	0x3c5e0283	0.0135504035
56	0xbeb4a7f7	-0.35284397
57	0xbe0dd2aa	-0.13849893
58	0xbee75101	-0.4517899
59	0x3e1a3e7f	0.15062903
60	0xbe94afe5	-0.29040447
61	0xbed92182	-0.42408377
62	0xbec3b212	-0.38221794
63	0xbe274d2e	-0.16338035

weight f4 [32, 64]
0	0xbdb6cfc0	-0.08926344
1	0xbeb93c83	-0.3617898
2	0x3d54d9d4	0.05196555
3	0xbcaabc60	-0.020841777
4	0x3f2fc95d	0.6866663
5	0xbca72fd0	-0.020408541
6	0x3d59db98	0.053187937
7	0x3e6948b7	0.22781645
8	0xbdef0848	-0.116715014
9	0x3e8e89bf	0.27839467
10	0xbfb34156	-1.4004314
11	0xbe9abf88	-0.30224252
12	0x3dadfe85	0.084958114
13	0x3ca14bca	0.01968946
14	0x3d4545ac	0.048162147
15	0x3f6ea371	0.9321814
16	0xbedb6d09	-0.42856625
17	0xbd7bb5b8	-0.061452597
18	0x3c1bf260	0.009518236
19	0xbddd2fb2	-0.10800113
20	0xbdabc11b	-0.08386441
21	0x3e89c1f0	0.26905775
22	0x3eb0fb15	0.3456656
23	0xbdcbf6e4	-0.099592
24	0x3dd6af70	0.10482681
25	0x3ebfd301	0.3746567
26	0x3f01f673	0.50766677
27	0xc012c97e	-2.293548
28	0xc04be8c8	-3.1860828
29	0xbf1d6230	-0.6147795
30	0xbf170d81	-0.5900498
31	0xbdaf7d60	-0.08568835
32	0x3dcd44e6	0.10022907
33	0x3d196acc	0.037455365
34	0xbd944372	-0.07239427
35	0xbe79eb5c	-0.24406189
36	0xbf9bf827	-1.2185105
37	0x3dce06d2	0.100598946
38	0xbd474d9c	-0.048658
39	0xbecbaa4b	-0.3977836
40	0x3dc7bc68	0.097527325
41	0xbed32681	-0.41240314
42	0xbcd01048	-0.025398389
43	0xc0297542	-2.6477818
44	0xbde6f0aa	-0.11276372
45	0x3da7406e	0.08166586
46	0x3e21c58b	0.15798013
47	0xc00fd312	-2.2472577
48	0xbcdf30b8	-0.02724491
49	0xbebf89d9	-0.37409857
50	0x3eb1584c	0.34637678
51	0xbf0048a5	-0.50110847
52	0x3e1cf9f9	0.15329732
53	0xbde3bdce	-0.11120187
54	0x3d517cc0	0.05114436
55	0x3d99048c	0.074715704
56	0x3de1548c	0.11002454
57	0x3d19ba08	0.03753093
58	0x3dca0fd0	0.09866297
59	0x3b4467c6	0.002996908
60	0x3e4242bf	0.18970774
61	0x3dc3c4be	0.0955901
62	0x3c4f6ae0	0.012659758
63	0xbe3aa9fd	-0.18228908
64	0xbdc2b6a4	-0.09507492
65	0xbcb192c7	-0.021676434
66	0xbdc601b8	-0.096682966
67	0x3ba66940	0.0050784647
68	0xbe9239b6	-0.28559655
69	0x3cc3f420	0.023920119
70	0xbdf94c6e	-0.12172781
71	0xbeca2b9c	-0.39486396
72	0xbb9dd9c0	-0.0048172176
73	0xbd204c70	-0.039135396
74	0x3cb3c061	0.02194232
75	0xbdd0289a	-0.10163994
76	0x3ddf1e7e	0.10894488
77	0x3df89b70	0.12139022
78	0xbd4d95f4	-0.050191835
79	0xbe2a9290	-0.16657472
80	0x3da9104e	0.08255063
81	0xbbb88640	-0.005631238
82	0x3d48523c	0.04890655
83	0x3d36a0c4	0.04458691
84	0xbdeca11a	-0.11554165
85	0x3d2ffb10	0.04296404
86	0xbd4b6214	-0.04965408
87	0xbd32232c	-0.043490574
88	0xbd89b0ac	-0.067231506
89	0xbe06e7cd	-0.13174362
90	0xbe204698	-0.1565193
91	0xbe770510	-0.24123025
92	0xbea1cf0c	-0.31603277
93	0xbea82e97	-0.32848045
94	0xbc31e6e0	-0.010858268
95	0x3cf12258	0.029435322
96	0x3c31f660	0.010861963
97	0x3d2a215c	0.04153572
98	0xb9b2ca00	-0.00034101307
99	0xbd3b633c	-0.045748934
100	0xbd39dfb4	-0.045379356
101	0x3d9f8940	0.0778985
102	0x3c5bbe80	0.013412118
103	0xbde3358e	-0.11094199
104	0xbd04b690	-0.032400668
105	0xbf04da45	-0.5189555
106	0xbd9e819e	-0.07739566
107	0xbdd2ee3c	-0.10299346
108	0x3cf76d60	0.030203521
109	0x3cb562a0	0.022141755
110	0x3cf7c860	0.030246913
111	0xbe0a93ee	-0.13532993
112	0xbe16a756	-0.14712271
113	0xbd34411c	-0.044007406
114	0x3cb4b738	0.022060022
115	0xbe16fd18	-0.14744985
116	0xbde0baae	-0.10973106
117	0x3df7fc88	0.121087134
118	0xbce83b20	-0.028348505
119	0xbc49b200	-0.012310505
120	0x3db307ea	0.08741744
121	0xbb832b00	-0.0040029287
122	0x3db49ffe	0.088195786
123	0xbf229f31	-0.63524157
124	0x3d990470	0.074715495
125	0xbd557b00	-0.052119255
126	0x3dbdbe48	0.09264809
127	0xbd827800	-0.063705444
128	0x3df22a12	0.118244305
129	0xbe2e90d6	-0.17047438
130	0x3dd97fdc	0.1062009
131	0x3dcc19ba	0.099658445
132	0xbdece8b6	-0.115678236
133	0x3dbf1db8	0.0933184
134	0x3d80308e	0.06259261
135	0xbd96bedb	-0.073606215
136	0xbd61e204	-0.055147186
137	0x3ce9a660	0.028521717
138	0xbd497c9f	-0.049191114
139	0xbd366384	-0.0445285
140	0xbbdc84d6	-0.0067297025
141	0xbe28c945	-0.16483028
142	0x3be67960	0.007033512
143	0xbdd6233b	-0.104559384
144	0xbcab49ee	-0.020909276
145	0x3c1fbebc	0.009750064
146	0x3d1fe3cc	0.039035603
147	0xbe200c18	-0.15629613
148	0x3ca450c8	0.02005805
149	0xbd6c6a2e	-0.05771845
150	0x3c1a00ba	0.009399587
151	0x3d06b9ea	0.032892145
152	0xbd8da88c	-0.069169134
153	0xbde1ef10	-0.11031926
154	0xbe2cb6fc	-0.16866678
155	0xbe0b8e4f	-0.13628505
156	0xbe9daae2	-0.30794436
157	0xbe3e8321	-0.18604709
158	0x3d3cafb1	0.04606599
159	0xbcbf9f2e	-0.023391332
160	0xbe12c696	-0.14333567
161	0xbe0d2c95	-0.13786538
162	0x3c6ba418	0.014382385
163	0xbe0c9792	-0.13729694
164	0xbd34c073	-0.044128846
165	0xbd3b2079	-0.045685265
166	0xbcb9d598	-0.022684857
167	0xbe5be2de	-0.21473262
168	0x3cc2aa90	0.023762971
169	0xbe5b6b44	-0.21427637
170	0xbdb8e26f	-0.09027564
171	0xbde23690	-0.11045563
172	0x3c2aec60	0.010432333
173	0xbd79aa74	-0.060953572
174	0xbdff2b7d	-0.124594666
175	0xbe898cd6	-0.26865262
176	0x3d636328	0.055514485
177	0x3d8927d2	0.06697048
178	0xbc8ef498	-0.017450616
179	0x3c37dd2e	0.011222167
180	0xbd1a8385	-0.037723083
181	0xbda9e52d	-0.08295665
182	0x3da63cc0	0.08117056
183	0xbded252b	-0.11579355
184	0xbb1b2690	-0.0023674108
185	0xbe2a1a25	-0.16611536
186	0xbd8e1f04	-0.069395095
187	0x3d2cb5dc	0.042165622
188	0x3d9fde3a	0.07806058
189	0xbc9c7922	-0.01910073
190	0x3ce4a670	0.027911395
191	0x3cb58767	0.022159291
192	0x3d7fd30c	0.06245713
193	0xbdaa05f0	-0.08301914
194	0xbd7b35c4	-0.06133057
195	0x3da17d84	0.07885268
196	0x3c8c66b0	0.017138809
197	0xbc1537f0	-0.009107575
198	0x3df89c68	0.12139207
199	0xbe25b8be	-0.16183755
200	0xbce3e908	-0.027821079
201	0x3ddc2972	0.107500926
202	0xbdb57282	-0.08859731
203	0x3bf24f00	0.0073946714
204	0xbdaa804a	-0.083252504
205	0xbd7aa53c	-0.061192736
206	0xbd69a0a0	-0.05703795
207	0xbde34c62	-0.11098553
208	0x3ded9658	0.116009414
209	0xbda0ff04	-0.0786114
210	0xbd27ba5c	-0.04094921
211	0x3a58e800	0.0008274317
212	0x3d68f2ac	0.056872055
213	0xbdbcbcdc	-0.092157096
214	0x3d4cb2e8	0.049975306
215	0x3da65638	0.08121914
216	0x3cc22218	0.023697898
217	0xbcb5ce28	-0.02219303
218	0x3d5347f4	0.05158229
219	0xbe84bea2	-0.2592669
220	0xbdf4d356	-0.11954372
221	0xbd8ff210	-0.07028592
222	0x3ded3be2	0.11583687
223	0x3b8e11e0	0.004335627
224	0xbd70b6b4	-0.05876799
225	0x3da10e10	0.0786401
226	0x3d22b6ec	0.03972523
227	0xbd633004	-0.055465713
228	0xbdc82070	-0.09771812
229	0xbdf09c72	-0.117485896
230	0x3e2018b4	0.15634423
231	0xbccc7878	-0.024959788
232	0x3d9ccab6	0.076558515
233	0xbe6f1d57	-0.23351036
234	0x3dca43f0	0.09876239
235	0xbcdca0e9	-0.026932197
236	0x3dfbaa04	0.12288287
237	0xbd953b10	-0.07286656
238	0xbccdfc60	-0.025144756
239	0xbd26d542	-0.040730722
240	0x3d90d51e	0.07071899
241	0x3de1475a	0.10999937
242	0xbddf6ee4	-0.109098226
243	0x3b9737ca	0.004614805
244	0xbdf252e2	-0.11832215
245	0x3da84854	0.082169205
246	0xbd29ce20	-0.04145634
247	0xbccf89b0	-0.02533421
248	0xbd176f0c	-0.036971137
249	0x3e4f67ed	0.20254488
250	0x3b8fb360	0.004385397
251	0xbe717de9	-0.23583187
252	0xbdf078f8	-0.11741823
253	0xbdcd6eee	-0.10030924
254	0xbdad37b0	-0.08457887
255	0xbd1373b4	-0.035999015

bias f4 [32]
0	0x40023db6	2.0350165
1	0xbf3bf6b8	-0.7342334
2	0xbe0c25c6	-0.13686284
3	0xbbae9dad	-0.005328855
4	0xbf2dc6e8	-0.6788163
5	0xbe012c4e	-0.12614557
6	0xbed9ea22	-0.42561442
7	0xbc7cf1d1	-0.015438513
8	0xbe4a2de5	-0.1974407
9	0xbede71cd	-0.43446198
10	0x3c9fdf94	0.01951579
11	0xbfaddb4f	-1.3582553
12	0x3f858ef7	1.0434254
13	0x3e10e20c	0.1414873
14	0x3ef2a55b	0.4739178
15	0x3fb829dc	1.4387774
16	0xbee81e25	-0.45335498
17	0x3f7b74e7	0.98225254
18	0x3d5fa245	0.05459811
19	0xbf27d952	-0.6556598
20	0xbf32bb3c	-0.69816947
21	0x3c23229f	0.009956985
22	0xbf8d80ef	-1.1054972
23	0x3f328b87	0.6974415
24	0xbe31e9c3	-0.1737433
25	0xbf3db681	-0.74106604
26	0xbf8d1822	-1.102299
27	0xbe18c8d8	-0.14920366
28	0xbe7f620b	-0.24939744
29	0xbf013534	-0.50471807
30	0xbe827f31	-0.25487664
31	0x3c7acab7	0.01530712

weight f4 [8, 32]
0	0xbe5fb0fb	-0.21844856
1	0xbe07e75d	-0.13271852
2	0x3d3af1a0	0.045640588
3	0xbc916a40	-0.01775086
4	0xbde42e60	-0.11141658
5	0x3dcc67d8	0.09980744
6	0xbbb38d04	-0.005479457
7	0xbd644e25	-0.055738587
8	0x3c60e2c9	0.013725945
9	0x3d463518	0.048390478
10	0x3dcb5266	0.09927826
11	0xbd93e7e6	-0.072219655
12	0xbaa40d9c	-0.0012516263
13	0xbd5ad4a3	-0.053425442
14	0xbea37963	-0.31928548
15	0xbe204edc	-0.15655082
16	0xbd4d2cec	-0.05009167
17	0xbe323c88	-0.17405903
18	0xbe592afd	-0.21207805
19	0x3d13b97f	0.036065575
20	0xbe794644	-0.2434321
21	0x3d366058	0.044525474
22	0x3d8b8fb8	0.068145216
23	0xbe6ec964	-0.23319012
24	0x3d21a905	0.03946783
25	0x3bbf712a	0.0058423476
26	0x3d327264	0.043566123
27	0xbd2a9624	-0.04164709
28	0x3c989030	0.018623441
29	0xbc77a2af	-0.01511447
30	0xbd88eef3	-0.06686201
31	0xbc7efc0c	-0.015563022
32	0x3f23ed9e	0.6403445
33	0xbf34a713	-0.70567435
34	0xbe575ff3	-0.21032695
35	0xbe8c1a5f	-0.2736387
36	0xbed1b027	-0.40954706
37	0xbe2c80ff	-0.16846083
38	0xbe504605	-0.2033921
39	0x3da129cb	0.078692995
40	0xbdd39dbd	-0.103328206
41	0xbd4e53ec	-0.050373003
42	0x3c0721e3	0.008247825
43	0x3d4d7494	0.050160006
44	0xbfb5a90e	-1.4192216
45	0x3c7f7f57	0.015594325
46	0xbe36f227	-0.17865811
47	0x3f07a2bb	0.5298268
48	0x3c97f950	0.018551499
49	0x3f105ee4	0.5639479
50	0xbb2cfb6e	-0.002639498
51	0xbf403931	-0.7508727
52	0x3edc0ad3	0.42977008
53	0xbdd06642	-0.10175754
54	0x3efb2c21	0.49057105
55	0x3e7d3a95	0.24729379
56	0xbc4347db	-0.011918987
57	0x3f1446fd	0.5792082
58	0xbed0d172	-0.40784794
59	0xbe2080a2	-0.1567407
60	0xbed3b488	-0.41348672
61	0x3ed2b89b	0.41156468
62	0xbc8799c8	-0.01655282
63	0xbc17a03c	-0.009254511
64	0x3f272551	0.65291315
65	0xbed6ff8e	-0.41991848
66	0x3d9bd0d6	0.07608192
67	0x3aabd003	0.0013108257
68	0x3d78e568	0.060765654
69	0xbe4fcc1b	-0.20292704
70	0xbf2374b9	-0.6384998
71	0x3b334ed9	0.002736023
72	0xbcaa2aae	-0.020772304
73	0xbe0f7ca5	-0.14012392
74	0xbe6c5c16	-0.23082003
75	0x3d84ca2a	0.06483872
76	0xbea66058	-0.3249538
77	0x3ef8a0f9	0.48560312
78	0xbf4d79bf	-0.80263895
79	0xbde2c13e	-0.11072014
80	0x3c980179	0.01855539
81	0xbe0b013a	-0.13574687
82	0xbc7046b4	-0.014665294
83	0xbead6fe6	-0.33874434
84	0x3f0c17fe	0.5472411
85	0xbdb6ce10	-0.08926022
86	0x3d6811e4	0.056657687
87	0x3f3f921d	0.74832326
88	0x3db7c0da	0.089723304
89	0x3f0cf246	0.5505718
90	0xbeee4e0a	-0.46543914
91	0x3f08d3e2	0.5344831
92	0x3d07b526	0.03313174
93	0xbe3eb412	-0.18623379
94	0xbd098229	-0.033571396
95	0x3d72d6d7	0.05928692
96	0xbebd132c	-0.3692869
97	0xbd980782	-0.07423307
98	0x3e2abe97	0.16674267
99	0xbd0ad937	-0.03389856
100	0xbee6063b	-0.44926628
101	0x3daa12a5	0.083043374
102	0x3e56c95e	0.20975253
103	0xbc8c155f	-0.017100034
104	0x3e1811aa	0.14850488
105	0xbec9983f	-0.39373967
106	0x3d9ac642	0.07557346
107	0xbf3b31bc	-0.73122764
108	0x3ee63e39	0.44969347
109	0x3f0f7023	0.5603048
110	0xbda8a051	-0.08233703
111	0x3ec4757e	0.3837089
112	0xbe40d32a	-0.18830553
113	0xbdc54cf6	-0.0963382
114	0x3d402eb1	0.04691953
115	0x3ed733f7	0.42031834
116	0x3e198f16	0.14995989
117	0x3d3eb994	0.0465637
118	0x3e0a4ef2	0.13506678
119	0x3e51349d	0.20430227
120	0x3ce23b20	0.027616084
121	0x3e984f4b	0.29747996
122	0xbf00cad4	-0.5030949
123	0xbe8e368f	-0.27776
124	0xbd9b4fdc	-0.07583591
125	0xbc2cf28a	-0.010555873
126	0x3e973006	0.29528826
127	0xbdbde126	-0.09271459
128	0xbf2d1d3c	-0.67622733
129	0xbd961770	-0.07328689
130	0xbe13bae4	-0.14426762
131	0x3da4c126	0.08044653
132	0x3a03d603	0.00050291436
133	0xba115976	-0.0005544642
134	0x3e3a4957	0.1819204
135	0xbc8ed1ab	-0.017433962
136	0x3df3d629	0.11906082
137	0x3e20795e	0.15671298
138	0x3e500754	0.20315295
139	0xbf52cd63	-0.82344645
140	0x3f030617	0.5118117
141	0xbdf10c6d	-0.11769948
142	0x3eeb14d5	0.4591433
143	0x3ee99883	0.4562417
144	0xbdb2c13c	-0.08728263
145	0x3f0d6835	0.5523713
146	0x3d73d4f0	0.059529245
147	0xbf76afad	-0.9636181
148	0xbeef8fcf	-0.46789405
149	0x3e4287c5	0.18997104
150	0x3f24c89e	0.6436862
151	0x3e6979a1	0.22800304
152	0xbddc0b03	-0.10744288
153	0x3e77ba13	0.24192075
154	0xbe990ffd	-0.2989501
155	0x3e705a0a	0.23471847
156	0xbd8161db	-0.063174926
157	0x3e9e8ebd	0.30968276
158	0xbe99bbe8	-0.30026174
159	0x3e04bb7c	0.12962145
160	0xbe2a0a34	-0.16605455
161	0xbc5aabe0	-0.013346642
162	0x3dda616a	0.106631115
163	0xbdbf1ccb	-0.09331664
164	0xbd4dde7b	-0.050261002
165	0xbe11d469	-0.14241184
166	0xbda45892	-0.08024706
167	0xbcf3a7f8	-0.02974318
168	0xbdb839cd	-0.089953996
169	0x3e2381a5	0.15967424
170	0xbe1acb90	-0.15116715
171	0xbf5ebb4d	-0.8700455
172	0xbd1629fa	-0.036661126
173	0xbd02c267	-0.031923678
174	0xbe0e7911	-0.1391337
175	0xbd1c8d58	-0.038220733
176	0xbd36f760	-0.04466951
177	0x3c3c9bc8	0.0115117505
178	0xbda93d48	-0.082636416
179	0x3dc6779d	0.09690783
180	0xbd1bd69c	-0.038046464
181	0xbe0df973	-0.13864689
182	0xbde4282b	-0.11140474
183	0xbe35bce1	-0.17747833
184	0xbe247582	-0.1606045
185	0xbda1d44a	-0.07901819
186	0x3d963aca	0.07335432
187	0xbe6d8be1	-0.23197891
188	0xbdd06395	-0.10175244
189	0x3c9a4c88	0.018835321
190	0x3d237dc8	0.039914876
191	0xbde8838d	-0.11353216
192	0xbeee347f	-0.46524426
193	0xbe2894aa	-0.16462961
194	0x3d682c6c	0.05668299
195	0xbdca685a	-0.09883185
196	0x3da8edce	0.08248483
197	0xbe095fec	-0.13415498
198	0xbe27bbf6	-0.16380295
199	0x3dad82f0	0.0847224
200	0x3d9c5212	0.07632841
201	0xbe2f3b12	-0.17112377
202	0x3d3138e5	0.04326715
203	0xbe8c229f	-0.27370164
204	0xbe18cb3b	-0.14921276
205	0xbe851220	-0.2599039
206	0xbebb25bc	-0.36552227
207	0xbd2d1d7e	-0.042264454
208	0xbe251d2a	-0.16124406
209	0xbd3ef555	-0.046620686
210	0x3d17892f	0.036996063
211	0xbe5314c4	-0.2061339
212	0xbd986265	-0.07440642
213	0xbe3d6afa	-0.1849784
214	0xbcdd0320	-0.02697903
215	0xbe549cb1	-0.20762898
216	0x3c06cb5d	0.0082271965
217	0xbddfd503	-0.10929301
218	0xbc3c1f93	-0.011482137
219	0xbe113934	-0.14181978
220	0xbd3d88e0	-0.046273112
221	0xbdd4190f	-0.10356342
222	0x3dfa1342	0.122107044
223	0xbd977b9e	-0.07396625
224	0x3cc14008	0.023590103
225	0xbde3e668	-0.11127931
226	0xbb080227	-0.0020753236
227	0xbe285673	-0.16439228
228	0xbe2abe75	-0.16674216
229	0x3d84a642	0.06477024
230	0xbdd1f679	-0.10252089
231	0x3cf69caf	0.03010401
232	0xbc9f060a	-0.01941206
233	0x3d075134	0.033036426
234	0xbe0e6ad9	-0.13907947
235	0xbe68597c	-0.22690386
236	0xbe754c3f	-0.23954867
237	0xbde71290	-0.112828374
238	0xbe12a8ab	-0.14322154
239	0x3d214c02	0.039379127
240	0x3cd93738	0.026515588
241	0xbda59e5f	-0.080868475
242	0x3d373f68	0.044738203
243	0xbe52da51	-0.20591094
244	0xbe0e2b4a	-0.13883701
245	0x3e190a89	0.14945425
246	0x3cef37e7	0.029201461
247	0xbe18362e	-0.14864418
248	0x3dd2bbf6	0.10289757
249	0x3d68a827	0.056800988
250	0x3d190774	0.037360623
251	0xbea5a271	-0.32350495
252	0xbe138fc1	-0.14410307
253	0xbe13bff2	-0.1442869
254	0x3d73ee10	0.059553206
255	0xbe074aec	-0.13212174

bias f4 [8]
0	0xbd86d26c	-0.065831035
1	0x40369792	2.853001
2	0xbe700bea	-0.23442045
3	0x3f42af8e	0.76049125
4	0x3dbe5363	0.092932485
5	0xbe2fa6d5	-0.17153485
6	0xbe25321e	-0.161324
7	0xbc8ae900	-0.016956806

weight f4 [4, 8]
0	0xbd9ab764	-0.0755451
1	0x3eb03f2d	0.344232
2	0x3e80f079	0.25183466
3	0xbd96cb3c	-0.07362983
4	0xbe3bc872	-0.18338183
5	0x3e780122	0.24219182
6	0xbea687c1	-0.32525447
7	0x3e13bc88	0.14427388
8	0x3e4af1b2	0.19818762
9	0x3dfd1694	0.12357822
10	0xbe8db7e7	-0.2767937
11	0x3e944381	0.2895775
12	0xbea107d8	-0.31451297
13	0xbda459f4	-0.0802497
14	0x3e46501e	0.193665
15	0x3e8f49e1	0.27986053
16	0xbe00e24f	-0.1258633
17	0xbb0d2000	-0.0021533966
18	0xbeb1383c	-0.34613216
19	0x3dd2493c	0.102678746
20	0xbe96bdcd	-0.29441682
21	0xbbcf5580	-0.006327331
22	0xbd92bbc8	-0.07164723
23	0x3eb04477	0.34427235
24	0x3e43a102	0.19104388
25	0x3e581c36	0.21104512
26	0x3e73275e	0.23745486
27	0xbe0435fa	-0.12911215
28	0x3de9bdec	0.11413178
29	0x3e57133a	0.21003428
30	0xbe3d90bd	-0.18512245
31	0x3d5c1fa0	0.053741097

bias f4 [4]
0	0x3e2aeed6	0.16692671
1	0xbea04426	-0.31301993
2	0xbc607da0	-0.013701826
3	0x3c8813a0	0.01661092
