losses/models/ann2.pth (torch, 68622 bytes, 10 tensors)

weight f4 [128, 40]
00000000: 4272 f6bd f84a 87bc f5ca d1bd 2d9e 1c3e
00000010: 475d 173e 8388 cbbd 809f cabc 9fd9 013e
00000020: c69d 15be 08b2 b7bc 9bdf 16be 309c 00be
00000030: d950 203e 42c4 08be 7631 0ebe 4adf da3d
00000040: 59ee 91bd 7006 703d 7e73 943d 48f8 1bbe
00000050: 6407 bb3d e25a a43d 6469 08be 00fd 0dbb
00000060: 2d81 053e 73a3 0c3e e0df 62bd 23a7 1b3e
00000070: 27ae 123e d058 bbbc 4083 e4bb 0071 f3ba
00000080: 1c68 46bd 8d5e 073e fa3e bd3d b02f 963c
00000090: 4324 173e 2e5b d23d 6047 47bc e0ad dd3c
000000a0: 9308 1ebf 4c04 b2be b8dc b6be 925a f93d
000000b0: 21ad 12bf 2186 f0be dd9d 3fbf 5dd6 12bf
000000c0: 600f 21bf f6c3 07bf 511f 0dbf 4d48 b3be
000000d0: 4888 d7be cb74 d6be 14d2 09bf 3972 13bf
000000e0: e9f1 08bf b3b9 12bf 9852 08bf 6132 cabe
000000f0: 9206 05bf 1564 3ebf dfe7 f4be 1519 08bf
00000100: 2360 bfbe 4c87 e2be e14a c0be 9745 22bf
00000110: f0a9 08bf 4cb9 1ebf 13d5 18bf d7ab ecbe
00000120: 0e97 0dbf 21f4 edbe 3d26 fbbe f012 b4be
00000130: ab36 f6be 8afd 08bf e8fe c0be 2cc5 0ebf
00000140: 1436 27bf 9bb9 04bf 9c15 33bf fc36 083d
00000150: 4626 08bf e514 1bbf 83ec e9be b65b 17bf
00000160: c72e fbbe bb9a 25bf fe1d 2abf 7ca2 1dbf
00000170: ec5f 07bf bd3c 22bf ec64 ebbe 8b5b 00bf
00000180: ca88 27bf 041e f2be e23d 3fbf 2264 01bf
00000190: 8055 29bf bc26 1ebf d3ab 37bf 8959 31bf
000001a0: cb70 36bf 5ca5 1cbf 06ab 0bbf d834 28bf
000001b0: 20b7 e7be 64cd eebe 719f 28bf b170 05bf
000001c0: 5cba 22bf d95b 05bf 8d83 3dbf ca4a 2fbf
000001d0: 1e96 30bf 1dfd 3bbf 3f28 19bf 4a4a 25bf
000001e0: 90d1 50bc 8722 87bd 77f8 153e a2b1 09bd
000001f0: 9b1a 193e ee13 d33d 016e 18be aafd 8e3d
00000200: da03 843d c71a e9bd 2003 94bc 31b2 06be
00000210: a0a4 adbc a012 833c 2450 213d a807 cf3c
00000220: c69c cfbd 1f0f 0c3e e898 cf3c 0051 4dba
00000230: 870d febd ce6e 0bbe 8608 823d aacb b5bd
00000240: 378e aebd 201f dbbc 4ce7 e1bd 06fc c23d
00000250: e43b 883d 10ca 20bd 9233 09be bc35 c5bd
00000260: 5e58 de3d 6027 7ebc 40f2 57bb d022 523d
00000270: 929e ad3d b512 203e e8eb 31bd cde2 193e
00000280: 6ab7 28bf eca5 04bf 611e 31bf d188 0c3e
00000290: 7753 37bf e7c7 3abf 610f 29bf 908d 0cbf
000002a0: ade7 3cbf d222 42bf 2dbd 14bf 6a70 39bf
000002b0: 3afb 05bf 2dc1 e9be 64c8 17bf d9b5 08bf
000002c0: bc04 ecbe 07e0 3abf d18b 00bf 2e44 0bbf
000002d0: 8e16 f5be 13a2 34bf 98b0 27bf 11c6 22bf
000002e0: 06ae fabe ba56 3abf fe7c ebbe 6c11 0cbf
000002f0: 331c 17bf 8da2 2abf d624 28bf 1678 01bf
00000300: 6ec0 13bf 6cf3 00bf 453d ecbe 8b52 36bf
00000310: 066e 3fbf 5683 39bf d268 35bf 46fe 23bf
00000320: 044b 9b3d e28a 3ebd 7388 82bd dc43 0bbe
00000330: a806 37bd 486a b23d 80ae f6bb d82f 7d3d
00000340: f9c2 1e3e 0ece f33d cad0 14be 2e26 f7bd
00000350: 1c99 b83d c87c ab3c 229b eb3d 0094 2abc
00000360: 9a62 4abd fc56 b83d 80c6 d1ba 8f16 043e
00000370: 4862 603d 4da1 123e c0c3 89bb e052 0a3d
00000380: be25 e13d 2ee8 ee3d a397 063e ea38 0dbd
00000390: 6792 c9bd e0c0 cbbc 86c2 b03d 7fbb 213e
000003a0: 3352 1a3e 0060 a0b9 36de c0bd 5291 d2bd
000003b0: 3f5b 15be 53a1 bebd c2d2 17be f263 6ebd
000003c0: 0002 92ba 8ed5 a0bd 003e 3e3d d02b 08be
000003d0: 3fbc 0c3e 5376 133e 405f cfbd cc9c 3f3d
000003e0: 6cc4 f2bd 367c 12be eefd b43d 8074 5dbc
000003f0: 0a5f c83d ac61 113d d06b 02be d0ba 38bd
-0.12033512 -0.01651524 -0.10243789 0.15294714 0.14781676 -0.09938147 -0.024734259 0.12680672
-0.14610967 -0.02242376 -0.14733736 -0.12559581 0.15655841 -0.13356116 -0.13886055 0.1068712
-0.07125539 0.05859989 0.07248591 -0.1523143 0.09132269 0.08025147 -0.13321453 -0.0021665692
0.13037558 0.13734226 -0.055389285 0.15200476 0.14324246 -0.022869498 -0.006973654 -0.0018573105
-0.04843913 0.13219662 0.092405275 0.018333286 0.14759926 0.102712974 -0.012163013 0.02706045
-0.61731833 -0.34768903 -0.3571527 0.12175478 -0.57295424 -0.46977332 -0.74850255 -0.5735834
-0.62914085 -0.5303339 -0.5512591 -0.350161 -0.42096162 -0.4188598 -0.5383618 -0.57596165
-0.53494126 -0.57314605 -0.5325103 -0.3949156 -0.5196315 -0.74371463 -0.47833154 -0.5316327
-0.37378034 -0.44243848 -0.37557128 -0.63387436 -0.53384304 -0.6200149 -0.59700125 -0.46224853
-0.55308616 -0.46475318 -0.4905261 -0.35170698 -0.48088583 -0.5351187 -0.37694478 -0.5576961
-0.6531689 -0.5184571 -0.6995485 0.033255562 -0.531834 -0.6057876 -0.45688257 -0.59124315
-0.49059126 -0.64689225 -0.66452014 -0.61576056 -0.5288074 -0.6337393 -0.45975435 -0.50139683
-0.654431 -0.47288525 -0.747038 -0.50543416 -0.6614609 -0.61777854 -0.7174656 -0.69277245
-0.7126586 -0.6118982 -0.54557836 -0.65705633 -0.452569 -0.46641076 -0.6586829 -0.5212508
-0.6356561 -0.52093273 -0.74028856 -0.68473494 -0.6897906 -0.73433095 -0.59827036 -0.6456648
-0.012745276 -0.065983824 0.14645563 -0.03361667 0.14951555 0.10306536 -0.14885713 0.06981976
0.06446047 -0.113820605 -0.018067896 -0.13153912 -0.021196663 0.016000092 0.03938307 0.025272205
-0.10137324 0.13677643 0.025341466 -0.00078321993 -0.12404924 -0.13616487 0.06349282 -0.088767365
-0.08523219 -0.02674824 -0.110304445 0.09520726 0.06652048 -0.0392552 -0.13398579 -0.0962939
0.108566985 -0.015512317 -0.0032950789 0.05130273 0.084775105 0.15632136 -0.04343787 0.15027924
-0.6590487 -0.51815677 -0.6918698 0.13724066 -0.7161173 -0.72961277 -0.6603909 -0.5490351
-0.7379101 -0.7583438 -0.5810116 -0.72437155 -0.52336466 -0.45655194 -0.59290147 -0.5340248
-0.46097362 -0.7299809 -0.5021334 -0.5440091 -0.4786877 -0.70559806 -0.65503836 -0.63583475
-0.48960894 -0.72788584 -0.459938 -0.54714084 -0.59027404 -0.6665428 -0.6568121 -0.5057386
-0.577155 -0.5037143 -0.46140495 -0.712197 -0.7477726 -0.7246603 -0.7086307 -0.64059865
0.075826675 -0.046519168 -0.06373682 -0.13600105 -0.044684082 0.08711678 -0.0075281262 0.061813205
0.15504064 0.11904536 -0.14532772 -0.12067829 0.09013578 0.020933524 0.115041986 -0.0104112625
-0.04941044 0.09000966 -0.0016004592 0.1289923 0.05478123 0.14319344 -0.0042042434 0.033770442
0.10993527 0.116653785 0.13143782 -0.034478106 -0.09842377 -0.024872243 0.086308524 0.1579418
0.15070419 -0.00030589104 -0.094173834 -0.10281624 -0.14585589 -0.09308114 -0.14826491 -0.058200784
-0.0011139512 -0.07853232 0.046445847 -0.13297963 0.13743685 0.14400606 -0.10125589 0.046780393
-0.11853871 -0.14305195 0.08837496 -0.013516545 0.09783752 0.035493538 -0.1273644 -0.045100033

bias f4 [128]
00000000: b495 8fbd 8adf 06bf 4e69 27bf ab3d b8bd
00000010: 20c0 36bf d5d4 b1bd c1fc e6bd 664a f63d
00000020: f9b1 0fbf 5e33 b83d c85a 5e3d 1ccc a33d
00000030: ed7a 03bf 9a31 bf3d 506a 36bf 5a8a fcbe
00000040: 0d9a 10bf 1b5d d4bd 8c69 aa3d e832 a33c
00000050: dd75 04bf 18a6 3e3d 800c efbe d276 e7be
00000060: 31a6 14bf 7045 793d bfee 0dbf 9f75 1bbf
00000070: 9d76 31bf 1c94 0ebe 6808 eabe 0ab8 51bf
00000080: 882a 4ebd c027 833d 3543 08be 16a6 bbbe
00000090: 4991 0e3e 1c9b 6b3d f006 28bf d360 10bf
000000a0: 8402 cdbe 54e5 35bd 5130 50bf dccb 84bd
000000b0: b8eb 73bd bfec 1ebe 1146 29bf 02d3 2ebf
000000c0: b826 5a3d 6e60 c43d 5857 66bd 1551 b8be
000000d0: bf44 3cbf 23b9 55bf b2c8 b23d 86ee 37bf
000000e0: 7722 0abf b893 e0bc 32a9 b3be a5f4 1bbf
000000f0: 04b6 09bf f57a 0dbf 6308 16bf 0444 80bd
00000100: 58cb b6bc 7e88 14be a0e8 eebd 4a9b 1cbf
00000110: dd44 20bf ec88 41bf 396f 23bf d7f2 203e
00000120: 6008 5bbc 50e4 36bf 4640 fa3d 7a3e 0dbe
00000130: 925f bd3d 94a2 aa3d 57f3 52bf d09a f7be
00000140: 086c 72bd 2022 9bbd f683 953d abe3 083e
00000150: c6e3 c53d a573 dcbe 997c 12bf 80c4 7c3b
00000160: d89c 0abf 1e2a e53d b082 c5bd 8421 6d3d
00000170: ece2 14bf ad61 20bf 3bdf 07bf bd85 14bf
00000180: 1ab2 29bd 7c90 57bf 2536 13bf d085 2bbf
00000190: af7a f7be befa 9bbd c8df 20bf 4626 c33d
000001a0: 1a79 14bf a262 09be 5c6f 03bd 10df 25bd
000001b0: 0324 1fbf 1b1c 16bf 79b3 b7be ba2e 18bf
000001c0: 1f9a 08bf baa1 ab3d 2405 c9be e667 dd3d
000001d0: fe50 cd3d 3e61 d2bd 3216 bd3d 9ec7 71bd
000001e0: ea0e dabe f451 53bf 836a 0dbf c07f 113b
000001f0: c4ec 1fbd 2763 10bf a94a 99bd c035 a53c
-0.070109755 -0.52684844 -0.6539506 -0.08996137 -0.7138691 -0.086831726 -0.11278678 0.12025909
-0.5613094 0.089941725 0.054285794 0.07997915 -0.51359445 0.093356326 -0.7125597 -0.49324304
-0.5648506 -0.10369321 0.08320913 0.019921735 -0.51742345 0.046545118 -0.46689224 -0.4520784
-0.5806609 0.060857236 -0.5544242 -0.6072635 -0.69321615 -0.13923687 -0.45709538 -0.81921446
-0.05033353 0.06404066 -0.13306887 -0.3665015 0.1392261 0.05752097 -0.65635586 -0.5639774
-0.40040982 -0.044408157 -0.81323725 -0.064841956 -0.05955097 -0.15519999 -0.6612254 -0.6829072
0.05325958 0.09588705 -0.05623564 -0.3599936 -0.735424 -0.8348562 0.08729686 -0.7184833
-0.5395884 -0.027414188 -0.35090023 -0.6092017 -0.5379336 -0.5526574 -0.5860655 -0.06262973
-0.022313759 -0.14505193 -0.116654634 -0.6117445 -0.6260508 -0.7559955 -0.6384159 0.15717636
-0.013368696 -0.7144213 0.122192904 -0.13793364 0.09246744 0.083317906 -0.8240256 -0.483603
-0.059185058 -0.07574868 0.0730056 0.13368098 0.09662585 -0.4305698 -0.5722137 0.0038569272
-0.54145575 0.11189674 -0.09644067 0.05789329 -0.58158755 -0.6264904 -0.53075 -0.5801657
-0.041429617 -0.8420484 -0.57504493 -0.67001057 -0.48335788 -0.07616185 -0.62841463 0.095287845
-0.57997286 -0.13416532 -0.032088622 -0.040495932 -0.62164325 -0.58636636 -0.35879114 -0.594463
-0.5336017 0.08380456 -0.39261734 0.10810833 0.10025214 -0.10272454 0.09232749 -0.05902826
-0.42589504 -0.82546926 -0.5524065 0.002220139 -0.039044157 -0.56401294 -0.074849434 0.020167232

weight f4 [64, 128]
00000000: 0668 37bd b42d cdbe 6c13 1b3f be1e afbd
00000010: e0f4 083f fc9d aebc 88e5 c0bc ec82 ba3c
00000020: 27c1 c6be b410 f43c 00c5 643c f7e0 64bd
00000030: e82f f5be 6af9 213d b9a3 043f 5705 05bf
00000040: 3a11 d6be 7070 c7bb 8ab9 a4bd c5da a63d
00000050: f497 fcbe 7c2e bcbc ec5d f0be eaa9 263f
00000060: 271d 5a3d fd5e b43d 6000 e8be fe37 fa3c
00000070: f3e9 143f 3544 4dbd 1350 253f e26d 053f
00000080: 4c02 c63c d836 103c b9cc 823d 9a6a 0fbf
00000090: 0907 55bd d6df 8ebd b621 103f 5d7a 913e
000000a0: e819 0abf ab9d 3abd 9a93 0e3f 32ba a6bd
000000b0: 69a5 843d a800 e83c 4db8 d1be 5f03 1c3f
000000c0: 878c 4ebd f446 c93c 807e c2bc 65e6 d3be
000000d0: a5ec 113f 3ea8 ea3e 34fc 86bc d1ef 2a3f
000000e0: 7040 083f e0ec e5bb 7ec1 e2be 2d29 e5be
000000f0: e719 02bf 9fd8 113f 1a1d 0e3f 4642 4d3d
00000100: 07bc a43d 3ae0 60bd 387e a1bd 69f1 e3be
00000110: 54c6 1f3f f794 093f da97 d7be 233a 72bd
00000120: 6438 90bd 89e9 293f d1a0 953d d39d 98bd
00000130: 9c2e b5bc 0e9c 6c3d 9232 2a3f e7d6 193f
00000140: 20a7 47bd 5342 833d 0099 5fba 0030 38ba
00000150: 54ec c1bc d7f0 a03d 1591 1a3f 085e 6bbc
00000160: 2ca9 f1be 440f a4bc 329d 66bd 2b3d 1dbd
00000170: e366 2b3f 1b93 0f3f 55ed 143f 8a05 d9be
00000180: 404e 97bc b241 143f c275 01be 276f 073f
00000190: 1c8e 1f3f 49ab 9a3d f74c 0dbf 9c81 c93c
000001a0: 35e8 dfbe a034 98bc 69f3 a7bd 4bcf a9bd
000001b0: 5e4f 113f d0f7 0f3f 3b7e e1be 8dff 133f
000001c0: 27df c9be e018 96bb 777c 11bf d8ec c9bc
000001d0: d367 0dbd b26b 513d e045 7d3c 9574 53bd
000001e0: 14f1 f7be e2bf 183f cfcb e0be c895 16bc
000001f0: 7cdb 8fbd a50f 0bbf 09fa b23d 5b8e a73d
00000200: 33a6 9b3d 4f84 d8be b848 2f3f a65e 9abd
00000210: 481b 2d3f f668 413d 7e49 05bd 048c d93c
00000220: 44ec 07bf 788b 94bc 197e 8d3d 38b3 2e3c
00000230: 5a59 04bf becf 693d e9b8 243f a57f 07bf
00000240: b4a4 dcbe 321b 723d a4a1 ba3c 0042 d2ba
00000250: 776a 08bf 2a8a 52bd 44e7 ccbe e822 143f
00000260: fdea f7be 405d cf3b e7ba 08bf 3799 01bf
00000270: a2e4 233f 4831 58bc e404 2c3f 239e edbe
00000280: b0e3 85bd d593 45bd dc53 a0bc ef0c 07bf
00000290: 6846 9ebd 4a8b d9bc 28af 133f c04d b7be
000002a0: 7dcb dcbe ee44 473d e64b 9ebe 9a8a 173d
000002b0: 6ed5 1a3d d1d7 3abd 7b33 d2be f38b 133f
000002c0: 90aa 8bbb 9065 8abb d875 533c 4ee9 0dbf
000002d0: 5e2c 0b3f 82f2 a4be 939b b03d 169f 66bd
000002e0: c06e 073f 8c92 cebc a296 cdbe c21b 06bf
000002f0: 377c 12bf 8c03 1c3f a29b 053f 852f ae3d
00000300: aecf 063d 12ee 23bd 9123 4ebd 9421 d5be
00000310: e8c0 293f 2243 1c3f 12e4 d0be c0ab b7bb
00000320: d3cd a73d 2a0a 1f3f f7dd a53d c3de 81bd
00000330: adb9 a93d 7887 bfbc 8c63 943e 229e 223f
00000340: 59f9 6fbd f209 1a3d 8ad2 42bd ba87 55bd
00000350: b332 55bd e456 8a3c 4509 05bf eb07 aa3d
00000360: 3d99 efbe 39a1 54bd 5256 6b3d aaf1 9dbd
00000370: 6e31 093f 7dda 043f 40a2 2c3f 55a9 06bf
00000380: 00ee b13c 9e32 203f 8f59 f4be 31ea 183f
00000390: 3273 1f3f 7c0e 13bd ab3e febe 12e1 7c3d
000003a0: 3b61 f1be b12b 9d3d aed9 733d 4fed 903d
000003b0: d644 1f3f 21e8 1b3f 1b04 e6be 5526 073f
000003c0: f89b d5be 6abc 80bd a7df cbbe 683e 7cbc
000003d0: 6843 003d c0b2 e5ba 1cc7 c8bc 08f1 51bd
000003e0: a1d8 0dbf 1e6b 2e3e 1bb1 ccbe 3f27 4ebd
000003f0: 00d0 76ba 0ca8 09bf 6f37 3dbd efe5 a23d
-0.04477694 -0.4007393 0.6057651 -0.085507855 0.5349865 -0.021315567 -0.023546949 0.022767507
-0.3881924 0.02979312 0.013962984 -0.055878606 -0.47888112 0.0395445 0.5181232 -0.5196127
-0.41810018 -0.0060864016 -0.08043201 0.08147196 -0.4933468 -0.022971384 -0.46946657 0.6510302
0.053250458 0.0880718 -0.45312786 0.030544277 0.5816948 -0.050113875 0.6457531 0.5212079
0.024171017 0.008802138 0.06386704 -0.56022036 -0.052008662 -0.06976287 0.5630144 0.28413668
-0.5394578 -0.04556052 0.5569397 -0.08140983 0.06476862 0.028320625 -0.40960923 0.60942644
-0.050426986 0.024569966 -0.02374196 -0.41386715 0.57001716 0.45831484 -0.016477682 0.6677218
0.53223324 -0.007016763 -0.44288248 -0.44757977 -0.50820774 0.5697116 0.55513155 0.05011203
0.08043676 -0.05490134 -0.078854024 -0.4452012 0.62412 0.5374293 -0.4210804 -0.059137475
-0.07042006 0.6637197 0.07306064 -0.074519776 -0.022116952 0.057766013 0.66483414 0.6009354
-0.048743367 0.06409135 -0.00085295737 -0.00070261955 -0.02367226 0.078584366 0.6037763 -0.0143656805
-0.4719938 -0.02002681 -0.056302257 -0.038388412 0.6695387 0.5608384 0.5817464 -0.42387038
-0.01846993 0.57912743 -0.12642577 0.5290398 0.62326217 0.07552201 -0.55195564 0.024597935
-0.43731847 -0.018579781 -0.08200724 -0.08291491 0.5676173 0.56237507 -0.4404162 0.57811815
-0.39428064 -0.004580602 -0.56830543 -0.024649069 -0.034522843 0.051128097 0.015458554 -0.051624853
-0.48426116 0.5966779 -0.43905494 -0.009190984 -0.07024285 -0.54320747 0.08739097 0.08181449
0.07600059 -0.42288443 0.68470335 -0.07537584 0.6761975 0.04721924 -0.03254079 0.026556022
-0.5309489 -0.01813291 0.06908817 0.010662846 -0.5169884 0.057082884 0.6434465 -0.52929145
-0.4309441 0.059107967 0.022782154 -0.0016041398 -0.5328745 -0.051401295 -0.40020192 0.5786576
-0.4842147 0.006328255 -0.5341019 -0.5062441 0.6402074 -0.013195343 0.6719496 -0.4640971
-0.065375686 -0.048236687 -0.019571237 -0.5275411 -0.07728273 -0.026555676 0.5768914 -0.35801506
-0.43124 0.04864972 -0.3091728 0.036997415 0.0378012 -0.045615975 -0.410549 0.5763542
-0.004262276 -0.004223533 0.012906514 -0.5543412 0.54364574 -0.3221627 0.086234234 -0.05630406
0.52903366 -0.025216363 -0.40153986 -0.52386105 -0.57220787 0.6094291 0.521906 0.085051574
0.032912903 -0.040021963 -0.050326888 -0.4162718 0.66309977 0.61039937 -0.40799004 -0.005605191
0.08193555 0.62124884 0.08098977 -0.063413166 0.08287368 -0.023380026 0.28982198 0.6352254
-0.058587406 0.03760714 -0.047564067 -0.052131392 -0.052050304 0.016887136 -0.5196727 0.083022915
-0.467966 -0.051911566 0.05745537 -0.077121094 0.5359105 0.51895887 0.67435074 -0.5260213
0.021719933 0.62577236 -0.47724578 0.5973235 0.6228515 -0.035902485 -0.49657187 0.06173808
-0.47144493 0.07674349 0.059533767 0.07076513 0.6221441 0.60901076 -0.44925007 0.52792865
-0.41720557 -0.06285937 -0.3981907 -0.015395738 0.031314284 -0.0017524585 -0.024509005 -0.051255256
-0.55408674 0.1703305 -0.3997887 -0.050330397 -0.00094151497 -0.53772044 -0.046195444 0.079540126

bias f4 [64]
00000000: c7bc cabe 1200 d7be 4834 2bbf 6f01 18bf
00000010: e9b8 14bf 9087 83be b0b5 21bf 84aa 03bf
00000020: 0202 21bf 481a e9be 5ae4 1fbf 0ffa 1bbf
00000030: 9630 0dbf 04fa e4be 60c0 18bf 6476 fbbe
00000040: de3e 30bf 1826 07bf c89e 00bf 7d26 f2be
00000050: 8da0 f3be 0e13 1ebf fc39 babc 0a14 ecbe
00000060: a8f3 0dbf e90b 07bf b645 0cbf c5e1 e5be
00000070: 428a 0cbf 7d60 29bf fad9 a8bd 91a5 30bf
00000080: 8fc9 7fbe 3fb4 fcbe ca7f 05bf bb71 0fbf
00000090: 7d0b 09bf 52df 15bf 26f1 2fbf 1d81 d5be
000000a0: 5bc7 24bf e158 2cbf 5f96 e1be 0eaa 19bf
000000b0: 1ed8 0cbf 90dd 05bf 174a 2fbf 2c56 09bf
000000c0: 3ed6 1fbf 08e9 21bf e9c2 1abf bb3f f3be
000000d0: 695c 03bf 10ff 09bf 8931 afbd a84f acbc
000000e0: 59f5 2fbf 80dc 24bf 7b0f 0dbf 45d6 29bf
000000f0: f362 0fbf 31c3 0cbf bdbe 13bf 1ed9 0cbf
-0.3959715 -0.4199224 -0.6687665 -0.5937719 -0.5809465 -0.25689363 -0.6316786 -0.5143206
-0.6289369 -0.45527864 -0.6245781 -0.60928434 -0.5515226 -0.44721997 -0.5966854 -0.49113762
-0.6884593 -0.527925 -0.5024228 -0.4729499 -0.47583428 -0.61747825 -0.022732727 -0.4610904
-0.55449915 -0.5275255 -0.5479387 -0.4489881 -0.54898465 -0.66162854 -0.08244701 -0.69002634
-0.24979232 -0.49356267 -0.52148116 -0.56032914 -0.53533155 -0.58543885 -0.6872734 -0.41700068
-0.6436669 -0.6732312 -0.44060037 -0.6002511 -0.5501727 -0.522912 -0.6847243 -0.5364711
-0.6243628 -0.632462 -0.6045366 -0.4750956 -0.5131288 -0.5390482 -0.0855437 -0.021034077
-0.68733746 -0.64398956 -0.55101746 -0.66342574 -0.5601036 -0.5498534 -0.5771292 -0.55018795

weight f4 [32, 64]
00000000: 4c3f b63d 688f 9f3d 724e cf3d c6bf 8e3d
00000010: 5861 753d 9e0e b6bd 5040 6fbc 7482 e73d
00000020: 30dd dc3c 8a3d b6bd bc97 903d 1861 f4bc
00000030: 9cfd 1abd 3000 813c 6ebd f6bd 2c3a 97bd
00000040: 1010 f23d b8cb d43c 307e 3fbd 5e45 b5bd
00000050: b008 ee3c f082 183d 760f d3bd c44b b63d
00000060: 9ac4 a8bd 40a2 613b a424 a83d b043 9c3c
00000070: 003d b53c aa87 99bd 8072 a33a 4e12 f9bd
00000080: 8024 fdbd a408 4cbd 3c9a ebbd 243b f33d
00000090: 600d 82bd b06b 28bc 5ed8 e23d 3abe d0bd
000000a0: 30fc 59bd a485 9bbd 34a7 dabd 343c d3bd
000000b0: 4e26 c3bd a693 aebd e090 bcbc 60be 92bd
000000c0: 1073 c83d e0ee ae3c d083 aabc 8887 b33d
000000d0: 88fc b03c 20b1 61bd 4c9b 1bbd f0ad c53c
000000e0: 9225 84bd 2c15 e83d 2cdb 59bd a868 973c
000000f0: 0c64 923d 3025 b23c d46a fe3d 4e92 cabd
00000100: 0a16 fbbe de59 17bf 75cc 17bf 8628 03bf
00000110: c8af 1dbf 06c7 22bf c286 22bf 063d d73e
00000120: 16fa 11bf 62be 30bf ccdf 923d c463 e03d
00000130: 27c8 1a3f 70cc 2bbc 6517 2fbf 907c 7a3e
00000140: 46ad 07bf fe6d 2cbf a0ea edbd b61a f63d
00000150: 74ce 20bf abb0 08bf 5055 ccbc 6410 0abf
00000160: d6bd cfbd 800c 11bf 9f65 233f 982f 1cbf
00000170: f578 0cbf 9e23 10bf 3933 f9be ff42 09bf
00000180: a5be 53be 6dfa f63e c629 fc3e e59d 1ebf
00000190: b775 04bf f5bd 1bbf 19c2 1fbf ac26 10bf
000001a0: a4f1 23bf 15c9 09bf dba1 23bf d08f b1bc
000001b0: 9636 28bf ea41 27bf 0228 36bf 98bd 1ebf
000001c0: b4c4 38bf cef4 da3d b18d ea3e 9dbd f03e
000001d0: 9945 23bf eef4 363f d00d 63bd 1805 a83d
000001e0: bb81 fbbe 8ebc 37bf 2ede 0cbf e64b 25bf
000001f0: 7882 043d 87e3 0dbf e4a9 a8bd 30b4 fdbe
00000200: 6194 05bf b1d8 f6be d631 1cbf 900b c53c
00000210: fc31 f03d 4a1c 84bd 64fb 01bf 007f 303d
00000220: 25ff 0dbf b0f7 1abf 28ae 5a3d d084 b1bc
00000230: a465 4ebd 4c67 0cbd d348 07bf bc33 0d3d
00000240: fee9 88bd 12b7 1fbf fc03 d63d d0b4 a33d
00000250: 8af2 ccbe f185 e9be 0e21 f9bd ecfd 18bf
00000260: 9024 07bc b036 23bf 5e97 ccbd f868 e6be
00000270: 8436 19bf 583e a1bd 8912 2cbf a23c e8be
00000280: 4ec2 2fbf c802 5a3d 92ac 9b3d 5ccd 183d
00000290: 28e8 bf3c c6e9 26bf d68f c4bd 80de ebba
000002a0: 6488 c5bd 50e2 91bd 89ee 21bf 5c27 a0bd
000002b0: 000d 823a e0de 9e3c ac03 febe 11cb 05bf
000002c0: c49c 4bbd 608a f1bd 2b28 1fbf 1042 963d
000002d0: 6230 cbbd ec68 743d 2072 93bd 0a93 d4bd
000002e0: c465 29bd 90f0 013d c46d f2bd 0017 d3bd
000002f0: 92d6 fa3d 74f8 433d e645 8dbd 54e6 c43d
00000300: 9a5d 0dbf 23ff 26bf 1374 fdbe 7e16 243f
00000310: 7066 333f 5644 a03d 2622 0bbf 7420 4d3d
00000320: 8d82 06bf f0d1 09bf 98c2 2dbf 07d3 23bf
00000330: 96ec c7bd 789a f3bd 7790 01bf 1c27 95bd
00000340: 6d03 383f 600f 15bf 70de f63d c09a 4a3b
00000350: 2089 0cbc fb0b 19bf 5a24 f3bd 8d40 14bf
00000360: 4489 fd3d a58b 32bf 58d3 94bc f0fe 2f3d
00000370: dc9d fdbe 218c 0f3f 27f9 2bbf 0d18 0fbf
00000380: ba7a 34bf 0c8e 69bd 202c 4ebc 1d77 0a3f
00000390: 71ca 373f 8030 1dbf 91f3 163f 7867 1a3d
000003a0: ea2c 313f 56b8 173f 4fa2 f8be 7dd6 11bf
000003b0: c6b5 2a3f 35c6 2d3f eeb0 0cbf d6af 2cbf
000003c0: 2e90 1b3f 6adb 02bf 4c92 c03d fc18 3dbd
000003d0: 23a4 1a3f f5c6 243f ac52 983d ecb4 82bd
000003e0: 6e69 063f 470c 1b3f f40f ff3e 43c9 113f
000003f0: fad0 bd3d 4de9 313f 19cc 23bf 114b 233f
0.08898792 0.077910244 0.10122384 0.06970172 0.059907287 -0.08889507 -0.014602736 0.11304179
0.02696094 -0.088984564 0.07060191 -0.029831454 -0.037839517 0.01574716 -0.120478496 -0.07384142
0.1181947 0.025976047 -0.0467512 -0.08851121 0.029056877 0.037234247 -0.10305683 0.0890117
-0.08240624 0.0034428984 0.08210114 0.019075245 0.022123814 -0.07496579 0.0012470037 -0.121616945
-0.123604774 -0.049812928 -0.11504027 0.118765146 -0.06350207 -0.010279581 0.11076425 -0.10192533
-0.05321902 -0.07593849 -0.10676423 -0.10314217 -0.095287904 -0.085242555 -0.0230183 -0.071652174
0.097875714 0.021354139 -0.020814806 0.08766085 0.021604791 -0.05510056 -0.0379899 0.024130791
-0.064524785 0.11332163 -0.053187534 0.018482521 0.07147989 0.021746248 0.124227196 -0.09891187
-0.49040252 -0.591215 -0.5929635 -0.5123371 -0.61596346 -0.63584936 -0.63486874 0.42038745
-0.57022226 -0.690405 0.07171592 0.10956529 0.6046166 -0.010485753 -0.6839507 0.2446158
-0.5299877 -0.67355335 -0.11617017 0.120168135 -0.6281502 -0.53394574 -0.024943024 -0.5393126
-0.1014363 -0.566597 0.63826936 -0.6101012 -0.54872066 -0.5630435 -0.48671892 -0.5361785
-0.20678194 0.48237935 0.4925062 -0.6195968 -0.5174212 -0.60836726 -0.62405545 -0.5630901
-0.6404059 -0.5382245 -0.63918847 -0.02167502 -0.6570829 -0.6533495 -0.711548 -0.6200805
-0.72175145 0.10691224 0.45811227 0.47019663 -0.6377807 0.71467483 -0.055433095 0.082040966
-0.49122414 -0.71772087 -0.5502652 -0.64568937 0.032350987 -0.55425304 -0.08235529 -0.49551535
-0.52179533 -0.48212197 -0.61013544 0.024053365 0.11728284 -0.06450708 -0.50774217 0.043089867
-0.55467445 -0.6053419 0.053388745 -0.021669775 -0.0503899 -0.0342782 -0.52845496 0.034473166
-0.066852555 -0.6238872 0.10449979 0.079934716 -0.40028793 -0.45610002 -0.12164508 -0.59762454
-0.008248463 -0.6375532 -0.099898085 -0.4500196 -0.5984881 -0.07873219 -0.6721578 -0.4535876
-0.6865586 0.05322531 0.076012745 0.03730522 0.02342613 -0.6520046 -0.09597747 -0.0017995387
-0.09645155 -0.07123244 -0.632546 -0.07820007 0.0009922087 0.019393384 -0.49612176 -0.5226298
-0.04971005 -0.11793971 -0.62170666 0.07336819 -0.09921338 0.059670374 -0.07199502 -0.10379608
-0.041356817 0.03172356 -0.118373424 -0.10307121 0.12247957 0.047844365 -0.06898098 0.09614244
-0.5522095 -0.6523306 -0.4950262 0.6409682 0.7007818 0.07825534 -0.5434898 0.050079778
-0.52542955 -0.53835964 -0.6787505 -0.6399388 -0.09761922 -0.11894697 -0.5061106 -0.0728285
0.7188023 -0.58226585 0.12054145 0.0030914992 -0.008577615 -0.59783906 -0.11872168 -0.57910997
0.12379697 -0.6974433 -0.018167183 0.042967737 -0.495345 0.56073195 -0.6717705 -0.55896074
-0.70499766 -0.057020232 -0.012583762 0.54088 0.71793276 -0.6140213 0.589654 0.03769633
0.6920916 0.5926565 -0.48561332 -0.5696791 0.66683614 0.67880565 -0.54957473 -0.67455804
0.60766876 -0.5111605 0.09402904 -0.046166405 0.604067 0.64366084 0.074376434 -0.06382164
0.5250462 0.6056561 0.4981686 0.56947726 0.09268375 0.69496614 -0.63983303 0.6378642

bias f4 [32]
00000000: 6c5d cebd 148e 10bf 81de 3cbf 1aa9 e6be
00000010: 8098 03bf dc1b a7bd 7363 9bbe 0834 12bf
00000020: 9664 c8bd 94d3 87be 3931 f5be cf77 37bf
00000030: 9c15 17bf f183 dbbe 7347 eabe c487 f9bd
00000040: dd32 5e3e db88 76be 1947 a5be 9e32 dabc
00000050: bba4 1cbf df9c 9cbe 91ca cfbe 9f4f 12bf
00000060: f872 8abd 3db4 45bf 7653 dfbe 1a16 37be
00000070: f014 c8bd fc23 1fbf e551 0fbf ce38 57be
-0.100764126 -0.56466794 -0.73777014 -0.4505089 -0.5140457 -0.08159611 -0.3034931 -0.57110643
-0.0978481 -0.2652861 -0.47889116 -0.7166719 -0.5901735 -0.428741 -0.45757636 -0.12184098
0.2169909 -0.24075644 -0.32280806 -0.026635464 -0.6118886 -0.30588433 -0.40584233 -0.5715274
-0.0676021 -0.77228147 -0.43618363 -0.17879525 -0.097696185 -0.6216428 -0.55984336 -0.21017763

weight f4 [8, 32]
00000000: 2ab4 e73d d026 24bf e2fc aa3d 7828 1abf
00000010: cdcd 273e 1da3 d2bd 9e1b 29bf 4840 f7be
00000020: 0013 b33a 6352 1cbf bd77 08bf 3439 0bbf
00000030: f020 c1bd 3455 e8be 0dd6 17bf 15fd 0d3e
00000040: 0c03 34bf fc3e 5ebd 73f6 29bf 861c aa3d
00000050: 7e7d ddbe ad04 13bf 80d1 d9be 553c 033e
00000060: fc3f 07be 9f61 2ebf e6bc 973d 4a02 07bf
00000070: 470c e7bd 2819 0ebf 6441 31bf 403d 45bf
00000080: e0b7 333c a773 3dbf e795 e63e 12f0 573e
00000090: d86e 743d 2034 b8bb 111a 73bf 8bfc f9be
000000a0: 6944 273e 1745 153e b631 10bf a641 f8be
000000b0: 2819 72bd 0d2b 1dbf e80b 4bbf 98d2 08bd
000000c0: 9bdf 3e3f 89ab db3d 78bf 1cbf 0e44 dfbe
000000d0: 212c 1abf ccf4 25bf bb37 043f 0c55 d5bd
000000e0: 4e9a d4bd c02a 13bf 4635 26be 0792 933e
000000f0: cced 06be ea9e 14bf 4ae9 1d3d eb0c 3fbf
00000100: 588b 623d 823b 3bbe f090 bebe ced4 b5be
00000110: c4a0 d0be 7a27 e23d b041 8ebe 71f0 fe3e
00000120: fa67 a53d 500e 9fbe 7b28 193f c22d 0c3f
00000130: f6ab f8be 0b27 b3be 6107 d4be 9814 0abe
00000140: 0e55 55bf fd49 edbe 6eff b5be 9ff1 27bf
00000150: 96a0 f13e 002f a4be b657 97be 2ef4 f8be
00000160: e4da 2dbe ab1a b7be 834f 8cbd abe6 b7be
00000170: 9007 5f3d 93ec ff3e 7e8a e5be afd4 8fbe
00000180: eee7 de3d 70db 51bc dc35 00bf 83e7 1f3f
00000190: 5783 d83e 00ef 22bc 3c0c efbd 8dab 95bd
000001a0: a451 76bd 2444 2f3f 741c 18be 9285 983d
000001b0: 435b c93e c195 213f d01d 62bc db3a 1a3e
000001c0: 797c a73e 3144 0dbf fc77 143f 0127 e3bd
000001d0: 16ca 12be 59b3 093f a6fa e03e 0aac 263f
000001e0: 07b5 333e b45e abbd c474 4d3d f825 9b3e
000001f0: 80e8 b3bb bca8 5a3d c78b 063f a0c0 013f
00000200: 7953 d4bd 1aa5 0c3f a0b7 273f 8c13 063f
00000210: 0576 1d3e 25bc b5bd c242 8a3e 3ea7 983d
00000220: 0692 f63d 1fcb ba3e 88f8 ed3c d0a7 6e3c
00000230: 4c8d 003d a252 76bd b561 8f3e 00c7 783c
00000240: 3d6e 033f ec34 1a3f 9297 34be 5f2f 163c
00000250: d0fb 193d 009b f53c 47ab bb3e 6074 e1bb
00000260: 6a68 24be 3522 e03e 256d 013f d8e7 093f
00000270: 5e14 b53d ca44 b9bd 92d6 153f d117 d7bd
00000280: a47f 2b3d 281c 1abf f053 253d 1339 33bf
00000290: d6ce dd3d 3a19 10be e60f 16bf ce55 e6be
000002a0: 30fa cf3c 71ef 42bf 230d 1fbf 3c6e 08bf
000002b0: 803e 17be f4fa 19bf 4752 3bbf 3337 063e
000002c0: e194 0bbf 5826 233d 4d43 17bf 5ae9 6bbd
000002d0: 2621 ebbe 11d0 1fbf 982c 45bf 9562 2abe
000002e0: 5eb8 db3d 3c17 0ebf 757d e9bd 1153 33bf
000002f0: 506e a1bd e12b fbbe b6a5 1dbf 6c3f fbbe
00000300: c0cc 3e3d f81e 883c 23b9 1b3e 4b1c 34be
00000310: 4fb6 343e c311 313e 8004 e4bb e4f3 33be
00000320: 7336 12be 04f0 c2bd fd59 c8bd d0f2 3c3d
00000330: 998b 21be 427e 2bbe 52a9 2cbe b5e7 093e
00000340: be0b 2fbe 6639 e23d 7f20 0e3e a2d2 29be
00000350: d161 253e 00a1 40bc 6c83 41bd d447 0cbd
00000360: 8e2e fdbd c00e 2fbc 6837 7b3d 4b66 193e
00000370: 0a3c 6bbd 862b 97bd a0f8 33bd 8450 19be
00000380: 80e9 4b3b 7833 2dbf ace2 dcbe cba2 18be
00000390: 2c4b 1cbe 1d1c c7bd 32cd dabe 68c6 3fbd
000003a0: ce10 dc3d e844 31be 5061 52bd 5233 65bd
000003b0: 6d2d 1a3e 3992 0d3e 3ae7 dfbe 7755 0a3e
000003c0: 2d26 13bf e096 efbe 4036 a4bd 90b9 0dbf
000003d0: 8b01 27be eedb 68bd e053 463d 58c8 a03c
000003e0: 3a87 e83d b7a0 30bf 2ec6 54bd 424f efbe
000003f0: b775 8ebd 7831 393d 6ad9 cf3d d63e fabd
0.113136604 -0.64121723 0.08349015 -0.60218 0.163871 -0.10285018 -0.66057765 -0.4829123
0.0013662279 -0.6106321 -0.53307706 -0.5438416 -0.094301105 -0.45377505 -0.5931099 0.13866074
-0.7031715 -0.054259285 -0.66391677 0.08306222 -0.43259805 -0.5742901 -0.42542648 0.12815984
-0.13208002 -0.6811771 0.074090764 -0.5273787 -0.112816386 -0.55507135 -0.69240403 -0.77046585
0.010969132 -0.74004596 0.4503624 0.21087673 0.05967602 -0.005621448 -0.9496165 -0.48825487
0.1633469 0.14577137 -0.5632585 -0.48487586 -0.059106022 -0.61393815 -0.7931504 -0.033403963
0.74559945 0.10726077 -0.6122966 -0.4360661 -0.60223585 -0.64826655 0.5164754 -0.10416612
-0.10380994 -0.57487106 -0.1623126 0.28822348 -0.1317665 -0.58054984 0.03855256 -0.74629086
0.05530867 -0.18284419 -0.37219954 -0.3551392 -0.40747654 0.11042686 -0.2778449 0.49792817
0.080764726 -0.31065607 0.59827393 0.5475732 -0.48568696 -0.34990725 -0.4141188 -0.13484418
-0.8333291 -0.4634551 -0.3554644 -0.6560306 0.4719283 -0.32067108 -0.29559106 -0.48623794
-0.16978031 -0.35762534 -0.06851103 -0.35918173 0.05445057 0.4998518 -0.44832224 -0.28091952
0.10884081 -0.012808666 -0.5008218 0.62462634 0.42287704 -0.009944677 -0.116722554 -0.07308111
-0.060136452 0.6846335 -0.14854604 0.074473515 0.3932744 0.6311913 -0.013801053 0.15061514
0.32712153 -0.55182177 0.5799558 -0.11091424 -0.14334902 0.5378929 0.4394123 0.6510626
0.17549525 -0.083676726 0.050160185 0.30302405 -0.0054903626 0.053383574 0.52557033 0.5068455
-0.10367484 0.54939425 0.65514565 0.52373576 0.15377052 -0.08873776 0.27004057 0.07453774
0.120395705 0.36483094 0.029049173 0.014566377 0.03138475 -0.0601374 0.28004232 0.015184164
0.51340085 0.60237 -0.17635944 0.009166568 0.037593663 0.029981136 0.36654112 -0.006880328
-0.16055456 0.43776098 0.50557166 0.5386939 0.08841775 -0.090463236 0.58530533 -0.105025895
0.041869774 -0.60199213 0.040363252 -0.70008963 0.108304664 -0.14072123 -0.5861801 -0.4498734
0.025387853 -0.7614661 -0.6212942 -0.53293204 -0.14769936 -0.6014855 -0.7317242 0.13106994
-0.54524046 0.03983149 -0.5908707 -0.05759559 -0.45923728 -0.6242686 -0.7702117 -0.16639169
0.107285246 -0.555042 -0.11400882 -0.70048624 -0.078823686 -0.49056914 -0.6158098 -0.49071825
0.046581984 0.01661633 0.15207343 -0.17588918 0.1764767 0.17291932 -0.0069585443 -0.17573506
-0.14278583 -0.095184356 -0.09782789 0.04613 -0.15775909 -0.16747382 -0.16861466 0.13467295
-0.17094323 0.11046104 0.13879584 -0.16584256 0.16150595 -0.011757135 -0.047244474 -0.03424819
-0.12362395 -0.010684669 0.061332136 0.14980428 -0.057430305 -0.07381348 -0.04393828 -0.1497212
0.0031114519 -0.6765666 -0.43141687 -0.1490585 -0.15263051 -0.09722159 -0.42734677 -0.046820074
0.10745393 -0.17311442 -0.051362336 -0.055957146 0.15056391 0.13825311 -0.437311 0.13509165
-0.57480127 -0.46794796 -0.0801816 -0.5536127 -0.16309182 -0.056850366 0.048419833 0.019626781
0.113539174 -0.6899523 -0.05194681 -0.46740156 -0.06956046 0.045213193 0.1014889 -0.12219016

bias f4 [8]
00000000: 5cbe 2bbf e317 4abf 5947 c7bd a3ca 7ebe
00000010: 9263 ac3e 38b6 08bf 00af 6dbb 8efe d7be
-0.6708734 -0.789427 -0.09730405 -0.24881987 0.33669716 -0.53403044 -0.0036267638 -0.42186397

weight f4 [4, 8]
00000000: 809d 0e3c a2ef 2c3e 38dc bebd e4a3 88bd
00000010: bea4 203e 3cf1 e83d cdf7 4dbe 40a9 a0bc
00000020: 9b1c 0fbe ded8 1fbe 9c00 bfbd 2b36 953e
00000030: 7fd7 8fbe 527e 183e b2de 41be 60f1 063c
00000040: 5206 223e ab8b 83be 0ef3 483e 8485 043e
00000050: be80 4d3e 8c9b 87be 3c1c 8fbd 24c9 dd3d
00000060: e704 29be 598f 89be c4e9 f0bd cf9e 18be
00000070: 95f2 883e 8090 bb3b c2c4 293e 3a17 3dbe
0.008704543 0.16888288 -0.09319347 -0.06671885 0.15687844 0.11374137 -0.2011406 -0.019611955
-0.13975756 -0.15610072 -0.09326288 0.2914289 -0.28094098 0.14891937 -0.18932608 0.008236259
0.15822724 -0.25692496 0.19623968 0.12941557 0.20068642 -0.2648586 -0.06987807 0.1082938
-0.16505776 -0.26867178 -0.11763337 -0.1490433 0.26747575 0.005724013 0.16578963 -0.18465891

bias f4 [4]
00000000: 2d7c 833e b0ee 91be f748 973e ee1e 86be
0.25680676 -0.28502417 0.29547855 -0.26195472
