losses/models/ann8.pth (torch, 68622 bytes, 10 tensors)

weight f4 [128, 40]
0	0xbdd89452	-0.10575165
1	0xbe01ef6a	-0.12688985
2	0x3d347a4c	0.044061944
3	0xbdc54efe	-0.09634207
4	0x3e195ba5	0.14976366
5	0x3e1da417	0.15394627
6	0xbe1e3330	-0.15449214
7	0xbdb1d303	-0.086828254
8	0xbc4cf1b0	-0.012508795
9	0x3dbdb1ca	0.09262426
10	0xbd794b96	-0.0608631
11	0x3def6a1e	0.11690162
12	0x3daba49a	0.08381005
13	0x3ca6eac8	0.020375624
14	0x3e07d92d	0.1326644
15	0x3e0c97fb	0.13729851
16	0xbe0a7f7c	-0.13525194
17	0xbc0bf280	-0.008541703
18	0x3d6ba994	0.05753477
19	0xbc68a620	-0.014199764
20	0xbd09bfd2	-0.0336302
21	0xbe1c96bc	-0.15291876
22	0xbca87718	-0.0205646
23	0xbe02ba5b	-0.12766401
24	0xbc9aef98	-0.018913075
25	0x3d9eabf4	0.07747641
26	0x3e0ff291	0.14057375
27	0x3d9dd66e	0.07706915
28	0xbdda1f1d	-0.10650466
29	0x3e131143	0.14362054
30	0x3d754d6c	0.05988829
31	0x3d7f5d24	0.062344685
32	0x3d2efc74	0.042721227
33	0x3d5382bc	0.05163835
34	0xbdce4766	-0.10072212
35	0xbe13e5c1	-0.14443113
36	0x3df0a8aa	0.1175092
37	0x3d80fd46	0.06298308
38	0x3d862674	0.06550303
39	0xbd6d7d14	-0.057980612
40	0x3d671615	0.056417543
41	0xbc5d9834	-0.013525058
42	0xbf78545b	-0.97003716
43	0x3f9cc731	1.2248288
44	0x3df6e8b4	0.12056103
45	0xbf19f589	-0.6014028
46	0xbf3528aa	-0.70765173
47	0xbf265667	-0.6497559
48	0x3f8302a9	1.0235187
49	0x3e76d7c8	0.24105752
50	0xbe5fa7e0	-0.21841383
51	0x4028b182	2.6358342
52	0xbf6a2464	-0.9146178
53	0x3ea311b0	0.31849432
54	0xbebf174e	-0.37322468
55	0x3e82dc11	0.25558522
56	0xbe9e6d66	-0.3094284
57	0x3f2daf50	0.6784563
58	0xbdcaa6a1	-0.09895063
59	0x3f3bb75d	0.73326665
60	0xbdd52596	-0.104075596
61	0xbf0b002b	-0.5429713
62	0xbff1734e	-1.8863313
63	0x3e19fc9d	0.1503777
64	0x3fd7a65a	1.6847641
65	0xbe2c2612	-0.16811398
66	0x3f1f48e9	0.6222063
67	0xbfbc2b43	-1.4700702
68	0x3e69d4ca	0.22835079
69	0xbf72f8e9	-0.94911057
70	0x3fbf6fcc	1.4955993
71	0xbf5137ef	-0.8172597
72	0xc0439cb7	-3.05644
73	0xbe8b6f3b	-0.272333
74	0x3ef99f1d	0.48754206
75	0x3dabc3b8	0.0838694
76	0x3fe55147	1.7915429
77	0x3edccff9	0.4312742
78	0xbf347c49	-0.70502144
79	0x3f3448b7	0.70423454
80	0xbd6d55da	-0.057943203
81	0xbc621320	-0.013798505
82	0xbc01fe10	-0.007934108
83	0x3cd22b48	0.025655404
84	0xbe1babe2	-0.15202287
85	0x3da15ae6	0.078786656
86	0x3d51b108	0.05119422
87	0xbe137963	-0.14401774
88	0xbdc5af97	-0.09652632
89	0x3b4af680	0.003096968
90	0xbd14c210	-0.036317885
91	0x3c005810	0.007833496
92	0xbdebaafb	-0.11507221
93	0x3e1293df	0.14314221
94	0x3ddf665e	0.10908197
95	0x3e1bcaa7	0.15214024
96	0x3d082218	0.03323564
97	0xbdc80f40	-0.09768534
98	0x3dd7a992	0.1053039
99	0xbd65d954	-0.056115463
100	0xbdb3570b	-0.087568365
101	0x3d05769c	0.032583818
102	0x3d16ba60	0.036798835
103	0xbe0ef0ae	-0.13959
104	0x3e1cb5b9	0.15303697
105	0xbe1f0cee	-0.15532276
106	0x3d19cd24	0.037549153
107	0xbbb417c0	-0.0054959953
108	0xbd97c1d9	-0.074100204
109	0x3e0d5aa3	0.13804106
110	0xbe2187dc	-0.15774482
111	0x3d634414	0.055484846
112	0xbc7afb90	-0.015318766
113	0x3df51aea	0.11968024
114	0x3d296a58	0.041361183
115	0xbc560970	-0.0130637735
116	0x3df63242	0.12021305
117	0xbe0f2134	-0.1397751
118	0xbde17d6a	-0.11010249
119	0xbe05b820	-0.1305852
120	0xbe20352b	-0.15645282
121	0x3b57e740	0.0032944232
122	0xbd5ed1fe	-0.054399483
123	0xbcc74558	-0.024325058
124	0xbd91b2ab	-0.07114156
125	0xbd77c144	-0.060487047
126	0xbdba4982	-0.09096052
127	0xbcae7de8	-0.021300271
128	0x3e0bd0cf	0.13653873
129	0xbdb6d0b6	-0.08926527
130	0x3d64a510	0.05582148
131	0x3de01516	0.10941522
132	0xbd119ff4	-0.035552934
133	0x3db6dd76	0.08928959
134	0x3deade6a	0.11468203
135	0x3d24df64	0.040252104
136	0x3e2053d5	0.1565698
137	0xbda2506b	-0.07925495
138	0xbd3a0138	-0.04541132
139	0xbc8b3568	-0.01699324
140	0x3cd7d308	0.026345745
141	0xbdd36e80	-0.103238106
142	0xbdfc5232	-0.12320365
143	0xbddc5d6c	-0.10760006
144	0x3dd847a2	0.10560538
145	0x3e0c120b	0.13678758
146	0xbdec013b	-0.11523672
147	0x3e051649	0.12996782
148	0xbd4cba2a	-0.049982227
149	0xbe0e7a70	-0.13913894
150	0xbdf38094	-0.11889759
151	0x3be57a20	0.007003084
152	0xbd47ee18	-0.04881105
153	0x3dc2e1aa	0.09515698
154	0xbc86ebc8	-0.016469851
155	0xbd8d6834	-0.06904641
156	0xbe04ad04	-0.12956625
157	0xbe0c4a49	-0.13700213
158	0xbddd8983	-0.10817244
159	0x3de398a2	0.11113097
160	0xbe3cc31d	-0.18433805
161	0x3d6c8265	0.05774154
162	0xbf049fb0	-0.51806164
163	0x3f840861	1.0315057
164	0x3f33f741	0.70299155
165	0x3fbb3cf0	1.4627972
166	0x3f2cd5ee	0.6751393
167	0xbfc25ecc	-1.518518
168	0xbe596f73	-0.21233921
169	0x3eda0607	0.42582723
170	0xbf166c0f	-0.58758634
171	0x3f884bab	1.0648092
172	0xbeeb54d5	-0.4596316
173	0x3f91dc58	1.1395369
174	0xbf09b1a9	-0.5378671
175	0xbfbf47fd	-1.4943844
176	0x3f637999	0.8885742
177	0xbddf8f8d	-0.10916052
178	0xbe1b23de	-0.15150401
179	0x3fe89e60	1.8173332
180	0x3e43d093	0.19122534
181	0xc001e036	-2.0293097
182	0xbfcd44c4	-1.6036611
183	0x3e27ee16	0.16399416
184	0x402ebfde	2.7304606
185	0x3f3754ed	0.7161396
186	0x3f1b44d5	0.60651904
187	0xbfa6c61c	-1.3029208
188	0xbf02e882	-0.5113603
189	0xbfc12daa	-1.509206
190	0x3fa7a8b7	1.3098363
191	0x3f07cf24	0.53050447
192	0xc0275f5c	-2.6151953
193	0xbe293261	-0.16523124
194	0x3e52c2ae	0.20582077
195	0x3e8907f1	0.2676387
196	0x400160ba	2.0215287
197	0x3fc8e483	1.5694736
198	0xbfcfaef1	-1.6225263
199	0x3fe00925	1.7502791
200	0xbdbd3a75	-0.092396654
201	0xbe05617a	-0.13025466
202	0x3e20af13	0.15691786
203	0xbd064154	-0.032777146
204	0x3da56e66	0.080776975
205	0xbe1b9b87	-0.15196048
206	0xbcf64cd8	-0.030065939
207	0x3dd2b78a	0.102889135
208	0xbc2f1c50	-0.010687903
209	0xbcbce270	-0.023057193
210	0xbd871273	-0.06595316
211	0x3e10356d	0.1408288
212	0xbdd18230	-0.102299094
213	0x3d5d82bc	0.054079756
214	0xbd74d718	-0.059775442
215	0x3d4ef2cc	0.050524518
216	0xbe0e3f52	-0.13891342
217	0x3d9e2012	0.07720961
218	0x3dfe0da6	0.12404947
219	0xbda3d089	-0.07998759
220	0x3d8d3368	0.068945706
221	0x3e12e411	0.14344813
222	0x3d2e4228	0.04254356
223	0xbdd92a62	-0.10603787
224	0xbd27b8ee	-0.040947847
225	0xbe169549	-0.14705385
226	0x3dde83fe	0.10865019
227	0xbd21aaa0	-0.03946936
228	0xbdf8d810	-0.12150586
229	0xbd05da10	-0.032678664
230	0x3bf22f40	0.0073908865
231	0xbcffa360	-0.031205833
232	0xbd295162	-0.04133738
233	0x3dfdad1a	0.12386532
234	0xbe121b50	-0.14268231
235	0x3e0d58f9	0.13803472
236	0xbd6db476	-0.05803343
237	0xbd3823cc	-0.044956014
238	0xbd9ef9cb	-0.07762488
239	0xbb859880	-0.0040770173
240	0xbe1e0d33	-0.15434723
241	0xbc232601	-0.009957791
242	0xbfa5ab5b	-1.2942919
243	0x3fa120af	1.2588099
244	0x3ea9414e	0.33057636
245	0xbf0aa69d	-0.5416048
246	0x3d801ea7	0.062558465
247	0xbdc28b38	-0.0949921
248	0xbfbedee9	-1.4911777
249	0x3fd25290	1.6431446
250	0xbfc66bb8	-1.5501623
251	0xbf9eea1b	-1.2415193
252	0x3e0bc320	0.13648653
253	0x3da20bbe	0.07912396
254	0xbe81cf94	-0.25353682
255	0xbf9a6084	-1.2060704

bias f4 [128]
0	0xbce81810	-0.028331786
1	0xbd9571ac	-0.07297072
2	0xbdcf8646	-0.101330325
3	0x3d3199e8	0.043359667
4	0xbe4885d4	-0.19582301
5	0x3dd64aaa	0.1046346
6	0xbe07f930	-0.13278651
7	0xbd8853c5	-0.06656603
8	0xbdea6646	-0.11445288
9	0xbd080db2	-0.033216186
10	0xbdfb9e03	-0.12285998
11	0xbca02a94	-0.019551553
12	0xbddf6b02	-0.10909082
13	0xba3ac152	-0.0007124144
14	0x3dbf609e	0.093446
15	0xbd965b25	-0.07341603
16	0xbb841e95	-0.004031966
17	0x3c6a1ee6	0.014289593
18	0x3dacfc24	0.084465295
19	0x3d77a7be	0.060462706
20	0xbb74e300	-0.0037366748
21	0xbdfbe43c	-0.122993916
22	0xbd76d80e	-0.06026464
23	0x3ce9cb38	0.028539285
24	0x3d75495b	0.05988441
25	0x3e1c2429	0.15248169
26	0xbd545a06	-0.051843666
27	0xbdc08d90	-0.09402001
28	0x3d257b7b	0.040400963
29	0xbde6ab1b	-0.112631045
30	0xbd691374	-0.056903318
31	0x3da76a26	0.08174543
32	0x3e0abd71	0.13548829
33	0xbe1d7c78	-0.15379512
34	0xbd6f6edc	-0.058455333
35	0xbdbf6041	-0.09344531
36	0xbe54c93e	-0.20779893
37	0x3d0ecb74	0.034861997
38	0x3ca8c73b	0.020602813
39	0xbe33151a	-0.17488518
40	0x3d15cbc8	0.036571294
41	0xbe2658f1	-0.16244866
42	0xbe78e30c	-0.24305362
43	0xbd467d81	-0.048459534
44	0xbdf3910c	-0.118929
45	0xbe53f764	-0.20699841
46	0xbb7ac4c0	-0.0038264245
47	0x3d16a6b0	0.03678006
48	0x3d8705ee	0.06592928
49	0xbea68fca	-0.32531577
50	0xbe59ca2e	-0.21268532
51	0xbe121dc2	-0.14269164
52	0xbd3a9cbe	-0.045559637
53	0x3d244180	0.04010153
54	0xbdebf95e	-0.115221724
55	0x3e0de84f	0.1385815
56	0xbde72156	-0.11285655
57	0x3b16152c	0.0022900803
58	0xbdbd0265	-0.09228972
59	0xbe4deed7	-0.20110641
60	0xbdca1d52	-0.09868874
61	0xbe547695	-0.2074836
62	0x3db3d24f	0.087803476
63	0xbd950005	-0.07275394
64	0xbea5cb7b	-0.32381806
65	0xbd116873	-0.0355
66	0xbe5db352	-0.21650437
67	0x3c7cb019	0.015422844
68	0xbd1d880c	-0.038459823
69	0xbdb25623	-0.087078355
70	0x3dbff792	0.09373392
71	0xbde7b476	-0.11313717
72	0xbe43d854	-0.19125491
73	0xbe006b9e	-0.12541053
74	0xbea1ec4a	-0.31625587
75	0xbdddc524	-0.10828617
76	0x3daef03f	0.08541917
77	0x3d27f92c	0.041009113
78	0x3db22d54	0.08700052
79	0xbe3cb200	-0.18427277
80	0x3db5da8a	0.08879574
81	0xbdc53e17	-0.09630983
82	0xbdd03ab5	-0.101674475
83	0xbd60adea	-0.054853357
84	0x3dc0c1d6	0.09411971
85	0xbe1ae364	-0.15125805
86	0xbd8c2bab	-0.068442665
87	0x3d0f5cc4	0.035000578
88	0xbe1d1230	-0.15338969
89	0xbe7922f9	-0.24329747
90	0x3d5dff08	0.054198295
91	0xbe80c2b8	-0.2514856
92	0x3cdfe098	0.027328774
93	0xbd89c9ce	-0.06727944
94	0xbd19062f	-0.037359413
95	0xbdbc76df	-0.0920236
96	0x3d4ac6a4	0.049505845
97	0xbdb40aaa	-0.087910965
98	0xbe0bb5ea	-0.13643613
99	0x3cadd2e1	0.021218719
100	0xbd7b84f4	-0.06140609
101	0xbe8c0954	-0.27350867
102	0x3e0408df	0.12894009
103	0x3de9a31e	0.11408065
104	0x3da1e556	0.079050705
105	0x3dd257e2	0.102706686
106	0xbc2b9410	-0.010472313
107	0xbd08e26a	-0.03341905
108	0xbe6bfca4	-0.23045594
109	0xbdd2e0a0	-0.1029675
110	0xbda4bf3f	-0.0804429
111	0xbe8ee5c0	-0.2790966
112	0xbe92a936	-0.28644723
113	0xbe056953	-0.13028459
114	0xbdd2c9e9	-0.102924176
115	0xbc87ff48	-0.01660122
116	0xbd72ddea	-0.059293665
117	0xbe696610	-0.2279284
118	0xbebea7f1	-0.37237504
119	0x3cb00d48	0.021490708
120	0x3e0cdf2f	0.13757013
121	0xbea21488	-0.3165629
122	0x3e125e61	0.14293815
123	0xbc84854f	-0.016176848
124	0x3cf268b8	0.02959095
125	0xbbbdac8d	-0.005788392
126	0xbd288c36	-0.04114934
127	0xbd300d61	-0.04298151

weight f4 [64, 128]
0	0xbd6174f6	-0.055043183
1	0x3b8ea81c	0.0043535363
2	0xbcf33c4a	-0.029691834
3	0x3cc8e43c	0.024522893
4	0x3d9278cf	0.07151949
5	0xbccf511c	-0.02530723
6	0x3da3314c	0.07968387
7	0x3dedafe9	0.11605818
8	0xbd7aff3c	-0.061278567
9	0xbe70381c	-0.23458904
10	0xbd8eeb0d	-0.06978426
11	0x3e0ebfa1	0.13940288
12	0x3d1eaf26	0.038741253
13	0x3df797b1	0.1208948
14	0x3d31e4d6	0.043431126
15	0x3c956a3c	0.018239133
16	0x3c037a08	0.0080247
17	0x3d8a4b1c	0.06752607
18	0xbd8bb192	-0.06820978
19	0xbdd805b1	-0.105479605
20	0xbd3ef354	-0.046618775
21	0x3d493d4e	0.04913073
22	0xbcf826f0	-0.030292004
23	0x3d89bb63	0.06725194
24	0x3c580cf4	0.013186682
25	0xbcab1b3c	-0.02088701
26	0xbd975ea6	-0.073911
27	0x3dce02ba	0.10059114
28	0xbd552bac	-0.052043602
29	0xbda7844c	-0.081795305
30	0x3d5bf92a	0.05370442
31	0xbd86037c	-0.06543633
32	0xbb947340	-0.0045303404
33	0x3dcfe01d	0.10150168
34	0xbc4f4050	-0.012649611
35	0xbcc093b3	-0.023507928
36	0x3d4a0822	0.049324162
37	0xbd58101d	-0.05274974
38	0x3e18b90e	0.14914343
39	0xbdac17f1	-0.08403004
40	0xbdb48888	-0.08815104
41	0x3d28ef7b	0.04124401
42	0x3db7e888	0.08979899
43	0xbddf917d	-0.109164216
44	0x3cfa280d	0.030536676
45	0x3d0724a1	0.032993916
46	0xbd2c1a9c	-0.042017564
47	0x3d0762c8	0.03305319
48	0x3d6917f6	0.056907617
49	0x3de61198	0.112338245
50	0xbd5d118d	-0.053971816
51	0xbda13d6a	-0.07873042
52	0xbd38e15d	-0.0451368
53	0xbd2998e8	-0.04140559
54	0xbc63e660	-0.013909906
55	0x3d4147ae	0.0471875
56	0x3dc673fc	0.09690091
57	0xbccdff24	-0.025146075
58	0x3d4aaf5e	0.04948365
59	0x3c532c6c	0.012889009
60	0x3e716026	0.23571834
61	0x3e2627c6	0.1622611
62	0x3de9374f	0.113875024
63	0xbce08951	-0.027409228
64	0x3ad1c000	0.0016002655
65	0xbcb2a04b	-0.02180495
66	0x3dd18385	0.102301635
67	0x3c9125ea	0.017718274
68	0xbe1e3866	-0.15451202
69	0x3da85175	0.08218662
70	0x3d80fa0d	0.062976934
71	0xbdae9b68	-0.08525735
72	0x3b7ee3ea	0.0038893172
73	0x3dda956f	0.106730334
74	0xbbdebacf	-0.0067971717
75	0x3d96f069	0.07370073
76	0x3e8ad84b	0.27118143
77	0xbcfbef62	-0.030753795
78	0xbd86fdb2	-0.06591357
79	0x3dd0166a	0.10160525
80	0x3d5009a6	0.05079045
81	0x3c98eef1	0.018668624
82	0xbe351470	-0.17683578
83	0xbd96c5f8	-0.07361978
84	0xbdaf0e25	-0.0854762
85	0x3d1ee396	0.03879126
86	0x3da08bdb	0.07839175
87	0x3d01a73c	0.031653628
88	0xbc8b02d4	-0.016969122
89	0x3d50a582	0.05093909
90	0x3d99afeb	0.07504257
91	0xbdabc036	-0.08386271
92	0xbd4d27ef	-0.05008691
93	0xbc80cdfc	-0.015723221
94	0x3cb10f19	0.021613644
95	0xbc9edb8c	-0.019391797
96	0xbd998ef3	-0.074979685
97	0xbe0e4f39	-0.13897409
98	0x3cdfd430	0.027322859
99	0x3e3bf7e3	0.1835628
100	0xbdab664a	-0.083691195
101	0x3dd57ee5	0.10424594
102	0x3d96dd79	0.07366461
103	0xbd874cab	-0.0660642
104	0x3bed15a0	0.007235244
105	0xbbc16060	-0.0059013814
106	0xbcbaa790	-0.022784978
107	0xbdb9230b	-0.09039887
108	0x3dba82cc	0.09106979
109	0xbd3d20c6	-0.046173833
110	0xbdae1f94	-0.08502117
111	0xbdfb7f69	-0.12280161
112	0xbe1b5287	-0.151682
113	0xbd65f5ca	-0.056142606
114	0xbdd8fded	-0.105953075
115	0xbd998689	-0.07496364
116	0xbc8088b0	-0.015690178
117	0xbd5f8dd7	-0.05457863
118	0xbc946c23	-0.01811797
119	0xbd83a2ae	-0.06427513
120	0xbd71be76	-0.05901953
121	0xbd68fa31	-0.056879226
122	0x3d41140a	0.04713825
123	0xbce81ae1	-0.02833313
124	0xbceed6f8	-0.02915524
125	0xbd1fb0c1	-0.038986925
126	0x3d757c83	0.059933197
127	0x3dab87f9	0.08375544
128	0x3d897537	0.0671181
129	0xbf19f9cb	-0.6014678
130	0xbcd2429c	-0.025666527
131	0xbd84f359	-0.064917274
132	0xbfcc12a3	-1.5943187
133	0xbdaf4681	-0.085583694
134	0xbcccda7a	-0.025006521
135	0x3daca463	0.08429792
136	0x3c234b38	0.009966664
137	0xbf40f73f	-0.7537727
138	0xbf21259c	-0.6294801
139	0xbe37d85f	-0.17953633
140	0x3d47f186	0.04881432
141	0xbe93200d	-0.2873539
142	0xbd99d7fc	-0.07511899
143	0xbcc908a4	-0.024540253
144	0x3f1d961c	0.61557174
145	0xbf39d0a0	-0.7258396
146	0x3d9d688d	0.07685957
147	0xbd8312e9	-0.06400091
148	0xbc458790	-0.012056246
149	0xb8b0b000	-8.4251165e-05
150	0xbdaacd5a	-0.08339949
151	0x3d10bf60	0.03533876
152	0xbdabc0a6	-0.08386354
153	0x3da8ebd3	0.08248105
154	0x3c3fd2f0	0.011708006
155	0xbdd23219	-0.102634616
156	0xbeb45710	-0.35222673
157	0xbfb0d88d	-1.3816086
158	0xbd403f7e	-0.04693555
159	0x3caf8bf4	0.02142904
160	0xbd873d2b	-0.06603464
161	0xbedadb4b	-0.42745432
162	0x3d73fe3a	0.05956862
163	0x3d7e950e	0.06215387
164	0x3ed2a0e1	0.41138366
165	0xbdb435a8	-0.087992966
166	0x3d543384	0.05180694
167	0x3ea934ea	0.33048183
168	0xbd09efc6	-0.03367593
169	0xbee22636	-0.44169778
170	0xbfad5da0	-1.3544197
171	0x3f29ec83	0.66376513
172	0xbedfe866	-0.43731993
173	0x3de46ed8	0.11153954
174	0xbc6c22c8	-0.014412589
175	0x3d2db9be	0.042413466
176	0x3ccdb780	0.025111914
177	0x3eb452ac	0.35219324
178	0x3df4207e	0.1192026
179	0x3bebf030	0.0072002634
180	0xbd141bc3	-0.03615929
181	0x3ab8cb40	0.0014098659
182	0xbc28e620	-0.010308772
183	0x3ccc9f7c	0.024978392
184	0x3f1607bd	0.5860556
185	0xbc97f960	-0.018551528
186	0xbc726e68	-0.014796831
187	0x3bd06fc0	0.006360978
188	0x3e811a91	0.2521558
189	0xbeb0eaed	-0.34554234
190	0xbf679ace	-0.9047059
191	0xbda5bccc	-0.08092651
192	0xbe85dab5	-0.26143423
193	0xbe1a3681	-0.15059854
194	0x3ef2793e	0.47358125
195	0x3d8f28af	0.06990182
196	0xbe12533b	-0.14289562
197	0xbd8acb0c	-0.06777009
198	0x3cd5c3a8	0.026094273
199	0x3b738d60	0.0037163123
200	0x3e47c568	0.19508898
201	0x3eb9a2ed	0.36257115
202	0xbd6358a0	-0.05550444
203	0xbd38c298	-0.045107454
204	0xbff64a41	-1.924141
205	0x3cedad48	0.029013291
206	0xbd6a0435	-0.05713292
207	0xbeb71f4a	-0.3576606
208	0x3d94d3b9	0.072669454
209	0xbe8b0e79	-0.2715948
210	0xbf2519be	-0.64492404
211	0xbd807ce9	-0.06273825
212	0x3d3065da	0.043065883
213	0x3b9b9440	0.0047478974
214	0xbcd4a6e2	-0.025958482
215	0xbd0f1c70	-0.03493923
216	0xbd97b786	-0.07408051
217	0x3e6eaaea	0.23307386
218	0x3da690e9	0.08133108
219	0x3ee805e8	0.45317006
220	0x3cabca28	0.020970419
221	0xbc6ae750	-0.014337376
222	0x3d31a6b2	0.043371864
223	0x3d0e10ec	0.034684107
224	0xbc4e6f90	-0.012599841
225	0xbf6e9167	-0.93190616
226	0xbd440dc7	-0.0478647
227	0xbdee5743	-0.116377376
228	0x3cfc4e30	0.030799001
229	0xbcc2fd5c	-0.023802452
230	0x3d94e4bb	0.072701894
231	0xbda38592	-0.07984461
232	0x3d9da7f1	0.07698048
233	0x3db4c85b	0.08827277
234	0xbd924da5	-0.07143716
235	0xbe53bd33	-0.20677643
236	0xbdaa549f	-0.083169214
237	0x3c7c4680	0.015397668
238	0xbdb36da5	-0.087611474
239	0x3d55bd9c	0.05218278
240	0x3ba72d9c	0.0051018726
241	0x3f1562db	0.58353966
242	0xbe57a69d	-0.21059652
243	0x3db1266f	0.08649909
244	0x3d2031ae	0.03910988
245	0x3ee4bb8f	0.44674346
246	0xbdfffe20	-0.12499642
247	0xbdaf0803	-0.0854645
248	0xbd4a2ad3	-0.049357247
249	0x3ed6768b	0.41887316
250	0x3d3586ee	0.044318132
251	0xbd35dde6	-0.044401072
252	0xbcaba55c	-0.020952873
253	0xbfa60477	-1.2970113
254	0x3ef04599	0.469281
255	0xbe14776f	-0.14498685

bias f4 [64]
0	0xbe763ee4	-0.24047428
1	0xbb5ef2b1	-0.0034019167
2	0xbdeabdcb	-0.114619814
3	0xbe029545	-0.12752254
4	0xbe3a72e0	-0.18207884
5	0xbc63fcd1	-0.013915257
6	0xbe16cbd9	-0.14726199
7	0xbbd1f66a	-0.0064075487
8	0x3e157bc4	0.14597994
9	0xbdd75039	-0.10513348
10	0xbd62d721	-0.055380944
11	0xbde11c04	-0.10991672
12	0xbc0ebea4	-0.008712444
13	0xbe0bed8d	-0.13664837
14	0x3c5645bb	0.0130781485
15	0x3e9110aa	0.28333026
16	0xbd9845c5	-0.074351825
17	0x3ce32b0b	0.027730485
18	0x3e6deae6	0.23234138
19	0x3dd183d3	0.102302216
20	0xbe16223c	-0.14661497
21	0xbdfbf396	-0.1230232
22	0xbe5a3b01	-0.2131157
23	0xbe514d59	-0.20439662
24	0xbe3e2121	-0.18567325
25	0xbe157e27	-0.14598905
26	0xbcd8bae4	-0.026456304
27	0x3eaa9e1d	0.33323756
28	0x3d2cbeb3	0.042174052
29	0x3e925815	0.28582826
30	0xbd0ab0d5	-0.033860046
31	0xbe01d004	-0.12677008
32	0xbdbc8282	-0.0920458
33	0xbc896618	-0.016772315
34	0xbc61e581	-0.013787628
35	0xbcf92f29	-0.030417996
36	0xbd974a0a	-0.07387169
37	0xbe7181b3	-0.23584633
38	0xbce508d4	-0.027958311
39	0xbe060821	-0.13089038
40	0x3c8e357a	0.017359484
41	0xbd722a2c	-0.05912225
42	0xbd8e4837	-0.06947368
43	0xbc4e0e64	-0.012576673
44	0xbdb6cf0c	-0.0892621
45	0xbd712c72	-0.058880277
46	0xbe65a16c	-0.22424859
47	0x3ccfde43	0.025374537
48	0xbe1e5615	-0.15462525
49	0xbe8e5aa3	-0.27803525
50	0xbe511e54	-0.20421726
51	0xbe8d4c87	-0.27597448
52	0xbdee8fe9	-0.116485424
53	0x3db697ca	0.0891567
54	0xbbcc8b9a	-0.0062422277
55	0xbe70e69b	-0.23525469
56	0xbe1bd10c	-0.15216464
57	0x3eb9219d	0.36158457
58	0x3e58737e	0.21137807
59	0xbdaf6b6b	-0.0856541
60	0xbb2caa94	-0.002634679
61	0x3da121b3	0.07867756
62	0xbe1feb81	-0.15617181
63	0xbdc0214c	-0.09381351

weight f4 [32, 64]
0	0x3de4d3fc	0.11173245
1	0x3db91199	0.090365596
2	0xbe295d0a	-0.16539398
3	0xbd1b8384	-0.03796722
4	0x3d8d931b	0.06912824
5	0xbd49c38d	-0.049258757
6	0x3da1411a	0.07873745
7	0xbdd91faa	-0.106017426
8	0x3e4226fa	0.18960181
9	0x3d42a8e4	0.047524348
10	0xbd0cceb4	-0.034376815
11	0xbb930a6a	-0.0044873254
12	0x3b9218e0	0.0044585317
13	0xbcff8c48	-0.031194821
14	0x3e28a4df	0.16469143
15	0x3e89a5cb	0.26884302
16	0x3e69c638	0.2282952
17	0x3e4d21ae	0.20032379
18	0xbf840f69	-1.0317203
19	0x3defbcad	0.11705909
20	0xbdd6eae4	-0.104940206
21	0x3de55eb4	0.11199704
22	0x3e30ed5d	0.17278047
23	0xbe247651	-0.16060759
24	0x3e731903	0.2374001
25	0xbd1889e8	-0.037240893
26	0x3c2509b0	0.01007311
27	0xbf2e8381	-0.6816941
28	0x3d4fb097	0.05070552
29	0xbd18e391	-0.0373264
30	0xbdfa0b2e	-0.122091636
31	0x3cfe2488	0.031023279
32	0xbdbc6ce2	-0.09200455
33	0xbe601190	-0.218817
34	0x3ae76100	0.001765281
35	0x3d0b3a8c	0.03399138
36	0x3cbd900e	0.02313998
37	0xbe3825f1	-0.17983223
38	0x3df9fea8	0.12206775
39	0x3df1aa1e	0.118000254
40	0xbdd7ecd0	-0.10543215
41	0x3e197adb	0.14988272
42	0x3cb8be11	0.022551568
43	0xbd58d27c	-0.05293511
44	0xbdeff82e	-0.117172584
45	0xbdb56c79	-0.0885858
46	0xbdde7f5d	-0.10864136
47	0x3e4736c1	0.1945448
48	0x3e32be34	0.17455369
49	0x3e1aa030	0.15100169
50	0x3da378ae	0.07982002
51	0x3da22cde	0.07918714
52	0x3d1c05c8	0.03809145
53	0x3ee63025	0.44958606
54	0xbd8169c6	-0.06319003
55	0x3e603e95	0.21898873
56	0xbcb6324d	-0.022240782
57	0xbea9cf64	-0.3316604
58	0xbcf4d6b3	-0.029887533
59	0x3d6c70a1	0.0577246
60	0x3d6df0d6	0.058091007
61	0x3dfb4950	0.122698426
62	0xbc82cdaf	-0.015967218
63	0x3c086841	0.008325637
64	0xbdb92664	-0.090405256
65	0x3e33c517	0.17555653
66	0xbdd1f120	-0.10251069
67	0xbd7b891b	-0.06141005
68	0x3de0e9de	0.109821066
69	0x3cad38d8	0.02114527
70	0x3c255180	0.010090232
71	0x3d29b74c	0.04143457
72	0xbdc573f0	-0.09641254
73	0xbc87cf29	-0.016578274
74	0xbe2a9e7a	-0.16662017
75	0xbdc55e3b	-0.09637114
76	0xbca99149	-0.02069916
77	0xbdb34462	-0.08753277
78	0x3df50af2	0.11964978
79	0xbcd422df	-0.025895534
80	0xbdd75a88	-0.10515314
81	0xbe7630e8	-0.24042094
82	0xbe8cef77	-0.27526447
83	0xbd82af74	-0.06381121
84	0xbdb111c4	-0.08645967
85	0x3d08d185	0.03340294
86	0x3ca55558	0.020182297
87	0x3d90e452	0.07074799
88	0xbdf0b224	-0.11752728
89	0x3b9ce348	0.004787836
90	0xbd178488	-0.036991626
91	0x3d8dc410	0.069221616
92	0xbea3b57a	-0.31974393
93	0xbe6226aa	-0.22085062
94	0xbda0352b	-0.07822641
95	0x3e071a0c	0.1319353
96	0xbd11f5d4	-0.03563483
97	0x3d81e277	0.06342023
98	0xbd665328	-0.056231648
99	0xbd8a1c65	-0.06743697
100	0x3dcce69c	0.10004923
101	0xbd6d3218	-0.0579091
102	0xbe024302	-0.12720874
103	0xbd776b87	-0.06040528
104	0x3d6eb494	0.05827768
105	0xbd92a7f8	-0.07160944
106	0x3d574a54	0.05256112
107	0xbc80e412	-0.015733752
108	0x3d3697ce	0.044578366
109	0xbd522848	-0.051307946
110	0x3de41cab	0.111382805
111	0xbe293014	-0.16522247
112	0x3d99ac0a	0.07503517
113	0xbdc6d104	-0.09707835
114	0xbd9fa676	-0.07795422
115	0xbb8ac260	-0.004234597
116	0xbd375f5a	-0.04476867
117	0xbe8b8bb5	-0.27255026
118	0x3d962d79	0.07332892
119	0xbe961684	-0.29314053
120	0x3c065d30	0.008200929
121	0xbda5cba6	-0.080954835
122	0xbe419687	-0.18905078
123	0xbdae2018	-0.08502215
124	0x3cea58a0	0.028606713
125	0x3c25be29	0.0101161385
126	0x3dc3af50	0.095549226
127	0xbde178c8	-0.11009365
128	0xbd6c1ee6	-0.057646655
129	0x3da7448e	0.08167373
130	0x3cc14fb0	0.023597568
131	0xbc6d8210	-0.014496341
132	0x3d743ce0	0.059628367
133	0x3dad5fb6	0.08465521
134	0xbcbe8748	-0.023257867
135	0xbcd484f0	-0.025942296
136	0xbe4a7323	-0.19770484
137	0x3d0776ac	0.03307216
138	0xbd0dce3c	-0.03462051
139	0xbe0702b2	-0.13184622
140	0xbdf19af4	-0.11797133
141	0xbda12e76	-0.0787019
142	0xbdb2447a	-0.08704467
143	0x3d994432	0.0748371
144	0xbd94ec2c	-0.07271609
145	0xbdc0e772	-0.09419145
146	0xbdd32dd4	-0.103114754
147	0xbce98776	-0.028506976
148	0x3db6ef84	0.08932403
149	0xbdde1b6e	-0.108450755
150	0x3db19bba	0.086722806
151	0x3be398a0	0.0069456846
152	0xbb8e9f00	-0.0043524504
153	0x3da333c2	0.079688564
154	0x3dc2f146	0.095186755
155	0x3df94876	0.12172024
156	0xbd909078	-0.07058805
157	0xbdbe41ac	-0.0928987
158	0xbd0dfc90	-0.03466469
159	0xbc8baec0	-0.0170511
160	0x3df9169e	0.12162517
161	0xbc4e81e0	-0.012604207
162	0x3ded9572	0.1160077
163	0x3dcae844	0.099075824
164	0xbd9af83a	-0.07566877
165	0xbceb2a10	-0.02870658
166	0xbc88c130	-0.016693681
167	0xbd8646f0	-0.06556499
168	0xbc938ff0	-0.01801297
169	0xbd742e78	-0.05961463
170	0xbcdaae08	-0.026694313
171	0x3d6d539c	0.057941064
172	0xbcdaf548	-0.026728287
173	0xbd0d002c	-0.034423992
174	0xbd2f58dc	-0.042809352
175	0xbe624ea6	-0.22100314
176	0x3cd387b0	0.025821537
177	0xbda0f68e	-0.078595266
178	0xbdd9754a	-0.10618074
179	0xbd8784f2	-0.06617154
180	0xbdb4ab76	-0.08821766
181	0xbda0b829	-0.07847626
182	0xbdefe820	-0.11714196
183	0xbe655c26	-0.22398433
184	0x3dbaa614	0.09113708
185	0xbe81c1bd	-0.25343123
186	0xbe1fe442	-0.15614417
187	0x3ae8e800	0.0017769337
188	0x3de58618	0.11207217
189	0xbc3f3c01	-0.011672021
190	0xbdb54b1c	-0.088522166
191	0xbd5aad04	-0.053387657
192	0x3dd09cb0	0.10186136
193	0x3eec4fe0	0.4615469
194	0x3d303bfd	0.04302596
195	0xbcc2baf8	-0.023770794
196	0x3d8541bd	0.06506679
197	0x3d099c73	0.033596467
198	0x3cd2fe9b	0.025756171
199	0x3dcc2736	0.099684164
200	0x3d7025d1	0.058629815
201	0xbde82ded	-0.11336885
202	0xbbcc1123	-0.006227629
203	0x3db6a95c	0.089190215
204	0x3c258cab	0.010104339
205	0xbd1f4121	-0.03888047
206	0x3dcf8267	0.10132294
207	0xbda620a9	-0.08111698
208	0xbd3d0ef3	-0.046156835
209	0x3d9bbdb3	0.07604542
210	0x3e063ed5	0.13109906
211	0xbeaba6a8	-0.33525586
212	0x3cb3fce0	0.021971166
213	0xbdd3bdaa	-0.1033891
214	0xbd23bef8	-0.039977044
215	0x3da54ddd	0.08071492
216	0xbe2a7df3	-0.16649608
217	0xbe1b5d11	-0.15172221
218	0xbd3e7374	-0.046496823
219	0x3f5572eb	0.83378476
220	0xbd494e8f	-0.049147185
221	0x3da0648f	0.0783168
222	0xbe057143	-0.13031487
223	0x3d79f216	0.061021887
224	0x3d8072e4	0.06271914
225	0x3ce6fba2	0.02819616
226	0xbe057d21	-0.13036014
227	0xbe317629	-0.17330231
228	0x3e2ba75f	0.16763066
229	0x3df0c494	0.11756244
230	0xbd850c01	-0.0649643
231	0x3ca23c3d	0.019804114
232	0xbc8349c8	-0.016026393
233	0xbd90bfee	-0.07067858
234	0x3e0bd2d2	0.1365464
235	0x39695992	0.00022253979
236	0x3bed61d6	0.007244329
237	0x3cce324c	0.025170468
238	0x3f3809f6	0.718902
239	0x3c878d37	0.016546829
240	0xbd8b716e	-0.06808744
241	0xbe0ba907	-0.13638698
242	0x3e4af34f	0.19819377
243	0x3e03217b	0.1280574
244	0x3d103030	0.035202205
245	0x3f162d46	0.5866283
246	0xbe0c6a52	-0.13712433
247	0x3dfed4c2	0.12442924
248	0xbbd85e3e	-0.0066030314
249	0xbd0ba966	-0.034097098
250	0x3d0a96de	0.033835284
251	0xbc14bf2c	-0.009078782
252	0x3e0c306a	0.13690343
253	0x3e6a39cd	0.22873612
254	0x3db73317	0.089452915
255	0x3d2b3fa8	0.041808754

bias f4 [32]
0	0xbe0f46b6	-0.13991818
1	0xbe256514	-0.1615184
2	0xbe8746fc	-0.26421344
3	0x3e3e1975	0.18564399
4	0xbd90600d	-0.0704957
5	0xbe900f49	-0.28136662
6	0x3c08022f	0.008301302
7	0xbd2b9c5a	-0.041897155
8	0x3d098fb9	0.03358433
9	0x3d56e695	0.052465994
10	0xbdfe5a1f	-0.12419533
11	0xbc040211	-0.008057133
12	0xbe696364	-0.22791821
13	0xbe81cb2b	-0.25350317
14	0x3d4c5b9d	0.049892057
15	0xbe154ee6	-0.14580879
16	0xbcd76ef8	-0.026298031
17	0xbe172abc	-0.14762396
18	0x3ef06d4a	0.4695838
19	0xbde98a51	-0.11403335
20	0xbbab423b	-0.005226401
21	0x3c921e2b	0.01783665
22	0xbe113012	-0.14178494
23	0x3e3cff33	0.18456726
24	0xbe327747	-0.17428313
25	0x3e3f1112	0.18658856
26	0xbd4b893a	-0.049691416
27	0xbe02ae13	-0.12761717
28	0xbe45cc9b	-0.19316332
29	0xbd09d47d	-0.03364991
30	0x3def6541	0.116892345
31	0x3d6ad184	0.057328716

weight f4 [8, 32]
0	0xbe2a0c7e	-0.16606328
1	0xbdbcb5ec	-0.09214386
2	0xbe1bef9c	-0.15228122
3	0xbcc17767	-0.023616506
4	0x3d576857	0.05258974
5	0x3d392744	0.045203462
6	0xbd580eee	-0.052748613
7	0x3d099cdd	0.033596862
8	0xbbe16ccd	-0.006879425
9	0xbe4dc161	-0.200933
10	0x3bb328bf	0.005467504
11	0x3d45038e	0.048099093
12	0x3cfb9100	0.03070879
13	0xbdf3a340	-0.11896372
14	0x3db9df6b	0.09075817
15	0xbded2e3e	-0.115810856
16	0x3e0cb3ef	0.13740514
17	0x3d5bf2ef	0.053698476
18	0xbd4d914e	-0.0501874
19	0x3db82076	0.089905664
20	0xbd1c3234	-0.038133815
21	0x3c9ec286	0.019379865
22	0x3d8f6d0e	0.070032224
23	0xbce87220	-0.028374732
24	0xbc6ed180	-0.014576316
25	0xbd616a4c	-0.055033013
26	0xbe661fde	-0.22473094
27	0xbd427bb4	-0.047481254
28	0x3d677eb0	0.056517303
29	0xbd917361	-0.07102085
30	0xbe264639	-0.16237725
31	0x3dbed577	0.09318059
32	0xbe90a2b8	-0.28249145
33	0x3dd21b1c	0.10259077
34	0xbe6d95a0	-0.23201609
35	0x3e4f9df9	0.20275106
36	0x3e0e8fc7	0.13922034
37	0xbe08e916	-0.13370165
38	0xbe968ddd	-0.29405108
39	0xbe34712d	-0.17621298
40	0x3dd938b2	0.10606517
41	0x3d9b4a99	0.07582588
42	0x3cd2b9a0	0.025723279
43	0x3a006200	0.00048974156
44	0xbe469aa6	-0.19394931
45	0xbbdabc86	-0.006675306
46	0xbe0abb65	-0.13548048
47	0xbea564e0	-0.32303524
48	0x3e06d563	0.13167338
49	0xbdd65278	-0.104649484
50	0xbe6004fa	-0.21876898
51	0xbdd4f72b	-0.10398706
52	0x3d8c948a	0.06864269
53	0x3d875c24	0.06609371
54	0xbde0007e	-0.10937594
55	0x3ef375a7	0.475507
56	0x3e5b1297	0.2139381
57	0x3eb753fd	0.35806265
58	0xb9a22612	-0.00030927412
59	0xbe0cfa1f	-0.13767289
60	0x3d3d6378	0.04623744
61	0xbda24c67	-0.07924729
62	0x3e374705	0.17898186
63	0xbe270c0e	-0.16313192
64	0x3d09c86d	0.033638407
65	0xbe3ac1f0	-0.18238044
66	0xbdb8cbd5	-0.09023253
67	0xbd6e8d58	-0.058240265
68	0x3bffd620	0.007807508
69	0xbea1cb0a	-0.3160022
70	0x3e647734	0.22311097
71	0x3d0c4945	0.034249563
72	0xbd4ebff0	-0.050476015
73	0xbd61e39f	-0.055148717
74	0xbd5f25f0	-0.05447954
75	0xbdc3fcdf	-0.09569716
76	0x3dcd8595	0.100352444
77	0xbd96b21b	-0.0735819
78	0x3cec737e	0.028863665
79	0x3db0cc5e	0.0863273
80	0xbdada954	-0.084795624
81	0x3e179ce9	0.1480595
82	0x3e5a3cdf	0.21312283
83	0x3e310fff	0.17291258
84	0x3be9afaf	0.007131539
85	0xbcdb58b8	-0.026775703
86	0xbec10f6b	-0.37707075
87	0xbf396a38	-0.724277
88	0x3d8f3799	0.06993026
89	0x3e2369f3	0.15958385
90	0x3e4b75de	0.19869182
91	0x3cb944d8	0.022615835
92	0x3d701630	0.05861491
93	0xbd373788	-0.044730693
94	0x3ecf663c	0.40507686
95	0xbda41e5d	-0.08013604
96	0x3ed4d06d	0.41565266
97	0xbe9c9826	-0.3058483
98	0x3e428763	0.18996958
99	0x3db4a206	0.08819966
100	0xbd9657ec	-0.073409885
101	0x3a970883	0.0011522922
102	0xbe3cfc58	-0.18455637
103	0xbdb8af27	-0.09017783
104	0xbd781466	-0.06056633
105	0xbe885244	-0.26625264
106	0xbccf4f10	-0.025306255
107	0xbd4f70b0	-0.050644577
108	0x3ef33a73	0.4750553
109	0xbdeb2b58	-0.114828765
110	0x3e8fdbfd	0.28097525
111	0xbd6683cd	-0.05627804
112	0xbdc3aeb1	-0.09554804
113	0xbe2b5ea8	-0.16735327
114	0x3e686859	0.22696055
115	0xbe1fddc6	-0.15611944
116	0x3c69c314	0.014267702
117	0x3d957bfa	0.07299037
118	0xbdf04a12	-0.11732878
119	0x3d8d041f	0.06885552
120	0x3df31b68	0.11870462
121	0x3e626f99	0.22112884
122	0xbdd424f9	-0.103586145
123	0xbc53b130	-0.012920663
124	0xbecbbfab	-0.3979467
125	0xbdf9e57f	-0.12201976
126	0xbd872e8f	-0.06600677
127	0xb9659c00	-0.00021897256
128	0xbd94ad65	-0.07259635
129	0x3db07e38	0.08617824
130	0x3dfcb03a	0.123383
131	0x3ecef122	0.40418345
132	0x3dd36aaf	0.10323083
133	0x3cd4b8e4	0.025967069
134	0x3e5a7ad1	0.21335913
135	0x3bd131f1	0.0063841273
136	0x3dbba78c	0.091628164
137	0x3dde1946	0.10844664
138	0x3e5e570e	0.21712896
139	0xbd068774	-0.032844022
140	0x3e18e0df	0.14929532
141	0xbb2d8b09	-0.0026480576
142	0x3c84f254	0.016228832
143	0xbdc71183	-0.09720137
144	0xbe104c19	-0.14091529
145	0x3e149e04	0.14513403
146	0x3e844d48	0.2584021
147	0x3e60d83d	0.21957488
148	0x3dd81ff5	0.1055297
149	0xbd8b99e7	-0.06816464
150	0x3e6103b2	0.21974066
151	0x3eac2099	0.3361862
152	0xbdfb1132	-0.12259139
153	0xbec586ac	-0.3857931
154	0xbd59cd12	-0.053174086
155	0x3e2d1460	0.16902304
156	0x3d84d7cf	0.06486475
157	0xbd673c17	-0.05645379
158	0xbe9da108	-0.3078692
159	0x3ce34006	0.02774049
160	0xbe13f4c5	-0.14448841
161	0xbe15c39f	-0.14625405
162	0x3dae6726	0.08515768
163	0xbdd92966	-0.10603599
164	0x3caa8268	0.020814136
165	0xbe24681b	-0.16055338
166	0xbceb63e0	-0.028734148
167	0x3d301ddc	0.042997226
168	0x3e2a493b	0.16629498
169	0xbe1b29db	-0.15152685
170	0xbdaa5a3c	-0.08317992
171	0x3dd534ea	0.10410483
172	0x3ba34fc0	0.004983872
173	0xbe33cd00	-0.1755867
174	0x3e09cca7	0.13456975
175	0x3d97fbea	0.07421096
176	0x3d6364ec	0.05551617
177	0xbe16cda5	-0.14726885
178	0xbdedbb5e	-0.11608003
179	0xbddc2c58	-0.107506454
180	0xbdc9f1a6	-0.09860544
181	0x3c46a240	0.012123644
182	0x3e219661	0.15780021
183	0xbde18290	-0.11011231
184	0x3d054360	0.032534957
185	0xbe09a981	-0.13443567
186	0xbe15e01b	-0.1463627
187	0x3dfd6702	0.12373163
188	0x3e11dc29	0.1424414
189	0x3e0ccf95	0.13751061
190	0x3c35f8d0	0.011106685
191	0xbde54c37	-0.111961775
192	0xbdb98421	-0.09058405
193	0x3d998441	0.074959286
194	0x3bb3ff80	0.0054931045
195	0xbdeb06a9	-0.1147588
196	0x3c3516d9	0.011052811
197	0x3dd399b6	0.103320524
198	0x3b0445f6	0.0020183302
199	0x3cb20c68	0.021734431
200	0xbe59ed8f	-0.21282028
201	0xbc156af4	-0.009119738
202	0x3d82bf3a	0.0638413
203	0xbcf7e63a	-0.030261148
204	0x3dc965fa	0.098339036
205	0xbda937a9	-0.082625695
206	0x3d807e77	0.06274121
207	0x3cf631c8	0.030053034
208	0xbdda81f5	-0.106693186
209	0xbcec1128	-0.028816774
210	0xbda667ae	-0.08125244
211	0xbdb8eb5e	-0.09029268
212	0x3e2d64c5	0.16932972
213	0xbc9883fb	-0.01861762
214	0x3de8fcb0	0.11376321
215	0xbe12b237	-0.14325796
216	0xbe2e405b	-0.17016737
217	0x3d2b7ff5	0.041870076
218	0x3d02bfa7	0.031921055
219	0x3da34ab5	0.079732336
220	0xbc4c9763	-0.012487265
221	0xbde40033	-0.111328505
222	0xbe812632	-0.25224453
223	0xbe02d385	-0.12776001
224	0xbdf2b228	-0.11850387
225	0x3da43852	0.08018555
226	0xbe305f36	-0.1722382
227	0xbdcafac0	-0.09911108
228	0xbc864030	-0.016388029
229	0xbe31474b	-0.17312352
230	0x3d475084	0.04866077
231	0x3d89ad62	0.06722523
232	0xbd21ff88	-0.039550334
233	0x3b7fd37f	0.0039035974
234	0xbe1b3080	-0.1515522
235	0x3d8e05a4	0.069346696
236	0x3d4b2376	0.049594365
237	0xbdc02242	-0.09381534
238	0x3dbb4f36	0.09145968
239	0xbd190ad8	-0.037363857
240	0x3cd240d8	0.025665686
241	0xbda5447c	-0.08069703
242	0xbe611f60	-0.21984625
243	0x3defea52	0.11714615
244	0xbcafae78	-0.021445498
245	0xbe014b4f	-0.12626384
246	0xbe0e2222	-0.13880208
247	0xbe01db15	-0.1268123
248	0x3e3429ab	0.1759402
249	0xbd6899d6	-0.056787334
250	0x3d0497ab	0.032371204
251	0x3e1c9e1f	0.15294693
252	0x3d1b0b34	0.03785248
253	0xbd2eaedc	-0.042647228
254	0xbd20bef8	-0.039244622
255	0x3e1a73f7	0.150833

bias f4 [8]
0	0x3d3e8b19	0.046519373
1	0x3f055bb8	0.52093077
2	0x3eadc19e	0.3393678
3	0xbe20d975	-0.15707953
4	0x3e73a48e	0.23793241
5	0x3ded963a	0.11600919
6	0x3d97a74d	0.07404957
7	0x3d0dc00e	0.034606986

weight f4 [4, 8]
0	0x3d797e38	0.060911387
1	0x3eac8e11	0.33702138
2	0xbe92045b	-0.28518948
3	0x3df79584	0.12089065
4	0xbd60af98	-0.05485496
5	0x3e8abcc7	0.2709715
6	0x3e732f36	0.23748478
7	0xbd495ee8	-0.049162775
8	0xbd8e26d0	-0.06940997
9	0xbd3ab470	-0.045582235
10	0xbd2775f8	-0.04088399
11	0x3ea0d69f	0.31413743
12	0xbe22291d	-0.15835996
13	0x3e8b8905	0.27252975
14	0xbcb72d30	-0.022360414
15	0x3c2335c0	0.0099615455
16	0xbdb28818	-0.08717364
17	0xbb6ed800	-0.0036444664
18	0xbe72df9f	-0.23718117
19	0xbe88f40d	-0.26748696
20	0xbe8864ab	-0.26639304
21	0x3e324842	0.17410377
22	0x3e982711	0.29717305
23	0xbe634283	-0.22193341
24	0x3cd1b540	0.025599122
25	0xbe831354	-0.25600684
26	0xbd737be0	-0.05944431
27	0x3ea8ab5f	0.32943246
28	0x3eb046b7	0.3442895
29	0x3d787d00	0.060666084
30	0x3dbe8460	0.09302592
31	0x3df24850	0.11830199

bias f4 [4]
0	0x3dd016a8	0.10160571
1	0x3d6f6a48	0.058450967
2	0xbdb14f10	-0.08657658
3	0xbea73d03	-0.32663736
