training/ann/models/ann19.pth (torch, 68636 bytes, 10 tensors)

weight f4 [128, 40]
0	0x3d4b9c9c	0.0497099
1	0xbd6df062	-0.058090575
2	0xbda7f546	-0.08201079
3	0xbcedeaa8	-0.029042557
4	0xbcf1bf20	-0.02951008
5	0x3b16bb80	0.0022999942
6	0xbd8a5e0e	-0.06756221
7	0xbd3ff71a	-0.046866514
8	0xbc40cf30	-0.011768147
9	0xbdf8ed2a	-0.121546105
10	0x3d64058c	0.055669352
11	0xbd8d6b90	-0.069052815
12	0x3e00f30b	0.12592714
13	0xbcf0ab90	-0.029378682
14	0x3d3e8c70	0.04652065
15	0x3be65fe0	0.007030472
16	0xbdcffcfd	-0.101556756
17	0xbd9603ea	-0.07324965
18	0x3d819854	0.063278824
19	0x3dcede4a	0.10100992
20	0x3e05c8ed	0.13064928
21	0xbdde19a7	-0.108447365
22	0x3cd79560	0.026316345
23	0xbbf9a820	-0.007618919
24	0xbd23a2fe	-0.039950363
25	0xbd0db9d6	-0.034601055
26	0x3cb941a0	0.0226143
27	0x3e0a65a3	0.13515334
28	0x3e183c4b	0.1486675
29	0x3dc1e8d2	0.09468235
30	0xbddc7fc8	-0.1076656
31	0x3e1243c9	0.1428367
32	0x3e074333	0.13209228
33	0x3cb61568	0.022227004
34	0x3d739e54	0.059477165
35	0xbda04086	-0.07824807
36	0xbd0e4824	-0.034736767
37	0xbe0c0032	-0.1367195
38	0x3d701094	0.05860956
39	0xbe091f6c	-0.13390893
40	0xbdcd5b23	-0.100271486
41	0x3e0f601f	0.14001511
42	0xba951ab0	-0.0011375751
43	0x3db4dd64	0.088312894
44	0x3e399c17	0.1812595
45	0x3d731a1f	0.059351083
46	0xbd086d9c	-0.033307657
47	0xbdf5ea09	-0.12007529
48	0x3c284ccc	0.010272216
49	0xbe3cd558	-0.18440759
50	0x3e6c229d	0.23060079
51	0xbe03c768	-0.12869036
52	0xbdf9219e	-0.12164615
53	0xbe0a09f1	-0.13480355
54	0x3e2391ea	0.1597363
55	0x3d46dfc1	0.048553232
56	0x3e0d9c7c	0.13829225
57	0xbe0f3589	-0.13985266
58	0x3e3e71ca	0.18598095
59	0xbe8cc414	-0.27493346
60	0xbdfe0880	-0.12403965
61	0x3d5f1455	0.05446275
62	0x3e6bade9	0.2301556
63	0xbda1cc67	-0.07900315
64	0xbe7df660	-0.24801016
65	0x3dca9bbc	0.09892985
66	0x3d868f79	0.06570334
67	0x398d399b	0.00026936535
68	0xbe8a1242	-0.26967055
69	0x3dfc0fad	0.123076774
70	0xbe070876	-0.13186821
71	0x3dcf1e7e	0.10113238
72	0xbdfd8bcd	-0.123801805
73	0xbe021e90	-0.12706971
74	0x3d323865	0.043510813
75	0x3db46697	0.0880863
76	0xbd99e072	-0.07513513
77	0x3e64d7cc	0.22347945
78	0x3d67f40d	0.05662923
79	0x3d80a37e	0.06281184
80	0xbe0914ce	-0.13386843
81	0xbd708dae	-0.058728866
82	0xbe117b29	-0.14207138
83	0x3d574b78	0.052562207
84	0x3d647a60	0.05578077
85	0xbda50e65	-0.08059386
86	0x3d797adc	0.060908183
87	0xbe1b92ed	-0.15192766
88	0x3d372d28	0.0447208
89	0x3d975738	0.073896825
90	0x3e0a7e5d	0.13524766
91	0x3df6d3fa	0.1205215
92	0xbcbb7c10	-0.022886306
93	0xbdd83568	-0.105570614
94	0xbdcd81d8	-0.10034531
95	0x3dc98066	0.09838943
96	0xbdf1c68c	-0.11805448
97	0x3c419290	0.011814728
98	0xbde7d0d0	-0.11319125
99	0xbdd8c593	-0.10584559
100	0x3d4fb188	0.050706416
101	0x3e18382d	0.1486518
102	0x3de1d1ea	0.11026366
103	0x3e0d686b	0.13809364
104	0xbdaadd81	-0.0834303
105	0x3d89e674	0.067334086
106	0x3d9530c2	0.072846904
107	0xbcc2c430	-0.02377519
108	0xbdbbb45c	-0.0916526
109	0xbde6eac4	-0.11275247
110	0x3d44cec4	0.04804875
111	0xbd76de7e	-0.06027078
112	0xbe1dfcf1	-0.1542852
113	0xbcd97ed8	-0.026549742
114	0xbde49ec8	-0.111630976
115	0xbe0d1d39	-0.13780679
116	0x3e0ac13b	0.13550274
117	0xbb23d540	-0.0024998933
118	0x3cf12d08	0.029440418
119	0xbdafdabf	-0.085866444
120	0xbdc17635	-0.09446374
121	0x3b935d80	0.00449723
122	0xbd85a278	-0.06525129
123	0xbdfb5f6c	-0.1227406
124	0xbe1dab0f	-0.15397285
125	0x3dd5883e	0.10426377
126	0xbdab522c	-0.083652824
127	0x3ade5e00	0.001696527
128	0x3dbdedda	0.09273882
129	0x3d596774	0.053077176
130	0xbd3c5c54	-0.04598649
131	0xbd54d356	-0.05195936
132	0xbd7eca4e	-0.06220465
133	0xbe138e7a	-0.14409819
134	0x3ab79900	0.001400739
135	0x3dcb3316	0.09921853
136	0xbdfcf8c0	-0.12352133
137	0x3df6cc62	0.12050702
138	0x3cf30400	0.029664993
139	0x3da8acda	0.08236094
140	0xbd4a7fd0	-0.049438298
141	0xbe03e016	-0.12878451
142	0x3ddea3fa	0.1087112
143	0xbbde4dc0	-0.006784171
144	0xbdfe465a	-0.12415762
145	0xbdfafa54	-0.122547776
146	0x3d20b6c0	0.039236784
147	0x3d7ef6e0	0.062247157
148	0xbb409c40	-0.0029390007
149	0x3e104bb1	0.14091374
150	0x3c97efb0	0.01854691
151	0xbbd79b20	-0.0065797716
152	0x3e074af1	0.13212182
153	0x3d01c010	0.031677306
154	0xbd994430	-0.07483709
155	0xbc403c60	-0.0117331445
156	0xbcb52d90	-0.022116452
157	0xbde0eda8	-0.10982829
158	0xbde42d6f	-0.11141478
159	0x3e190e17	0.14946781
160	0xbc9c6a81	-0.019093754
161	0x3d251d14	0.040310934
162	0xbdb30840	-0.08741808
163	0x3c122b37	0.008921436
164	0x3c37f372	0.0112274755
165	0xbe2115df	-0.15731
166	0x3cbe7d11	0.023252996
167	0x3cd01a94	0.025403298
168	0xbdbe7cf5	-0.093011774
169	0xbdce2494	-0.100655705
170	0x3e1f82c2	0.15577224
171	0xbe6b39d9	-0.22971286
172	0x3e37fc4d	0.17967339
173	0x3d845596	0.06461637
174	0x3debfb00	0.11522484
175	0xbe1d713a	-0.15375224
176	0x3e2293d1	0.158767
177	0xbe209fa0	-0.15685892
178	0xbdb6f17b	-0.089327775
179	0xbc265102	-0.01015115
180	0xbddbe6b8	-0.107373655
181	0x3e381834	0.17977983
182	0x3d143492	0.036182947
183	0x3e1f72e2	0.15571168
184	0xbeaaf7ea	-0.33392268
185	0x3d6200f7	0.0551767
186	0x3ddf6b32	0.10909118
187	0xbd97b64e	-0.07407819
188	0xbdaef91f	-0.0854361
189	0xbc599e95	-0.013282438
190	0x3d380c21	0.044933442
191	0x3e349694	0.17635566
192	0x3cbce3c3	0.023057824
193	0xbd316379	-0.043307755
194	0xbe04e7e6	-0.12979087
195	0xbd8a82cd	-0.067632295
196	0x3db14867	0.08656388
197	0x3cdd8966	0.027043056
198	0xbcd9f723	-0.026607102
199	0x3d46ae9d	0.048506368
200	0xbd43df26	-0.047820233
201	0xbad3fd00	-0.0016173422
202	0xbdd44bbe	-0.10366009
203	0xbcafdde0	-0.021468103
204	0xbc4f0990	-0.012636557
205	0xbd5e3c7a	-0.054256894
206	0x3d1032c4	0.035204664
207	0x3c53cac0	0.012926757
208	0xbdf783be	-0.12085675
209	0xbc21d9b0	-0.009878561
210	0x3c190d00	0.009341478
211	0x3cff3e60	0.031157672
212	0xbcd32840	-0.025776029
213	0x3da8e598	0.082469165
214	0x3df5fc12	0.12010969
215	0xbd93970b	-0.072065435
216	0x3dbc11ae	0.0918306
217	0x3cf159a8	0.029461697
218	0xbd404698	-0.046942323
219	0xbd9b5f7c	-0.075865716
220	0xbd831dd9	-0.06402177
221	0x3d317024	0.043319836
222	0xbd1c85ea	-0.038213648
223	0xbd8bc45a	-0.068245605
224	0x3d3e8804	0.046516433
225	0xbb730a80	-0.0037085116
226	0x3defbef2	0.11706342
227	0x3e140c05	0.1445771
228	0x3d2f4a1c	0.042795286
229	0xbdb2ca34	-0.087299734
230	0x3dfac466	0.12244491
231	0xbd90e37e	-0.07074641
232	0x3d59b0bc	0.053147063
233	0xbe09bc16	-0.13450655
234	0x3d582fbc	0.052779898
235	0xbdc23d62	-0.09484364
236	0x3dcd3112	0.10019125
237	0x3e1b5d41	0.15172292
238	0xbd66d5c2	-0.0563562
239	0xbe04c818	-0.12966955
240	0x3cc64512	0.024202857
241	0xbc25482e	-0.01008801
242	0xbbcac48f	-0.0061879824
243	0xbe19c55a	-0.1501669
244	0x3d8af6aa	0.06785329
245	0x3da7ffa1	0.08203054
246	0xbacb7d00	-0.0015524924
247	0xbe1c8e80	-0.15288734
248	0xbde1d218	-0.110264
249	0xbde2e888	-0.11079508
250	0x3bf2e41d	0.007412447
251	0x3d92e2d6	0.07172172
252	0x3d4cba56	0.04998239
253	0xbde8a907	-0.113603644
254	0xbcb3c5f7	-0.021944983
255	0x3de994da	0.11405344

bias f4 [128]
0	0x3e0f3c85	0.1398793
1	0x3cc5ecfe	0.024160858
2	0xbd8701a9	-0.065921135
3	0x3d161fe8	0.036651522
4	0x3e280cd0	0.16411138
5	0xbcc5cc20	-0.024145186
6	0xbd633a1d	-0.055475343
7	0x3ddc0f05	0.10745052
8	0x3d2e38b0	0.04253453
9	0xbe07b98f	-0.13254379
10	0xbb6f50c0	-0.0036516637
11	0x3de393ff	0.111122124
12	0xbd54e906	-0.05198004
13	0x3dc95bec	0.09831986
14	0xbd6d6ab4	-0.05796309
15	0xbe20c8fe	-0.15701672
16	0x3db0e814	0.086380154
17	0xbddc989e	-0.10771297
18	0xbd9e56cd	-0.077314
19	0xbd33a0b6	-0.043854438
20	0xbd0f2e5a	-0.034956314
21	0xbdb695c6	-0.08915286
22	0xbce617c3	-0.028087502
23	0x3d4c0160	0.049806
24	0xbdaf87f2	-0.085708514
25	0x3b02406f	0.0019874831
26	0xbdfa8814	-0.12232986
27	0x3d81460a	0.06312187
28	0x3de8a356	0.11359279
29	0x3d9f7bfd	0.07787321
30	0xbe0354c0	-0.12825298
31	0xbde4003a	-0.11132856
32	0x3e0b53b5	0.1360615
33	0xbd99aa28	-0.07503158
34	0x3d87bd4a	0.06627901
35	0x3dce053a	0.10059591
36	0x3c389260	0.011265367
37	0xbd877d21	-0.06615663
38	0x3d6f5392	0.05842931
39	0x3d23ef90	0.040023386
40	0x3dd7045a	0.10498877
41	0xbd892172	-0.06695832
42	0xbd437a48	-0.04772404
43	0x3da470c4	0.08029321
44	0xbded9cbd	-0.11602161
45	0x3dab550a	0.08365829
46	0x3dd790e4	0.105256826
47	0x3dacaaa8	0.084309876
48	0x3c3a9590	0.011388198
49	0xbdd038f9	-0.10167117
50	0xbd5f57e6	-0.054527186
51	0xbdef6558	-0.11689252
52	0xbd4d98e8	-0.05019465
53	0x3caeb659	0.021327185
54	0xbdf82773	-0.12116899
55	0xbdb47fd9	-0.088134475
56	0x3dcab3a6	0.098975465
57	0x3e0da101	0.1383095
58	0xbdb4c97b	-0.08827492
59	0xbdc3bb4e	-0.0955721
60	0xbd06aa3e	-0.0328772
61	0x3cabfc7b	0.020994416
62	0xbc3661e2	-0.0111317355
63	0xbda41227	-0.08011275
64	0xbe03f292	-0.12885502
65	0x3e1d2111	0.15344645
66	0x3c5e9dc0	0.013587415
67	0xbd3371a0	-0.043809533
68	0xbda71f5a	-0.08160277
69	0x3def5cde	0.11687635
70	0xbdd94f71	-0.10610855
71	0x3e12b37f	0.14326285
72	0xbd993769	-0.07481272
73	0xbe14be57	-0.14525734
74	0xbb971053	-0.0046101003
75	0x3cee1260	0.029061496
76	0xbdc37247	-0.09543281
77	0xbdd53c41	-0.10411883
78	0x3d03d33e	0.032183878
79	0x3e1c75d3	0.15279321
80	0xbb9bd306	-0.0047553806
81	0x3d7194e8	0.0589799
82	0x3dbbeed8	0.09176415
83	0xbe060e7f	-0.13091467
84	0xbe0d275a	-0.13784543
85	0xbddf0480	-0.1088953
86	0xbdda9c8a	-0.10674389
87	0x3e1324b9	0.14369477
88	0xbd91fda7	-0.071284585
89	0x3da1ca78	0.07899946
90	0xbdb7704b	-0.08956965
91	0xbcc851c3	-0.02445305
92	0xbe0ce846	-0.1376048
93	0xbe10b5a0	-0.14131784
94	0xbd62722a	-0.055284657
95	0xbe05abff	-0.13053893
96	0x3e09cc1a	0.13456765
97	0xbd69362a	-0.05693642
98	0xbd625041	-0.055252317
99	0xbdffec79	-0.124962755
100	0x3e0b5077	0.13604914
101	0x3d3a7a16	0.045526586
102	0xbe14bc9f	-0.14525078
103	0x3dd71b23	0.10503223
104	0xbe04b156	-0.12958273
105	0x3e1950b3	0.1497219
106	0xbdfe9a1e	-0.12431739
107	0x3bed628e	0.0072444146
108	0xbdf77e55	-0.12084643
109	0xbe0bd0f4	-0.13653928
110	0x3d7682f4	0.06018348
111	0xbd309b2a	-0.043116726
112	0xbdc90d6b	-0.098170124
113	0x3e12eec7	0.14348899
114	0xbe00f229	-0.12592377
115	0x3dc66d22	0.09688784
116	0xbc9c593d	-0.01908552
117	0xbd774280	-0.060366154
118	0xbda07be8	-0.07836133
119	0x3cda8258	0.02667348
120	0x3d67e0b0	0.056610763
121	0x3e1b1ca3	0.15147643
122	0xbd451ffc	-0.048126206
123	0x3d81c744	0.06336835
124	0xbd8e073a	-0.06934972
125	0x3dff7d52	0.12475075
126	0x3dfa912c	0.122347206
127	0x3dcb8b0e	0.09938632

weight f4 [64, 128]
0	0x3d72143e	0.059101336
1	0x3c466b52	0.012110548
2	0x3c23c5c8	0.009995885
3	0x3bd4a990	0.00648994
4	0xbd8c3986	-0.06846909
5	0x3daf441f	0.08557915
6	0x39a3fca7	0.00031278023
7	0xbd8eb40e	-0.069679365
8	0x3d5d2d21	0.053998116
9	0xbc7bfee8	-0.015380599
10	0xbd0dd32e	-0.034625225
11	0xbd845164	-0.064608365
12	0xbd494274	-0.04913564
13	0x3da955bc	0.08268306
14	0xbda6f688	-0.08152491
15	0xbc9ed905	-0.019390592
16	0x3d98c5dd	0.074596144
17	0x3d102663	0.03519286
18	0xbcca57d1	-0.024700077
19	0xbd9bd8ef	-0.07609736
20	0xbcf1cd2a	-0.029516775
21	0x3c540c48	0.012942381
22	0xbd6af594	-0.057363108
23	0x3d996bb3	0.07491245
24	0xbbe869f0	-0.007092707
25	0xbceba4b1	-0.028765054
26	0xbd04ac13	-0.032390665
27	0x3cfdf25c	0.030999355
28	0x3daeed11	0.085413106
29	0xbd9eb825	-0.077499665
30	0xbcd6bd9e	-0.026213463
31	0xbc8d2a3c	-0.017232053
32	0xbd79c1a8	-0.0609757
33	0xbd7a3992	-0.06109006
34	0xbbf7f7d8	-0.007567387
35	0xbd88231f	-0.06647324
36	0x3bbda2f0	0.005787246
37	0x3d222459	0.039585445
38	0x39d05afb	0.00039740637
39	0xbd710caa	-0.058849968
40	0x3d255206	0.040361427
41	0xbbc007a2	-0.005860285
42	0x3bfbea50	0.0076878443
43	0x3d9637e5	0.0733488
44	0xbd6e9a46	-0.058252595
45	0xbd98504a	-0.07437189
46	0xbd97f12e	-0.07419048
47	0x3dae6c45	0.085167445
48	0x3d727dbe	0.05920195
49	0xbc7a1f58	-0.015266262
50	0x3d3b0efe	0.045668595
51	0xbd7393d8	-0.059467167
52	0xbc07d0e0	-0.008289546
53	0x3d9c5148	0.07632691
54	0xbcb2734c	-0.021783493
55	0xbd06c601	-0.032903675
56	0xbd65c658	-0.05609736
57	0x3d4b0cd0	0.049572766
58	0xbd5cba0d	-0.05388837
59	0xbda9ab9a	-0.082846835
60	0xbd48c663	-0.04901732
61	0x3da53ba0	0.08068013
62	0x3d390dde	0.04517924
63	0x3da65bdf	0.08122992
64	0xbd1f1c48	-0.03884533
65	0xbb9b3bbb	-0.004737345
66	0x3a324600	0.0006800592
67	0x3d9a780a	0.07542427
68	0xbc564f25	-0.013080393
69	0x3d23ec9a	0.040020563
70	0x3b392ffb	0.0028257358
71	0x3caa238b	0.020768901
72	0xbd4470c2	-0.047959097
73	0x3d936478	0.07196897
74	0xbd7bb75d	-0.061454166
75	0xbd9604ba	-0.0732512
76	0x3d781032	0.06056232
77	0x3cacf3dc	0.021112375
78	0xbdb6ed35	-0.089319624
79	0xbbbfa8d0	-0.0058489814
80	0xbd0d34ed	-0.034474302
81	0x3c77b228	0.015118159
82	0xbb3e1f40	-0.0029010326
83	0x3d9a801b	0.075439654
84	0x3a87941c	0.0010343823
85	0xbb8fb610	-0.004385717
86	0x3d3ed9c5	0.0465944
87	0xbbc29270	-0.005937867
88	0xbccd60d8	-0.025070593
89	0x3d6d0ab6	0.057871543
90	0xbda7e299	-0.08197517
91	0x3ccfe841	0.025379302
92	0x3d2d6c6e	0.042339735
93	0xbc09f040	-0.0084190965
94	0xbd91f4fe	-0.07126807
95	0xbcc7a482	-0.024370436
96	0x3d3a053a	0.04541514
97	0xbdb16794	-0.08662334
98	0x3d8b0246	0.06787543
99	0x3c16a764	0.0091951825
100	0x3da7c827	0.08192473
101	0xbc8c981c	-0.017162375
102	0xbda203da	-0.07910891
103	0xbdb018a1	-0.085984476
104	0x3b048a43	0.0020224012
105	0xbd753f01	-0.05987454
106	0x3d042576	0.032262288
107	0x3c8d7ef7	0.017272456
108	0x3cc110a3	0.023567503
109	0xbd44dc2f	-0.048061546
110	0x3ca3ff24	0.020019121
111	0xbdb0da08	-0.08635336
112	0xbda91a5c	-0.08256981
113	0x3d91d507	0.0712071
114	0x3d07432a	0.033023037
115	0xbd656fb1	-0.05601472
116	0xbd49e1bd	-0.049287546
117	0xbc9a44b0	-0.01883158
118	0x3da843d1	0.0821606
119	0xbd6c27f6	-0.057655297
120	0xbc5ab0b0	-0.01334779
121	0x3c3d8390	0.0115670115
122	0xbdafbd99	-0.08581085
123	0x3da4bc7b	0.08043762
124	0x3d80b75b	0.06284972
125	0xbcd6168f	-0.026133804
126	0x3be4518d	0.0069677294
127	0x3daa8bd5	0.08327452
128	0xbd687728	-0.05675426
129	0x3dbca7a6	0.09211664
130	0xbbd39560	-0.006457016
131	0x3d864507	0.06556135
132	0x3d67809e	0.056519143
133	0xbd938a27	-0.07204085
134	0x3d79c737	0.060981
135	0xbc36e695	-0.0111633735
136	0xbba0368b	-0.0048893145
137	0x3cc6d404	0.024271019
138	0x3d55195e	0.052026145
139	0xbc9885d1	-0.018618496
140	0x3daceb09	0.08443267
141	0x3d9bb5c6	0.0760303
142	0xbda94222	-0.08264567
143	0x3d96e54e	0.07367955
144	0x3c943bdb	0.018094948
145	0x3bf51dc9	0.0074803573
146	0xbd95d5c0	-0.0731616
147	0x3d7f6527	0.062352326
148	0xbd17fc27	-0.037105706
149	0xbda251d2	-0.07925762
150	0x3cfcd948	0.030865327
151	0xbd9ab4d3	-0.07554021
152	0xbd45f70a	-0.048331298
153	0x3d9c7d94	0.076411396
154	0xbbf00c80	-0.007325709
155	0x3cdacf58	0.026710197
156	0x3ccc3584	0.024927862
157	0x3d78063f	0.06055283
158	0x3d067b48	0.032832414
159	0x3d900483	0.070321105
160	0x3d0f7403	0.035022747
161	0xbdbaf2b2	-0.09128322
162	0xbd4fe5a3	-0.050756108
163	0xbd94a897	-0.072587185
164	0x3d31a786	0.043372653
165	0xbda51c9b	-0.08062097
166	0x3db360c3	0.0875869
167	0xbca91488	-0.020639673
168	0xbda9b848	-0.08287102
169	0xbd732c72	-0.05936856
170	0x3da25bb4	0.07927647
171	0x3d5f833e	0.05456852
172	0x3ca5318d	0.02016523
173	0xbd87a39c	-0.06623003
174	0x39ec9af0	0.00045128865
175	0x3d76e8fa	0.060280778
176	0x3c4fbf18	0.012679838
177	0x3d8d4999	0.06898803
178	0xbd103de4	-0.035215273
179	0xbd96ff13	-0.0737287
180	0xbba717d0	-0.005099274
181	0xbd590907	-0.052987125
182	0x3b8e712e	0.004346988
183	0xbd061a56	-0.03273996
184	0x3c83f87c	0.016109698
185	0x3d4294b4	0.047505096
186	0xbbb51c94	-0.0055270884
187	0xbd658160	-0.056031585
188	0x3d2bb266	0.04191818
189	0x3d4adefe	0.04952907
190	0x3d839381	0.064246185
191	0xbd90dca5	-0.070733346
192	0xbd873ad1	-0.06603015
193	0xbb735c3a	-0.0037133829
194	0xbd8095fa	-0.06278606
195	0x3da1af06	0.07894711
196	0x3b60b2f5	0.0034286354
197	0xbd298bb7	-0.041393008
198	0x3b2055f1	0.0024465288
199	0x3bacf4be	0.005278199
200	0xbd81f34c	-0.06345233
201	0x3cd2fda7	0.025755716
202	0xbd5a7e0d	-0.053342868
203	0xbd21c0c2	-0.03949047
204	0xbd1161bc	-0.035493597
205	0x3cb3a9e0	0.021931589
206	0x3d5aabb5	0.05338641
207	0x3c947d0c	0.018126033
208	0x3ca5f1dd	0.020256931
209	0x3da201a3	0.079104684
210	0xbd755134	-0.059891894
211	0x3d862875	0.06550685
212	0xbd93ab85	-0.07210449
213	0xbdad9e72	-0.08477487
214	0x3dba6e44	0.09103063
215	0xbc841a5c	-0.01612585
216	0x3bb170ac	0.005415043
217	0x3d756686	0.059912227
218	0xbd793488	-0.060841113
219	0xbb1e120e	-0.0024119648
220	0xbd449e5e	-0.048002593
221	0xbd771349	-0.060321126
222	0x3d682b12	0.0566817
223	0x3d2a3fe0	0.041564822
224	0x3d83ca41	0.06435061
225	0x3d8f9be7	0.07012158
226	0xbca05942	-0.019573811
227	0x3bf6dc95	0.0075336196
228	0x3d8c6571	0.06855286
229	0xbd94496c	-0.072405666
230	0x3cf56c84	0.02995897
231	0xbd3898b2	-0.045067497
232	0x3b55fabe	0.0032650675
233	0x3d72d64e	0.059286408
234	0x3db7be55	0.0897185
235	0x3ce4efd2	0.027946386
236	0xbd2abf17	-0.041686144
237	0x3d21573a	0.039389826
238	0x3d0771a2	0.033067353
239	0x3c68d4d8	0.014210902
240	0x3cceabd8	0.025228426
241	0x3d4aad59	0.049481723
242	0xbc0df110	-0.008663431
243	0xbd566b49	-0.05234841
244	0x3db3e38e	0.08783637
245	0xbca72138	-0.020401582
246	0xbd07b661	-0.033132914
247	0xbd53fa23	-0.05175222
248	0x3c2e6045	0.01064307
249	0xbd675541	-0.05647779
250	0xbd86a48e	-0.06574355
251	0xbdb2475c	-0.08705017
252	0x3d8c077b	0.06837364
253	0xbd34ce8a	-0.044142283
254	0x3d779236	0.060442172
255	0xbc9d05b0	-0.019167751

bias f4 [64]
0	0xbd875504	-0.06608012
1	0x3cc79d90	0.024367124
2	0xbd4ed833	-0.050499152
3	0xbd0c0c4d	-0.03419142
4	0x3d0b1048	0.033951074
5	0xbd84d432	-0.064857855
6	0xbd890454	-0.06690279
7	0x3d126359	0.035739277
8	0x3c928d6c	0.0178897
9	0xbd848e66	-0.06472473
10	0xbc18a6e8	-0.009317137
11	0xbd2c21a9	-0.04202429
12	0x3add497e	0.0016882864
13	0x3bbdb37e	0.0057892194
14	0xbd276955	-0.040871937
15	0x3d980e31	0.07424582
16	0xbc7ddd60	-0.015494674
17	0x3d76289e	0.06009733
18	0x3d5ee196	0.054414354
19	0x3cb4ee14	0.02208618
20	0x3d12878b	0.035773795
21	0xbd4424a0	-0.04788649
22	0x3a19ed89	0.00058718823
23	0xbd33bfdb	-0.04388414
24	0x3d314968	0.043282896
25	0x3d67f826	0.056633137
26	0xbc58f258	-0.013241373
27	0x3d9300f8	0.07177919
28	0xbceab096	-0.028648656
29	0xbd5fa7ef	-0.054603513
30	0xbc1ec7b8	-0.009691171
31	0x3da74fd3	0.08169522
32	0x3d8f18ad	0.069871284
33	0x3d07f23c	0.033189997
34	0xbcfbdab3	-0.030743932
35	0x3c86803d	0.01641857
36	0xbd1d6497	-0.038426008
37	0xbd31e5be	-0.04343199
38	0x3d8bb11d	0.06820891
39	0x3d580220	0.0527364
40	0x3d7332ab	0.059374493
41	0xbc48edd7	-0.012263737
42	0xbd7c1715	-0.06154545
43	0xbda3618a	-0.079775885
44	0x3c9dc7f8	0.019260392
45	0x3c71eb9b	0.014765645
46	0xbd97266a	-0.07380374
47	0x3d4365a5	0.047704358
48	0xbb2446fd	-0.0025066726
49	0x3d768396	0.060184084
50	0xbd218c89	-0.039440665
51	0xbd9a621f	-0.07538246
52	0x3d9f2c82	0.07772161
53	0xbd18d9da	-0.037317134
54	0xbd981cb2	-0.07427348
55	0xbd7fb23b	-0.062425833
56	0x3d3865fa	0.045019127
57	0x3d923c3f	0.07140397
58	0xbd8259bd	-0.063647725
59	0x3d9b470b	0.0758191
60	0x3ccc0a80	0.02490735
61	0x3cda2c0f	0.026632337
62	0xbbf9a830	-0.0076189265
63	0xbd0c7738	-0.034293383

weight f4 [32, 64]
0	0xbda9ac3a	-0.08284803
1	0xbd20dfac	-0.03927581
2	0x3d743458	0.05962023
3	0xbd2eb2d0	-0.042650998
4	0xbdf44d04	-0.11928752
5	0x3c24fb70	0.010069713
6	0xbc45adf0	-0.012065396
7	0xbd8a398c	-0.067492574
8	0x3cebace8	0.028768972
9	0x3c4240f0	0.011856303
10	0x3d18cbe4	0.03730382
11	0xbd0b2a74	-0.033976033
12	0x3dc0691a	0.093950465
13	0x3d8a9c06	0.0676804
14	0xbdccf362	-0.10007359
15	0xbd3d9364	-0.04628314
16	0x3ddc075e	0.10743593
17	0x3b427340	0.0029670745
18	0xbddf1dee	-0.108943805
19	0x3c95ead0	0.018300444
20	0x3d82b51c	0.063822
21	0x3d116eac	0.035505936
22	0x3adc5a80	0.0016811639
23	0xbdd4d342	-0.10391857
24	0xbd896b0c	-0.06709871
25	0x3db0384a	0.08604486
26	0x3af15500	0.0018412173
27	0xbd98edb0	-0.0746721
28	0xbdecabbe	-0.11556195
29	0x3df39f06	0.11895566
30	0x3c9bf9b8	0.019039974
31	0xbdf33ae8	-0.1187647
32	0xbd0e8ac8	-0.03480032
33	0x3c835da8	0.01603587
34	0x38fd6000	0.000120818615
35	0x3bf75e00	0.0075490475
36	0xbdb40478	-0.08789915
37	0x3d8efbb0	0.06981599
38	0x3dbd54d2	0.09244694
39	0xbc9273a8	-0.017877415
40	0xbc5bd230	-0.013416812
41	0x3dcebf1a	0.100950435
42	0x3d88fc44	0.06688741
43	0xbca4c978	-0.020115599
44	0xbd8cc136	-0.068727896
45	0xbdac2a48	-0.08406502
46	0xbd2ccc64	-0.04218711
47	0xbceaa9e8	-0.02864547
48	0xbda31cda	-0.079644874
49	0x3d9d93f4	0.076942354
50	0x3d99d61a	0.0751154
51	0xbd749258	-0.059709877
52	0x3c40fab0	0.011778519
53	0xbdcf42e2	-0.10120179
54	0xbd346284	-0.044039264
55	0xbdb4eff4	-0.0883483
56	0xbdbfc8e4	-0.09364489
57	0x3d704da4	0.058667794
58	0xbd89fe2e	-0.06737934
59	0x3da26fcc	0.0793148
60	0x3d7ca388	0.061679393
61	0xbc0d3fa0	-0.008621126
62	0xbdd94c1e	-0.10610221
63	0xbdd28f52	-0.102812424
64	0x3dec7848	0.11546379
65	0xbd778694	-0.060431078
66	0x3d323e64	0.04351653
67	0xbd733474	-0.059376195
68	0xbd8f8e60	-0.07009578
69	0x3d27284e	0.040809922
70	0xbdfb3e4b	-0.12267741
71	0x3d3fab78	0.046794385
72	0x3de17b08	0.110097945
73	0xbd885bd5	-0.066581406
74	0x3d9c1528	0.07621223
75	0xbdff1128	-0.12454444
76	0x3db9c47e	0.09070681
77	0x3dc8a973	0.09797945
78	0x3d11be20	0.035581708
79	0x3d4a7cbc	0.049435362
80	0x3df3c750	0.1190325
81	0xbd31065c	-0.043218955
82	0x3dc28e04	0.094997436
83	0xbd564d11	-0.05231959
84	0xbd9f4aca	-0.07777937
85	0xbcce9740	-0.025218606
86	0x3de654ae	0.1124662
87	0xbdc3e5a8	-0.09565288
88	0xbda94b08	-0.08266264
89	0x3d0415ac	0.03224723
90	0x3cde4330	0.027131647
91	0x3d99a43e	0.0750203
92	0xbd03676f	-0.032081064
93	0xbd965aef	-0.07341563
94	0x3cc230f0	0.023704976
95	0xbd69677c	-0.056983456
96	0xbccd05b2	-0.02502713
97	0x3db5a792	0.08869852
98	0xbd6303d2	-0.055423565
99	0x3dbd62b2	0.0924734
100	0x3dca5d02	0.09881021
101	0xbd5a4170	-0.053285062
102	0x3d77eb78	0.060527295
103	0x3a807452	0.0009800291
104	0x3c3354f0	0.010945544
105	0x3deaf616	0.114727184
106	0xbdd706d8	-0.10499352
107	0xbdc75c04	-0.097343475
108	0x3d28ce2e	0.041212253
109	0x3dc01047	0.09378105
110	0xbd72ebb4	-0.059306815
111	0xbb8661ba	-0.0041010054
112	0xbded854b	-0.11597689
113	0x3dcc278c	0.099684805
114	0x3dd4da46	0.10393195
115	0xbbd39529	-0.0064569903
116	0x3ad32f00	0.001611203
117	0xbc95fd00	-0.018309116
118	0xbc116b85	-0.008875732
119	0xbdfd1004	-0.1235657
120	0x3d1c2eb8	0.038130492
121	0x3c2cb360	0.010540813
122	0x3de5c6ba	0.11219545
123	0x3d918110	0.07104695
124	0xbdff6b64	-0.12471655
125	0xbdb72d8c	-0.08944234
126	0x3ddced0e	0.10787402
127	0x3ddb5f8e	0.10711585
128	0xbdd081de	-0.1018102
129	0x3c3e193c	0.011602696
130	0x3d35e898	0.04441127
131	0xbd7efe8c	-0.062254474
132	0x3dea66d0	0.11445391
133	0xbcc3efa6	-0.023917984
134	0xbd828e28	-0.063747704
135	0xbd219194	-0.039445475
136	0x3de5557e	0.11197947
137	0x3cd56851	0.026050719
138	0xbd9257ee	-0.071456775
139	0xbdb0768b	-0.0861636
140	0x3dcfcd3b	0.101465665
141	0x3e24b054	0.16082889
142	0x3dd902b8	0.10596222
143	0xbdcb9014	-0.0993959
144	0x3bff6ba0	0.0077948123
145	0x3d426af8	0.047465295
146	0xbde1ee2a	-0.11031754
147	0x3db53b87	0.088492446
148	0xbcf782af	-0.030213682
149	0xbd36ff7c	-0.044677243
150	0xbda4e369	-0.080511875
151	0x3d2fcee0	0.0429219
152	0x3ce71d72	0.028212283
153	0x3dfdd01c	0.12393209
154	0xbd164328	-0.03668514
155	0xbd4d76df	-0.050162192
156	0xbd8e67c2	-0.06953384
157	0x3d9c241c	0.07624075
158	0xba899700	-0.0010497272
159	0x3d16889a	0.036751367
160	0x3d8277fa	0.0637054
161	0x3ded2073	0.11578455
162	0x3dd9c45c	0.10633156
163	0x3d5ecfcf	0.0543974
164	0xbcf115a0	-0.029429257
165	0x3dc5d446	0.096596286
166	0xbd487fd4	-0.04895003
167	0xbdf78242	-0.120853916
168	0xbdf029d2	-0.117267266
169	0xbd26074c	-0.040534303
170	0xbdb12a0e	-0.086505994
171	0x3e0a583f	0.13510226
172	0xbdd5fdfa	-0.10448833
173	0x3c839210	0.016060859
174	0xbb8d0280	-0.0043032765
175	0xbda131dd	-0.07870839
176	0xbdf2a100	-0.118471146
177	0xbdae141e	-0.08499931
178	0x3db4f8eb	0.0883654
179	0x3d0c31b1	0.034227077
180	0xbe45381f	-0.1925969
181	0xbdf217d8	-0.11820954
182	0xbd76451f	-0.060124513
183	0x3bd24e0a	0.0064179944
184	0xbde8f342	-0.11374523
185	0xbd8ab2de	-0.067723975
186	0xbd68c48c	-0.056828067
187	0x3dbab919	0.09117336
188	0x3d439548	0.047749788
189	0x3cb15d53	0.021650946
190	0x3ca13ff8	0.019683823
191	0x3d1330bc	0.03593515
192	0x3d66436d	0.056216646
193	0xbde7ae85	-0.11312584
194	0xbda188fc	-0.07887456
195	0x3c9d56a0	0.019206345
196	0x3d35549c	0.044270143
197	0xbb82ef68	-0.0039958246
198	0xbdd8579d	-0.10563586
199	0xbc308dad	-0.010775966
200	0xbd7646e8	-0.060126215
201	0x3cfe25c2	0.031023864
202	0x3bb79e80	0.0056036115
203	0x3d4b1209	0.049577747
204	0xbbb7354c	-0.0055910703
205	0xbde719e7	-0.11284237
206	0xbdb78538	-0.08960956
207	0x3ba72580	0.005100906
208	0xbd16ade8	-0.036786944
209	0x3da502be	0.08057164
210	0x3da3e5a0	0.08002782
211	0xbc84be58	-0.016204044
212	0x3dad6f88	0.084685385
213	0xbdd9aba6	-0.106284425
214	0xbb67c04c	-0.003536242
215	0x3d8ed36a	0.06973918
216	0x3c9b2242	0.018937234
217	0xbdef00b6	-0.116700575
218	0xbd761dc8	-0.060086995
219	0xbcf8b9c5	-0.03036202
220	0xbd8c9164	-0.068636686
221	0xbe008d00	-0.12553787
222	0xbd5243d0	-0.051334202
223	0x3c8415ca	0.016123671
224	0xbc5f736c	-0.013638359
225	0x3ad9826a	0.0016594653
226	0x3c970c15	0.018438378
227	0x3d8b321d	0.06796668
228	0xbdd55d8c	-0.10418233
229	0x3db6d7fe	0.08927916
230	0x3d243f28	0.040099293
231	0xbdd056e6	-0.101728246
232	0x3da9be1e	0.08288215
233	0x3dabe81a	0.08393879
234	0xbd09cecc	-0.033644482
235	0x3d82b6d3	0.06382527
236	0x3d88c7cf	0.066787355
237	0xbdbd3bab	-0.092398964
238	0x3dd641f6	0.104618
239	0xbd8dd576	-0.0692548
240	0xbdf87a2d	-0.12132678
241	0x3b4e9fc0	0.0031528324
242	0x3da5536d	0.08072553
243	0x3de32631	0.11091269
244	0x3d844e61	0.06460262
245	0x3d2f6b0c	0.042826697
246	0x3d03c8f7	0.032174077
247	0x3cdbff7d	0.026855225
248	0x3d00c5a0	0.03143847
249	0x3d74d6bc	0.0597751
250	0x3d7aa598	0.06119308
251	0x3cdde971	0.027088853
252	0xbd4be5f4	-0.049779847
253	0x3a261504	0.0006335529
254	0xbdd82e32	-0.10555686
255	0xbd820852	-0.06349243

bias f4 [32]
0	0x3d832ba6	0.0640481
1	0x3c7ee56b	0.015557627
2	0x3c9b1802	0.018932346
3	0x3dc615e5	0.09672145
4	0x3ded4695	0.11585728
5	0x3db1f826	0.08689909
6	0x3d096854	0.03354676
7	0x3da7636a	0.081732586
8	0x3db4e03e	0.08831833
9	0xbdc519f6	-0.09624092
10	0x3dc4a539	0.09601826
11	0xbdff771f	-0.124738924
12	0xbcf67150	-0.030083328
13	0xbd7867c4	-0.060645834
14	0xbda30a0c	-0.07960901
15	0xbddd3637	-0.10801356
16	0xbd0ce276	-0.034395657
17	0xbdd2b9d9	-0.10289354
18	0xbd935914	-0.07194725
19	0xba8de100	-0.0010824502
20	0x3d967aaf	0.07347619
21	0x3da6e13c	0.08148429
22	0x3d6b773d	0.05748676
23	0x3d86bc0d	0.065788366
24	0x3debd462	0.11515118
25	0xbd6c032f	-0.057620224
26	0x3d272c0e	0.0408135
27	0xbd8b6b21	-0.068075426
28	0xbd716080	-0.05892992
29	0x3cd34b46	0.02579273
30	0xbde13f43	-0.10998394
31	0x3c806e6c	0.015677653

weight f4 [8, 32]
0	0xbcdc9c30	-0.026929945
1	0x3c389870	0.011266813
2	0xbdf21071	-0.11819542
3	0x3e1e741b	0.15473978
4	0x3ca0a3de	0.019609388
5	0xbc638210	-0.01388599
6	0xbe135edd	-0.14391656
7	0xbd58575e	-0.052817695
8	0xbe2f123b	-0.17096798
9	0xbdb20bfb	-0.08693691
10	0xbc1e0aa5	-0.009646093
11	0x3cfdb4be	0.030969974
12	0x3d847bf2	0.06468953
13	0xbd91df6f	-0.07122695
14	0x3dd1ba4f	0.10240614
15	0xbe0f7a23	-0.14011435
16	0x3dac4ac2	0.084126964
17	0x3e1fe014	0.15612823
18	0xbdf84ff3	-0.12124624
19	0x3d732970	0.05936569
20	0x3df7466b	0.12073978
21	0x3e319187	0.1734067
22	0xbd6169d3	-0.055032562
23	0xbd6b5c40	-0.057461023
24	0xbd9f9f9f	-0.07794117
25	0x3dc3acd2	0.09554447
26	0x3dacce30	0.08437765
27	0x3cbb1e8e	0.022841718
28	0xbd8d3385	-0.06894592
29	0xbad5085c	-0.0016253102
30	0xbe51992d	-0.20468588
31	0x3d8b4213	0.06799712
32	0xbd87cdad	-0.066310264
33	0x3d66e9c7	0.05637529
34	0x3c5834d1	0.013196186
35	0x3c91018d	0.017700935
36	0x3bcd2775	0.006260807
37	0xbe27b2f3	-0.16376857
38	0xbdb4e005	-0.08831791
39	0x3c9ee828	0.01939781
40	0x3d8122bf	0.063054554
41	0xbdc74304	-0.09729579
42	0xbda2f0c7	-0.07956081
43	0x3cdfa942	0.027302388
44	0x3d2ca38c	0.042148158
45	0xbcdc9b70	-0.026929587
46	0xbdf910b6	-0.121613905
47	0x3d12c743	0.035834562
48	0xbdf46f01	-0.11935235
49	0x3ce59477	0.028024895
50	0x3dde002a	0.10839875
51	0x3d9979fe	0.07493971
52	0x3dfc5cd4	0.12322393
53	0x3e0dcc51	0.13847472
54	0x3dc01106	0.09378247
55	0x3d05576b	0.03255407
56	0xbdf04ad4	-0.11733022
57	0xbe6d359f	-0.23164986
58	0xbde27816	-0.11058061
59	0x3b231234	0.0024882676
60	0x3e04b2d9	0.1295885
61	0xbe26bf7d	-0.16283984
62	0x3d7a8c6c	0.061169073
63	0xbc7da20a	-0.015480528
64	0xbe3006cc	-0.17190093
65	0x3c8047a9	0.01565917
66	0x3c672955	0.014108975
67	0xbe214fd4	-0.15753108
68	0xbc53d539	-0.012929254
69	0x3de7aaea	0.11311896
70	0x3cec1f04	0.028823383
71	0xbdfae3bf	-0.1225047
72	0xbe01888f	-0.12649749
73	0xbe2fe5cf	-0.17177509
74	0xbdecfb82	-0.11571409
75	0x3e04abf2	0.12956217
76	0xbd623516	-0.055226408
77	0xbcde88e8	-0.027164891
78	0x3e45fd91	0.19335009
79	0x3d3c8d11	0.04603297
80	0xbe25f06c	-0.16204995
81	0x3e012014	0.12609893
82	0xbe0cdc6c	-0.1375596
83	0xbdb45506	-0.088052794
84	0x3c0e7f35	0.008697321
85	0xbd776ade	-0.06040465
86	0xbda5136e	-0.080603465
87	0xbe1abdb1	-0.15111424
88	0x3dcd8ada	0.100362495
89	0xbe20b8ac	-0.15695447
90	0x3e3cc8e3	0.18436007
91	0x3e6740dd	0.22583337
92	0xbe32befd	-0.17455669
93	0x3c726268	0.01479397
94	0xbe3aa4d7	-0.18226944
95	0x39a59169	0.0003157959
96	0xbe324c21	-0.17411853
97	0xbe1e9ce8	-0.15489542
98	0xbe106b81	-0.1410351
99	0x3dead476	0.11466305
100	0xbe286f9f	-0.1644883
101	0x3c67ebe0	0.014155358
102	0xbd8b9b68	-0.06816751
103	0xbcd88e38	-0.026435003
104	0xbd85d5ff	-0.06534957
105	0xbdf136da	-0.1177804
106	0x3dffd3ea	0.12491591
107	0x3e209101	0.15680315
108	0xbdbc4ebd	-0.09194706
109	0xbd51551c	-0.051106557
110	0xbe210a35	-0.1572655
111	0xbe1ba45e	-0.1519942
112	0x3c27eb50	0.010248974
113	0xbe2b0c32	-0.16703871
114	0x3cd61990	0.026135236
115	0xbc87e820	-0.016590178
116	0xbd8215ca	-0.06351812
117	0x3cbbf678	0.022944674
118	0x3d254f98	0.04035911
119	0xbe28f3a1	-0.16499187
120	0x3e055c23	0.13023429
121	0xbc26c090	-0.010177746
122	0x3e05fd3d	0.13084884
123	0xbd3cd2f4	-0.046099618
124	0xbd55ef24	-0.052230015
125	0xbd88b6ef	-0.06675517
126	0xbd965756	-0.07340877
127	0x3da715c6	0.0815845
128	0xbd66b370	-0.05632347
129	0x3d9c80f6	0.07641785
130	0x3df89635	0.12138025
131	0x3e0df408	0.13862622
132	0x3d9990ae	0.074982986
133	0xbc6c4b30	-0.014422223
134	0x3e53b1a2	0.2067323
135	0x3e247bef	0.16062902
136	0x3e01e4a3	0.12684874
137	0xbd84d8c6	-0.06486659
138	0x3e236ffe	0.1596069
139	0xbe0e2c79	-0.13884152
140	0x3dd99fce	0.106261835
141	0xbcf73760	-0.030177772
142	0xbdabb933	-0.08384933
143	0xbc868b99	-0.016423987
144	0xbd1ac540	-0.03778577
145	0x3e17cfd9	0.14825381
146	0x3e0d6687	0.13808642
147	0xbe2bbaa0	-0.1677041
148	0xbe29c653	-0.16579561
149	0x3ccd9ac8	0.02509822
150	0xbd3f2806	-0.04666903
151	0x3e06b921	0.13156559
152	0x3d206528	0.03915897
153	0x3e25588b	0.16147058
154	0x3d12c2d1	0.035830323
155	0xbe20bd5e	-0.15697238
156	0xbe1dc5e1	-0.15407516
157	0xbe21e048	-0.15808213
158	0xbe16868b	-0.14699762
159	0x3d8cf4df	0.06882643
160	0xbdda36d1	-0.10654987
161	0x3cdcb60e	0.02694228
162	0x3dc3d90f	0.09562885
163	0x3cb7058f	0.022341518
164	0xbd19887d	-0.03748368
165	0x3df377ae	0.118880615
166	0x3d0ed0e6	0.03486719
167	0x3e06107f	0.1309223
168	0xbe043505	-0.1291085
169	0x3d938ba0	0.07204366
170	0xbdeee151	-0.116640694
171	0x3e199793	0.14999227
172	0x3dd5deee	0.10442911
173	0x3d292c7c	0.04130219
174	0x3e1ed7ae	0.15511963
175	0xbe12bc0b	-0.14329545
176	0xbd0615e8	-0.032735735
177	0x3daf9a21	0.0857432
178	0x3dc783ca	0.09741934
179	0x3dc06fca	0.09396322
180	0xbda38bc2	-0.07985641
181	0x3c8e4498	0.017366692
182	0x3d09a89d	0.033608068
183	0x3dd1ce15	0.10244385
184	0xbd5c4786	-0.053779148
185	0xbbde7511	-0.0067888577
186	0x3d29aa4d	0.041422177
187	0xbdc9cd96	-0.098536655
188	0x3e17f5f9	0.14839925
189	0x3e0bd79a	0.13656464
190	0xbe476f2b	-0.19476001
191	0x3d9ac883	0.07557776
192	0xbba50840	-0.005036384
193	0xbe35d5bd	-0.17757316
194	0x3daf8b07	0.08571439
195	0xbd9bc6aa	-0.076062515
196	0x3e0acd36	0.13554844
197	0xbe1d408b	-0.15356652
198	0x3e069a4b	0.13144796
199	0xbc7308f0	-0.014833674
200	0xbdaebb35	-0.08531801
201	0x3e0e9b6b	0.13926475
202	0x3c8393ee	0.01606175
203	0xbd675cea	-0.056485094
204	0x3c7ddba0	0.015494257
205	0x3d04b6dc	0.03240095
206	0xbe360fc1	-0.17779447
207	0x3de94520	0.11390138
208	0xbe06254b	-0.13100164
209	0xbd055a11	-0.032556597
210	0xbd87d780	-0.066329
211	0x3e26a5d3	0.16274194
212	0xbc1f2137	-0.009712509
213	0xbd592b1e	-0.053019635
214	0xbdaab9ce	-0.08336221
215	0xbde024b3	-0.109445
216	0xbd2665e8	-0.04062453
217	0xbd856e4e	-0.065151796
218	0x3de96667	0.11396485
219	0xbe05918a	-0.130438
220	0xbdf47b04	-0.11937526
221	0x3e32f125	0.17474802
222	0xbd271bf8	-0.040798157
223	0xbd5bc730	-0.053656757
224	0x3d8e77c8	0.0695644
225	0x3e3084da	0.17238179
226	0xbe1024d5	-0.1407655
227	0x3d73e5fc	0.059545502
228	0xbe193697	-0.1496223
229	0xbcd5f390	-0.026117116
230	0x3d04cff4	0.032424882
231	0xbd01e260	-0.03171003
232	0xbe38bf6f	-0.18041776
233	0x3d91d67a	0.07120986
234	0xbd030140	-0.031983614
235	0x3e0e0b26	0.1387144
236	0xbdd5f02c	-0.104462
237	0x3dcad196	0.099032566
238	0x3d4fec8a	0.05076269
239	0x3e13a93c	0.14420027
240	0xbdb29b12	-0.087209836
241	0x3e27f493	0.16401891
242	0xbd8a1d05	-0.06743816
243	0xbdc5bb36	-0.09654848
244	0xbe07092d	-0.13187094
245	0x3e2ad20b	0.16681688
246	0x3e14f1e4	0.14545399
247	0x3d6745fa	0.05646322
248	0x3e144d4f	0.14482616
249	0x3dd61e1b	0.10454961
250	0x3dac015d	0.083986975
251	0xbdb13587	-0.08652788
252	0xbc15da60	-0.009146303
253	0x3d290b66	0.041270636
254	0xbdcc3751	-0.09971488
255	0xbde57f0b	-0.11205872

bias f4 [8]
0	0x3de5aa87	0.11214166
1	0x3dd67e8d	0.104733564
2	0x3e31057c	0.17287248
3	0x3e20d01f	0.15704392
4	0x3e2c644b	0.16835134
5	0xbe3f4a3c	-0.18680662
6	0x3dedbe57	0.1160857
7	0x3c8f13c2	0.017465476

weight f4 [4, 8]
0	0xbe8e2e12	-0.27769524
1	0x3e8709e3	0.2637473
2	0xbd1ca5c8	-0.03824404
3	0xba981c00	-0.0011605024
4	0x3e976ce5	0.29575267
5	0xbda8aa88	-0.08235651
6	0x3ea5f27f	0.32411572
7	0x3e397892	0.181124
8	0xbe43862a	-0.19094148
9	0x3eb40b83	0.35165033
10	0x3eab4495	0.3345076
11	0x3e20e062	0.15710595
12	0x3e9d0703	0.30669412
13	0x3eafadf1	0.34312394
14	0x3dcc66ac	0.099805206
15	0xbe59b8f3	-0.21261959
16	0xbeb16e19	-0.3465431
17	0x3e252c06	0.16130075
18	0x3b512900	0.0031915307
19	0x3dc47028	0.095917046
20	0x3d60c248	0.05487278
21	0x3ea1a365	0.31569973
22	0x3e841fa9	0.25805405
23	0x3db4a6c0	0.088208675
24	0xbeb18c32	-0.34677273
25	0x3d96a960	0.073565245
26	0x3d980ec8	0.07424694
27	0x3d966fac	0.073455185
28	0x3e97bfd3	0.29638538
29	0xbdfa3594	-0.122172505
30	0xbe520666	-0.20510253
31	0xbddf29ec	-0.10896668

bias f4 [4]
0	0xbd36cd08	-0.044629127
1	0xbc8521b0	-0.016251415
2	0xbdb29618	-0.08720034
3	0xbe7d0dc4	-0.24712282
