training/ann/models/ann13.pth (torch, 68636 bytes, 10 tensors)

weight f4 [128, 40]
0.062138326 0.084303245 0.21625465 -0.47128865 0.12783296 -0.63077164 -0.33921677 -0.16873097
-0.040942624 0.2836205 -0.5853438 -0.22820656 0.087151684 0.4393461 -0.30027476 -0.5632746
0.37153554 0.0974929 -0.2719996 -0.21856086 -0.11743039 0.15486737 -0.15952355 0.2879814
-0.55862945 -0.24355811 -0.019425046 -0.37397036 0.7142403 -0.47239277 0.18683174 0.084738374
-0.8160795 -0.4230626 0.14261273 0.28782505 0.36125877 -0.11813642 -0.17893636 -0.04311635
0.024394136 0.113884844 0.5029888 -0.2970566 0.033405416 -0.55643064 -0.051537596 0.13071041
0.46609852 0.23367482 -0.5181756 -0.18141055 0.13825254 0.25903887 -0.115469724 -0.15002328
-0.062504545 0.1709197 -0.14441296 0.0766058 0.28351513 -0.31319726 -0.19259429 0.15185387
-0.13934174 -0.52655524 -0.18176997 -0.32181025 0.9918676 -0.052515775 0.2825005 -0.2618868
-0.15954359 0.111873455 -0.06789925 -0.08885902 0.0946555 -0.32347983 -0.08699269 -0.090235405
-0.01660322 0.08259918 -0.0817482 0.21841562 -0.08314962 0.1669635 0.20679681 0.028680691
0.44869584 0.051402725 0.055762514 0.14773253 -0.22084258 -0.014663654 -0.10840949 0.36536515
-0.34218386 0.15180121 0.0974879 0.21328875 0.30227703 -0.8795551 -0.27636623 -0.2514586
0.5307077 -0.029424043 -0.17775105 0.1329756 0.17344534 0.12458247 0.18930402 -0.20185412
-0.006202305 0.2616462 -0.00615055 -0.31047392 -0.0976497 -0.15876222 -0.1322433 0.17278819
0.036931574 -0.12562256 -0.1283988 0.04678309 -0.07314778 -0.1537325 -0.008466795 0.064665586
0.045058995 -0.09834992 -0.121522635 -0.11401011 -0.14824218 0.013914034 -0.09044409 -0.10686548
-0.063641556 0.14689074 0.13556634 0.02388291 -0.15598768 0.033548385 -0.11767078 -0.05584331
-0.15741174 -0.059643477 0.12522231 0.03712514 -0.046927847 0.061539337 -0.0010754168 0.0312811
-0.08896462 -0.095771745 0.10136236 0.13082232 0.119023666 -0.056214534 0.11039449 0.10541476
0.06139288 0.09842412 -0.35313886 0.33588174 0.11369012 0.03297636 0.33651173 -0.035778835
-0.20587026 -0.19838592 0.07466355 -0.1342195 -0.0019374444 -0.3428796 -0.0039818445 0.29133427
-0.2528746 -0.277272 0.16329709 -0.14310493 -0.013432095 0.017357519 0.062668115 -0.02253447
0.34828153 0.018010942 0.20844565 0.3353351 -0.6806907 0.011531385 0.057999678 -0.04311675
-0.18682049 0.19553103 0.23561123 -0.20167284 -0.28152025 -0.058745988 0.10553641 -0.18815292
-0.0254767 0.019852415 -0.0043762894 -0.4680825 0.19821052 -0.17445116 0.10763237 -0.008393339
-0.585541 0.09017946 -0.08556929 -0.08679304 0.16943201 -0.09483208 0.15070303 -0.61722237
0.5109346 -0.06469636 0.11804618 -0.19021718 -0.42429182 0.7625235 0.2396514 0.26450694
-0.4266846 0.18836628 -0.003376064 -0.17573886 -0.038261387 -0.4741645 -0.25871694 0.3718493
-0.83093095 -0.30482355 -0.015380809 0.42476428 0.390967 0.065303706 -0.17399555 0.041894604
-0.13411912 -0.14724402 -0.105885856 0.015744954 -0.07747335 0.089849696 -0.08263886 0.15538345
-0.079631746 -0.05711431 0.050782576 -0.15024616 0.07772787 0.13586788 -0.10440676 0.02453208
00000000: c284 7e3d 2ea7 ac3d dc71 5d3e bf4c f1be
00000010: a5e6 023e 407a 21bf d2ad adbe d0c7 2cbe
00000020: 74b3 27bd b536 913e 17d9 15bf fbae 69be
00000030: 957c b23d f9f1 e03e 9dbd 99be c432 10bf
00000040: e839 be3e 5caa c73d 8843 8bbe 6bce 5fbe
00000050: 587f f0bd 8d95 1e3e 245a 23be 4c72 933e
00000060: 5702 0fbf 4c67 79be 4621 9fbc 0b79 bfbe
00000070: 74d8 363f 77dd f1be d250 3f3e 508b ad3d
00000080: 96ea 50bf a99b d8be 1209 123e ce5d 933e
00000090: e9f6 b83e 82f1 f1bd 183b 37be c59a 30bd
000000a0: 36d6 c73c 753c e93d e0c3 003f cd17 98be
000000b0: 1ed4 083d 3d72 0ebf 1619 53bd f3d8 053e
000000c0: 77a4 ee3e 7448 6f3e 28a7 04bf b0c3 39be
000000d0: 1392 0d3e bea0 843e 647b ecbd b49f 19be
000000e0: 6202 80bd 9305 2f3e fee0 13be 80e3 9c3d
000000f0: e528 913e 645b a0be 7037 45be 957f 1b3e
00000100: 9aaf 0ebe 53cc 06bf e821 3abe 50c4 a4be
00000110: 09eb 7d3f c81a 57bd e8a3 903e 0716 86be
00000120: 655f 23be e91d e53d c30e 8bbd b8fb b5bd
00000130: beda c13d 269f a5be 3929 b2bd 57cd b8bd
00000140: 7a03 88bc c229 a93d 9a6b a7bd 58a8 5f3e
00000150: 594a aabd 7bf8 2a3e 8bc2 533e c5f3 ea3c
00000160: 76bb e53e aa8b 523d 3c67 643d 3247 173e
00000170: 8f24 62be d33f 70bc cb05 debd 2411 bb3e
00000180: b932 afbe c771 1b3e bca7 c73d 5e68 5a3e
00000190: 0ec4 9a3e 862a 61bf e07f 8dbe 2ebf 80be
000001a0: 76dc 073f b10a f1bc 5f04 36be c12a 083e
000001b0: a89b 313e 1825 ff3d ead8 413e d9b2 4ebe
000001c0: b53c cbbb 7ef6 853e 8e8a c9bb 70f6 9ebe
000001d0: 91fc c7bd 9092 22be ca6a 07be 63ef 303e
000001e0: 9045 173d 33a3 00be fa7a 03be a09f 3f3d
000001f0: 81ce 95bd 0d6c 1dbe 50b8 0abc 646f 843d
00000200: c88f 383d af6b c9bd dce0 f8bd 227e e9bd
00000210: cccc 17be b0f7 633c c03a b9bd 4adc dabd
00000220: 8156 82bd 876a 163e e7d1 0a3e 18a6 c33c
00000230: 3cbb 1fbe 086a 093d 61fd f0bd f4bb 64bd
00000240: 8b30 21be b84c 74bd 473a 003e 8810 183d
00000250: 6a37 40bd ac10 7c3d 00f5 8cba 9c20 003d
00000260: 1533 b6bd fa23 c4bd 1297 cf3d 49f6 053e
00000270: aec2 f33d 3641 66bd 8216 e23d b2e3 d73d
00000280: 1a77 7b3d 9692 c93d 9ece b4be b1f8 ab3e
00000290: 5ed6 e83d 3812 073d 444b ac3e d48c 12bd
000002a0: a7cf 52be ae25 4bbe 34e9 983d d670 09be
000002b0: d9f1 fdba ea8d afbe 227a 82bb c429 953e
000002c0: c878 81be 98f6 8dbe 5a37 273e 198a 12be
000002d0: 4a12 5cbc 5b31 8e3c 2458 803d 359a b8bc
000002e0: f551 b23e af8b 933c c772 553e 0bb1 ab3e
000002f0: bf41 2ebf 22ee 3c3c 1291 6d3d 309b 30bd
00000300: df4d 3fbe 4939 483e 1244 713e 5383 4ebe
00000310: 6c23 90be a29f 70bd 7923 d83d 29ab 40be
00000320: 83b4 d0bc 88a1 a23c fa66 8fbb 82a8 efbe
00000330: b3f7 4a3e 53a3 32be 5c6e dc3d 3784 09bc
00000340: 04e6 15bf 02b0 b83d f43e afbd 8dc0 b1bd
00000350: 967f 2d3e 5237 c2bd e551 1a3e 4902 1ebf
00000360: 9ccc 023f 867f 84bd 32c2 f13d 4bc8 42be
00000370: c73c d9be bd34 433f 2d67 753e 746d 873e
00000380: 6776 dabe 17e3 403e f440 5dbb e3f4 33be
00000390: f9b7 1cbd b0c5 f2be 8c76 84be 0863 be3e
000003a0: e4b7 54bf d511 9cbe caff 7bbc b47a d93e
000003b0: d42c c83e f3bd 853d e42b 32be ad99 2b3d
000003c0: 8656 09be 23c7 16be afda d8bd 90fb 803c
000003d0: 59aa 9ebd 1e03 b83d 903e a9bd d71c 1f3e
000003e0: f815 a3bd b2f0 69bd 6401 503d 21da 19be
000003f0: ca2f 9f3d f320 0b3e 36d3 d5bd 80f7 c83c

bias f4 [128]
-0.09343226 0.0058343373 0.063965365 -0.08820965 0.06576517 -0.1185489 -0.0676193 0.102145694
0.11045444 0.09768389 0.060835354 -0.14868434 -0.017491356 -0.07671671 0.08896987 -0.0044027567
-0.06394698 -0.050159752 -0.13133036 -0.02433081 0.14232852 0.13554616 -0.13346925 -0.0630577
-0.11079622 -0.07620371 -0.086609796 -0.13896462 0.13781257 -0.07836987 0.14848094 -0.017018348
-0.047763146 -0.19342142 -0.1523595 0.048856445 0.05157751 0.044372648 -0.09034029 0.0044967234
0.11341937 -0.07590428 0.09562124 -0.15842083 -0.036257155 -0.045057587 -0.12732226 0.019282678
0.024489492 -0.034418523 0.09675093 0.15596159 -0.12859613 0.13631995 -0.0179542 0.13523014
0.061219655 -0.057695083 -0.12046583 -0.013553003 0.0017724839 0.11370309 -0.038214058 -0.023392022
-0.093271606 -0.057304222 -0.09871368 0.09847955 -0.07068755 0.041387003 -0.12602913 -0.054741893
0.03634478 0.15112409 -0.14106044 -0.14988257 0.13485889 -0.011290312 0.06971592 -0.18204726
-0.08853479 -0.07768159 -0.024231493 0.09600122 0.071341574 -0.1422934 -0.030967385 -0.12511197
-0.12439266 0.02364795 -0.022330496 -0.10247026 0.15267868 0.15500371 -0.20519996 -0.099498406
0.043485537 0.08482689 0.08063178 -0.07986799 -0.049855065 -0.06554391 0.075851105 -0.14819202
-0.15294467 -0.12734403 0.06352641 -0.094364434 -0.12459276 0.056691855 0.005570531 0.10305549
-0.12798126 0.12781467 -0.15711755 -0.20119277 -0.1043171 -0.059024885 0.048177082 0.020610705
0.07107833 0.03671368 0.12708564 -0.009380231 0.061082628 0.07369371 0.15002151 -0.10971078
00000000: 6a59 bfbd f82d bf3b 4600 833d 43a7 b4bd
00000010: e4af 863d c4c9 f2bd fd7b 8abd c331 d13d
00000020: f035 e23d 7e0e c83d 7e2e 793d b540 18be
00000030: 084a 8fbc a71d 9dbd d635 b63d 0045 90bb
00000040: a2f6 82bd 5074 4dbd 777b 06be 6851 c7bc
00000050: 91be 113e 9dcc 0a3e 2aac 08be 6524 81bd
00000060: 21e9 e2bd b110 9cbd 7a60 b1bd be4c 0ebe
00000070: bd1e 0d3e 6280 a0bd 630b 183e 106a 8bbc
00000080: 4aa3 43bd 4410 46be 2104 1cbe b21d 483d
00000090: f042 533d 18c0 353d 5404 b9bd 4059 933b
000000a0: 6a48 e83d b473 9bbd 12d5 c33d 1239 22be
000000b0: 6282 14bd 4e8e 38bd c460 02be b5f6 9d3c
000000c0: 309e c83c 70fa 0cbd 5a25 c63d 65b4 1f3e
000000d0: b4ae 03be 7597 0b3e b014 93bc c579 0a3e
000000e0: 76c1 7a3d ae51 6cbd cab6 f6bd 6a0d 5ebc
000000f0: b152 e83a 2add e83d 5886 1cbd a0a0 bfbc
00000100: 2f05 bfbd d5b7 6abd 662a cabd a5af c93d
00000110: a2c4 90bd 6b85 293d c80d 01be 0939 60bd
00000120: 44de 143d 46c0 1a3e 2672 10be d17a 19be
00000130: 7318 0a3e 00fb 38bc 38c7 8e3d 996a 3abe
00000140: ba51 b5bd 8717 9fbd 2081 c6bc 4a9c c43d
00000150: 881b 923d 5cb5 11be 50af fdbc 5a1d 00be
00000160: 94c1 febd 58b9 c13c 72ee b6bc eddb d1bd
00000170: cd57 1c3e 4bb9 1e3e f01f 52be d2c5 cbbd
00000180: e41d 323d b8b9 ad3d 4622 a53d d491 a3bd
00000190: d334 4cbd e33b 86bd d357 9b3d a6bf 17be
000001a0: 879d 1cbe 7966 02be 221a 823d 2442 c1bd
000001b0: 7d2a ffbd b835 683d 0089 b63b c20e d33d
000001c0: 850d 03be d9e1 023e 6ce3 20be 7a05 4ebe
000001d0: 34a4 d5bd 14c4 71bd 5555 453d c8d7 a83c
000001e0: 8491 913d 1561 163d bd22 023e 8aaf 19bc
000001f0: c731 7a3d baec 963d 3d9f 193e 0cb0 e0bd

weight f4 [64, 128]
-0.041842263 0.041229974 0.063670866 -0.0007152036 0.083838165 -0.058887213 0.0057238787 0.06475829
-0.0632917 0.07100602 -0.03813362 0.08647639 -0.07670474 0.05574546 -0.0015805513 -0.07008074
0.028112007 -0.29895866 0.048511278 -0.024091467 -0.027351785 0.047456793 0.051080596 0.067556866
0.096913554 0.045135118 0.06465378 0.03263539 -0.053598773 0.06827136 -0.05278528 0.07445789
-0.0049371533 -0.006357359 0.03688284 0.3100559 -0.077361465 -0.06595604 -0.0402704 -0.0037857667
0.07645518 -0.08679095 -0.029569596 -0.01405724 -0.02861793 -0.031512175 0.03786059 -0.029868454
-0.019109152 -0.08887626 0.19847535 -0.07984674 0.056049325 -0.03596919 0.08786806 -0.083723985
-0.05691343 0.17432003 0.086119555 -0.08101028 0.035774045 -0.026802424 -0.035398938 0.07545108
0.014763638 -0.0031285158 -0.006139338 0.026235657 0.20206094 -0.056622025 0.067380324 -0.08784111
0.018290512 0.17923383 -0.057779472 0.036791317 -0.0558899 0.07906904 0.015350565 0.07051648
0.037984237 -0.06411104 0.00562755 0.067856126 -0.0725418 0.16923362 0.07965871 0.029344961
-0.07231794 -0.06412251 0.0046835737 0.07240267 -0.040262327 0.026852533 -0.015475151 -0.07208606
-0.07618094 0.015536614 -0.018736959 0.014869207 -0.012505553 0.07898272 0.09124492 -0.067244984
0.08324247 0.017320918 -0.0059125395 0.030495174 0.035121277 -0.058780365 0.029780753 -0.04184907
-0.015266974 -0.09409635 -0.18283035 0.030404827 -0.03135577 -0.063947864 0.012137436 0.07961962
-0.007139224 0.046831675 0.057079248 -0.027178023 -0.042067997 0.08529005 0.040447123 0.033258457
-0.006380807 -0.0069458676 -0.013389194 -0.012936078 0.004810584 0.40118593 0.04741188 -0.01428505
-0.2231707 0.023814678 0.03731781 -0.057194155 -0.07469969 0.08654157 -0.08533506 -0.07894479
0.08449206 -0.11591845 -0.011719731 -0.04744498 -0.01662533 0.0022411346 -0.10891727 0.1508152
-0.17406794 -0.06914292 0.11586727 -0.060374696 0.07025946 0.071874015 -0.020234868 -0.07553804
0.058235634 -0.0021313601 -0.05065191 0.042521868 0.088191696 0.121588126 0.088081576 0.03590648
-0.044244032 -0.04086724 -0.07823901 0.029129231 -0.07851896 -0.07312184 0.104332305 0.068362735
-0.007927023 0.2660702 0.08359345 0.060046308 0.057855375 0.027697641 -0.03913009 0.013777226
0.01140806 -0.0047944468 -0.05821816 -0.08731947 -0.022596696 0.021209568 -0.05415147 0.050531916
-0.05681059 0.034607854 0.024718039 -0.00748185 0.06908212 0.001717397 0.10706219 -0.04990461
0.017574951 0.0006701953 -0.047862478 0.018947229 0.033936128 0.021646276 -0.06364249 -0.053278808
0.07910601 0.041595437 0.010084599 0.06902771 -0.03883025 0.04782305 -0.027132738 -0.06013741
-0.060346182 0.076852344 -0.0014976625 -0.14454879 0.08462796 -0.055257816 -0.09533078 -0.047163524
-0.07309383 -0.052715633 -0.042461663 -0.1362821 0.3626672 -0.09979842 -0.14010698 0.039090466
0.030480789 0.14134954 0.034754373 0.08613408 -0.074130476 0.015093237 0.063324146 0.023029394
-0.09264421 0.027127514 -0.005937157 0.09664514 0.044506587 0.06523401 0.16480012 0.012681395
0.06432013 -0.08334418 0.0147176385 0.035007093 0.07443501 0.0033382922 -0.062086113 0.05002097
00000000: cb62 2bbd c3e0 283d df65 823d 807c 3bba
00000010: 58b3 ab3d b833 71bd 608f bb3b ff9f 843d
00000020: 149f 81bd 9b6b 913d 0032 1cbd 891a b13d
00000030: 6017 9dbd 5a55 643d 802a cfba 7e86 8fbd
00000040: 274b e63c 1c11 99be c3b3 463d 785b c5bc
00000050: da10 e0bc 0e62 423d e339 513d 415b 8a3d
00000060: 9d7a c63d 9adf 383d 3369 843d b0ac 053d
00000070: 638a 5bbd dbd1 8b3d 6135 58bd 617d 983d
00000080: d8c7 a1bb 6451 d0bb 7612 173d a6bf 9e3e
00000090: b06f 9ebd f613 87bd 93f2 24bd a01a 78bb
000000a0: 8994 9c3d 74bf b1bd f03b f2bc 5750 66bc
000000b0: 2670 eabc e912 01bd b513 1b3d b0ae f4bc
000000c0: cc8a 9cbc c204 b6bd 1f3d 4b3e b086 a3bd
000000d0: fa93 653d 6e54 13bd 2bf4 b33d 7b77 abbd
000000e0: 0f1e 69bd f380 323e 735f b03d b8e8 a5bd
000000f0: ce87 123d c290 dbbc 7afe 10bd 1986 9a3d
00000100: 30e3 713c c907 4dbb 802c c9bb 29ec d63c
00000110: 10e9 4e3e 7fec 67bd b2fe 893d 0ae6 b3bd
00000120: fcd5 953c 1389 373e 2baa 6cbd 7eb2 163d
00000130: cfec 64bd f3ee a13d f080 7b3c f26a 903d
00000140: 5c95 1b3d a64c 83bd 5067 b83b 27f8 8a3d
00000150: cc90 94bd 944b 2d3e 1b24 a33d d864 f03c
00000160: 6e1b 94bd aa52 83bd aa78 993b da47 943d
00000170: 1cea 24bd d8f9 db3c 7d8b 7dbc dba1 93bd
00000180: c104 9cbd 488d 7e3c 407e 99bc f99d 733c
00000190: 17e4 4cbc b1c1 a13d 9ede ba3d bdb7 89bd
000001a0: 077b aa3d 99e4 8d3c fabd c1bb 04d1 f93c
000001b0: 54db 0f3d aec3 70bd c4f6 f33c ee69 2bbd
000001c0: 5522 7abc 96b5 c0bd e137 3bbe 8b13 f93c
000001d0: e86e 00bd 19f7 82bd 19dc 463c 9d0f a33d
000001e0: 27f0 e9bb 92d2 3f3d eecb 693d 72a4 debc
000001f0: 7e4f 2cbd 8dac ae3d e2ab 253d 053a 083d
00000200: 1716 d1bb 299a e3bb 5a5e 5bbc d8f1 53bc
00000210: 1aa2 9d3b 3e68 cd3e f632 423d d80b 6abc
00000220: dc86 64be 0017 c33c 8fda 183d 6b44 6abd
00000230: 27fc 98bd b53c b13d 26c4 aebd cead a1bd
00000240: 2c0a ad3d a766 edbd 1d04 40bc ab55 42bd
00000250: d831 88bc 00e0 123b 0510 dfbd 4d6f 1a3e
00000260: de3e 32be ce9a 8dbd d24b ed3d 754b 77bd
00000270: 31e4 8f3d af32 933d 98c3 a5bc b0b3 9abd
00000280: 7d88 6e3d 4aae 0bbb 6178 4fbd 692b 2e3d
00000290: d99d b43d 3203 f93d 1d64 b43d ac12 133d
000002a0: 3b39 35bd 6864 27bd c63b a0bd 6da0 ee3c
000002b0: 8cce a0bd e7c0 95bd 2dac d53d c301 8c3d
000002c0: 58e0 01bc 5a3a 883e 0b33 ab3d 1ef3 753d
000002d0: c2f9 6c3d 2ae6 e23c e046 20bd e0b9 613c
000002e0: dfe8 3a3c bc1a 9dbb 2a76 6ebd 8dd4 b2bd
000002f0: b51c b9bc b0bf ad3c efcd 5dbd 8efa 4e3d
00000300: 39b2 68bd f7c0 0d3d 7c7d ca3c 4f2a f5bb
00000310: ed7a 8d3d 481a e13a 6c43 db3d c768 4cbd
00000320: 58f9 8f3c 0cb0 2f3a 720b 44bd 3837 9b3c
00000330: 9c00 0b3d 8853 b13c fe56 82bd e13a 5abd
00000340: 5502 a23d fa5f 2a3d e039 253c 665e 8d3d
00000350: 780c 1fbd 1ae2 433d 7a45 debc a552 76bd
00000360: 8f2d 77bd c364 9d3d 374d c4ba 9904 14be
00000370: 6d51 ad3d 0556 62bd c93c c3bd 8a2e 41bd
00000380: 38b2 95bd 59ec 57bd 48ec 2dbd 898d 0bbe
00000390: 84af b93e 1d63 ccbd 3478 0fbe 531d 203d
000003a0: d9b2 f93c efbd 103e 9a5a 0e3d 1167 b03d
000003b0: b8d1 97bd a049 773c 17b0 813d 24a8 bc3c
000003c0: 3fbc bdbd 853a de3c 7c8c c2bb e3ed c53d
000003d0: 8a4c 363d 6999 853d 5dc1 283e a0c5 4f3c
000003e0: 46ba 833d 5ab0 aabd 4022 713c 9963 0f3d
000003f0: 6271 983d 40c7 5a3b 024e 7ebd cae2 4c3d

bias f4 [64]
-0.043391988 -0.09430876 0.015967906 -0.028454803 -0.04181765 -0.0349862 0.06130776 -0.047608197
0.052627686 -0.011551509 0.04766794 -0.020147098 0.06952906 -0.052899715 -0.03208782 -0.017564215
-0.075069256 -0.10427625 -0.064352095 -0.044065993 0.059935056 -0.06626271 0.0042814235 0.07673693
-0.05628369 -0.05701857 -0.0057393303 0.003272666 0.0025484026 -0.045042466 0.05768375 0.05771165
0.00823027 -0.08280689 0.096159935 -0.084325284 -0.04396869 0.060926635 -0.09128354 0.08136862
0.020002507 -0.031747453 -0.039102357 -0.04346514 0.032550983 0.009291911 0.033133145 -0.003714919
0.0017958556 0.056309696 0.03022844 0.06765636 0.0121707115 0.02708501 0.08666486 0.083572306
-0.072325625 0.03002888 0.0887485 -0.078350894 5.733967e-05 -0.07416467 -0.056639295 -0.08688036
00000000: ccbb 31bd f324 c1bd 20cf 823c 0c1a e9bc
00000010: fc48 2bbd b14d 0fbd d91d 7b3d d000 43bd
00000020: 2190 573d 8a42 3dbc 753f 433d 870b a5bc
00000030: 4065 8e3d 5fad 58bd 856e 03bd d4e2 8fbc
00000040: e9bd 99bd c98e d5bd 08cb 83bd 8b7e 34bd
00000050: 767e 753d beb4 87bd 2f4b 8c3b 4028 9d3d
00000060: ba89 66bd 4e8c 69bd fe10 bcbb 397a 563b
00000070: 1a03 273b 737e 38bd cc45 6c3d 0d63 6c3d
00000080: 41d8 063c a996 a9bd 80ef c43d bcb2 acbd
00000090: 8318 34bd 358e 793d ddf2 babd 97a4 a63d
000000a0: 4cdc a33c 9e09 02bd cb29 20bd 8108 32bd
000000b0: 2e54 053d 193d 183c 9fb6 073d 0076 73bb
000000c0: ea62 eb3a ffa4 663d a2a1 f73c 6b8f 8a3d
000000d0: aa67 473c 62e1 dd3c 597d b13d f527 ab3d
000000e0: 751f 94bd 20ff f53c c6c1 b53d 6f76 a0bd
000000f0: 0080 7038 a6e3 97bd 9bfe 67bd 55ee b1bd

weight f4 [32, 64]
-0.019032637 0.12614292 0.071041614 0.08732897 -0.0760009 -0.01276881 0.021275982 -0.103661224
-0.11003876 0.12919511 0.024487503 0.016641106 0.09062401 -0.08430314 -0.06531847 -0.100247055
0.048989944 0.011019309 -0.007024139 0.04819779 -0.121151805 0.07186681 0.13772702 0.0774503
-0.08552185 0.13309765 0.004891297 -0.0075309095 -0.08225682 0.15623818 0.025893265 -0.04800193
0.03663808 0.06643224 0.016308457 0.033794973 0.02026245 0.022397378 0.015603052 0.06813118
0.071655944 0.024730066 -0.03971947 0.027924191 0.049978044 0.086408965 0.08842459 0.10027355
0.05636564 0.056045644 0.1813273 -0.10007511 -0.029467542 -0.021573288 -0.11299689 -0.06747696
0.11504075 0.038051963 0.13833076 0.13297029 -0.030223057 -0.033058334 0.041648984 0.017667606
0.042622834 0.112942666 -0.102004334 -0.03534192 0.040232673 -0.12082881 -0.09421861 -0.02705197
0.05615753 -0.009611521 -0.08812452 -0.0724485 0.05415195 0.099687904 -0.17377245 0.12264572
-0.09675008 -0.109112926 -0.024294019 0.08882876 0.05949998 0.10467168 -0.03030209 -0.091271676
0.12021448 0.029758774 0.0033988098 -0.05667453 -0.112254135 0.03064756 0.038999464 -0.078091316
0.04426566 0.10714646 0.120332345 -0.05097932 -0.047083467 -0.088951506 0.058113527 0.035048675
0.026630953 -0.085815996 -0.11935784 0.0039150734 0.038449038 0.0627274 0.07362766 -0.032545283
0.15969004 0.016205488 0.11184614 -0.006129667 -0.02802037 -0.061591387 -0.09292233 0.073501736
0.01785627 0.09533046 0.10345899 0.075847656 0.034043178 -0.116464466 -0.11290802 -0.085115135
-0.073915064 -0.101988554 -0.010272607 0.05577378 -0.095657334 -0.08412421 0.072881415 -0.004476577
0.076928556 -0.09308514 0.027163208 -0.0053613633 0.05040355 -0.050593585 -0.05615271 0.04563929
-0.061722018 -0.06849704 0.042473003 -0.11775455 0.10987452 -0.07343999 -0.10289821 -0.01014477
-0.076915115 0.0354302 -0.079226576 -0.009501079 0.08460949 -0.069981195 0.10507331 -0.018764183
-0.04148692 -0.040188923 0.011533277 0.0613883 -0.04771228 0.02843894 -0.13531753 -0.03577465
0.028453216 0.043542504 0.028328344 -0.053685665 0.09154569 0.014794066 -0.12068072 0.07346408
0.0047618933 -0.0075793713 -0.016205795 -0.05490507 -0.10385929 0.058514267 0.024088755 -0.04326421
-0.019324616 0.11029926 -0.027856367 0.026142627 -0.12375751 -0.13706283 0.008789718 0.036145315
0.025392948 0.08400836 -0.024049632 -0.031358287 -0.0013263077 -0.04961036 0.050869107 -0.07142982
-0.035653643 -0.015153032 -0.0810698 -0.10109365 -0.12048433 -0.07862816 0.19396164 -0.007640496
-0.008188843 0.143903 0.052325577 0.036245808 -0.038717598 0.040055145 -0.044418037 0.08640534
0.082579315 0.09173955 0.103520654 0.07855868 0.01866062 -0.059651036 0.11000592 -0.09292306
0.07171964 0.06270843 0.09725663 0.028020449 0.037799716 -0.107821174 0.029694602 -0.197904
-0.04140699 0.025130762 -0.03246605 0.06680947 -0.08103512 0.035973005 -0.14075175 0.098593414
0.12786841 -0.073783696 0.084801875 -0.117706686 0.11760464 -0.07613023 -0.043792427 -0.016151726
0.026739582 0.062198356 0.051604465 0.04917902 0.06894091 0.06631671 0.114881516 0.047758758
00000000: 55ea 9bbc 9c2b 013e 447e 913d 88d9 b23d
00000010: 5ca6 9bbd 4534 51bc f84a ae3c 564c d4bd
00000020: 005c e1bd b94b 043e 049a c83c ee52 883c
00000030: 1599 b93d 20a7 acbd b1c5 85bd 544e cdbd
00000040: aea9 483d 558a 343c c02a e6bb 0c6b 453d
00000050: 701e f8bd e82e 933d 5008 0d3e 439e 9e3d
00000060: 1426 afbd c04a 083e 2c47 a03b d9c5 f6bb
00000070: 4376 a8bd e7fc 1f3e 1d1e d43c ac9d 44bd
00000080: d011 163d a00d 883d 5099 853c 996c 0a3d
00000090: 70fd a53c b57a b73c f2a3 7f3c 5c88 8b3d
000000a0: 5ac0 923d b596 ca3c e2b0 22bd 46c1 e43c
000000b0: c7b5 4c3d 2ff7 b03d f417 b53d 385c cd3d
000000c0: a8df 663d 1e90 653d ddad 393e 2ef4 ccbd
000000d0: ea65 f1bc 77ba b0bc ea6a e7bd 5c31 8abd
000000e0: 7c9a eb3d 60dc 1b3d 94a6 0d3e 5d29 083e
000000f0: 5896 f7bc 2d68 07bd 2098 2a3d a8bb 903c
00000100: 4895 2e3d 7c4e e73d a6e7 d0bd b0c2 10bd
00000110: 04cb 243d 1875 f7bd b0f5 c0bd 189c ddbc
00000120: 7005 663d a479 1dbc a17a b4bd e15f 94bd
00000130: 6fce 5d3d 2c29 cc3d 68f1 31be ae2d fb3d
00000140: e824 c6bd 9976 dfbd 4004 c7bc daeb b53d
00000150: 40b6 733d 1b5e d63d 173c f8bc a5ec babd
00000160: 0233 f63d acc8 f33c 91be 5e3b 8d23 68bd
00000170: 7fe5 e5bd 9710 fb3c e7bd 1f3d 57ee 9fbd
00000180: e94f 353d 9a6f db3d ce70 f63d b1cf 50bd
00000190: 98da 40bd 352c b6bd 7308 6e3d 338f 0f3d
000001a0: 2829 da3c 4cc0 afbd e271 f4bd 044a 803b
000001b0: bd7c 1d3d 3977 803d 19ca 963d 344e 05bd
000001c0: c985 233e 5fc1 843c 970f e53d 60db c8bb
000001d0: fa8a e5bc 4047 7cbd 104e bebd 1488 963d
000001e0: 5047 923c 9e3c c33d 4fe2 d33d 0456 9b3d
000001f0: dc70 0b3d ec84 eebd 523c e7bd d850 aebd
00000200: c860 97bd 60df d0bd 704e 28bc 0c73 643d
00000210: fee7 c3bd 5049 acbd da42 953d 40b0 92bb
00000220: b88c 9d3d 6ca3 bebd 6085 de3c 60ae afbb
00000230: f473 4e3d 383b 4fbd 6200 66bd 44f0 3a3d
00000240: 3ad0 7cbd 2d48 8cbd 2cf8 2d3d 4c29 f1bd
00000250: e405 e13d b567 96bd 4cbc d2bd 4036 26bc
00000260: ac85 9dbd 421f 113d 8b41 a2bd 6aaa 1bbc
00000270: be47 ad3d 4d52 8fbd ad30 d73d 58b7 99bc
00000280: 30ee 29bd 249d 24bd 12f6 3c3c 4c72 7b3d
00000290: f46d 43bd c8f8 e83c ae90 0abe 7088 12bd
000002a0: b816 e93c a059 323d d810 e83c 80e5 5bbd
000002b0: 4f7c bb3d cf62 723c 7427 f7bd 5674 963d
000002c0: a809 9c3b 605c f8bb 04c2 84bc 24e4 60bd
000002d0: 2eb4 d4bd a8ac 6f3d c855 c53c d035 31bd
000002e0: a84e 9ebc 94e4 e13d 0933 e4bc 1029 d63c
000002f0: 9474 fdbd 335a 0cbe c002 103c 1c0d 143d
00000300: df04 d03c 930c ac3d bc03 c5bc 8c71 00bd
00000310: 80d7 adba 3c34 4bbd 205c 503d cc49 92bd
00000320: 8e09 12bd 6c44 78bc ec07 a6bd 300a cfbd
00000330: 7dc0 f6bd cd07 a1bd e19d 463e 205d fabb
00000340: 7f2a 06bc 4f5b 133e 5853 563d 7c76 143d
00000350: 5896 1ebd dd10 243d b0ef 35bd 48f5 b03d
00000360: 581f a93d f2e1 bb3d a302 d43d 60e3 a03d
00000370: 28de 983c a554 74bd c94a e13d 724e bebd
00000380: bfe1 923d 476d 803d 7c2e c73d 248b e53c
00000390: e0d3 1a3d 59d1 dcbd 1842 f33c 59a7 4abe
000003a0: 609a 29bd 07df cd3c 1ffb 04bd 67d3 883d
000003b0: bef5 a5bd 6e58 133d 3a21 10be 58eb c93d
000003c0: f0ef 023e e81b 97bd 9bac ad3d 3410 f1bd
000003d0: b4da f03d 2bea 9bbd b05f 33bd a050 84bc
000003e0: f80c db3c b4c3 7e3d 345f 533d f16f 493d
000003f0: e430 8d3d 0ed1 873d 0047 eb3d b09e 433d

bias f4 [32]
0.13360702 0.005537227 -0.0009437859 -0.011160259 -0.13001291 -0.062447634 0.095945 -0.09558491
-0.10809009 -0.13245142 -0.11940122 -0.07188966 -0.079420574 -0.08096492 -0.027500272 -0.055170067
-0.067584336 -0.065825805 0.16223414 -0.011974925 -0.11338124 -0.026520694 0.017245248 0.03684649
-0.11939208 0.06866138 -0.10477197 -0.0151620265 -0.10771418 0.06570175 -0.004630642 0.21390207
00000000: 47d0 083e a071 b53b 6668 77ba 85d9 36bc
00000010: 1b22 05be 17c9 7fbd d07e c43d 05c2 c3bd
00000020: 565e ddbd 58a1 07be a088 f4bd e33a 93bd
00000030: 41a7 a2bd f0d0 a5bd 4048 e1bc 02fa 61bd
00000040: a869 8abd aecf 86bd b520 263e 7a32 44bc
00000050: 6c34 e8bd ed41 d9bc e845 8d3c 58ec 163d
00000060: d683 f4bd 569e 8c3d b092 d6bd 266a 78bc
00000070: 4199 dcbd a48e 863d a4bc 97bb 2509 5b3e

weight f4 [8, 32]
0.13905458 -0.094692886 0.019868672 0.101640895 -0.15047187 0.0327439 0.15161788 -0.05387158
0.070928104 0.15517938 -0.096783176 -0.16388464 0.134845 0.023178518 -0.13878477 0.15797558
0.0685101 -0.105265975 -0.019087086 -0.18282431 -0.047391534 -0.1161488 -0.17491855 0.16808586
-0.13283695 -0.008649906 0.14045806 -0.087989025 -0.097665355 0.099415705 0.07164687 -0.06835037
-0.06105931 0.11621841 -0.11602239 0.017105518 -0.0067431396 0.09313125 0.033953827 0.23876977
0.36759907 0.4397142 0.07537108 -0.02200128 -0.07488013 -0.10543327 0.011206672 -0.02529475
0.039301783 0.13398542 0.31426206 0.10954025 -0.122820765 -0.17933251 -0.17575464 -0.1713277
0.22618422 -0.06831756 -0.07838421 0.24807128 -0.1698411 0.14713763 0.16634019 0.3745557
0.19783434 0.21438314 -0.1174511 0.079567604 0.040704552 0.037757583 0.17554805 0.12113044
0.074678816 0.046826713 0.004126106 0.15869583 0.17693284 0.114181295 0.11445269 0.11051074
-0.045420542 -0.14447404 -0.1477524 -0.12120532 0.1600209 0.13793273 0.0753497 0.0536931
-0.26505244 -0.06277769 0.15406103 0.15022683 -0.121114634 -0.023612693 0.113313414 -0.1603148
0.11215073 -0.07277639 -0.12943636 0.2124713 -0.11096822 0.082792774 -0.17364928 0.09679514
-0.030307062 -0.019341294 0.057382625 0.21499616 -0.06002631 0.021890013 -0.12992615 0.07992739
0.009027094 0.16593038 -0.14763008 0.09300411 -0.06114827 -0.16226952 -0.01967828 -0.0785463
0.15489982 0.07436908 0.07257549 0.07374889 0.04137859 0.15422867 0.0046965876 -0.27940705
0.014295009 -0.036603756 -0.12123001 -0.088232115 -0.14323515 -0.15897487 0.18285424 -0.20248243
-0.089530595 -0.21838433 0.0018955697 -0.062129274 0.18147203 0.1625341 0.073426396 -0.0059368312
0.043190017 -0.0575659 0.23382899 0.22989692 -0.1433793 0.30852005 -0.095727585 -0.054823942
0.011085574 0.2821167 -0.016233053 -0.029746963 0.14713202 -0.065011404 0.1029946 0.1905923
-0.06307355 -0.11059063 0.006186247 0.008828185 -0.002690453 0.08465639 0.12408441 -0.18607636
0.07627387 -0.1462556 0.09482572 0.094957575 -0.15125571 0.08093761 -0.00038267672 -0.013019575
-0.0119111985 -0.11813106 0.0898905 -0.14540517 -0.12422489 0.15686746 -0.058817945 -0.037740037
-0.11502891 -0.031813692 0.15604945 0.12683024 0.098952375 0.11974566 0.029185137 -0.120553404
-0.07164263 0.15268564 -0.15626407 0.021233318 0.028245274 0.1502578 -0.0144276675 -0.06819263
-0.05552999 -0.047018662 0.0027186384 -0.17881344 -0.15165508 -0.090263225 0.12854566 -0.17014886
-0.16429834 -0.062042147 -0.04243676 -0.11112974 -0.12175185 0.10057223 0.12300451 0.031123027
0.11378962 0.028590586 -0.012491029 -0.04492035 -0.037146386 0.0719676 0.0523951 -0.108874224
-0.06705368 0.0013437722 0.08497347 -0.10714942 0.019647056 -0.16947196 0.12402386 -0.21791556
-0.097302504 0.010177807 0.059175473 -0.1492039 -0.10932898 -0.17046887 -0.15710928 0.07259348
-0.15745565 -0.0562256 0.06637192 0.08452747 0.14847012 -0.095797986 -0.07495979 0.10016252
0.12518243 0.14968422 0.13166974 0.13417377 0.16222465 0.08301638 0.057888694 -0.31645104
00000000: 5364 0e3e 58ee c1bd a0c3 a23c 1a29 d03d
00000010: 4c15 1abe 781e 063d b841 1b3e 72a8 5cbd
00000020: c142 913d 58e7 1e3e 4236 c6bd 60d1 27be
00000030: cf14 0a3e e0e0 bd3c 981d 0ebe 5ac4 213e
00000040: 064f 8c3d b095 d7bd 855c 9cbc 4c36 3bbe
00000050: a01d 42bd 6cdf edbd d91d 33be b31e 2c3e
00000060: 6906 08be 56b8 0dbc 3dd4 0f3e 9733 b4bd
00000070: c604 c8bd 769a cb3d 98bb 923d 47fb 8bbd
00000080: 5419 7abd eb03 ee3d 269d edbd df20 8c3c
00000090: 8ef5 dcbb 99bb be3d 2b13 0b3d 1080 743e
000000a0: f235 bc3e 3822 e13e 275c 9a3d 073c b4bc
000000b0: c15a 99bd 66ed d7bd 309c 373c f036 cfbc
000000c0: e8fa 203d 7933 093e f5e6 a03e a356 e03d
000000d0: 7489 fbbd f1a2 37be 06f9 33be 8770 2fbe
000000e0: d69c 673e 14ea 8bbd e787 a0bd 6606 7e3e
000000f0: d3ea 2dbe 3fab 163e 1555 2a3e c4c5 bf3e
00000100: 1695 4a3e 4187 5b3e 348a f0bd 57f4 a23d
00000110: d1b9 263d b2a7 1a3d dec2 333e 3c13 f83d
00000120: 35f1 983d 5ecd 3f3d 4934 873b 2981 223e
00000130: e22d 353e e2d7 e93d 2c66 ea3d 7453 e23d
00000140: e40a 3abd 01f1 13be 684c 17be 7f3a f8bd
00000150: 85dc 233e 3d3e 0d3e f250 9a3d 4ced 5b3d
00000160: f4b4 87be 9791 80bd 2dc2 1d3e 10d5 193e
00000170: f30a f8bd 686f c1bc dd10 e83d 9029 24be
00000180: 48af e53d ca0b 95bd f78a 04be 1492 593e
00000190: 4e43 e3bd 428f a93d 1ed1 31be 883c c63d
000001a0: 8446 f8bc a271 9ebc 0b0a 6b3d f427 5c3e
000001b0: 26de 75bd af52 b33c 5c0b 05be f9b0 a33d
000001c0: 60e6 133c a7e9 293e 572c 17be f078 be3d
000001d0: 9c76 7abd fb29 26be 5834 a1bc e2dc a0bd
000001e0: 0f9e 1e3e d14e 983d 75a2 943d a809 973d
000001f0: 997c 293d 1fee 1d3e d5e5 993b 710e 8fbe
00000200: 9d35 6a3c d2ed 15bd 7147 f8bd 0ab3 b4bd
00000210: 3cac 12be 4fca 22be 243e 3b3e 8e57 4fbe
00000220: d15b b7bd 24a0 5fbe c474 f83a 447b 7ebd
00000230: ced3 393e 576f 263e 9460 963d c089 c2bb
00000240: 04e8 303d 39ca 6bbd de70 6f3e 196a 6b3e
00000250: 06d2 12be 57f6 9d3e d30c c4bd 128f 60bd
00000260: 44a0 353c 9a71 903e 2efb 84bc e7af f3bc
00000270: c7a9 163e b324 85bd d5ee d23d a12a 433e
00000280: b52c 81bd 577d e2bd 00b6 ca3b 17a4 103c
00000290: 5052 30bb 5460 ad3d f81f fe3d cd8a 3ebe
000002a0: 7a35 9c3d 07c4 15be fd33 c23d 1e79 c23d
000002b0: c7e2 1abe 9ec2 a53d 00a2 c8b9 0e50 55bc
000002c0: 3027 43bc b2ee f1bd 8318 b83d 18e5 14be
000002d0: 9e69 febd dda1 203e 16eb 70bd 4c95 1abd
000002e0: 4794 ebbd 134f 02bd 6dcb 1f3e c9df 013e
000002f0: 8ba7 ca3d 363d f53d ab15 ef3c b4e4 f6bd
00000300: 5fb9 92bd a059 1c3e b003 20be 7ff1 ad3c
00000310: a262 e73c 2edd 193e 0662 6cbc 94a8 8bbd
00000320: 6a73 63bd a496 40bd 2f2b 323b df1a 37be
00000330: 784b 1bbe eddb b8bd 79a1 033e 813b 2ebe
00000340: d33d 28be e81f 7ebd 2bd2 2dbd fd97 e3bd
00000350: 0959 f9bd d0f8 cd3d cae9 fb3d b8f5 fe3c
00000360: 880a e93d ce36 ea3c 2ca7 4cbc 67fe 37bd
00000370: cf26 18bd c063 933d 3f9c 563d 73f9 debd
00000380: 7153 89bd 8321 b03a 9206 ae3d 2871 dbbd
00000390: ddf2 a03c 0f8a 2dbe 3900 fe3d 4225 5fbe
000003a0: 8946 c7bd d1c0 263c fb61 723d e8c8 18be
000003b0: dfe7 dfbd 648f 2ebe 41e1 20be e4ab 943d
000003c0: 0e3c 21be d14c 66bd 00ee 873d bd1c ad3d
000003d0: 8d08 183e bc31 c4bd 8584 99bd 0222 cd3d
000003e0: d32f 003e d246 193e 6fd4 063e d964 093e
000003f0: 381e 263e 7e04 aa3d b21c 6d3d df05 a2be

bias f4 [8]
0.002780762 0.22998318 0.05500993 0.13631514 0.19781262 0.024156442 0.09241743 0.005290925
00000000: 723d 363b b680 6b3e 1852 613d 3296 0b3e
00000010: 648f 4a3e bbe3 c53c 5945 bd3d 7f5f ad3b

weight f4 [4, 8]
-0.026438832 -0.058299005 -0.11890422 0.03113696 0.3005192 -0.31480446 0.24981943 0.1776003
0.27361706 0.14535871 0.09071317 -0.29700512 0.045909792 0.19654992 -0.31775844 0.06556839
-0.18907358 0.17846635 -0.18300587 -0.04448971 -0.26869547 0.32480374 0.058651 -0.24142078
0.29639313 -0.07030401 -0.18081373 -0.22350384 0.20405939 -0.19711411 -0.27003136 -0.18002744
00000000: 4096 d8bc f0ca 6ebd 0e84 f3bd f012 ff3c
00000010: a7dd 993e 0d2e a1be aad0 7f3e dadc 353e
00000020: 8917 8c3e ead8 143e d4c7 b93d 0e11 98be
00000030: e80b 3c3d 6244 493e 3cb1 a2be b848 863d
00000040: 819c 41be e2bf 363e e465 3bbe d83a 36bd
00000050: 7492 89be ad4c a63e 083c 703d 0237 77be
00000060: d7c0 973e 8cfb 8fbd 3c27 39be 31de 64be
00000070: f2f4 503e 48d8 49be 8d41 8abe 1d59 38be

bias f4 [4]
-0.12231019 -0.32642493 -0.2433857 -0.064512044
00000000: c47d fabd 2b21 a7be 1a3a 79be e41e 84bd
