training/ann/models/ann18.pth (torch, 68636 bytes, 10 tensors)

weight f4 [128, 40]
00000000: 2cc1 f2bd 3d54 83bd 4d9a 1fbe fc6e 1b3d
00000010: 11bf 1dbe 623a d03d 1477 10be 3090 f9bd
00000020: 0083 d1ba 50d7 8fbc 7e3f 09be 07c1 14be
00000030: 00cc d43a d63c 9c3d 60cb dd3b fab6 4bbd
00000040: 313e 0d3e 5b14 123e ba5e bc3d c86e 18bd
00000050: 8532 e8bd 11a3 173e 9d0d 053e bc98 403d
00000060: 8414 013d 8aa8 3cbd 939c b0bd fe9f 55bd
00000070: a8a4 003d f848 f93c 2fe3 9dbd 5778 8bbd
00000080: 11ad 8cbd a970 c2bd a316 8abd 828c 32bd
00000090: e887 a4bc 80e8 c13b 67b9 133e b237 cc3d
000000a0: bbf8 3dbd 8798 b93c 50d3 b93d 769b 76be
000000b0: e5f1 0a3d 5a0d 603b f984 413e c6fb c63c
000000c0: 0fe0 10bb d58d 93be a12a 8b3e 933f acbd
000000d0: f9f1 6cbd de01 14be 6381 e1bc 4cea 24bd
000000e0: a178 413c 91a8 81be 1b71 7b3d 199a 83be
000000f0: 6961 45bd 07e0 ac3e ace0 383e 703c aebd
00000100: 183c e8be b807 b33e dd0a 113d 9d2c f73d
00000110: ebe5 4cbe 34eb d63d 1053 3fbe abe3 863e
00000120: 3f8d 8d3e 4fda 013d bdca 733d dddb 06be
00000130: 4c20 6fbd 2a88 963d 42cb f7bd 7f5a 4fbe
00000140: cd3c 013e 79df 97bd 3ebf 0cbe d095 3fbc
00000150: 9a17 5cbd 7bc9 06be 80db 333c 46a9 f43d
00000160: bb34 0a3e 5371 173e ddc4 fdbd 079b 213e
00000170: 891b c2bd 68de dd3c 961e d3bd 0014 0bbc
00000180: 4d99 aebd 885f af3d 944d 69bd 5c02 8fbd
00000190: 6069 1d3c 5dbe 013e 1032 cc3c 70da 62bc
000001a0: c50d 053e 956c 12be 8099 7c3c 6021 bdbd
000001b0: d6c2 843d e6a8 ea3d 26af a4bd 6735 193e
000001c0: e1c8 163e 587f d9bc 020f b43d 7685 bd3d
000001d0: 3ca0 efbd 4c57 0abe 26bf 9a3d 42da e73d
000001e0: 3073 c33c db74 18be d774 1bbe 60d4 423c
000001f0: 8e60 b53d 7a65 f63d 204d e0bc 1b7f 0a3e
00000200: 90dd fe3c 31a8 0d3e 007a 8d3a 12d9 8a3d
00000210: a42c 813d 4ee6 b63d 8e98 3abd 907a 963c
00000220: 0ce4 ebbd aad6 863d 560b 20bd bda4 073e
00000230: 6827 cabd 8897 1b3d c0d5 19be 8ea2 d2bd
00000240: 3fa3 173e b663 ae3d b051 143c de11 11be
00000250: 00f4 70bd 72ae c33d 8ea3 98bd 36e8 11bd
00000260: e8b0 b0bc 282b 183d f272 10bd be56 11be
00000270: 16d7 eb3d 2625 eabd a03f 213d 4056 313d
00000280: aa8e 21bd ea8a 833d 54e7 d03d 796f 8abd
00000290: 8995 483c 75a2 91bd 7e7e f7bb e875 0cbe
000002a0: 7f3c e8bd 486c 133d f110 4ebd 8635 5abe
000002b0: b12e fe3d 8350 5dbe 0e70 243e 99c7 40be
000002c0: 5b0b b23e dbc7 6cbe cec0 b73d e787 cbbd
000002d0: 9b15 143e 8279 5c3e e1d2 da3e 7a7f 153e
000002e0: 8220 74be a8c8 ab3d f6d6 b43d 6039 73be
000002f0: 4a17 8b3e ff91 97be b724 21be e28c 743e
00000300: 8551 c6bc 0ea9 4b3d 220b 163e b3d7 b93d
00000310: 56b6 cc3d acb9 0b3d 5632 c63d e9f7 c3bd
00000320: ea65 4fbd c249 16be dc3c 5cbd b057 8a3d
00000330: e41f 1dbe 10b8 62bc a8f6 1a3d 6eb0 f33d
00000340: 08a9 283d 4085 b9bc 18eb d7bd e2dd b23d
00000350: 50b3 29bd ccfc 143d bc9c 22bd 2411 923d
00000360: e81f c03c 211e 103e 9012 58bc 6ed5 f9bd
00000370: 2a79 82bd 2d6e 08be f8c4 a9bc 06c1 ff3d
00000380: f827 963d 788e 76bd eac3 86bd acb8 e4bd
00000390: 10c8 87bc 9c9a f5bd fecc 823d d8e9 3f3d
000003a0: 9349 0b3e 809e 10bd 0cae 6bbd 7027 2d3c
000003b0: 205a 2c3c 3ca9 77bd 80f8 093b e493 643d
000003c0: 5860 973d 76f8 1f3e 02bc 0dbe 880f 29bb
000003d0: 6065 28bc 96a0 0cbe 5adc 613e 49a4 513d
000003e0: 07d5 88be 00bd 0c3e fc18 6bbd 9e81 143d
000003f0: 0831 51bc fa63 e5bd e9ec 87bc a076 4abe
-0.11853251 -0.064125516 -0.15586205 0.03794764 -0.15404917 0.10167386 -0.14107925 -0.12185705
-0.0015984476 -0.017558724 -0.13403127 -0.14526759 0.0016235113 0.07628791 0.006768629 -0.049735047
0.13793255 0.14265577 0.09197755 -0.037215024 -0.11337761 0.14808299 0.12993474 0.04702066
0.031513706 -0.04605917 -0.08623614 -0.052154534 0.03140703 0.030430302 -0.077093475 -0.068100624
-0.06868947 -0.094941445 -0.06742599 -0.04359103 -0.020084336 0.0059176087 0.14426194 0.099715605
-0.046379786 0.022655739 0.09073508 -0.24082741 0.033922095 0.0034187646 0.18898381 0.024289977
-0.0022106206 -0.28819147 0.2718096 -0.08410563 -0.05784795 -0.14453837 -0.027527517 -0.040262505
0.011808545 -0.25323918 0.061387163 -0.25703505 -0.0481886 0.3376467 0.18054456 -0.08507621
-0.45358348 0.34966826 0.03541075 0.12069056 -0.20009582 0.1049408 -0.1868403 0.26345572
0.27646825 0.031702336 0.05951952 -0.13169809 -0.05838041 0.0735019 -0.12099315 -0.20249365
0.1262085 -0.07415671 -0.13744828 -0.011693433 -0.053733446 -0.13162796 0.010977626 0.11946349
0.13496678 0.14789324 -0.12391064 0.15781794 -0.09477908 0.02708359 -0.10308568 -0.008488655
-0.085253336 0.08563143 -0.05695875 -0.06982872 0.009607643 0.12670274 0.024926215 -0.013846025
0.12993534 -0.14299233 0.015417457 -0.092348814 0.064824745 0.11457996 -0.080412194 0.14961778
0.14725067 -0.02654998 0.08791925 0.09253971 -0.11700484 -0.13509864 0.0755599 0.11320926
0.023858637 -0.14888327 -0.1518129 0.011891454 0.08856307 0.12031074 -0.027380526 0.1352505
0.031111509 0.13833691 0.0010793805 0.06779684 0.06307343 0.08930646 -0.045555644 0.01836899
-0.11518106 0.06583913 -0.03907331 0.13246436 -0.098707974 0.03798631 -0.15022945 -0.10284911
0.14808367 0.08515112 0.009052679 -0.14166972 -0.058826447 0.09554757 -0.074530706 -0.035621844
-0.02156873 0.037150532 -0.03526587 -0.14193246 0.11515634 -0.11432867 0.03936732 0.043295145
-0.039442696 0.0642298 0.10200372 -0.06759543 0.012242683 -0.07111064 -0.007552921 -0.13716853
-0.11339664 0.035991937 -0.050309125 -0.2130948 0.124112494 -0.21612744 0.1605837 -0.1882614
0.3477429 -0.23123114 0.089723215 -0.09938031 0.14461367 0.21530727 0.42739013 0.1459941
-0.23840526 0.083878815 0.08830063 -0.23752356 0.27166206 -0.29603574 -0.15736662 0.23881868
-0.024208793 0.04972177 0.14652684 0.090743445 0.09995715 0.034112617 0.096775696 -0.095687695
-0.050634302 -0.14676574 -0.053768978 0.06755006 -0.15344197 -0.013837829 0.037832886 0.11898886
0.041176826 -0.022646546 -0.105428874 0.08733727 -0.04143077 0.0363739 -0.039700255 0.071321756
0.023452714 0.14073993 -0.013188019 -0.121989116 -0.063707665 -0.13323279 -0.020723805 0.12487988
0.07331842 -0.060194463 -0.065803364 -0.11168036 -0.01657489 -0.1199238 0.063867554 0.04685387
0.13602285 -0.035307407 -0.05753903 0.010568485 0.010519534 -0.06046413 0.0021052659 0.055805102
0.07391423 0.15622124 -0.1384125 -0.002579661 -0.010278076 -0.13733134 0.22056714 0.051182065
-0.26725027 0.13743973 -0.057396874 0.036256425 -0.012768038 -0.1120071 -0.01659246 -0.19771814

bias f4 [128]
00000000: 0abf c33d 986e 003e ff41 03be 06f1 20be
00000010: 94dc 263d bcfb 833d c405 bb3d dd34 fabd
00000020: 2252 bf3d c5f2 893d 04e5 8a3d 37f4 9c3d
00000030: 2066 b8bb 9baf f3bd c0e9 f2bc 3aae 5a3d
00000040: dc0d 35bd 9dce cdbc c2a0 073e 505b ad3d
00000050: 08c4 f03d d1c2 a33d 2b36 f63d f0ad 433c
00000060: 965a 25bd 4019 b2bd abfb 193e 8804 b13c
00000070: 28d4 ad3d 0ded 3f3d e06b c0bb c4d7 7b3d
00000080: 1424 033d c133 f43d 43e5 f73d 9e88 26bb
00000090: 5a0d c23d 65db d73d fbfd 02be 3b2d 0fbe
000000a0: 93d3 ec3d aa3e 1ebe 5c9d e13d e89e 88bc
000000b0: c276 c93d 23d7 043e 2401 a43d cd9e c33c
000000c0: faa7 f6bd 7ace 99bd 837b 4dbd 3017 45bc
000000d0: 05b7 d63d caaa febd 67dc e33c d34b db3d
000000e0: 401c a33c 0083 85bd ecf7 0dbe 52ed b93d
000000f0: f8e7 21be 82e4 f13d 8ea5 d43d 26d5 5bbd
00000100: 405e 35bc 582a e6bd 8a5b e63d deff da3d
00000110: d843 ab3d 0048 8238 88f7 513d b0d9 4fbc
00000120: 12ef d7bd 1a3a be3d 6d8a 153e d857 91bd
00000130: b801 e3bd c21b ff3d 9967 09bd f693 1fbd
00000140: 1abf f13d 1f64 75bc 5065 09bd f8f3 ae3d
00000150: 5eb0 da3d f748 c93d 558d 1bbe b067 123c
00000160: 9b08 003e 4378 f4bd 6236 1fbe 7bb0 f1bd
00000170: 98ef 9c3c e64d 7fbd 92b8 e73d 2875 86bb
00000180: de30 833d f0e0 45bd 2f76 f93d 77fb 9cbd
00000190: c26b b5bd 53a2 b6bd 7c94 09bd 9ab7 0ebc
000001a0: b484 04be bf4a 1d3e df6b 133e e693 ebbd
000001b0: 2154 133e 8afd d93d 7313 dcbc de36 b63d
000001c0: 6ec6 a83d 387c 183e e408 a53d 2e7b 19be
000001d0: 43fa dcbd c8a6 fa3c f90f f7bd 4809 8e3c
000001e0: f31f 12be 61c0 023e f6dd c53d 6688 833d
000001f0: 3768 bbbd 9b3f 103e fda0 013e a2bf f53d
0.09557922 0.12542188 -0.12818144 -0.15716943 0.040737703 0.06444499 0.09131959 -0.12217114
0.093418375 0.06735758 0.067819625 0.07663768 -0.0056274086 -0.118987285 -0.029652476 0.05338881
-0.04420267 -0.025122935 0.13244918 0.08464682 0.1175614 0.07996143 0.120220505 0.011943325
-0.040369593 -0.08696222 0.1503741 0.021608606 0.08487731 0.04685693 -0.0058722347 0.061485067
0.03201683 0.11923934 0.12104275 -0.002541102 0.09475203 0.10539893 -0.12792198 -0.13982098
0.11563792 -0.15453592 0.11016342 -0.016677335 0.098371044 0.12972693 0.0800803 0.023879433
-0.12043758 -0.075100854 -0.050166618 -0.012029454 0.10484127 -0.12434919 0.027815057 0.10707822
0.019910932 -0.06519127 -0.13864106 0.090784684 -0.15811145 0.118111625 0.103831396 -0.05367007
-0.011069834 -0.11238545 0.112479284 0.10693334 0.083625495 6.212294e-05 0.051261455 -0.012686178
-0.10543646 0.09288426 0.14603586 -0.07096833 -0.11084312 0.12456466 -0.033546064 -0.038959466
0.11804028 -0.014977484 -0.033543885 0.08542627 0.106781706 0.0982837 -0.15190633 0.008935854
0.12503283 -0.119370006 -0.15548089 -0.11801239 0.019157216 -0.06233015 0.11314501 -0.0041033216
0.06405805 -0.04831022 0.12180745 -0.076651506 -0.08858444 -0.0891768 -0.03358887 -0.008710766
-0.12941247 0.15360545 0.14396618 -0.11502819 0.14387561 0.10644062 -0.026864743 0.08897184
0.082409725 0.14891136 0.080583364 -0.14988396 -0.10789921 0.030597106 -0.120635934 0.01733841
-0.1427 0.12768699 0.09661476 0.064225 -0.09150737 0.14086764 0.12659068 0.11999442

weight f4 [64, 128]
00000000: 3015 e7bb 5cbf 143d e0bd 683b 4010 b63a
00000010: 1927 7fbd 78e9 3d3c 9620 7ebd 29e7 2abd
00000020: b9a6 9d3d 4ba5 b13d 2d43 24bd d480 a8bd
00000030: bdc5 abbd bc66 c93c 1268 4e3d 104b b2bb
00000040: 407a 90ba fc3e 933c ca87 2f3d c2d1 37bd
00000050: 84f3 a33c aafb 2abd e8a4 fe3c a575 953d
00000060: e81c ad3c f179 9f3d 80f5 f33c 9bd3 863d
00000070: e5f0 82bd dcc2 c33c 33a8 38bd d216 103d
00000080: 0432 cd3c 2f0f 6bbd 0006 4d3b 0cfd 3bbd
00000090: 309c 04bc 0bf3 aabd dc7b 863c 1e1e 88bd
000000a0: 3221 a3bd 0e63 633d 49bf af3d 0cef a8bc
000000b0: fb86 a9bd d3d2 893d bc1a 80bd c07d 06bc
000000c0: a749 a13d 27e3 9a3d 73d9 7cbd 08b0 9abc
000000d0: e24c 2b3d 15ee 6abd 68f9 453c 801f 773a
000000e0: 3c3d b73c 0da0 adbd e06b 57bc 0360 8c3d
000000f0: a250 7a3d e69a 7a3d c3c1 9a3d 4153 47bd
00000100: 22d2 0a3d 6ba1 903d a428 a4bd 30d2 793c
00000110: fec3 203d 96f3 fabc ac84 96bd 34ed b2bc
00000120: 6e5b 58bd 956a a73d 8da2 933d 3bb3 5dbd
00000130: 9a08 763d dcd8 a3bc 04bb 62bd 0f57 9d3d
00000140: 66ec 81bd 5891 27bc d94b 8abd 3b1e a93d
00000150: 82a7 6d3d c2ed 463d dad0 333d 505d 07bd
00000160: b92c 6ebd 16cb 1a3d b493 083d 73ca acbd
00000170: d131 8abd 590c 9a3d 4fd4 22bd 4669 233d
00000180: 527d 773d 38b9 64bc 955f b13d 5e27 4e3d
00000190: f5eb 823d 309c 5cbc 9568 99bd c04f f8ba
000001a0: 379e 92bd c6a3 3a3d 1402 50bd 7cb9 113d
000001b0: 575a 803d 0839 a13c 80bf dcbb 307e ba3b
000001c0: 4a65 abbd 8030 5eba 794c a63d 1690 773d
000001d0: a09f 213b 4021 afbd 6a33 743d e011 55bb
000001e0: fa53 7a3d b69c 453d 85a9 94bd 2a31 733d
000001f0: e6d2 4c3d 3ac4 2d3d ab26 09bd 6ed5 0cbd
00000200: f72b 56bd ff0a 103c d2f9 573d 38a5 a13c
00000210: e7d0 303c bbff 8d3d 6f22 593d eac7 13bd
00000220: 6205 063d 83de 5d3c 9866 533c 12c3 e8bd
00000230: 6888 37bc cf6f 42bd 4940 a03d c573 71bd
00000240: b05e 00bc 9c77 dfbb 0127 e9bd 0623 493d
00000250: 5d46 833c 07b0 5ebd 0743 743d 1b54 9fbd
00000260: 087b d33c a947 3a3d eade ed3b e119 99bd
00000270: fdb3 b23d 4a41 b23d e202 1c3d 94d9 073d
00000280: ae82 48bd 5f88 d5bc be9c a93d e9bb 96bb
00000290: c0b8 733b 5542 af3c 1f34 84bc 32c3 3e3d
000002a0: b430 a53c 2f75 30bd a27c efbc a06d cebc
000002b0: c2f2 20bd fe80 7b3d 8193 b13d 4797 7cbc
000002c0: 8d31 b7bd 843b 9abd 92aa a8bc e0fc 4bbb
000002d0: c2cb 95bc 1108 873d 06e7 1b3d 7f84 e83d
000002e0: 00e9 9dbb 9174 e7bb 64f5 713c d881 35bc
000002f0: 46da 143d c2e9 43bd eec0 50bd 9bf2 a3bc
00000300: cd8a 923d 589e 6c3c 54b2 c2bc dd84 16bd
00000310: d05f 26bd a0cc 9ebc 0d48 9f3d bf36 63bd
00000320: ca09 bd37 c0af 963a b254 113d 37b5 ab3d
00000330: be4e 233d e9b9 8c3d d9b5 4ebd a3f0 8b3d
00000340: 105b 16bc 8a78 bfbc ad97 d43c 9ae3 223d
00000350: eed4 b0bd 7c83 93bd 8e66 b0bd 4cc7 9f3c
00000360: 7b1d cc3d d42d 8a3d da41 723d 84fb 0fbd
00000370: de4d 7dbd d03f acbb 6030 763b 9942 71bc
00000380: f3d4 923d 90a4 84bb 1fb2 8d3d e348 843d
00000390: b05d ec3b 2ad7 23bd a1a5 8dbd 8c13 263d
000003a0: 469e a63d 20c0 513b 5870 9e3c 7e8e 6f3d
000003b0: b13d 8e3c 3ef9 afbd 1416 a4bd 84ef 4dbd
000003c0: 9a27 083d 62ca d53d cbda a3bd d6ef 7f3d
000003d0: 4661 503d e813 9dbb 3b30 bebb f06a 12bc
000003e0: 60d5 eb3b 90c5 98bb 72d9 043d 3ce6 08bd
000003f0: 71dc b03d 159c 8cbd b6e0 7d3d d095 c23d
-0.0070520863 0.036315307 0.0035513565 0.0013890341 -0.062293146 0.011591308 -0.062042795 -0.041724358
0.076978154 0.08674105 -0.040103126 -0.08227697 -0.08387325 0.02458512 0.050392218 -0.005441077
-0.0011022761 0.01797437 0.042854108 -0.044877775 0.020013578 -0.04174391 0.031084493 0.072978295
0.021131948 0.0778693 0.02978015 0.06583329 -0.06393603 0.023896627 -0.045082282 0.035178013
0.025048263 -0.057387527 0.0031284094 -0.04589562 -0.008093879 -0.08347138 0.016416483 -0.066463694
-0.07965316 0.055514388 0.085814066 -0.020621799 -0.082776986 0.06729665 -0.06255099 -0.008208692
0.07875376 0.07562857 -0.061730813 -0.018882766 0.041821368 -0.05735596 0.012083389 0.0009426996
0.022368066 -0.08477793 -0.013148278 0.0685425 0.061112054 0.06118288 0.07556488 -0.04866338
0.033891805 0.07062038 -0.08015564 0.0152478665 0.039249413 -0.030633729 -0.07349524 -0.021841623
-0.05282157 0.08174626 0.072087385 -0.054126006 0.060066797 -0.020000868 -0.055354133 0.07682621
-0.063439175 -0.010227524 -0.06752748 0.08257719 0.058021076 0.048566587 0.04390035 -0.033047974
-0.05814812 0.037791334 0.033343986 -0.084370516 -0.06747783 0.075218864 -0.039753255 0.03989532
0.06042225 -0.013960175 0.08660809 0.050330512 0.063926615 -0.013464972 -0.074906506 -0.0018944666
-0.07159083 0.045566343 -0.05078323 0.035577282 0.06267231 0.019680515 -0.0067366958 0.0056913123
-0.08368929 -0.0008475855 0.08120055 0.060440145 0.0024661794 -0.08551264 0.059619345 -0.0032511875
0.061115243 0.048245154 -0.07258896 0.05937306 0.050005816 0.042423464 -0.033484142 -0.03438323
-0.052288022 0.008791684 0.05272848 0.019732103 0.010791994 0.06933542 0.053011354 -0.036079325
0.032719977 0.01354182 0.012902878 -0.11365332 -0.011201955 -0.04746991 0.078247614 -0.058948297
-0.007835075 -0.0068196785 -0.113843925 0.049105667 0.016024763 -0.05436709 0.059634235 -0.07779714
0.025815502 0.045478497 0.0072592394 -0.07475639 0.08725736 0.08703859 0.038088687 0.033166483
-0.04895275 -0.026066003 0.08281849 -0.0046000374 0.0037188977 0.021393934 -0.016138135 0.04657287
0.020164825 -0.043080505 -0.029234234 -0.025198758 -0.039294012 0.061402313 0.08670712 -0.015416927
-0.08944998 -0.07530883 -0.020589147 -0.0031126067 -0.018285636 0.065933354 0.038062118 0.113533966
-0.0048190355 -0.0070634563 0.014767978 -0.01107832 0.036340974 -0.04783035 -0.050965242 -0.020013144
0.071553804 0.014442049 -0.023766674 -0.036747802 -0.040618718 -0.019384682 0.077774145 -0.05547213
2.2535114e-05 0.0011496469 0.035481162 0.08384173 0.039870016 0.06871397 -0.050466392 0.06833007
-0.009176984 -0.023372907 0.02595123 0.03976784 -0.08634363 -0.07202813 -0.08613311 0.019504212
0.099665605 0.06747022 0.059144832 -0.035151973 -0.061841838 -0.0052566305 0.0037565455 -0.014725351
0.07169523 -0.0040479377 0.069187395 0.064592145 0.007213317 -0.04000012 -0.06916357 0.040545985
0.08135657 0.0032005385 0.019340679 0.0584855 0.017363401 -0.08592461 -0.080120236 -0.050277248
0.033240892 0.10438992 -0.08000716 0.062484585 0.050874017 -0.004793633 -0.0058040894 -0.008936629
0.007197067 -0.004662223 0.032433935 -0.033422694 0.08635796 -0.06865708 0.06198188 0.09501231

bias f4 [64]
00000000: 7cf3 863c a8e3 65bd b439 0d3d aab6 43bd
00000010: 9e86 4e3d 90cb b93c cd1b 133d b6a4 35bd
00000020: a6c9 2c3d 0065 23bc 3902 ec3c 90b1 15bc
00000030: d423 a0bd 415c 823c bbf3 1cbd a8e4 b03d
00000040: 6ea2 193d e9b0 b03d 5d33 8dbd ba7d afbd
00000050: b93a 883d 5777 07bd f888 47bd 7292 5c3c
00000060: f29f 09bd b3c2 4c3d da3f 6a3d be9e 87bd
00000070: 9046 7d3c ac15 a1bd 0cbc de3c 284e 7abd
00000080: 6645 0bbd 5a40 3abd c3e1 423d d3ed 75bc
00000090: 702d aa3b c99c b33d 65b3 64bd 18c6 80bd
000000a0: 8663 3a3d 482c 4abb dab6 c13d 491a 483c
000000b0: f6f8 bd3c 976b 923d 00d2 813b e76e bfbc
000000c0: 88b7 3f3c 3659 b53d a121 6cbd 88aa a83c
000000d0: 202d b93b 7d89 3bbd 0987 033d c3d2 a4bd
000000e0: d864 643d 39c5 82bd 3383 bf3d 68a0 a93c
000000f0: c7ff a33c 91a8 453d 74df 9dbc 7120 63bd
0.016473524 -0.056125313 0.034478858 -0.047781624 0.05042135 0.022680074 0.035915185 -0.044346534
0.042184494 -0.009972811 0.028809654 -0.0091365725 -0.07819334 0.01591313 -0.038318377 0.08637363
0.03750842 0.08627493 -0.068945624 -0.08568902 0.066518255 -0.033072796 -0.048714608 0.01346265
-0.0335998 0.049990367 0.0571898 -0.066220745 0.015458718 -0.07865462 0.027189277 -0.06110969
-0.03400173 -0.045471527 0.047578584 -0.015010315 0.005193405 0.08770139 -0.055835146 -0.062877834
0.04550507 -0.0030849148 0.09458704 0.012213298 0.023190003 0.071494274 0.0039618015 -0.023368312
0.011701472 0.08854906 -0.05764926 0.020589128 0.0056511313 -0.045785416 0.0321112 -0.08048012
0.055760235 -0.063852735 0.09351196 0.02070637 0.020019425 0.04825646 -0.01927159 -0.05545086

weight f4 [32, 64]
00000000: f2cc a93d 60fd 1abd a070 87bd 3076 95bd
00000010: a00f b63d 0817 2dbd 54f5 813d b8ed 083d
00000020: d817 51bd c01c 673c dc00 873d 7865 66bd
00000030: cc77 bd3d f060 b9bc 087c 19bd 6002 463c
00000040: c834 49bd 1a6f 95bd 6c74 fbbd 54b7 24bd
00000050: 1654 95bd 20ed 5fbd 5836 913d 2479 f3bd
00000060: 8e10 f6bd 2087 7d3c aee7 98bd 5058 0bbd
00000070: b27a 8dbd fe7e babd 20b4 03bd 303f 7bbc
00000080: 5097 db3c a8e3 503d 60e7 92bc 40c6 af3d
00000090: d0ba 60bd 2aa5 903d 9ac1 bfbd bc69 76bd
000000a0: 8499 a1bd 621c a1bd a4dd 213d dc09 293d
000000b0: 9896 87bd c06a 393c 0058 e3bd 60c2 7f3c
000000c0: 6c21 763d 5c4a 493d 64cb 0cbd 9ea9 dc3d
000000d0: 28b9 8ebd c010 213c 3088 3e3c d800 1cbd
000000e0: 4051 d1bd f075 77bd e0fa 843b 9c69 3b3d
000000f0: 80a9 343d f092 34bd 96ee 87bd 7861 9e3d
00000100: 1090 f1bd 22df dcbc f672 863d 6832 61bd
00000110: 4350 f7bc 2ac7 b2bd 98e0 503d c6b9 debd
00000120: 002c 973b 40cd 37bd 303c d5bd 00b3 7e3d
00000130: ccc4 f2bd 0cfd be3d 7e0a bfbd 49cc 743d
00000140: a8a2 7c3d 9660 e2bd 38f3 e83d d0ce bcbd
00000150: fe92 d43d f345 68bc 2086 c93d 7690 9c3c
00000160: b44a 68bd 9b23 8abc 4065 3bbd dc88 023d
00000170: 381d e23c 266f edbd 181b cabd 7022 d53d
00000180: 59a9 393d 9f58 a7bc 95b8 bc3c e76f 113d
00000190: 3015 24bc c669 c03d c4a8 d3bd 270a 00bd
000001a0: 9026 a2bc 744f 803d eb6a 84bc 781c eb3d
000001b0: 10b7 153d 4c04 f53d 08c4 4e3d 53f6 b53d
000001c0: cec9 f9bd 7bc3 db3d 6873 f0bd 4028 22bc
000001d0: 009f 8dbc 8863 d63c e593 2abd b04b 393d
000001e0: 3143 56bd fca1 c9bd bb53 25bd 6c05 ff3d
000001f0: 58d3 4dbd 0cc2 7c3d d09b 103d f6c3 a23d
00000200: 0cb0 d53d 36b8 da3d 5a13 d53d 7c4c e13d
00000210: 16b2 953d 0063 743b 5da9 aabd fa97 a33d
00000220: 52b8 b8bd 5af6 d1bd acae c6bc e830 b33c
00000230: 99a5 1e3e 7b08 31bd d4be 2c3e fd5d 65ba
00000240: 0087 463d c674 ee3d 3459 ac3d 761d 8c3d
00000250: 4487 133e 4be4 1fbd b61f 233e b677 1cbd
00000260: 1127 713c a1a2 e1bd 7e32 e33d 0260 f5bd
00000270: 4c31 cfbd 18a2 fdbc b460 053d 8222 da3d
00000280: 0394 09be 0784 363e 4986 f6bd 6c60 10bd
00000290: ac2f 4d3d b2d1 b0bd b41f dd3d ef65 153e
000002a0: d657 d9bd ea11 2e3e 68f0 133d 7cb8 a6bd
000002b0: b8fb 05be 09b8 6c3d dca6 28bd 140b e63d
000002c0: e52a c13d c2f8 ab3c 4478 e1bd 7aa2 bebd
000002d0: 5ccc 393d 8853 6abd 9af9 fdbd 86eb 983d
000002e0: 28cb 48be 26b8 0a3e caa2 c13d 0a15 ae3d
000002f0: 2be4 9bbd 789b 37bd 129c 973d e91b 2f3e
00000300: 5045 3c3c 7225 f3bd 1eb1 d33d 8b6b ea3c
00000310: 0195 a1bd 346b 263d 4a82 563d 0426 873d
00000320: fcef 803d b053 5b3d 6a5a e83d 9c6f d33d
00000330: 2d4b 143d 93ca a0bd d88f d03d 6bb0 9a3a
00000340: 14eb 4ebd 983a b63c 50e8 433c 4096 f6bb
00000350: aa50 a63d 1e80 253d 11ae 363c 92c7 fcbc
00000360: ebea c93d 2fd7 a0bd c8c1 3abd 783c 453d
00000370: 8497 603d 78e7 a63c 9684 d0bd 14eb 233d
00000380: c64c 54bd b97e a4bd 3237 a4bd 945c 81bd
00000390: e0b9 f6bb 98fe 903d 9d12 0e3c 3d69 ecbd
000003a0: f0b9 3f3c 35c0 a83d 1c52 d4bd f273 f93c
000003b0: 46b4 4b3d 00e9 f3bd b078 9cbc 3539 87bd
000003c0: ed46 8dbc 900d e83d 287e 10bd 6885 37bd
000003d0: 9eaa f0bd 604e e3bd d2e7 9abd d0ad 49bc
000003e0: 54dd b73d f3db 233d c9d3 a9bc a004 4bbc
000003f0: a042 0c3d d5c4 ab3d 38e4 dfbc d4a1 7b3d
0.08291043 -0.037839293 -0.066132784 -0.07297933 0.08889699 -0.042258292 0.06345621 0.03342983
-0.05104813 0.014105976 0.06591961 -0.056249112 0.09251365 -0.022629231 -0.0374718 0.012085527
-0.0491226 -0.072965816 -0.12278065 -0.040213898 -0.07291429 -0.0546695 0.070904434 -0.1188834
-0.12014876 0.015474111 -0.074660644 -0.03401977 -0.06908168 -0.09106253 -0.032154202 -0.015334889
0.02680555 0.05099836 -0.017932594 0.08582735 -0.05486566 0.070627525 -0.093630984 -0.06015943
-0.07890609 -0.07866742 0.039518014 0.04126917 -0.0662052 0.011316955 -0.11100769 0.015610307
0.060090467 0.04914318 -0.034373656 0.107745394 -0.069689095 0.009830654 0.011629149 -0.038086742
-0.10220575 -0.06041521 0.004058227 0.045755014 0.04410696 -0.044085443 -0.066373035 0.077334344
-0.11795056 -0.026961867 0.06564896 -0.05497971 -0.030189639 -0.08729394 0.05099544 -0.10875277
0.0046133995 -0.044873476 -0.104118705 0.062182426 -0.11853942 0.093256086 -0.09328173 0.059765134
0.06167856 -0.110535786 0.11374515 -0.09219134 0.10379599 -0.014176833 0.098400354 0.019111853
-0.056711867 -0.016862681 -0.045750856 0.0318688 0.027601823 -0.115934655 -0.09868449 0.10406959
0.045327518 -0.020428 0.023037234 0.03550711 -0.010014817 0.09395175 -0.10334924 -0.031259682
-0.019793779 0.062651545 -0.016164264 0.11480039 0.036551535 0.1196371 0.05047992 0.08884873
-0.12196694 0.10730644 -0.11740762 -0.009897292 -0.017287731 0.026170507 -0.04164495 0.045238197
-0.052310172 -0.09845349 -0.040363055 0.12452206 -0.05025038 0.061708495 0.035304844 0.07947533
0.10433969 0.10679667 0.10404082 0.11000916 0.07309358 0.0037290454 -0.08333085 0.079879716
-0.09019531 -0.10252066 -0.024253212 0.021873906 0.15492858 -0.04322098 0.1686967 -0.0008749662
0.04846859 0.116433665 0.08415452 0.06841557 0.14407068 -0.039036077 0.15930066 -0.038200103
0.014718787 -0.11017347 0.11093615 -0.11981203 -0.101168245 -0.030961081 0.032562926 0.10651113
-0.13435368 0.17823802 -0.120373316 -0.035248205 0.05009429 -0.08633746 0.107970625 0.14589666
-0.106124565 0.16999021 0.03611794 -0.08140656 -0.13084304 0.057792697 -0.041174755 0.11232582
0.094320096 0.02099264 -0.11009267 -0.09308334 0.045360908 -0.057208568 -0.12401123 0.074667975
-0.19608748 0.1354681 0.09454878 0.08500107 -0.07611879 -0.044826 0.07402815 0.1710049
0.011491135 -0.118723765 0.10336517 0.028615734 -0.07889748 0.04062958 0.052370347 0.06599048
0.062957734 0.053546607 0.1134537 0.10324022 0.036204506 -0.07851138 0.10183686 0.0011801844
-0.050517157 0.022244737 0.011957243 -0.0075252354 0.08120854 0.040405385 0.011149899 -0.030856881
0.0985926 -0.07853543 -0.04559496 0.04815337 0.054831997 0.020374045 -0.10181539 0.04001911
-0.05183103 -0.08031983 -0.0801834 -0.06316486 -0.0075294822 0.0707981 0.00867143 -0.1154351
0.011702046 0.082397856 -0.103672236 0.030450795 0.04973247 -0.119096756 -0.019100517 -0.06602708
-0.017245734 0.11330712 -0.035276562 -0.04480496 -0.11751293 -0.11098933 -0.075637475 -0.012309507
0.08977762 0.04000468 -0.02073087 -0.012391239 0.034243226 0.08387152 -0.027330503 0.06143363

bias f4 [32]
00000000: c4fb febd 023d e3bd ad4d 04bd 0454 c0bd
00000010: 2eb1 91bd e0de 1ebd e77f a8bd a7da bfbd
00000020: 6116 fa3d b86c c3bc 9ef1 2d3d 0b79 323d
00000030: 42e7 e2bc 5805 babc 8ccc 10bd a910 87bd
00000040: f724 bd3d 0888 49bd c133 d53d d959 9cbd
00000050: 48e4 bcbd 00c4 9eb9 ae71 963d 94fd a33d
00000060: eceb 6fbd ad64 043d 3536 b4bd 702d a33d
00000070: 86b7 45bc c4a1 f0bd c2b2 003e d031 5f3d
-0.12450364 -0.11095621 -0.03230064 -0.09391025 -0.071138725 -0.03878677 -0.082275204 -0.093678765
0.122113 -0.023855552 0.042466752 0.043572467 -0.027698163 -0.022707626 -0.03535132 -0.065949745
0.09235566 -0.049201995 0.10410262 -0.076343246 -0.09223229 -0.0003028214 0.073459014 0.080073506
-0.058574602 0.032322574 -0.08799402 0.07967651 -0.012067681 -0.11749604 0.1256819 0.054490864

weight f4 [8, 32]
00000000: f164 18be a66f 1f3e 7519 dd3d 92c9 f63d
00000010: 5992 ebbd be90 b8bd a5dd 99bd 6d5c 34ba
00000020: 857c abbd 47c2 0f3c 054a 4a3d 008e 183e
00000030: 7090 dcbd 08b5 6ebd ee4b 9e3d 78b8 a23c
00000040: 2087 8b3d 64c3 03be 3560 57bc 4ec0 973d
00000050: b0ab b5bc 4bc2 05be f2fa 43bd 39a9 26be
00000060: d201 d0bd 7648 083e e786 023e 3c1e 2f3d
00000070: 150f 7abd 9843 03bd 442c 85bd 4d20 dfbd
00000080: 0c5a acbd be32 11bd 4d72 353d bd95 663c
00000090: 9554 2a3e a91e 173e 6f7e 89be 403b 3ebe
000000a0: 89ba 9abd 2a78 51be e400 34be 20ec 7bbc
000000b0: a7fc 83be e335 00be c0ef 2c3e 1a8b 04be
000000c0: 2c3c 61bc 005e 69bb 4fd7 b9bd 49a6 833e
000000d0: 8d3a 21be cbd0 09be c16a bc3d ce8b 073e
000000e0: 7fca 86bd 965e da3c 5a05 073e a769 c6bd
000000f0: 6431 083e ef48 4cbe 5547 943e 8a7d f13d
00000100: 5011 febc fe00 78bb da6d 66be c183 82bd
00000110: 3a52 0cbd 9932 3d3e 78f9 a6bd c021 81be
00000120: c06b 2c3e 05d2 97bd 333b d3bd 50b6 ea3d
00000130: eed6 ff3c 06de 1fbe 41b7 b13d d18d 20be
00000140: 8924 3c3e 0094 1bb9 eaff 3bbd ef7b 5dbd
00000150: bdd5 edbd 68b9 723d ca0f 09be 15aa d93d
00000160: 0ad2 7abe a76f 6a3d de77 013e f15d ad3d
00000170: 022f aa3d 3fd3 303d 72b9 a13c 62b1 f6bd
00000180: fd37 2b3e 785b eabd e660 c4bd 1022 de3d
00000190: 62f9 153e d8ab 893c ac46 303d 8eca 6c3e
000001a0: 5449 8c3d 9520 2f3e 56c1 8dbd f628 2f3c
000001b0: 51cb a43d 6deb e7bd f593 443d 6740 24be
000001c0: 89e3 25be 2aca cc3d 1a62 e4bd 5811 1f3e
000001d0: 15a7 0dbe 2268 80bd 4033 87bd fe9c 2b3e
000001e0: 53be d13d 6954 183e b4c0 9bbd 1d9d 413e
000001f0: 38d1 91bd 7a66 1d3e 62af 20be 26f4 3a3d
00000200: d0e6 d23c 0528 083e 482c 20be 609e 823b
00000210: 68c6 eabc 58b9 22be c8cd dfbc 78ba e83c
00000220: 6a15 d2bd 6050 383c 00ee 7ebb a1fa 1e3e
00000230: 5057 a5bc 0212 aa3d 9543 2ebe 7513 113e
00000240: 23f8 043e 6372 14be 07ff 20be a675 f13d
00000250: 8eba 843d 90d8 5cbc deac 8f3d 16cb fcbd
00000260: ee0e 09be ac0a 29bd 84b7 173d 68ed a03c
00000270: 7ede fd3d c00b fdbd 7e9d cfbd e20c 0dbe
00000280: d080 303c 5b35 1f3e 833d d1bd 7647 b13d
00000290: 40ff 62bc 829f 6ebd d5bb d33d b499 9a3d
000002a0: 70e6 1fbe ee7e 33be e28c b33d 0020 5bbd
000002b0: 90cb 693d 8016 88bb 0c37 7cbd eeac 8bbd
000002c0: 54bd 823d 44c8 ecbd 9f89 a6bc 288f dbbd
000002d0: eee7 ddbd 804e b2ba dd5e fbbd 12f2 96bd
000002e0: 84b7 c0bd 6675 f43d 7e8f 02be 59c6 b0bc
000002f0: e0a0 99bc a08d a83d a326 25be d043 96bc
00000300: 2058 b6bc abdc d03d 3dff 093c 9261 cd3d
00000310: 01db 04be 5232 9abd 3486 9fbd 8664 0bbd
00000320: f843 a8bd a930 133e c1da 9b3d f61d 89bd
00000330: f75c 1b3e 8e20 5ebd 56bb 90bd 1a86 f43d
00000340: 0007 29be d883 cd3c 0663 25be 151a 0a3e
00000350: 8907 1d3e 368c d33d a6bd 04be c080 763d
00000360: c7ed c7bd 00f0 93bc e9dc 35be 2589 2ebe
00000370: 60cc 383d 6ad9 213e 0236 8c3d 0257 fcbd
00000380: 06da 953d c6f7 1bbe 44fe f8bd 7cdc c7bd
00000390: cbdb 3dbe f0a0 34be 768f 02bd 90ab b4bc
000003a0: cdb7 5dbd fcc2 ef3c e28c 053e 7587 8cbd
000003b0: 523d e5bd c0ba 8cbc a094 5a3c e879 a3bc
000003c0: 091a a3bd 80b5 ddbb 267b 963d a83e 20be
000003d0: 00cc efbb 5251 9c3d 2d24 0e3c 8814 853c
000003e0: 5b56 ce3d 9a2a d1bd 0a97 fdbc 2662 0ebe
000003f0: fc38 f5bd 19de 4bbe 001d 08bc 00ae c73d
-0.14882256 0.15569934 0.10795871 0.12050165 -0.11502523 -0.090119824 -0.075129785 -0.00068802276
-0.083733596 0.008774347 0.049386997 0.14897919 -0.10769737 -0.058278114 0.07729326 0.019863352
0.068128824 -0.12867504 -0.013145496 0.07409726 -0.022176594 -0.13062398 -0.047846742 -0.16275491
-0.10156597 0.13308892 0.12746774 0.042753443 -0.06104954 -0.032046884 -0.065025836 -0.10894833
-0.084156126 -0.035448782 0.04429846 0.014073786 0.16633828 0.1475779 -0.26854274 -0.1857729
-0.0755511 -0.20455995 -0.17578465 -0.015376121 -0.25778696 -0.12520556 0.16888332 -0.12943688
-0.013747256 -0.0035609007 -0.0907427 0.25712803 -0.15744992 -0.13458554 0.09200049 0.13236925
-0.06581592 0.02665643 0.13185635 -0.0968812 0.13300091 -0.19949697 0.28960672 0.11791523
-0.031014115 -0.0037842388 -0.22502843 -0.06372786 -0.034258105 0.18476333 -0.08153051 -0.25221062
0.16837978 -0.07413105 -0.10314026 0.114605546 0.031230416 -0.15612039 0.08677531 -0.15679099
0.18373312 -0.00014837086 -0.045898356 -0.05407327 -0.11613033 0.05925885 -0.1338493 0.10628144
-0.24494186 0.057235386 0.12643382 0.084651835 0.08309747 0.04317021 0.019741748 -0.12045552
0.16720577 -0.114432275 -0.095887944 0.10846341 0.14645913 0.016805574 0.043036148 0.23124143
0.06849924 0.17102273 -0.069216415 0.010690918 0.08046592 -0.11324201 0.047992665 -0.16040193
-0.16200079 0.09999497 -0.11151524 0.1553396 -0.13833268 -0.06269862 -0.06601572 0.16759107
0.102413796 0.1487595 -0.076051146 0.1890759 -0.071199834 0.15371123 -0.15691903 0.045642994
0.025744826 0.13296516 -0.15641892 0.003986165 -0.02865906 -0.15891016 -0.027319804 0.028409228
-0.10257991 0.011249632 -0.0038899183 0.15525295 -0.020183235 0.08304216 -0.17017968 0.14167579
0.12985282 -0.1449676 -0.15722285 0.11790018 0.06480895 -0.013479367 0.07015394 -0.12343423
-0.13384601 -0.041269943 0.03704025 0.019644454 0.12395953 -0.12355757 -0.10137461 -0.13774446
0.010772899 0.15547697 -0.102168106 0.08656208 -0.013854802 -0.058257587 0.103385605 0.07548848
-0.15615249 -0.17528889 0.08767106 -0.053497314 0.057078898 -0.004153073 -0.061575934 -0.06820093
0.06383768 -0.11561635 -0.020329295 -0.10720664 -0.10835253 -0.0013603717 -0.12273953 -0.0737039
-0.09410003 0.119364545 -0.1275005 -0.021578955 -0.018753469 0.08230138 -0.1612802 -0.018342882
-0.022258818 0.10198339 0.00842267 0.10028376 -0.12974168 -0.07529129 -0.07789269 -0.034031413
-0.08216089 0.14374031 0.07610083 -0.06695168 0.15172182 -0.054230265 -0.070669815 0.1193964
-0.16506577 0.025087282 -0.16151056 0.13486512 0.15334906 0.103294775 -0.1296297 0.06018138
-0.09762149 -0.018058777 -0.17760052 -0.17044504 0.045116782 0.15805593 0.06846239 -0.12321283
0.07316975 -0.15231237 -0.12157872 -0.09758851 -0.18540876 -0.17639518 -0.031875096 -0.022054464
-0.054130364 0.02926778 0.13042024 -0.06861774 -0.111933365 -0.017178893 0.013341099 -0.01995559
-0.0796395 -0.0067660213 0.073477075 -0.15648901 -0.00731802 0.07632698 0.008675617 0.016245142
0.10075065 -0.10213204 -0.03095581 -0.13904628 -0.119737595 -0.19908942 -0.008307695 0.09749985

bias f4 [8]
00000000: 5019 ccbd d7cf 49bd 559b 873d 6966 8cbd
00000010: a213 91bd a020 24be 3e85 ef3d a2ec 85bd
-0.099657655 -0.049270477 0.06621424 -0.06855471 -0.07083823 -0.1602807 0.11695336 -0.06539275

weight f4 [4, 8]
00000000: 6411 6cbe 5f4a 913e cbe4 963e a07f cfbd
00000010: dcb1 35be ea96 513e ec90 82be 7c01 89bd
00000020: 807a 713c 632f a13e 7ee9 713e 40f6 5dbe
00000030: 684e 33bd 8035 29bc 6852 bc3d c48d 8e3d
00000040: eec5 433e 5082 643d 0015 0cbd d74f 803e
00000050: 0094 89bc c09d cb3b 9cd4 963d c007 453d
00000060: 54fd b73d 3dd6 833e 407d 833d 4214 f1bd
00000070: 2082 92be 9231 323e 845a b83d 2550 9b3e
-0.23053509 0.28377053 0.2947143 -0.101317644 -0.17743629 0.20467725 -0.25501192 -0.06689736
0.014738679 0.31481466 0.23624226 -0.21675968 -0.043775946 -0.010327697 0.09195405 0.069606334
0.19118473 0.05578834 -0.034199715 0.25060913 -0.016794205 0.0062138736 0.07364771 0.048103094
0.089838654 0.25749388 0.06420374 -0.11771442 -0.28614902 0.17401722 0.090016395 0.30334583

bias f4 [4]
00000000: eddc 11be 046f d3bd a528 93be 0e91 a4be
-0.14244433 -0.10323909 -0.28741947 -0.32141918
