training/ann/models/ann15.pth (torch, 68636 bytes, 10 tensors)

weight f4 [128, 40]
-0.029639486 0.07482094 -0.26244757 -0.12065156 -0.05744036 -0.16488771 -0.020817848 0.05967714
-0.23632388 -0.1513887 -0.10579801 -0.05777641 0.038162004 0.08901738 -0.19659632 -0.09473674
0.070963696 -0.29770195 -0.03833804 -0.4719706 -0.024714755 0.50261205 0.23193687 0.05369358
-0.6259745 -0.16166686 -0.0407964 -0.3119093 0.20702215 -0.19649021 -0.33787873 0.22084703
-0.3523006 -0.34480354 0.34122372 0.007426813 -0.052146185 -0.032917358 0.1711691 -0.24588372
0.114134155 0.018813757 -0.03945833 -0.19255982 -0.13002668 -0.060179006 0.17738877 -0.19279861
0.22385852 -0.03246892 0.04689081 -0.16992839 0.1751765 0.27405283 -0.24393298 -0.11105234
0.033607945 -0.3028768 0.18328778 -0.40711206 0.14802666 0.5209903 0.08501581 0.23813285
-0.50466037 -0.18209474 -0.037858147 -0.09799292 0.23753104 -0.20062783 -0.23002058 0.05463075
-0.061538376 -0.31737703 0.055381365 0.16117074 -0.10994324 -0.07214688 0.10273017 -0.34413618
-0.022364259 -0.08108933 0.15035383 0.13641386 -0.06671313 0.030173793 0.0019553602 0.12803532
0.15712832 -0.094390914 -0.05972121 -0.12009665 0.06255922 0.01865676 -0.08501379 0.07407199
-0.10508545 0.04949741 -0.044100948 -0.025932774 -0.1387486 0.13861291 0.09438975 0.10992591
-0.06103415 0.12971608 -0.012077838 -0.101987764 0.11102255 0.14173017 0.05566472 0.06779428
-0.00335823 -0.10946764 0.09040995 -0.12557083 -0.1487081 -0.062247723 -0.1471585 -0.11982356
0.113281265 -0.057090692 0.054458916 -0.14414933 -0.08841778 -0.09352592 -0.061148055 0.097636
-0.07332689 -0.15253404 0.14569868 -0.13744627 -0.02945067 0.011816159 -0.13890018 0.058213964
0.09865229 -0.1369971 -0.13874483 -0.11426992 0.07828988 0.043594286 0.014527813 0.04978773
-0.15417203 -0.08400495 -0.12883176 -0.14913373 -0.07162735 0.08704865 -0.03839024 0.09955664
-0.022316396 -0.10811037 -0.14571512 0.08753851 0.047876835 0.017570823 -0.013011411 -0.08189148
-0.11264649 -0.13734622 -0.012364805 -0.051520146 0.10166846 -0.119843125 -0.12921241 0.10335736
-0.15539025 0.13167812 0.095901474 0.008302256 0.013613239 -0.0016891956 -0.15100819 -0.04647757
0.088534415 0.07719348 -0.009335563 0.09796782 -0.055062935 0.0890494 -0.067989565 -0.10604128
-0.07047082 0.07493919 0.004688531 0.074912295 0.15704332 0.0849864 -0.08344724 -0.066562176
-0.07751981 0.08231567 0.020975202 0.020322442 0.054486796 -0.0045016557 0.042789742 0.14260887
0.036830574 -0.12114154 -0.077870645 -0.065644056 0.1096725 -0.14549625 0.058620676 -0.090918995
0.104770645 0.1505626 -0.00909251 0.0073537678 -0.08855144 -0.12720169 -0.14419305 0.025641546
0.06977618 0.0025374591 -0.02198881 0.035250038 0.14512618 0.109159365 0.032529876 -0.14962305
-0.038126223 0.100184694 -0.05539748 -0.07586388 -0.074595824 -0.024924308 -0.0839989 -0.0076859742
0.0058650225 -0.016239896 0.047911912 0.051951766 -0.14929639 0.075379774 -0.026306555 0.11271666
0.021293106 0.046263628 -0.06493325 0.002921234 -0.17737752 0.1800675 -0.056716952 -0.004684269
0.17550857 -0.20658296 -0.0850013 -0.14947079 0.15559115 0.036681898 -0.24785736 -0.26567513
00000000: 82ce f2bc b93b 993d 875f 86be 2a18 f7bd
00000010: 9546 6bbd 53d8 28be 318a aabc 0470 743d
00000020: e3fe 71be a405 1bbe a1ac d8bd f5a6 6cbd
00000030: c34f 1c3d be4e b63d 8c50 49be 5605 c2bd
00000040: 6a55 913d 646c 98be 5908 1dbd 21a6 f1be
00000050: 9976 cabc 2fab 003f dc80 6d3e cded 5b3d
00000060: dd3f 20bf ff8b 25be 201a 27bd 93b2 9fbe
00000070: 9dfd 533e bb34 49be 71fe acbe b925 623e
00000080: bf60 b4be 178a b0be e0b4 ae3e 9f5c f33b
00000090: 3d97 55bd 5ad4 06bd f446 2f3e f1c8 7bbe
000000a0: 2bbf e93d 4f1f 9a3c 0f9f 21bd 672e 45be
000000b0: b725 05be 437e 76bd 67a5 353e 006d 45be
000000c0: 2b3b 653e 21fe 04bd 9410 403d b501 2ebe
000000d0: 7861 333e a750 8c3e 91c9 79be 696f e3bd
000000e0: 7ca8 093d ab12 9bbe cbaf 3b3e fe70 d0be
000000f0: 4d94 173e 9f5f 053f c51c ae3d 19d9 733e
00000100: 6c31 01bf 0b77 3abe 2511 1bbd 83b0 c8bd
00000110: 563b 733e 6271 4dbe 848a 6bbe 7ec4 5f3d
00000120: aa0f 7cbd 3e7f a2be 92d7 623d f109 253e
00000130: ec29 e1bd bec1 93bd 3264 d23d 9e32 b0be
00000140: 4035 b7bc 2a12 a6bd 5bf6 193e 13b0 0b3e
00000150: e5a0 88bd 082f f73c 8025 003b b11b 033e
00000160: 3fe6 203e 0650 c1bd 3a9e 74bd 3cf5 f5bd
00000170: 0c1f 803d 10d6 983c b61b aebd 0eb3 973d
00000180: 0a37 d7bd ccbd 4a3d 32a3 34bd f870 d4bc
00000190: 1d14 0ebe 8bf0 0d3e 6a4f c13d d620 e13d
000001a0: f2fe 79bd 4bd4 043e 20e2 45bc f6de d0bd
000001b0: ca5f e33d b721 113e b000 643d bad7 8a3d
000001c0: c015 5cbb 9230 e0bd da28 b93d a495 00be
000001d0: f046 18be 78f7 7ebd b8b0 16be 0e66 f5bd
000001e0: 0200 e83d eed7 69bd 5010 5f3d e29b 13be
000001f0: 6214 b5bd 848a bfbd 6276 7abd 62f5 c73d
00000200: 692c 96bd e231 1cbe 0932 153e b7be 0cbe
00000210: 8842 f1bc 9098 413c d93b 0ebe c471 6e3d
00000220: 360a ca3d f848 0cbe 2013 0ebe 5906 eabd
00000230: 7256 a03d ec8f 323d 1006 6e3c 38ee 4b3d
00000240: 46df 1dbe ca0a acbd 79ec 03be 83b6 18be
00000250: 5cb1 92bd 9046 b23d 163f 1dbd 5ae4 cb3d
00000260: e0d0 b6bc f868 ddbd 5836 15be 6447 b33d
00000270: 801a 443d b0f0 8f3c d02d 55bc b8b6 a7bd
00000280: 34b3 e6bd 7da4 0cbe c095 4abc ca06 53bd
00000290: 8e37 d03d 5070 f5bd 4250 04be 06ad d33d
000002a0: 9f1e 1fbe a1d6 063e fe67 c43d 3006 083c
000002b0: 100a 5f3c 0068 ddba e4a1 1abe 445f 3ebd
000002c0: 8851 b53d 9e17 9e3d 30f4 18bc 5aa3 c83d
000002d0: ac89 61bd 885f b63d 1d3e 8bbd 2c2c d9bd
000002e0: 0153 90bd b879 993d 40a2 993b 9e6b 993d
000002f0: f7cf 203e 5a0d ae3d 63e6 aabd c051 88bd
00000300: b5c2 9ebd 1e95 a83d 30d4 ab3c 407b a63c
00000310: 8c2d 5f3d a082 93bb 4c44 2f3d 0f08 123e
00000320: a8db 163d 0e19 f8bd a57a 9fbd 6470 86bd
00000330: fa9b e03d f8fc 14be 3c1c 703d bd33 babd
00000340: fe91 d63d 152d 1a3e c0f8 14bc e0f7 f03b
00000350: 755a b5bd 2941 02be 58a7 13be 380e d23c
00000360: d0e6 8e3d 804b 263b e021 b4bc 5862 103d
00000370: f59b 143e f28e df3d 0c3e 053d c936 19be
00000380: 3e2a 1cbd a22d cd3d 78e8 62bd 865e 9bbd
00000390: b2c5 98bd 102e ccbc 9e07 acbd a0da fbbb
000003a0: 602f c03b 8809 85bc 483f 443d 60cb 543d
000003b0: 27e1 18be b660 9a3d d880 d7bc fed7 e63d
000003c0: e16e ae3c ee7e 3d3d b9fb 84bd 2c72 3f3b
000003d0: 74a2 35be 9d63 383e 0950 68bd 7f7e 99bb
000003e0: 85b8 333e 7c8a 53be 2915 aebd df0e 19be
000003f0: 4953 1f3e c23f 163d 52ce 7dbe 9206 88be

bias f4 [128]
-0.1831895 -0.040509053 0.10939725 -0.1545558 -0.15320547 0.08250129 0.09096159 -0.10823834
0.09399919 0.09072545 0.05252283 -0.11119022 -0.0005080849 -0.13095325 0.020468438 0.06799041
-0.040737472 0.0014618635 -0.008222929 -0.18377864 -0.16187216 -0.072365485 0.053612895 0.066360846
-0.08140661 0.01713917 -0.14211783 0.037257317 0.07153372 -0.009253532 -0.124105856 -0.08436762
-0.06842321 -0.114221536 0.0004392303 -0.027272686 -0.0891228 0.0102608055 -0.09616442 -0.1174307
-0.16979717 -0.09009552 -0.08976425 0.00966692 -0.019229345 0.03485988 -0.067411296 0.0005995631
0.010303778 -0.07190921 0.08541704 -0.024929838 0.089266494 -0.030764423 -0.02105945 -0.13085401
0.12311192 -0.055162214 -0.14355882 -0.15147838 -0.034706373 -0.047730524 0.09178467 0.04141663
-0.037328094 -0.05842915 0.051176086 -0.11369915 0.13713281 -0.008897752 -0.12312098 0.09617338
-0.06528573 0.069218025 0.045144685 -0.09802322 -0.08273186 -0.14833711 0.06804481 -0.036740858
-0.07003287 -0.00020921037 0.053258985 0.043262616 -0.08051494 -0.005867794 0.09027196 -0.064656116
0.0004528612 -0.10595122 -0.17749682 0.13317953 -0.027453676 -0.1535022 0.1257445 0.004703613
-0.14107177 -0.10497403 -0.07629389 0.032062784 0.048926443 0.033861157 -0.03978057 0.07432895
-0.13792306 0.03751917 -0.012281761 -0.030430134 0.02137821 0.05810696 -0.04766807 0.053697355
0.09528752 0.10262643 0.029233694 0.048917145 0.033762142 -0.05077922 0.0043216944 0.057679612
-0.2123826 0.057743497 -0.13514154 0.039070472 0.13948871 -0.12491803 0.15430452 -0.0052300245
00000000: 0796 3bbe d2ec 25bd aa0b e03d e043 1ebe
00000010: e5e1 1cbe 70f6 a83d 124a ba3d 10ac ddbd
00000020: a682 c03d 44ce b93d 2e22 573d b3b7 e3bd
00000030: 0031 05ba 9c18 06be 6dad a73c 8e3e 8b3d
00000040: 56dc 26bd 009c bf3a 77b9 06bc 7830 3cbe
00000050: d1c1 25be 5b34 94bd 3299 5b3d 32e8 873d
00000060: 82b8 a6bd 7267 8c3c 5687 11be 219b 183d
00000070: 4580 923d 209c 17bc 362b febd eec8 acbd
00000080: 7821 8cbd fbec e9bd 7e48 e639 f86a dfbc
00000090: 0486 b6bd f01c 283c daf1 c4bd 827f f0bd
000000a0: 4fdf 2dbe 0084 b8bd 52d6 b7bd 0062 1e3c
000000b0: dc86 9dbc 3cc9 0e3d ef0e 8abd 002c 1d3a
000000c0: 2dd1 283c 2345 93bd 21ef ae3d a939 ccbc
000000d0: 5ad1 b63d ac05 fcbc de84 acbc 98fe 05be
000000e0: 1a22 fc3d c6f1 61bd 1501 13be 261d 1bbe
000000f0: 4528 0ebd 1581 43bd 9af9 bb3d 7ca4 293d
00000100: 58e5 18bd 6853 6fbd 049e 513d 1adb e8bd
00000110: 8b6c 0c3e e0c7 11bc da26 fcbd 8df6 c43d
00000120: 86b4 85bd 2ec2 8d3d a2e9 383d 66c0 c8bd
00000130: 526f a9bd afe5 17be 145b 8b3d 957d 16bd
00000140: 656d 8fbd 7b5f 5bb9 1826 5a3d 2434 313d
00000150: 04e5 a4bd a046 c0bb 81e0 b83d 6d6a 84bd
00000160: 006e ed39 f4fc d8bd bac1 35be 3760 083e
00000170: 88e6 e0bc ae2f 1dbe 2bc3 003e c420 9a3b
00000180: 1e75 10be a0fc d6bd f93f 9cbd 4454 033d
00000190: 1867 483d ffb1 0a3d f3f0 22bd c739 983d
000001a0: b43b 0dbe b4ad 193d 7039 49bc 9e48 f9bc
000001b0: 5b21 af3c 9001 6e3d 983f 43bd c2f1 5b3d
000001c0: 1a26 c33d ce2d d23d 807b ef3c 585d 483d
000001d0: 2c4a 0a3d dffd 4fbd 009d 8d3b 7541 6c3d
000001e0: d37a 59be 7284 6c3d 8b62 0abe 5c08 203d
000001f0: 21d6 0e3e 06d5 ffbd 0102 1e3e a060 abbb

weight f4 [64, 128]
0.00646688 0.068597354 0.06399224 0.08094876 -0.003817588 -0.077741444 0.025253339 -0.056314826
-0.076420724 0.093362674 0.062340386 -0.022007175 -0.080182195 -0.023659736 -0.074236654 -0.029253032
0.07211685 0.073123746 -0.05793644 0.0071256766 -0.009662805 -0.025018588 -0.009235407 -0.0019870028
-0.064914055 0.004338345 -0.06795142 -0.017610744 0.07293604 0.011281006 0.033939756 0.028100405
0.06717313 -0.0008435473 -0.020233097 0.03755238 -0.019748287 -0.07915073 0.08229821 -0.03208531
0.056024253 -0.066492334 -0.066954315 -0.023874871 0.071050406 -0.08993293 -0.04709536 0.071405955
0.08042111 0.08481521 0.018543504 -0.069833525 0.071194954 -0.014987411 -0.06690884 -0.061385863
-0.036657684 -0.079692565 0.079349525 -0.00022436057 0.06709856 -0.05020383 -0.080558345 -0.08103272
0.06600573 -0.07068392 0.013728735 -0.054725982 0.010226898 0.0815968 0.012537241 -0.03494958
0.019238308 -0.055191465 0.07579104 0.009793051 -0.07279238 -0.0114289895 0.0813764 -0.06113398
-0.031217191 -0.06858599 0.021721654 0.011891998 0.053700343 0.08757491 -0.07093168 -0.013530077
0.03809058 0.031563774 0.04207288 -0.015780821 -0.009828083 -0.01692269 -0.008426756 -0.08863805
-0.010946728 -0.075803176 0.0037835415 -0.06321143 -0.06347579 0.037048887 -0.056778185 0.06865584
-0.044419523 -0.05083306 -0.06341019 -0.0040091984 0.01640728 -0.01010669 0.02900707 -0.021125838
0.04138965 0.0015368427 0.01464963 -0.016154695 0.023929836 0.008556276 -0.021214731 -0.020415895
-0.01238374 -0.09123446 -0.06988342 0.0051048025 0.022375152 -0.073339194 -0.03376426 -0.059579603
-0.060504474 0.029894784 0.04573133 0.017403655 0.0063364506 -0.057909064 0.014615453 -0.008156404
0.02049857 -0.084880844 0.08182026 0.04256966 -0.047894035 0.0050047785 0.01712683 -0.025080495
-0.08070174 -0.051101778 0.059246376 9.330438e-05 0.10140168 -0.071886495 -0.030174764 -0.0014594644
0.06967562 0.010666441 0.06347624 0.07395508 0.0197953 0.011055961 -0.056260575 -0.00015538599
-0.020504303 0.07338367 -0.15104465 0.03877797 0.0050815693 0.048536457 0.0014098595 -0.032477446
-0.07022098 0.05276846 0.07474015 -0.021316588 0.0011984436 -0.08911759 0.026629651 0.03641487
-0.03466669 0.022808261 -0.077711545 -0.070793904 0.03261047 -0.003847374 0.06931529 -0.0014325902
-0.037489917 0.00036530924 0.047024943 -0.006511663 -0.5372411 -0.05105162 -0.07934402 0.010339931
-0.017460903 0.078305654 0.011750804 0.016482411 -0.074764736 0.04654143 0.038704507 -0.027488763
-0.059291236 0.020095006 0.046748996 -0.07447873 -0.03363583 -0.0032224432 0.08043383 0.07211153
0.026235 0.02628516 0.009025477 -0.08692025 -0.029366793 0.012798667 0.044460043 -0.2578914
0.049386196 0.051037513 -0.0051330295 -0.05477796 0.060977645 0.06824047 0.08040904 0.039671678
-0.056357954 0.029516658 0.02519283 -0.07946192 0.07004126 0.016519308 -0.037043512 0.09391829
-0.037536148 0.02753482 -0.042181112 -0.019555647 0.0013761364 0.012779862 0.07046791 0.0119889835
-0.06888899 0.035037033 -0.031046864 0.0012555021 -0.0051625613 0.03678902 -0.072662786 0.03953406
-0.05062453 -0.028470986 -0.03909149 0.045593075 -0.05580387 -0.24163087 0.08758523 0.0040520504
00000000: 1fe8 d33b c57c 8c3d 5d0e 833d 77c8 a53d
00000010: 8030 7abb e836 9fbd 17e0 ce3c 60aa 66bd
00000020: 7882 9cbd ee34 bf3d a258 7f3d 6448 b4bc
00000030: 9036 a4bd 10d2 c1bc 6309 98bd 0ea4 efbc
00000040: 00b2 933d e7c1 953d c34e 6dbd 827e e93b
00000050: be50 1ebc c8f3 ccbc 1b50 17bc 6038 02bb
00000060: a9f1 84bd ad28 8e3b 1d2a 8bbd 6844 90bc
00000070: 7e5f 953d f8d3 383c 6a04 0b3d d232 e63c
00000080: 1192 893d 8021 5dba e1bf a5bc 86d0 193d
00000090: 29c7 a1bc c719 a2bd f78b a83d e36b 03bd
000000a0: b079 653d 222d 88bd 581f 89bd 3c95 c3bc
000000b0: e082 913d c22e b8bd 10e7 40bd 493d 923d
000000c0: d3b3 a43d 99b3 ad3d 8ce8 973c e104 8fbd
000000d0: a9ce 913d c28d 75bc 8007 89bd be6f 7bbd
000000e0: 5e26 16bd db35 a3bd 0182 a23d 5542 6bb9
000000f0: f86a 893d 88a2 4dbd c6fb a4bd 7cf4 a5bd
00000100: 032e 873d bbc2 90bd 7dee 603c 5a28 60bd
00000110: b88e 273c 391c a73d 0069 4d3c 4a27 0fbd
00000120: a899 9d3c 7210 62bd 5538 9b3d 0873 203c
00000130: 2c14 95bd a840 3bbc aca8 a63d a067 7abd
00000140: 32bb ffbc d076 8cbd 9cf1 b13c a8d6 423c
00000150: e4f4 5b3d 795a b33d a144 91bd 42ad 5dbc
00000160: de04 1c3d 0449 013d 9d54 2c3d c846 81bc
00000170: f805 21bc 74a1 8abc 6010 0abc de87 b5bd
00000180: e859 33bc b23e 9bbd 4bf5 773b ff74 81bd
00000190: 98ff 81bd 93c0 173d 3e90 68bd 6f9b 8c3d
000001a0: 3ff1 35bd 5436 50bd 34dd 81bd 985f 83bb
000001b0: 8f68 863c 8896 25bc 3ca0 ed3c 1810 adbc
000001c0: 3288 293d e26f c93a 0005 703c da56 84bc
000001d0: 8108 c43c 9f2f 0c3c 84ca adbc 3c3f a7bc
000001e0: 2ce5 4abc 22d9 babd 0a1f 8fbd 3046 a73b
000001f0: 184c b73c dc32 96bd 654c 0abd be09 74bd
00000200: 8ad3 77bd e8e5 f43c c650 3b3d 1c92 8e3c
00000210: 00a2 cf3b 0e32 6dbd a775 6f3c 70a2 05bc
00000220: 9eec a73c 02d6 adbd 6191 a73d 865d 2e3d
00000230: 892c 44bd 20ff a33b 914d 8c3c 9c75 cdbc
00000240: f446 a5bd 1950 51bd 54ac 723d 68ac c338
00000250: afab cf3d 3a39 93bd 1131 f7bc 804b bfba
00000260: 17b2 8e3d 4cc2 2e3c d5ff 813d c375 973d
00000270: c129 a23c 1024 353c 7d71 66bd 1cef 22b9
00000280: a4f8 a7bc 2d4a 963d 73ab 1abe a6d5 1e3d
00000290: 4b83 a63b 2ace 463d 09cb b83a 1207 05bd
000002a0: 04d0 8fbd be23 583d 5d11 993d 20a0 aebc
000002b0: 1815 9d3a 4883 b6bd 6d26 da3c c227 153d
000002c0: a9fe 0dbd 64d8 ba3c 3b27 9fbd 65fc 90bd
000002d0: 8e92 053d 3a24 7cbb 2df5 8d3d c0c5 bbba
000002e0: 078f 19bd fa86 bf39 3a9d 403d ca5f d5bb
000002f0: a288 09bf 811b 51bd 1e7f a2bd d068 293c
00000300: 2b0a 8fbc b75e a03d 7286 403c 1f06 873c
00000310: 411e 99bd 3aa2 3e3d 9e88 1e3d 1d30 e1bc
00000320: 5edb 72bd 489e a43c e07b 3f3d 4e88 98bd
00000330: b9c5 09bd a02f 53bb 7eba a43d 36af 933d
00000340: c8ea d63c fa53 d73c 98df 133c 3e03 b2bd
00000350: a192 f0bc 80b1 513c bc1b 363d 570a 84be
00000360: 2e49 4a3d b60c 513d f932 a8bb db5e 60bd
00000370: b2c3 793d a9c1 8b3d 7fad a43d c57e 223d
00000380: 99d7 66bd ebcc f13c 3261 ce3c eebc a2bd
00000390: cb71 8f3d 8053 873c f0ba 17bd 3c58 c03d
000003a0: 81bf 19bd b490 e13c 1ac6 2cbd 2a33 a0bc
000003b0: 7a5f b43a a062 513c 7b51 903d 716d 443c
000003c0: ac15 8dbd fe82 0f3d fe55 febc a98f a43a
000003d0: b42a a9bb 15b0 163d 3ad0 94bd 77ee 213d
000003e0: ab5b 4fbd fc3b e9bc 661e 20bd cebf 3a3d
000003f0: 9992 64bd 156e 77be e35f b33d 10c7 843b

bias f4 [64]
-0.09352212 0.029949829 -0.045077465 0.044374816 0.06468273 -0.018208377 -0.058931828 -0.091987774
0.049177755 0.04123809 -0.010627375 0.037666462 0.043464974 0.05749806 0.021743828 -0.029909544
-0.07404735 0.012507242 0.06364672 0.049139556 0.06383098 -0.003639647 -0.029872248 -0.057644475
-0.053339534 -0.08587632 -0.046312433 -0.08302268 0.031003242 -0.02174934 -0.09108001 -0.07097915
0.05976636 -0.033940725 0.041004926 -0.033278868 0.0030521452 -0.0698653 0.06443636 0.0141205415
-0.021201516 0.08782727 -0.030468658 0.06261727 -0.05928728 -0.011849847 -0.07065667 -0.0060885623
-0.083521165 -0.05244738 0.025643637 0.013598047 0.05251104 0.08503578 -0.025601102 -0.058476035
0.07013832 0.032053977 -0.0010061896 0.08025894 0.0733191 -0.011840925 0.06584112 -0.0017068982
00000000: 8688 bfbd 5859 f53c 26a3 38bd 5ec2 353d
00000010: 6178 843d bc29 95bc 8062 71bd 1664 bcbd
00000020: 9d6e 493d 45e9 283d 711e 2ebc 2648 1a3d
00000030: 5408 323d 1683 6b3d 1d20 b23c dc04 f5bc
00000040: 23a6 97bd 2deb 4c3c 3659 823d 8f46 493d
00000050: d1b9 823d 2587 6ebb a5b6 f4bc 9d1c 6cbd
00000060: 8e7a 5abd eddf afbd 1bb2 3dbd cb07 aabd
00000070: 83fa fd3c ac2b b2bc 2888 babd 845d 91bd
00000080: 92cd 743d 6e05 0bbd c8f4 273d 6c4f 08bd
00000090: 8006 483b 8a15 8fbd 36f7 833d d859 673c
000000a0: cdae adbc c9de b33d 6899 f9bc 7c3d 803d
000000b0: 38d7 72bd dc25 42bc 72b4 90bd 9082 c7bb
000000c0: 250d abbd 10d3 56bd 9b12 d23c 58ca 5e3c
000000d0: d115 573d 3d27 ae3d 67b9 d1bc 9184 6fbd
000000e0: aea4 8f3d 084b 033d 1fe2 83ba cd5e a43d
000000f0: 5328 963d 7000 42bc b6d7 863d 00ba dfba

weight f4 [32, 64]
-0.031083781 0.11207895 -0.09232676 0.023033366 -0.0006688386 -0.016002446 -0.121348545 -0.07206606
-0.11230992 -0.038154166 0.0037582673 -0.09736439 0.1460903 -0.013550192 0.02149052 -0.023185257
-0.0067523397 -0.10998339 -0.15793675 -0.08746328 0.0053702295 -0.011791875 -0.05613915 0.09041545
0.038484585 0.05382985 -0.020085422 -0.019419214 0.09090575 -0.02798626 0.058304727 0.113759816
-0.039475918 0.027446514 -0.13894702 0.086855 0.07355027 0.0242047 0.121724814 0.10601288
-0.032262508 0.0076529086 -0.103567846 -0.040461753 -0.09120085 -0.0750436 -0.06148003 -0.024508372
0.03326495 0.12732732 -0.10063321 0.04254113 0.055527177 -0.029382825 0.01690274 0.07674271
-0.05807298 0.13889863 0.05167916 0.09564543 0.08477261 -0.034190312 -0.017800657 -0.0002900213
0.050554678 0.0035024446 -0.076505214 0.09781553 -0.020272225 -0.11440277 -0.013318434 -0.05337502
-0.007169727 -0.08179272 -0.0034232403 -0.063952595 -0.123076 0.014008015 0.04789738 0.046503056
0.07632744 0.10893561 -0.08332238 -0.09132436 0.054778337 0.0076075643 -0.05211389 -0.09621677
-0.059636243 0.10381259 0.11342572 -0.08881679 -0.063545324 -0.055185746 -0.030185804 0.082106486
-0.09622802 -0.044291012 0.11495611 0.008553559 0.08799581 -0.014150761 0.06221877 -0.07803209
-0.00085540116 0.01966764 -0.09534316 -0.09094868 0.07364042 0.08480481 -0.08745843 -0.036886394
-0.0865978 -0.006671102 -0.06878535 -0.12207082 -0.015229389 0.080384254 -0.06919629 0.050053444
-0.032959606 -0.0692509 0.045312494 0.020506442 0.044558905 -0.036672145 0.013161376 -0.06808579
0.06425393 0.053851932 -0.013826221 0.09258683 -0.004487589 0.09427273 -0.10707967 0.04960911
-0.09635177 0.121068224 -0.050349593 -0.12380502 -0.10450518 -0.072375506 0.092832625 -0.08378315
0.067275956 0.04521191 -0.055101395 0.07709676 -0.019987196 -0.070094794 -0.022916883 0.032253057
-0.08485608 -0.0053180754 0.096044034 -0.10665509 -0.09810409 0.027291209 -0.11475131 -0.0748577
-0.10686457 -0.07960658 -0.08686373 -0.04127805 -0.057803392 -0.07159872 -0.014120072 0.023056448
0.06494473 -0.11937815 0.01659821 -0.1231879 0.07981543 0.09439638 -0.08447984 -0.1048449
-0.012625098 -0.11423777 -0.032187253 -0.0053982288 -0.101196215 -0.022059932 -0.12327488 0.11282773
0.047393575 -0.07623322 -0.1227195 0.11429484 0.073460236 -0.09459834 -0.10589683 -0.08445796
-0.00918129 -0.015851328 0.011494637 0.00030995905 0.07867357 0.04849544 -0.02505973 0.09063439
0.0920144 0.028139135 -0.0044340924 0.09789111 0.1324161 0.07586619 0.0012466181 -0.012344176
-0.04380086 -0.05336244 0.071281955 -0.0036868094 -0.0994115 -0.008308837 0.01627646 0.016382195
0.12002377 0.11022483 -0.06861591 -0.08867907 0.052347284 -0.11005387 -0.11977089 -0.10409033
-0.0072268546 0.098010436 -0.19839892 0.026228994 0.12337181 -0.108442985 0.0061406153 -0.019876078
0.115439944 -0.027472183 0.109059386 -0.08922845 -0.04462925 -0.017437866 0.0372871 0.056009963
-0.011773631 0.14542809 0.09195181 0.030765474 -0.006805608 0.1137867 0.024980815 -0.10223086
-0.012991624 -0.011129059 0.02563845 0.060574546 0.04058719 -0.123388365 0.02595414 -0.04165691
00000000: 6aa3 febc a689 e53d d015 bdbd 78b0 bc3c
00000010: 0055 2fba 9017 83bc 9685 f8bd 5f97 93bd
00000020: be02 e6bd 8b47 1cbd 434d 763b fb66 c7bd
00000030: b298 153e a001 5ebc e30c b03c 02ef bdbc
00000040: bb42 ddbb f93e e1bd 2cba 21be f31f b3bd
00000050: c0f8 af3b b532 41bc 2af2 65bd bc2b b93d
00000060: 03a2 1d3d b07c 5c3d 2f8a a4bc 0b15 9fbc
00000070: cb2c ba3d 7143 e5bc f0d0 6e3d e8fa e83d
00000080: 80b1 21bd 83d7 e03c 2148 0ebe 09e1 b13d
00000090: 86a1 963d ef48 c63c dc4a f93d 481d d93d
000000a0: b125 04bd 40c5 fa3b 611b d4bd 39bb 25bd
000000b0: 83c7 babd 75b0 99bd 7cd2 7bbd c8c5 c8bc
000000c0: d440 083d 1862 023e c918 cebd 9c3f 2e3d
000000d0: 7770 633d 40b4 f0bc 9d77 8a3c 482b 9d3d
000000e0: efdd 6dbd 713b 0e3e 87ad 533d c0e1 c33d
000000f0: 439d ad3d 240b 0cbd afd2 91bc 000e 98b9
00000100: 6c12 4f3d 4589 653b c4ae 9cbd 8253 c83d
00000110: f011 a6bc 004c eabd 9035 5abc c49f 5abd
00000120: 07f0 eabb f182 a7bd 7158 60bb 94f9 82bd
00000130: 450f fcbd e081 653c 0b30 443d fd79 3e3d
00000140: 9051 9c3d a219 df3d eda4 aabd 4408 bbbd
00000150: 405f 603d e048 f93b 6075 55bd 4c0d c5bd
00000160: 2245 74bd b29b d43d be4b e83d 94e5 b5bd
00000170: 0d24 82bd 730a 62bd 3848 f7bc 7227 a83d
00000180: 3213 c5bd 7e6a 35bd 1c6e eb3d 3a24 0c3c
00000190: 2637 b43d 98d8 67bc 1cd9 7e3d 4acf 9fbd
000001a0: 003d 60ba 081e a13c 4643 c3bd 4d43 babd
000001b0: cad0 963d 25ae ad3d 681d b3bd 3016 17bd
000001c0: 305a b1bd 4299 dabb 55df 8cbd 4400 fabd
000001d0: b084 79bc 80a0 a43d c9b6 8dbd d704 4d3d
000001e0: a700 07bd 6ad3 8dbd 9899 393d 20fd a73c
000001f0: 6683 363d 8835 16bd d0a2 573c 9070 8bbd
00000200: 9097 833d d893 5c3d 6087 62bc 2a9e bd3d
00000210: a00c 93bb 1012 c13d 964c dbbd ec32 4b3d
00000220: 1454 c5bd 9ef2 f73d 603b 4ebd 7c8d fdbd
00000230: d006 d6bd 9c39 94bd 081f be3d 8096 abbd
00000240: fac7 893d 2030 393d 00b2 61bd e8e4 9d3d
00000250: 30bc a3bc dc8d 8fbd 30bc bbbc c81b 043d
00000260: 06c9 adbd 4043 aebb bcb2 c43d fc6d dabd
00000270: ccea c8bd d091 df3c bc02 ebbd fe4e 99bd
00000280: d0db dabd c608 a3bd 9ce5 b1bd 2c13 29bd
00000290: 40c3 6cbd 5aa2 92bd e057 67bc e0e0 bc3c
000002a0: be01 853d 887c f4bd f8f8 873c f049 fcbd
000002b0: 4676 a33d e452 c13d c403 adbd ecb8 d6bd
000002c0: 80d9 4ebc 7ef5 e9bd c8d6 03bd a0e3 b0bb
000002d0: f63f cfbd 08b7 b4bc 8a77 fcbd 3a12 e73d
000002e0: c41f 423d 2a20 9cbd 5c54 fbbd 6a13 ea3d
000002f0: 5272 963d c6bc c1bd 70e0 d8bd 4cf8 acbd
00000300: 1f6d 16bc a5da 81bc 0054 3c3c 0082 a239
00000310: 9c1f a13d 28a3 463d 104a cdbc 869e b93d
00000320: 0c72 bc3d 0b84 e63c dd4b 91bb 227b c83d
00000330: 1698 073e bc5f 9b3d 9065 a33a 3a3f 4abc
00000340: 8868 33bd 9392 5abd 46fc 913d 669e 71bb
00000350: 4298 cbbd ca21 08bc 3656 853c f433 863c
00000360: 06cf f53d 8ebd e13d 8086 8cbd 5f9d b5bd
00000370: 1b6a 563d ec63 e1bd 714a f5bd 502d d5bd
00000380: 40cf ecbb b2b9 c83d 1629 4bbe 30de d63c
00000390: 5caa fc3d 5b17 debd 3737 c93b 28d3 a2bc
000003a0: c76b ec3d 580d e1bc 875a df3d 68bd b6bd
000003b0: 29cd 36bd dbd9 8ebc 5cba 183d b46a 653d
000003c0: 30e6 40bc 1aeb 143e 3b51 bc3d e007 fc3c
000003d0: 9401 dfbb 0009 e93d 91a4 cc3c 6a5e d1bd
000003e0: d2da 54bc a856 36bc ba07 d23c 041d 783d
000003f0: c13e 263d 0ab3 fcbd c79d d43c 70a0 2abd

bias f4 [32]
0.1023258 -0.022460714 -0.030707642 0.0138037335 0.05124862 -0.08468072 -0.121057555 -0.053302303
-0.019789154 -0.13703808 0.01735829 -0.0066658966 -0.048397914 0.124863885 0.0019068724 -0.027471911
-0.030711027 -0.104361884 0.025921864 -0.039488986 0.096297264 -0.124136165 0.01183374 0.109614044
0.066650145 -0.012921834 -0.09640967 -0.020035475 -0.011337941 -0.08213372 0.030737057 -0.02777069
00000000: 3090 d13d 88ff b7bc 988e fbbc 0e29 623c
00000010: 13ea 513d 166d adbd 06ed f7bd 8453 5abd
00000020: dd1c a2bc b653 0cbe f932 8e3c 986d dabb
00000030: e43c 46bd a3b8 ff3d 05f0 f93a c60c e1bc
00000040: b195 fbbc afbb d5bd 175a d43c 34bf 21bd
00000050: 8037 c53d 1a3b febd 4ee2 413c 547d e03d
00000060: df7f 883d 1ab6 53bc 6f72 c5bd 7021 a4bc
00000070: c5c2 39bc b935 a8bd 48cc fb3c 5c7f e3bc

weight f4 [8, 32]
0.078045264 0.040062398 -0.1515349 0.09290742 0.14018093 -0.11592855 -0.1599355 0.09862696
0.08081287 -0.014654979 -0.011703204 -0.16161385 0.08308987 0.09829616 -0.025921237 -0.11365575
0.14454773 -0.17601697 -0.05342617 -0.115690425 0.05158919 0.16376011 0.07855141 0.078659
0.035393637 -0.17139797 -0.046092093 0.12527816 -0.17917548 -0.068309575 -0.111162156 -0.04840783
-0.051122457 0.10408063 -0.11662347 0.07265051 0.1375206 -0.027877063 0.011182219 0.16749327
0.123860285 0.06814857 0.011382267 -0.1617937 -0.020839378 -0.17228293 -0.011154294 -0.1737135
-0.04485491 -0.014242008 0.07245989 0.11624308 -0.15257941 -0.054298185 -0.09484959 -0.07083146
0.058414266 -0.17556636 -0.018092483 -0.08349436 -0.003343746 -0.07015914 0.043082356 -0.068712
0.12320512 -0.11314871 -0.1423257 -0.14457121 -0.0037877858 -0.16672885 0.009493917 -0.00075758994
-0.08615754 0.06077932 0.010706276 -0.17214835 0.13105686 0.04057057 -0.06001743 0.14279257
-0.068359725 0.108699515 0.09966299 0.10388164 -0.039004058 0.11597277 0.104386345 0.116931155
0.08443268 -0.07399336 -0.13722056 0.027566463 -0.14209339 -0.076506816 -0.17268229 -0.17483602
0.19730127 -0.1473412 -0.12655617 0.17754449 -0.16306405 -0.0011092678 -0.09354553 -0.012518451
0.168109 -0.13022488 -0.18675344 -0.023487773 -0.07712028 0.21062677 -0.18541631 0.1769334
-0.2469856 -0.063935734 0.06984793 0.04393521 0.14605026 0.12553447 0.023886558 -0.28598854
-0.25791636 -0.07770496 -0.070047386 -0.16237745 0.0017229815 -0.22806501 0.2288377 -0.23898111
-0.056567922 -0.040792998 0.023348391 -0.009029116 -0.106339276 0.13185707 0.16637047 0.12074305
-0.066974156 -0.095058635 0.1358853 -0.17559668 -0.10032931 -0.09249948 -0.059585996 -0.090520576
-0.0150900055 -0.09901565 -0.18773295 0.04801871 0.02628617 0.095887974 -0.09899403 0.012317309
-0.16385944 0.02398239 0.025483966 -0.16387057 -0.020801246 -0.13307743 -0.028711796 0.0977529
0.03809723 -0.16211653 0.012174204 -0.15065843 -0.12609166 -0.0885811 -0.14493854 -0.0907744
-0.08138496 -0.09295207 -0.13801612 -0.008029155 -0.16205128 0.15776514 -0.18909264 -0.0007982538
-0.035565827 0.16203128 -0.14939289 -0.13809669 0.15283068 -0.099812694 -0.06641974 0.13205068
-0.0049521527 0.094636165 -0.1263638 -0.12688299 0.13177265 0.0893942 0.11504853 -0.10743007
-0.08951293 0.12224962 -0.062688 0.14092417 -0.027308673 0.067612395 -0.067491725 0.11059852
-0.07464216 -0.10212571 0.0741341 -0.183743 0.16065665 -0.06474502 -0.18526393 -0.14377134
-0.064161934 0.08112107 -0.17976423 0.10638599 -0.087663464 0.11041841 0.13023488 -0.075041115
0.07567424 0.056933533 0.12173618 0.03394878 -0.1602017 0.0994534 -0.0067556202 0.0052724914
0.023032412 0.03820327 -0.061360754 -0.0054560006 0.0029095858 -0.17617841 -0.14012673 -0.16404183
-0.08655941 0.10745241 0.05105789 0.15455587 0.083798245 -0.073413596 -0.118929595 0.021167979
0.026333243 -0.04281138 0.0015066415 -0.0842015 0.12651245 0.06819238 0.011937216 -0.092479564
-0.06617938 -0.10032372 -0.054307185 -0.12994546 -0.08604909 -0.015562043 0.111167744 -0.12565723
00000000: 32d6 9f3d 7818 243d f72b 1bbe 3f46 be3d
00000010: 978b 0f3e f36b edbd 22c6 23be eefc c93d
00000020: 3881 a53d 701b 70bc ccbe 3fbc 1a7e 25be
00000030: 062b aa3d 7f4f c93d c658 d4bc 59c4 e8bd
00000040: 5204 143e cb3d 34be 66d5 5abd 1aef ecbd
00000050: 304f 533d bbb0 273e 90df a03d f817 a13d
00000060: ebf8 103d f382 2fbe 10cb 3cbd eb48 003e
00000070: c779 37be e4e5 8bbd fca8 e3bd 4a47 46bd
00000080: c865 51bd 3a28 d53d 49d8 eebd cac9 943d
00000090: 33d2 0c3e 705e e4bc a035 373c 5b83 2b3e
000000a0: 76aa fd3d 7a91 8b3d b07c 3a3c 3fad 25be
000000b0: 58b7 aabc f06a 30be 80c0 36bc f4e1 31be
000000c0: c8b9 37bd 5057 69bc da65 943d da10 ee3d
000000d0: c73d 1cbe c667 5ebd 8040 c2bd 1610 91bd
000000e0: cc43 6f3d abc7 33be b036 94bc 17ff aabd
000000f0: c022 5bbb 98af 8fbd 2077 303d e1b8 8cbd
00000100: f752 fc3d 83ba e7bd d4bd 11be 7a0a 14be
00000110: 803c 78bb f8ba 2abe 608c 1b3c 0099 46ba
00000120: 5d73 b0bd bcf3 783d 6069 2f3c a847 30be
00000130: c533 063e 532d 263d d6d4 75bd 3738 123e
00000140: 2f00 8cbd da9d de3d 1c1c cc3d e6bf d43d
00000150: b8c2 1fbd 2283 ed3d 82c8 d53d 9a79 ef3d
00000160: 0aeb ac3d d589 97bd 8c83 0cbe 10d3 e13c
00000170: ee80 11be 9baf 9cbd a0d3 30be 3708 33be
00000180: 5809 4a3e 9de0 16be f197 01be 39ce 353e
00000190: 43fa 26be da64 91ba cd94 bfbd 301a 4dbc
000001a0: c424 2c3e ac59 05be 4b3c 3fbe 6e69 c0bc
000001b0: 3df1 9dbd 8bae 573e c6dd 3dbe 072e 353e
000001c0: cbe9 7cbe bdf0 82bd 6e0c 8f3d 68f5 333d
000001d0: 338e 153e 1c8c 003e bead c33c 176d 92be
000001e0: 9d0d 84be c723 9fbd 0175 8fbd 4646 26be
000001f0: aad5 e13a e089 69be 6e54 6a3e 77b7 74be
00000200: c4b3 67bd 8f16 27bd 2045 bf3c dbee 13bc
00000210: 68c8 d9bd 8a05 073e 055d 2a3e 2248 f73d
00000220: bf29 89bd 1aae c2bd 8425 0b3e 9ecf 33be
00000230: 7479 cdbd 5e70 bdbd 7210 74bd da62 b9bd
00000240: 123c 77bc b8c8 cabd 113d 40be 44af 443d
00000250: 1856 d73c ea60 c43d 62bd cabd 8ace 493c
00000260: c5ca 27be b876 c43c c0c3 d03c b0cd 27be
00000270: 6067 aabc 7345 08be 0035 ebbc ac32 c83d
00000280: d70b 1c3d e001 26be 5076 473c 3446 1abe
00000290: 2c1e 01be 026a b5bd c56a 14be eee7 b9bd
000002a0: 28ad a6bd a85d bebd 1954 0dbe b88c 03bc
000002b0: c5f0 25be 2f8d 213e 80a1 41be e841 51ba
000002c0: 79ad 11bd 87eb 253e 73fa 18be 3869 0dbe
000002d0: a57f 1c3e 996a ccbd 1307 88bd 4b38 073e
000002e0: ab45 a2bb 9bd0 c13d 8365 01be 9ded 01be
000002f0: 69ef 063e 4e14 b73d 909e eb3d 4c04 dcbd
00000300: 8e52 b7bd 025e fa3d 9162 80bd 6d4e 103e
00000310: 70b6 dfbc 5e78 8a3d 1a39 8abd 7a81 e23d
00000320: fddd 98bd 4927 d1bd 9ed3 973d 2027 3cbe
00000330: 2d83 243e 0999 84bd d4b5 3dbe cb38 13be
00000340: 5567 83bd ce22 a63d 1d14 38be e6e0 d93d
00000350: e788 b3bd 0c23 e23d 4b5c 053e 28af 99bd
00000360: 19fb 9a3d 2333 693d d150 f93d e00d 0b3d
00000370: ea0b 24be 39ae cb3d 405e ddbb ddc4 ac3b
00000380: 78ae bc3c 087b 1c3d 6a55 7bbd 40c8 b2bb
00000390: c0ae 3e3b 1d68 34be 627d 0fbe 95fa 27be
000003a0: 0f46 b1bd 0210 dc3d 1422 513d e543 1e3e
000003b0: 6a9e ab3d de59 96bd 5c91 f3bd 7868 ad3c
000003c0: d0b8 d73c fc5a 2fbd 807a c53a d671 acbd
000003d0: 7b8c 013e 72a8 8b3d 5094 433c ed65 bdbd
000003e0: 0e89 87bd 8676 cdbd 3671 5ebd 6c10 05be
000003f0: 813a b0bd f0f7 7ebc eaab e33d 4aac 00be

bias f4 [8]
-0.03778178 -0.15283036 0.13073657 0.18686546 0.019382525 0.06279296 -0.09100934 -0.05759386
00000000: 11c1 1abd 907f 1cbe cfdf 053e a959 3f3e
00000010: 1ac8 9e3c 9899 803d 1b63 babd 8ae7 6bbd

weight f4 [4, 8]
-0.23618129 0.09816629 0.091021925 0.18273506 -0.18186858 0.18559876 -0.25721416 0.094638884
-0.34420088 -0.22268927 -0.11669767 0.025235802 0.055423945 -0.3309903 0.0816229 0.29910216
-0.23294461 0.18722305 0.13724354 0.08771023 -0.10459389 0.211535 0.1788598 -0.2172335
0.03206882 0.19264707 0.056631505 -0.042210996 0.32324412 0.2668679 -0.15232077 -0.33596078
00000000: 82d9 71be 680b c93d b469 ba3d e61e 3b3e
00000010: c23b 3abe 9a0d 3e3e 93b1 83be 08d2 c13d
00000020: 193b b0be a808 64be 30ff eebd 50bb ce3c
00000030: 3804 633d 9077 a9be e829 a73d eb23 993e
00000040: 0889 6ebe 66b7 3f3e 9289 0c3e 6ca1 b33d
00000050: 5235 d6bd a29c 583e 0627 373e 7572 5ebe
00000060: 985a 033d 4645 453e 70f6 673d 70e5 2cbd
00000070: 4180 a53e e9a2 883e faf9 1bbe 0d03 acbe

bias f4 [4]
0.34448376 0.11225775 0.22362277 0.14398175
00000000: 2d60 b03e 64e7 e53d 5efd 643e f46f 133e
