training/ann/models/ann16.pth (torch, 68636 bytes, 10 tensors)

weight f4 [128, 40]
00000000: 825d ea3d 784e 4cbd 5c38 09be 6904 adbd
00000010: c09b 673c 7073 163c 58a3 593d c225 f03d
00000020: df94 8dbd 003b 413b 70e8 09bd fd77 fbbd
00000030: 008e 4ebb 2fc3 1d3e 0e57 943d 6b0c 06be
00000040: 24e2 553d 9687 8d3d 0065 153c c0e6 91bb
00000050: 14d3 71bd ddb8 afbd 8e3d f8bd 8ee0 bf3d
00000060: 0d38 1b3e d218 db3d 40eb 00bc c1d5 babd
00000070: 9cfe 973d d027 703d d88e 0f3d 9957 1b3e
00000080: 663b fcbd 5ac3 a53d 8af2 2abd bd34 1d3e
00000090: 583c ca3c a17c 183e c488 443d a08d 02bd
000000a0: 8820 8f3d df30 21bb e27f 6e3e 29f7 a93e
000000b0: e811 58be c25f 7fbc 7301 1fbe bbe6 043e
000000c0: 885f 8c3e ca98 8c3e 8eaf 7cbe 487a 1d3c
000000d0: 24c8 c8bd c937 253e cd99 7ebe 8f74 1a3e
000000e0: 16da cb3d fab5 ec3c 2ed8 3b3d 5449 953e
000000f0: 1409 d63e 8d90 1bbf 6aa5 dbbe 283b 24bd
00000100: 032f 383e be17 9fbe 6eda a3bd 44a3 0bbe
00000110: c75d e43e d253 223d 1ac5 9c3e 89b6 6abe
00000120: ae8b 19be 0354 853c 3ed0 f83d 9c08 aabd
00000130: c0f2 92bd 4adb 8dbe fa10 dd3c 138b b13d
00000140: 19a9 1abe a004 a63d fe68 f8be ef63 3abe
00000150: d719 3e3e 6faa e9bd 4d9d 7c3e 1766 893d
00000160: 4584 d7be 05bc a2be 8df8 b63e 5f75 4abe
00000170: 75fe 103d 113e bbbe 6593 7c3d 6f32 5ebe
00000180: 5770 ba3c f43c 10be 9f82 f3bd 854f bcbb
00000190: c5f0 18be 92e1 003f 4bce c63d bef9 e0bd
000001a0: 58e5 86be 5b26 803e 5eb7 0c3c af1e 983c
000001b0: 6fcd 11bf cd19 fdbc 8a0d 06be 061c a43d
000001c0: 90a4 c1be 4ae8 e03c ba50 e63d 5f9d 873e
000001d0: 5800 783d 5085 773e 721d 6cbe 9815 b3bc
000001e0: 0798 1c3e b687 56bd a805 f5bd 40c1 cbbb
000001f0: 781d 7c3d c9ee ddbd 78be 813d 7893 aabd
00000200: 3b22 1a3e ce89 c73d 9adc 86bd 40c6 9e3c
00000210: a455 813d b0df 1b3d c20f d33d 4653 82bd
00000220: e0be e8bc 0632 c73d 98d7 fbbc 2429 8e3d
00000230: e674 8bbd 94df 433d c223 e13d ff5a d8bd
00000240: 54e0 543d caac ebbd d8bf 05bd 43d8 89bd
00000250: 262b 68bd b8df 9e3c ce57 66bd 9c8b 23bd
00000260: 5ad5 27bd ddb4 193e 6085 3a3c 57c2 1f3e
00000270: e92b f2bd 00c7 10ba 5fdc 013e 8ce9 11be
00000280: e15c 95bd 5e7b c23d e213 d2bc 8e01 adbe
00000290: ff45 ad3e 07c4 47be 5c49 c6bd a09a bbbc
000002a0: dd67 b9be 4743 2cbe 62d7 dc3d 300a 9fbd
000002b0: 8d3f 913d 28fa 64be d282 5a3e ab61 aebe
000002c0: 0920 6e3e f4fe 57bb b6fa 123e d5dd 48be
000002d0: 231c 6cbe 1742 553f eb2c ca3e d9f8 1d3e
000002e0: f1f7 0cbf 972f b93e 0db6 903b ad8d 99be
000002f0: b8b6 c0bd aa0a c8be c1b7 4fbe f79d e43e
00000300: 6cd3 9fbe 950d a6be 7ca7 03be 116b 8d3e
00000310: e13a f3bd f08d 89bd ad9b 06be 8d34 f5bc
00000320: 7d35 543d 56ef c73c 1c90 8c3d 04ea 3abe
00000330: 50df bb3d dd36 63be 5d30 2abd c7c5 29be
00000340: 3410 c9be 2c1c 6f3d 2589 a6bd 350e 80be
00000350: 354b dc3b 5e17 c93d f684 a2bd 62c6 f5be
00000360: 2b57 d33e d5cf aebc e83f bcbc 4da8 6fbe
00000370: 41ce 0ebe 8e1b 893f a6ac 063f 84de d03d
00000380: a887 47bf c4dc 503e 0626 41bc 7cfa acbe
00000390: 4015 a13c 1363 2abe 52ab dabe 027b dd3e
000003a0: d0dc 723e 9b20 80be a128 993b dbb9 773e
000003b0: 23c0 fa3c b025 013d 4c94 82bc f810 dbbc
000003c0: f293 f8bd 9e2a fd3c a784 bf3c 6bcd 65bd
000003d0: 9c4c 513e e78d 55be 69d8 8eba f733 65bd
000003e0: 082b 11bf b42d 7ebe 2aa2 813e 8a46 afbe
000003f0: 313b 7dbd 8387 d5be 7911 3e3e e9a1 d1be
0.114436164 -0.04987952 -0.13400406 -0.08448107 0.014136255 0.009182796 0.053134292 0.11725952
-0.069131605 0.002948463 -0.033668935 -0.12278745 -0.0031517744 0.15406488 0.07243167 -0.13090675
0.052217618 0.069106266 0.009118319 -0.0044525564 -0.05903919 -0.08580182 -0.121211156 0.09369002
0.151581 0.106980935 -0.007868588 -0.091228016 0.0742161 0.05863172 0.035048336 0.15170135
-0.12316017 0.08093901 -0.04173521 0.1535215 0.024686977 0.14891292 0.047981992 -0.031873345
0.06988627 -0.002459578 0.23290971 0.3319638 -0.2110058 -0.015586795 -0.15527897 0.12978642
0.27416635 0.2746032 -0.24676344 0.009611674 -0.09803799 0.16134562 -0.24863358 0.15083526
0.09953706 0.028895367 0.045860462 0.29157507 0.418038 -0.6076744 -0.42899638 -0.04009548
0.17986684 -0.310728 -0.080006465 -0.136365 0.44602796 0.03963072 0.30619127 -0.22921194
-0.1499469 0.016275411 0.12149094 -0.08302423 -0.07175207 -0.27706367 0.026985634 0.086691044
-0.15103568 0.08106351 -0.48517603 -0.18202184 0.18564545 -0.11409461 0.2466938 0.06708925
-0.420931 -0.31784073 0.35736504 -0.19771336 0.03539892 -0.3657079 0.061664004 -0.21698926
0.022758646 -0.14085752 -0.11890148 -0.005746784 -0.14935596 0.50344193 0.09707316 -0.109851345
-0.2634685 0.25029263 0.00858864 0.018569319 -0.5695409 -0.030896092 -0.13091102 0.080131575
-0.37820864 0.027454514 0.11245866 0.26487252 0.060547203 0.24171948 -0.23058107 -0.021860883
0.15292369 -0.052375518 -0.119639695 -0.0062181056 0.06155154 -0.1083656 0.06335157 -0.08328909
0.1505212 0.09743081 -0.06585045 0.019381642 0.06315163 0.038055122 0.1030574 -0.063635394
-0.028411329 0.09726338 -0.030742452 0.06941441 -0.06809406 0.047820643 0.109931484 -0.10564231
0.05197175 -0.11507566 -0.03265366 -0.06730702 -0.056681775 0.019393787 -0.05623608 -0.039928064
-0.040974952 0.150104 0.011384338 0.15601479 -0.118247814 -0.00055228174 0.12681721 -0.14249247
-0.07293106 0.09496187 -0.025644246 -0.3379025 0.33842465 -0.19508372 -0.09681961 -0.02290088
-0.36212054 -0.1682254 0.107832685 -0.07765615 0.070921995 -0.22361052 0.21338966 -0.3405889
0.23254408 -0.003295836 0.14353451 -0.19615872 -0.23057608 0.8330397 0.39487395 0.15426959
-0.5506583 0.3616912 0.0044162334 -0.29990903 -0.09409851 -0.39070636 -0.2028494 0.44651768
-0.3121599 -0.32432237 -0.12856859 0.27620748 -0.11876465 -0.067165256 -0.13145323 -0.029932285
0.051808823 0.024406116 0.06863424 -0.18253332 0.09173453 -0.22188897 -0.04155003 -0.16579352
-0.39270175 0.058376476 -0.08131627 -0.2501084 0.0067228326 0.0981891 -0.079355165 -0.48002917
0.4127744 -0.021339336 -0.022979692 -0.23404045 -0.13945867 1.0711534 0.5260719 0.101986915
-0.7794137 0.20396715 -0.011788851 -0.33784854 0.019663453 -0.16639356 -0.42708832 0.4325791
0.23717046 -0.25024876 0.004674033 0.24191992 0.030609196 0.031530082 -0.015939854 -0.02674149
-0.12137593 0.03090411 0.023378683 -0.056104105 0.2043938 -0.20854913 -0.0010898235 -0.05595776
-0.56706285 -0.24822122 0.25319034 -0.34233505 -0.061824027 -0.4170495 0.18561353 -0.4094384

bias f4 [128]
00000000: 2c2c 163d 90e5 973d a385 fd3b b024 e8bc
00000010: 055d 173e 466a 7abc 4373 2b3e 95aa 1c3e
00000020: 0fc4 cebd e377 d6bd 9f81 943d 3e7c a1bd
00000030: 281e e7bd b701 29bd 4bf6 17be 709c da3c
00000040: c904 a63d 10fc 17bc 0fb1 0abe 1ee2 1fbe
00000050: 06ed fbbd a00a 713c 58a7 82bc c8b0 b43d
00000060: d9cd 2fbc 81f4 153e be6b 49bd 80cb b8bb
00000070: 4f4d 163e f277 19be 8bdd f4bd c4a4 d6bd
00000080: b053 07bc ba1f a73d 4465 433d e017 9abd
00000090: 5da2 153e 3188 85bd 9f83 1abe 8c82 b83d
000000a0: d8d1 f73c 6809 6a3d a325 f9bd 9aed 273d
000000b0: c9f0 95bd 12cf 803d d5b6 0ebe 62dc e73d
000000c0: c0ef 39bd 3e08 0e3e b803 a83d b09a bb3d
000000d0: 18cb eabd a468 8abd bc91 42bd a4a1 17be
000000e0: 84bb cbbd c80c 643d f262 7a3d 805c e03a
000000f0: 3612 1fbd d9f8 be3d de54 29be c451 fd3d
00000100: 1f5d 5fbd 27f1 11be 3b41 35be df9d 013e
00000110: 343d 1dbd 0809 c4bc 1e18 193e e441 f2bd
00000120: c642 8b3d 484e a63d eaee 6fbd 1418 c2bd
00000130: 20b8 bf3c 58f8 b9bd 521e 813d 8812 2f3d
00000140: 92f0 813d dacd 91bd c9c9 7c3d b1ad 9bbd
00000150: 3564 e93d d113 0ebe b826 45bd f028 12be
00000160: f875 563d 6b15 163e b623 d83d 304d a0bb
00000170: e099 253c 80ac d1bc 96c1 b33d 187b 0b3d
00000180: 22b1 cdbd 26c5 c8bd 90a1 803c 201a 4e3c
00000190: d426 0abe ed5c 213e 486d 86bc 859d d8bd
000001a0: 6650 e23d 8c18 f5bd a5b1 ed3c 827d ed3d
000001b0: 7b55 b4bd 37e9 15be 1f76 dfbc cece 1fba
000001c0: 1527 0d3e 7b6c 433d dd75 e6bd 2e37 c33d
000001d0: b8d3 0cbe 08c3 d7bc 8200 c63d b0e6 fcbc
000001e0: 8650 69bd a6f2 8abd 00c9 c33c 8d0d a8bc
000001f0: 8c7e 8f3d fcc2 35bd ec12 1ebe 28b5 8c3d
0.03666322 0.074168324 0.007736878 -0.028337806 0.14781578 -0.015284127 0.16743188 0.15299447
-0.10095989 -0.10472085 0.07251286 -0.078850254 -0.11285049 -0.0412614 -0.14840047 0.026685923
0.081063814 -0.009276405 -0.13544105 -0.156136 -0.12301068 0.014712006 -0.015948936 0.08822781
-0.01073023 0.14644052 -0.049175017 -0.0056394935 0.14677928 -0.14987162 -0.119563185 -0.10480645
-0.008259699 0.08160348 0.047703996 -0.07524085 0.14612718 -0.06520117 -0.15089272 0.09009275
0.030251428 0.057137877 -0.12165382 0.04099808 -0.07321317 0.062894955 -0.13936932 0.113213316
-0.04539466 0.13870332 0.08203834 0.09160364 -0.11464518 -0.0675824 -0.047502264 -0.14807755
-0.09947875 0.05567625 0.061129518 0.0017117411 -0.038835727 0.09324808 -0.1653628 0.12369111
-0.054532167 -0.14252149 -0.17700665 0.1265788 -0.038388446 -0.023930088 0.14950606 -0.11828974
0.067998454 0.081204 -0.058577456 -0.09477249 0.023403227 -0.09080571 0.06304611 0.042742282
0.06344713 -0.07119341 0.061715875 -0.076014884 0.11396066 -0.13874747 -0.04813263 -0.14273429
0.052358598 0.14656608 0.10553686 -0.004892014 0.010107487 -0.02559495 0.08777158 0.03405294
-0.10043551 -0.09803228 0.015702039 0.012579471 -0.13491374 0.15758105 -0.016409531 -0.105769195
0.11050491 -0.119675726 0.029015372 0.11596204 -0.088053666 -0.14639746 -0.027278004 -0.0006096185
0.1378444 0.047710877 -0.112529494 0.09532009 -0.1375264 -0.026338115 0.096680656 -0.03087172
-0.05696156 -0.06784563 0.023899555 -0.020514274 0.07006559 -0.044375405 -0.15436906 0.0687049

weight f4 [64, 128]
00000000: 3639 483d 5997 c3bc d4e7 8ebd 2881 12bc
00000010: 79bb ba3b 6ad7 a33d e164 8a3d a814 073d
00000020: 4d6d cdbd 98e8 713e 3383 3b3c ad2a 9a3b
00000030: b4e4 82bc 2c85 2d3e 44b2 a7bc 1a53 7dbd
00000040: 3432 003e 8757 963d 7abf 5039 c0cf fbba
00000050: eb14 96bd 8605 78bd 047a 64bd 726e 563d
00000060: 1665 a13d 514e aa3d 4546 a53d 2083 3fbb
00000070: f01d 1e3c 0aba 5a3d d0ef c1bb 62b7 003d
00000080: d042 f73c 37ab bcbd 6c81 e3bc 4857 3f3e
00000090: cca1 cf3c c036 aaba d4a3 963d 2929 953d
000000a0: 476f b33c aa0a 263d bc50 febc 8bc2 033e
000000b0: 7838 313d 04be f53d d0d6 f43c f3b9 223e
000000c0: f810 323c fb0e 2b3e e649 653d a41c b5bc
000000d0: a959 17bd 7991 803b e7d9 d03d 8070 8fba
000000e0: a80f 2d3c 9e77 073d b54c 8d3d f037 7ebc
000000f0: b79e a13d 5b48 703d 53d3 9c3c 718a 9e3d
00000100: 21ec 53bd edb0 693e a2b4 cb3d 1231 1cbd
00000110: 1663 aebd e8ca ae3c 6d4a 123d 22cb bf3d
00000120: 91d8 8cbd 0032 ddbb 8155 57bd 8b62 5fbd
00000130: bafa 2d3d 59ff b1bd 9874 87bd ea99 d73d
00000140: ec2d adbd 8678 b5bd defe 45bd 4387 953d
00000150: e3a6 94bd 01e7 a8bd 4c0a 87bd bcd6 b13c
00000160: 2322 bcbd dca3 8dbc 168a 97bd 6c70 91bc
00000170: 362c 313d 72f3 6b3d e8ae 48bd efec a43d
00000180: d8a7 6f3c 08bd 2f3d e0b0 c73b 0773 a3bd
00000190: 9299 073d 584a 0b3c 183c c43c 4549 ecbc
000001a0: 8164 893d 25c2 123a 4599 f13a 4fab 48bd
000001b0: e000 84bc 4fb5 94bd 10a0 aabd 3560 fdbc
000001c0: ddbb b03d 13b9 2d3d 98c5 ad3c 3c2a c43c
000001d0: 71c6 9e3c 104c 1d3c 7af4 363d 20f2 2cbb
000001e0: fdac a53d f245 3d3d 3613 533d 72db 5f3d
000001f0: e5e6 dcbd e031 bebd 15d8 0b3e 6f0c 5cbd
00000200: 8019 8c3a 8429 95bd e2a7 913d af20 823d
00000210: 8490 bd3c 0647 bb3d 1d05 a23d 2bd3 18bd
00000220: 5a76 1fbd e0e0 67be 0d6d 083d 489b 3d3d
00000230: 8a68 7a3d a169 37bd bd33 f13d 2b35 b1bd
00000240: 7006 293d 1ced 9abd 715d a53c 0dcb 2abd
00000250: 745f bebc c033 d4ba 33b0 85bd da99 20bd
00000260: b895 1fbc dacc a9bd 7d4f 3abd f29b 4dbd
00000270: 4b85 aebd 3b38 813d 188f 80bd bc91 a7bc
00000280: ef25 b43d e0ca fe3d e59f 8e3d 5aa7 4abd
00000290: 00c4 1fba 52a5 263d ca87 fe3c 80a2 7b3c
000002a0: 79d6 3abd fee1 80bd 0b9a ac3d 06a4 48bd
000002b0: f7e8 e63c c838 8abd 98c8 50bc 916f 55be
000002c0: d319 933d 7518 2cbe 30e2 36bc 4f99 993d
000002d0: 28ea 3bbc aee4 5d3d 6763 e4bd b202 3e3d
000002e0: f2df 26bd 0d4d 83bd b499 563d 5e18 27bd
000002f0: 2023 9cbc a29e 3fbc 0a79 a43d 4d3b 01be
00000300: 7554 bbbc a44e 10be e494 323d f3f1 913d
00000310: dd05 27bd 1f29 20bd 0f5c a9bc 3440 6cbd
00000320: 56bb 783d 74dc 83bd a671 5f3d 95a3 8e3d
00000330: 7bc2 a93d 29e2 ca3d 107f ad3b 7683 0abe
00000340: 94c5 c0bc d68d ff3d c3b3 e2bd 0593 b03d
00000350: ab82 e83c 1022 18bc 46e6 773d 5486 bebc
00000360: 01c2 573d 479d aebd ba73 ce3d 83c5 4e3d
00000370: ee0c 5c3d cccd f83c 94e4 8bbc e655 5c3d
00000380: a061 42bb e34a bc3d b422 93bd 21aa 943d
00000390: 4d82 1b3d d8ff cdbc 70fb ee3c d203 0c3d
000003a0: 9611 2dbd 8a29 433e bb76 f5bc 80fe 6e3c
000003b0: b93e 9ebd 4007 703b 7a62 523d 622e a0bd
000003c0: 2065 b4bd 6d3f 1e3d 80c7 1c3b ce60 f5bc
000003d0: 5c37 163c e52b a53d 284e 4d3c 3bde 39bd
000003e0: 3f44 b1bd 1553 febd 5cfb 90bd 8e2c a7bc
000003f0: aa5d a8bd a59a 993d 468f a9bd bbfc b43d
0.048882686 -0.02387588 -0.069778115 -0.008941926 0.005698618 0.08000071 0.067575224 0.032978684
-0.10030613 0.23623884 0.011444855 0.0047047944 -0.015978195 0.16945332 -0.020470746 -0.06184683
0.12519151 0.07340913 0.00019907756 -0.0019211695 -0.073282085 -0.060552143 -0.055780426 0.052351423
0.07880609 0.08315719 0.080700435 -0.0029222444 0.009650692 0.053400077 -0.0059184805 0.031424887
0.030183226 -0.09212344 -0.027771674 0.18685639 0.025345705 -0.0012986287 0.073554665 0.07283241
0.021903647 0.040537514 -0.031044357 0.12867181 0.043266743 0.11999133 0.029887587 0.15891246
0.0108683035 0.16704933 0.05597868 -0.022108383 -0.03695074 0.0039235917 0.101978116 -0.0010943562
0.010562815 0.03307306 0.06899396 -0.015516266 0.078916006 0.058662754 0.019143736 0.07741249
-0.051738862 0.22821398 0.09946562 -0.038132735 -0.08514993 0.021336988 0.03571551 0.093649164
-0.06877244 -0.006750345 -0.052571777 -0.054537337 0.04247544 -0.08691282 -0.06614035 0.10527404
-0.084560245 -0.08860879 -0.048338763 0.0730119 -0.072583936 -0.082471855 -0.06593761 0.021708839
-0.091861986 -0.017290048 -0.07399385 -0.017753802 0.043255053 0.057605214 -0.04899493 0.08053004
0.014627419 0.042904884 0.006094083 -0.07980924 0.03310544 0.008501612 0.023954436 -0.028843531
0.06708623 0.0005598388 0.0018432519 -0.048991498 -0.016113698 -0.07261144 -0.08331311 -0.030929664
0.08629582 0.04241283 0.021212384 0.02394592 0.019381734 0.009600654 0.044666745 -0.0026389435
0.080896355 0.046209283 0.051531993 0.05465264 -0.10786227 -0.09286857 0.13656648 -0.053722795
0.0010688752 -0.07283309 0.07112099 0.0635389 0.0231402 0.09144406 0.079111315 -0.03731076
-0.03893123 -0.22644377 0.033307124 0.046290666 0.061134852 -0.04477847 0.117774464 -0.08652719
0.041265905 -0.07564756 0.020186158 -0.04169755 -0.023238875 -0.0016189739 -0.06527748 -0.039209224
-0.009740286 -0.082910255 -0.045485962 -0.05019755 -0.08521517 0.06309553 -0.06277293 -0.020455234
0.08796298 0.12441039 0.06964091 -0.049476005 -0.0006094575 0.040685005 0.031070609 0.015358567
-0.045614693 -0.062931046 0.08427819 -0.04898455 0.028187258 -0.067491114 -0.012743138 -0.2084334
0.0718266 -0.16806205 -0.011162326 0.074999444 -0.011469401 0.054173164 -0.11151772 0.04638929
-0.040740915 -0.06411181 0.052392676 -0.040794723 -0.019059718 -0.011695536 0.08030899 -0.12620278
-0.02286742 -0.14092499 0.043599024 0.07126226 -0.040777076 -0.039101716 -0.02067378 -0.057678416
0.060725532 -0.064385325 0.054551743 0.069647945 0.08289047 0.09906418 0.005294688 -0.13526711
-0.023531713 0.12478225 -0.11069443 0.08621792 0.02838262 -0.009285465 0.06052234 -0.023257412
0.05267525 -0.08526092 0.10080667 0.05048133 0.05372327 0.03037157 -0.017076768 0.053792857
-0.002966024 0.09193971 -0.071843535 0.07259012 0.03796606 -0.02514641 0.02917263 0.03418333
-0.0422531 0.19058815 -0.029963842 0.014587045 -0.07726807 0.0036625415 0.051363446 -0.07821347
-0.088083506 0.038634706 0.0023922622 -0.029953387 0.009168472 0.08065013 0.012530841 -0.04537795
-0.08655595 -0.124181904 -0.07079193 -0.020406988 -0.0822099 0.07500199 -0.0827928 0.08837267

bias f4 [64]
00000000: 643c b6bc d60b 2b3d 149d 8bbd 7dad 65bd
00000010: 1e83 c4b8 8181 a93d d07b abbc 18f9 8f3c
00000020: ca59 7a3c 062c 243d 64da de3c 9da8 c7bb
00000030: c858 6a3d b223 10bd 72ff 5abd 4f83 95bd
00000040: 8bd3 a4bd 48da fabc a4d2 0f3d 793e 08bd
00000050: 448a b2bd 66ca 7cbd 8366 823d 0602 0ebd
00000060: 4314 143d 3f64 01bc 277e ccbd 17cd 9f3d
00000070: b96f a4bc da22 01bc e014 873c 62f1 ebbc
00000080: 22f0 d73d a8ae 643c 4578 ddbc d4fb 57bd
00000090: f6cd 923d 10ac d93c ad69 25bd 6449 a5bd
000000a0: 38d0 22bd 6f36 45bd d9f1 433d 87cc 19bd
000000b0: b077 8abb e067 c3bd a479 ac3c 7c7d 7bbd
000000c0: a8aa 7ebc 2831 aa3c 7a24 1e3d da2c 6abd
000000d0: 5502 a6bd 847f 8cbd 802f 063c ffed 9fbd
000000e0: f88b 36bd fcf0 0b3d 0075 df3c 929d 143d
000000f0: 145f 66bd b945 a8bd a00b 493d f8c1 0bbc
-0.022245593 0.041759335 -0.0681707 -0.056073654 -9.370431e-05 0.08276654 -0.020933062 0.017574832
0.015280196 0.040081047 0.027203746 -0.0060930983 0.057213575 -0.03519029 -0.053466268 -0.07300436
-0.08048161 -0.030621663 0.035112992 -0.033262704 -0.08717778 -0.06171646 0.06367209 -0.0346699
0.036152136 -0.007897436 -0.09984999 0.0780279 -0.020072805 -0.007881844 0.016489446 -0.028801624
0.105438486 0.013957657 -0.027034888 -0.052730396 0.0716819 0.026571304 -0.040383983 -0.08070639
-0.039749354 -0.048147615 0.047838066 -0.037548568 -0.0042256936 -0.09541297 0.021054097 -0.061398968
-0.015543617 0.020775393 0.038609006 -0.05717168 -0.081059135 -0.06860259 0.008190036 -0.07809066
-0.04456708 0.034165367 0.02727747 0.036283083 -0.056243017 -0.082164235 0.049083352 -0.0085301325

weight f4 [32, 64]
00000000: 4d23 b53d 637e e63d 1c34 bf3d 3c20 2a3e
00000010: 6112 3ebd bc9c 113d 9e3d a5bd 06a7 e7bd
00000020: cd2b e0bc ca43 a53d 264b c73d ec96 353d
00000030: eaed 2a3d 3466 5f3d 1269 c73d 10ea 1a3c
00000040: 24fd e1bd 0c94 993d fcd9 b93d 281a 6ebd
00000050: de32 fabd 74c0 293d 2a36 cd3d cf1e 6b3c
00000060: da06 b3bd 6e52 efbd bdd1 84bc 3af4 a4bd
00000070: c491 f6bd 56d2 e9bc 4005 64bc ae99 b9ba
00000080: 229d 8bbc dc4b 3cbd 8bcf 1f3d 34a1 4b3d
00000090: aacd 173d 35f8 c53c 3ffd bdbb 6cac 50bd
000000a0: be10 dfbd 6950 8e3d f0fb 1bbc 10c5 a6bc
000000b0: b690 a63d a5ba e33d ac44 f03d ac3d 2c3d
000000c0: f8d2 97bd 48da 8dbc 12cc 8b3d 3603 963d
000000d0: 2ff7 9a3d 97fd 1e3d 8825 c23d 6f0e bf3d
000000e0: 31c9 093e 9a6f 1b3d 0b79 923d 569a d63d
000000f0: 009d b23d 8003 e7ba b41f 91bd acab d4bd
00000100: 7edd ad3d 7ccc 87bd d0ad 3e3c b41c 28bd
00000110: a4fb 053d e610 c93d 120c c33d d0bd ec3d
00000120: 80aa cdbd a283 903d 444b 29bd 509b 65bc
00000130: 2e08 d9bd e0c7 a63d b807 d93c 04c0 503d
00000140: 4677 f0bd e858 84bd de62 e13d 7ada e9bd
00000150: 003c da3a 9c41 6bbd 3468 a4bd 7870 3fbd
00000160: e495 1a3d 9ab3 a53d bef5 c23d ccad 7dbd
00000170: 64eb 5cbd f894 4dbd eebf cfbd 76a8 fabd
00000180: 9ef9 a2bd 5e9e c63d 6237 a3bd 4266 b53d
00000190: 2810 56bd 60c5 a5bc 3471 fc3d 28bc 10bd
000001a0: 1ca0 63bd 5842 9c3c 94c0 2d3d d497 e43d
000001b0: 66fe ebbd 7022 67bd e8c6 cbbd 404e 5f3c
000001c0: 3004 373d 6cce 94bd f01d ac3c d058 933c
000001d0: ce3a cdbd ded0 94bd 14bf 61bd de75 e6bd
000001e0: 046a 84bd 8c00 783d 00d8 823c 726d e33d
000001f0: 9e81 d13d 682f 7cbd 4c0e 44bd e4e8 1c3d
00000200: a288 92bd 77ab b4bd 303c 3abd 355f 273e
00000210: f3f3 733d 90cf 3a3d 0742 653d c68d 853d
00000220: d33b f53d 86d5 d43d 9e47 dc3d cf98 66bc
00000230: efd7 d93d 837c 083d 8eab a1bb d68c e43d
00000240: 628f ffbd 17f9 5fbd 5c2b 6f3d fa33 a4bd
00000250: e2c4 cf3d f4f3 4f3d c012 b8bc ba08 523d
00000260: 3475 10bc 1abc 26bd a08e 4ebd 8e7a eb3d
00000270: cfd1 bbbd 8263 063e a098 e6bd 8adc 7e3d
00000280: 196e a8bc f85e 5cbd 4eab bbbc a409 893d
00000290: 6351 13be 9aab 4bbd c7fe 613d 8ead d0bd
000002a0: 3e68 ea3d 9ed4 113d 19f8 b43c 041d d23d
000002b0: a867 03bd d9e3 ba3d 224c 873d d023 eebc
000002c0: 04ab 1e3d 2068 a1bb a047 99bb 908a 353c
000002d0: c5e7 d1bd c271 c0bd f0b0 d3bc e62e b43d
000002e0: 9a8f e23d 4e7d 96bb fc2a cc3d 7c3e 7dbd
000002f0: 20b5 c0bd 7ed4 df3d 5439 c8bd a0d9 e73b
00000300: cc2a 5c3d 8861 7fbd 1c79 983d 7cf6 a1bd
00000310: 9895 923c 8024 7bbd d47e eabd d0a1 d8bd
00000320: 201c bebb 4884 6ebd 386d 21bd e01b e93c
00000330: 9a45 85bd a0e4 ae3c 6898 163d 1c5a e03d
00000340: 609d 4cbd bcad 093d 687f 84bd 1484 553d
00000350: 0ea6 ffbd ea63 a6bd 3004 d33c c01b d9bb
00000360: e2e1 8f3d 46ce 80bd ca0f e1bd 1452 f9bd
00000370: 38ee adbd dc93 4a3d 4893 d2bd 6802 b13c
00000380: 887f f7bd 28c9 9bbd 6ceb 0bbd 5259 c73d
00000390: 80f6 d2bc 54c5 dc3d e241 9b3d faf3 d33d
000003a0: 7c4e 1c3d 8014 34bb 523c a93d f82f ebbc
000003b0: 8848 65bd 74f2 13bd 9418 59bd ec18 f63d
000003c0: e406 573d dc3a 1bbd e406 6fbd 184c 5a3d
000003d0: d832 8d3c a464 f83d 3862 ce3c d81c 933c
000003e0: 80ed 463d 602c 34bd 28f4 c4bd 585e cabd
000003f0: d820 643d 4026 743c 1eab 9bbd 7096 1e3c
0.08844624 0.11254575 0.09336111 0.16613859 -0.046404246 0.035549864 -0.08068393 -0.11311154
-0.027364636 0.0806957 0.0973113 0.044333383 0.0417308 0.054540828 0.097368374 0.009455219
-0.11034611 0.07498941 0.0907478 -0.058130413 -0.122167334 0.041443303 0.100200966 0.014350607
-0.08741541 -0.11685644 -0.016213292 -0.08054395 -0.12039521 -0.028542679 -0.013917267 -0.001416018
-0.0170427 -0.045970783 0.039016288 0.049714282 0.03706137 0.024166206 -0.0057980116 -0.050945684
-0.10891865 0.06948931 -0.009520516 -0.020357639 0.0813307 0.11119584 0.11731848 0.042051002
-0.07413286 -0.017315999 0.06826033 0.07324831 0.07566678 0.03881606 0.09479815 0.09328925
0.13455655 0.03794823 0.07151993 0.10478656 0.087213516 -0.0017624944 -0.07086125 -0.10384306
0.08489512 -0.06630799 0.01163812 -0.041043 0.032710686 0.09817676 0.095237866 0.11559641
-0.10042286 0.07056357 -0.041331545 -0.01401408 -0.10597263 0.08143592 0.026492938 0.05096437
-0.117414996 -0.0646227 0.110051855 -0.11418624 0.0016649961 -0.057435617 -0.08027688 -0.046738118
0.037740603 0.08090897 0.09519528 -0.061933324 -0.053935423 -0.050190896 -0.101440296 -0.122391626
-0.07957767 0.09698175 -0.07969548 0.08857395 -0.0522615 -0.020235717 0.12326279 -0.03533569
-0.055572614 0.019074604 0.042419985 0.111617714 -0.11523132 -0.056429327 -0.09950048 0.013629496
0.044681728 -0.07265934 0.021010369 0.017986685 -0.10020982 -0.07266401 -0.055113867 -0.1125295
-0.064655334 0.060547397 0.015972137 0.111048594 0.10229801 -0.061568648 -0.047865197 0.03830804
-0.07154967 -0.08821767 -0.045467556 0.16344912 0.05955882 0.045608103 0.05597117 0.06521182
0.11974301 0.10392289 0.107558474 -0.014074518 0.10636889 0.03332187 -0.004933781 0.11159675
-0.1247852 -0.05468091 0.05839096 -0.08017726 0.10144974 0.05076976 -0.022469878 0.051277854
-0.008817006 -0.04070673 -0.050428987 0.11497985 -0.09170877 0.13123897 -0.1125958 0.06222204
-0.020560311 -0.053801507 -0.022908833 0.06691292 -0.14386515 -0.0497242 0.055174615 -0.10189353
0.11445664 0.03560316 0.022090958 0.102594405 -0.032081276 0.0912549 0.06606318 -0.029069811
0.038737312 -0.0049257427 -0.004677728 0.011080399 -0.10249285 -0.093966976 -0.025841206 0.08798008
0.11062546 -0.004592574 0.09969136 -0.061827168 -0.09409547 0.109292015 -0.097765595 0.0070755035
0.05375175 -0.062348872 0.07444975 -0.07908341 0.017893597 -0.061314106 -0.11449972 -0.10577738
-0.0058016926 -0.058231622 -0.0394108 0.028455675 -0.06507416 0.021349251 0.03676644 0.10954687
-0.049954772 0.03361295 -0.06469613 0.052127913 -0.12482844 -0.08124526 0.025758833 -0.0066256225
0.070255056 -0.062893435 -0.1098934 -0.12173858 -0.08492702 0.049457416 -0.10281998 0.021607593
-0.120848715 -0.07606727 -0.034160063 0.097338334 -0.025752306 0.10779825 0.075809255 0.10349269
0.038160786 -0.002747804 0.08263458 -0.028709397 -0.055977374 -0.036119893 -0.053001955 0.12016472
0.052496806 -0.03789793 -0.05835618 0.053295225 0.017236158 0.12128571 0.025193319 0.01795809
0.04856634 -0.04398763 -0.096168816 -0.09881276 0.055695385 0.014901698 -0.076009974 0.009679422

bias f4 [32]
00000000: 41e2 18be 7a16 be3d b43f e33d 74d8 38bd
00000010: 03ee c13d a811 cf3d c0c9 44bb 0e9b b9bd
00000020: 1597 fcbc 4af9 e63d 6b55 e6bd 665c 593d
00000030: d0ab 3abd 5872 653d af84 d13c 24a2 333d
00000040: c5cb 10bd bc22 833d 737b 82bd 3ec5 10bd
00000050: b7be 7a3c 3216 babd 1407 04bd c6b3 65ba
00000060: 1a3a b23d bf50 063e 5099 aabd 5030 6f3d
00000070: f00e c53c 0546 3e3d f053 083c e6cc 94bc
-0.14930059 0.09281631 0.11096135 -0.0451283 0.09469225 0.101107895 -0.003002748 -0.090627775
-0.03083376 0.11278017 -0.11246761 0.053066634 -0.04557401 0.05601725 0.025575964 0.0438558
-0.03535058 0.064031094 -0.06371202 -0.035344355 0.015304259 -0.09086265 -0.032233313 -0.0008762445
0.08702488 0.1311674 -0.08330023 0.058395684 0.024054974 0.046453495 0.0083207935 -0.01816411

weight f4 [8, 32]
00000000: f4fe d53d 36ec a43d 4810 40be 4002 133d
00000010: 5fa8 30be 7347 69bc 3ec8 d63d b105 bdbd
00000020: f066 103c 95b0 41be d77f 54bd 818a 193e
00000030: ffb6 173e 8625 c13d 2fda 21bc a09a 403d
00000040: edc4 53bd 78e3 fd3d 986b 67bd 0bf4 91bd
00000050: d34a e83b 607d 9b3c 176f d3bd c60d bd3d
00000060: 1ae8 ce3d 8095 183d 4ead 5f3d f814 a43c
00000070: 762a 243e 9d34 123e fd5c 7c3d 1436 a1bd
00000080: 7a86 8d3c 009d 973a 0ec4 f23d fd93 0a3e
00000090: f85e 9f3d f963 8e3e a04c e1bc 9e08 f53d
000000a0: 6685 663d 9573 7fbe dcdf 523e 1dbd 273e
000000b0: 4c98 023f e0fd e23d 217d e03d a9e4 c2bd
000000c0: f603 2cbd f385 37be 80e3 48bb 1c6b e8ba
000000d0: 3c61 d6bc 4025 debc e8f3 63bd da1b 1f3c
000000e0: 09de 273e ae4f ee3d 89f9 1fbe 13ba 0dbe
000000f0: 2795 093e dae6 463d c397 09be 43b1 2a3e
00000100: 2cd8 47bd 9081 16bc 143d 83bd d0c7 893c
00000110: 7163 9b3d 0104 04bd e199 243e 88d1 cbbc
00000120: 2a2b debd 7dfe 71bd 9131 433e 35d5 d6bd
00000130: 75e9 b9be fbb5 5abd bf56 2b3e fc70 8cbd
00000140: 1678 bf3d d3ed 84bd b6ba d13d 1b89 223e
00000150: 67e6 c63d 3007 b63c 60c1 f63b aa90 d6bd
00000160: a89a 753d 9677 de3d 4016 243c f94c 1f3e
00000170: c1e9 3f3e c10d 17be 0572 0dbe 79e8 103d
00000180: 7ad0 343e 2928 113e c868 443e 4657 c1bd
00000190: 2f99 55bd a940 913d f311 c0bd 27cf 053e
000001a0: 3fa1 ebbd e219 023d 0ee5 083e 1a1b 223d
000001b0: a1d4 38be 3468 0b3d efa4 3f3e b404 773c
000001c0: efc7 5cbe f2be 1c3e 11e9 efbd a636 1c3e
000001d0: 9788 9abd b0ab 34bc 5464 c2bd f6ca 83bd
000001e0: 0027 c93c 6f26 41bd 4cf1 443e 5cee 463d
000001f0: 2434 863d da9c a53d fbb2 9cbd 7039 03be
00000200: ebed fcbd 17fe b8bd fa84 413c 3ecc 19be
00000210: a321 be3d 0c70 54bd 80bc 193d c019 693b
00000220: 65f1 0dbe 18cb 553e 6f24 0ebe ac92 3cbf
00000230: 607b 1d3e b432 04be 2068 ecbd 063d b83d
00000240: 58bf 973d a5be 38be 6e32 b63d 3fd4 8d3d
00000250: 4dbb 483e e060 0f3c d828 04bd bc7a 383d
00000260: 94c2 51bd 9b97 373d 739e 2b3e fae0 c33d
00000270: dc05 f6b9 b8e0 983c e67c 513e 021b d93d
00000280: a82f 113d 945b 17be 3aca 3cbe 27a6 0b3e
00000290: 43af d63d 6ad2 2cbe 6416 30bd a06b bd3c
000002a0: 402e bebb fc81 8fbd 18ee 5fbd 23da 11bd
000002b0: e8f3 183d 5007 e3bc 5f56 1f3e 3776 2d3e
000002c0: f8fa 23be 5cde 783d 7a69 f63d e08a a23c
000002d0: 5969 99bd 2007 2bbe b4f2 61bd 4762 8dbd
000002e0: 8e86 c13d a9b4 c43d 7903 9bbd 7e4c d93d
000002f0: ac51 43bd 1480 2fbd 8782 89bd d07a e8bd
00000300: bb3c 31be 5413 cbbd 2c32 1dbe c706 273e
00000310: 7456 e03d cd5f 10be ce49 f8bd f093 bebd
00000320: c288 183d 6490 813d d3c0 653d 803f 0dbd
00000330: 87ed 233e a141 183e 00bc f3bd 85ee 30be
00000340: 2cff 18be 14e6 11bd 565e 24be e865 7f3d
00000350: 1146 9d3d 7a50 9b3d b0d4 9cbc a93a b2bd
00000360: be01 2dbe 178b 063e be39 6abc 6c05 27be
00000370: bee9 22be bc80 033d b0f1 b83d 629a 29be
00000380: fd62 d5bd eb48 2bbe f749 7bbd d0f3 a33c
00000390: 9f7e 233c a99e f9bd 8c49 333d 1ffb ecbd
000003a0: 1323 52bd 75f3 8f3d 4be1 db3d bda1 ec3d
000003b0: 394d f03d dbbd a4bc e26c 953d 1b84 0e3e
000003c0: 1213 253e 4f55 ab3c 9a96 e6bd 109b 3a3c
000003d0: 4c2b 83bd 1470 45bd 80e9 02bc 6d39 233e
000003e0: 9b76 1ebe 314a 5abd 6ee3 983c ce3e 10be
000003f0: 5808 f0bd 7551 2dbe 0a93 933b c3bf 67bf
0.10449019 0.08052866 -0.18756211 0.035890818 -0.17251728 -0.014238226 0.10487412 -0.09229601
0.008813605 -0.18915017 -0.05187973 0.14994241 0.14815901 0.09430985 -0.009878679 0.047022462
-0.051701475 0.12396902 -0.056499094 -0.071266256 0.007088998 0.018980682 -0.10323923 0.09231143
0.101028636 0.03725195 0.054608636 0.02002953 0.16031823 0.14277883 0.061612118 -0.07871643
0.017276037 0.0011567175 0.11853801 0.13533016 0.07781786 0.27810648 -0.027502358 0.11964534
0.056279562 -0.24946435 0.20593208 0.16380735 0.51013637 0.11083579 0.109613664 -0.0951627
-0.041995965 -0.17922191 -0.0030653179 -0.0017732116 -0.026169412 -0.027117372 -0.05565253 0.00971123
0.16393293 0.116362914 -0.15622534 -0.13840513 0.13435803 0.04856 -0.13436799 0.16669182
-0.048790142 -0.009186164 -0.06408134 0.01681891 0.07587326 -0.03223038 0.16074325 -0.024880186
-0.10848077 -0.05908059 0.19061877 -0.10489885 -0.36310926 -0.053396206 0.1673231 -0.068574876
0.093490764 -0.06490674 0.102406904 0.15872614 0.097119145 0.022220224 0.0075303763 -0.10476811
0.059961945 0.10862653 0.01001507 0.15556706 0.18741514 -0.1475134 -0.13813026 0.035377953
0.17657652 0.14175476 0.19180596 -0.09440474 -0.05214804 0.07092411 -0.093784235 0.13067304
-0.115053646 0.031762965 0.13368627 0.039576627 -0.18049861 0.034034923 0.18715261 0.015076805
-0.21560644 0.15307215 -0.11714376 0.15255222 -0.07545584 -0.011027262 -0.09491792 -0.06435196
0.02455473 -0.047155794 0.19232672 0.04856716 0.06552914 0.08086558 -0.07651325 -0.1281488
-0.12350067 -0.09032839 0.011811489 -0.15019318 0.092837594 -0.05186467 0.037533283 0.0035568327
-0.13861616 0.20878255 -0.13881086 -0.73661304 0.15379095 -0.12909967 -0.11543298 0.08996014
0.07409543 -0.18041475 0.088963374 0.06925248 0.196027 0.008751124 -0.032265514 0.045038924
-0.051210955 0.044822317 0.16759662 0.09564395 -0.00046925142 0.018661842 0.20457801 0.106008545
0.03544584 -0.14781028 -0.18436518 0.13637601 0.10482647 -0.16877142 -0.042990103 0.023122609
-0.0058038533 -0.070072144 -0.054670423 -0.035608422 0.037341982 -0.027713448 0.15560292 0.16939627
-0.16013706 0.060758933 0.12031837 0.019841611 -0.074907966 -0.16701937 -0.0551631 -0.069035105
0.094494924 0.09604771 -0.07569022 0.10610293 -0.04768531 -0.042846754 -0.06714349 -0.113515496
-0.17308323 -0.09915796 -0.1535117 0.16311179 0.109539896 -0.14099045 -0.12123452 -0.093055606
0.037239797 0.063263685 0.056092095 -0.034484386 0.16008578 0.14868785 -0.119010925 -0.17278488
-0.1494109 -0.03561981 -0.16051611 0.062353045 0.0767938 0.07583709 -0.019144386 -0.08702595
-0.16895196 0.13138996 -0.014295993 -0.16310662 -0.15909478 0.032105193 0.09030473 -0.16562799
-0.10419271 -0.16727035 -0.061349835 0.02001372 0.009978919 -0.12188465 0.04377131 -0.11571335
-0.05130298 0.070288576 0.107363306 0.11554287 0.11733479 -0.020110061 0.072961584 0.13917582
0.16120556 0.020914702 -0.11259194 0.011389509 -0.064047426 -0.04820259 -0.007990241 0.15939875
-0.15474932 -0.05329341 0.018663134 -0.14086458 -0.117203414 -0.16925605 0.0045036124 -0.9052698

bias f4 [8]
00000000: b3be 1e3e e930 9bbd ceaa b63d d7b5 913d
00000010: 33ee 4abd 7c03 ba3d 9068 3ebe ab49 6e3d
0.15502433 -0.07577688 0.08919297 0.07114761 -0.04954357 0.09082696 -0.18594575 0.058175724

weight f4 [4, 8]
00000000: 5eb7 47be 3732 8f3e 080f 313d 30c4 8ebe
00000010: 486f 1d3d c0e2 41bd e662 3c3e ca61 333e
00000020: b87f 3cbe 9574 843e c8cd c3bd fc3e fbbd
00000030: 66b5 433e 40d4 fe3c b617 4b3e 7164 9fbe
00000040: 61d5 99be 1f5b 813e c025 8cbe 8554 86be
00000050: 04d3 133e b02f d3bd 00a7 70be 0465 a3bd
00000060: ca69 7c3e 1755 38be 4a84 6c3e cc76 0b3e
00000070: 701b 1fbe d108 a93e 8e53 5abe d832 0dbd
-0.19503543 0.27967998 0.043227226 -0.27884054 0.038436204 -0.047335386 0.18397102 0.17517772
-0.18408096 0.25870195 -0.09560734 -0.12267873 0.19112167 0.031107068 0.19833264 -0.31131318
-0.30045608 0.25264832 -0.2737255 -0.26236358 0.14435965 -0.1031183 -0.23501205 -0.079782516
0.2464973 -0.18001209 0.2309734 0.13619536 -0.1553781 0.3301454 -0.21320936 -0.034472317

bias f4 [4]
00000000: 50d9 903d bc0e bb3d b8df 93bd a0d4 8fbd
0.07072699 0.0913367 -0.07220405 -0.07022977
