training/ann/models/ann2.pth (torch, 68622 bytes, 10 tensors)

weight f4 [128, 40]
0	0x3e172301	0.14759447
1	0xbdc9c39e	-0.09851764
2	0xbd164938	-0.03669092
3	0xbd2bb5c6	-0.0419214
4	0x3dd855e6	0.10563259
5	0x3e0b454f	0.13600658
6	0x3c5857a0	0.013204485
7	0x3e0a761f	0.13521622
8	0xbc999ff8	-0.018753037
9	0x3de6ce2a	0.112697914
10	0xbda52142	-0.08062984
11	0xbe075ca7	-0.13218938
12	0xbe1b8a5d	-0.151895
13	0x3e1515ab	0.14559047
14	0x3da33542	0.079691425
15	0xbe153569	-0.14571156
16	0x3e14b7f1	0.14523293
17	0x3d83e5b4	0.06440297
18	0xbda33e4f	-0.07970869
19	0xbe0314d6	-0.12800917
20	0xbd87bd85	-0.06627945
21	0xbc004ff0	-0.007831559
22	0x3d12c8b0	0.03583592
23	0x3bbc4d80	0.0057465434
24	0xbd0fc69a	-0.03510151
25	0x3d0e0c78	0.03467986
26	0xbc1e3230	-0.00965552
27	0xbd9bfdea	-0.0761679
28	0x3dfff94e	0.12498723
29	0xbcaccee8	-0.021094754
30	0xbd2461fe	-0.040132515
31	0xbd2bfc56	-0.041988693
32	0xbdd533b8	-0.10410255
33	0xbd173876	-0.03691908
34	0xbd63e722	-0.055640347
35	0x3cdb28d0	0.02675286
36	0xbdb8c737	-0.09022372
37	0x3e15e4ff	0.14638136
38	0x3dd03242	0.10165836
39	0x3d005a48	0.0313361
40	0xbce80730	-0.02832374
41	0xbd374b14	-0.044749334
42	0x3e06156f	0.13094114
43	0xbc975a60	-0.018475711
44	0xbe10bd09	-0.14134611
45	0xbdca608e	-0.098816976
46	0xbdb89dc3	-0.09014466
47	0x3e06026d	0.13086863
48	0x3dfcbb16	0.12340371
49	0xb9e4c000	-0.000436306
50	0xbe0f626f	-0.14002393
51	0x3e177551	0.14790846
52	0xbd186592	-0.03720624
53	0x3d6cbf2c	0.057799503
54	0xbe189c58	-0.1490339
55	0x3de292d6	0.11063163
56	0x3d6174d8	0.05504307
57	0xbd4913da	-0.049091198
58	0xbe076582	-0.13222316
59	0x3e07b7cf	0.13253711
60	0xbd470472	-0.048588224
61	0x3e162cbb	0.14665501
62	0xbd08e11a	-0.0334178
63	0xbd9aeb2e	-0.07564388
64	0xbc6c1780	-0.0144099
65	0xbd33326a	-0.04374925
66	0xbcb7d028	-0.022438124
67	0x3e1eed85	0.15520294
68	0x3d79e86c	0.06101267
69	0xbcd8b088	-0.026451364
70	0x3d247308	0.040148765
71	0x3bde6e00	0.0067880154
72	0x3e1007b3	0.14065437
73	0x3e1c267d	0.15249057
74	0xbe1018d5	-0.14071973
75	0x3e14bf9b	0.14526217
76	0xbd836ade	-0.06416868
77	0xbde1190a	-0.10991104
78	0x3e15566b	0.14583747
79	0x3e1e7c7f	0.15477179
80	0xbc987050	-0.018608242
81	0xbd96d283	-0.07364371
82	0x3c9eef90	0.019401342
83	0xbd80ff7f	-0.06298732
84	0xbd679bcc	-0.056545064
85	0xbdaeda47	-0.08537727
86	0x3c9370e0	0.017998159
87	0xbde9a299	-0.11407966
88	0x3e0074a7	0.125445
89	0x3d381850	0.04494506
90	0x3e142573	0.1446741
91	0x3de1d156	0.11026256
92	0x3dbd4fc2	0.09243728
93	0x3dec9eba	0.11553712
94	0x3d2e2020	0.042511106
95	0xbbb8f9e0	-0.005645022
96	0x3d839bc6	0.06426196
97	0xbe121652	-0.14266327
98	0xbca56fe8	-0.020194963
99	0x3e03003b	0.12793057
100	0x3d6da758	0.05802092
101	0xbdd37aa8	-0.10326129
102	0xbc315600	-0.010823727
103	0x3d87948e	0.066201314
104	0x3dc7f44a	0.09763391
105	0x3dff0812	0.12452711
106	0x3d1f4a10	0.03888899
107	0xbd2b850e	-0.041874938
108	0x3dd22b02	0.10262109
109	0xbd2fefc0	-0.042953253
110	0x3deb383e	0.11485337
111	0xbd286d06	-0.041119598
112	0xbd250fea	-0.04029838
113	0xbc8ab1a8	-0.016930416
114	0xbd24811a	-0.040162183
115	0x3e0e286b	0.13882606
116	0xbdcee655	-0.10102526
117	0xbe067430	-0.1313026
118	0x3e179891	0.14804293
119	0xbd70e384	-0.058810726
120	0xbf3f71ab	-0.7478282
121	0xbf01ad0c	-0.50654674
122	0xbf018186	-0.5058826
123	0x3d2d2af0	0.042277277
124	0xbf405991	-0.7513667
125	0xbf211830	-0.6292753
126	0xbf2e0d58	-0.6798911
127	0xbefa9baf	-0.48946902
128	0xbf20191d	-0.6253832
129	0xbf2c7795	-0.6736997
130	0xbf247229	-0.64236695
131	0xbf0b29c7	-0.5436062
132	0xbf0802cb	-0.5312926
133	0xbf038422	-0.51373494
134	0xbef5e947	-0.4802954
135	0xbf15e047	-0.58545345
136	0xbf0fd750	-0.56187916
137	0xbf1b387d	-0.6063307
138	0xbf0dcb3f	-0.55388254
139	0xbf2a178a	-0.6644217
140	0xbf396a4b	-0.72427815
141	0xbf2c36b2	-0.6727096
142	0xbf038c7f	-0.51386255
143	0xbf0f071b	-0.5587022
144	0xbf25890d	-0.6466225
145	0xbf2a8308	-0.6660619
146	0xbefcfc67	-0.49411318
147	0xbf0ab12e	-0.54176605
148	0xbf2daa6b	-0.6783816
149	0xbf3dc2a7	-0.7412514
150	0xbf06c833	-0.5264923
151	0xbf0e117d	-0.55495435
152	0xbf1dc68b	-0.6163108
153	0xbf2fa57e	-0.68611896
154	0xbf15a527	-0.5845513
155	0xbf103df5	-0.5634454
156	0xbf385942	-0.72011197
157	0xbf32712b	-0.6970393
158	0xbf0c2386	-0.54741704
159	0xbf314c57	-0.6925711
160	0xbf47f92d	-0.7811459
161	0xbf161881	-0.5863114
162	0xbf3fb014	-0.7487805
163	0xbe06945c	-0.13142532
164	0xbf3ea209	-0.74465996
165	0xbf4f5dad	-0.8100231
166	0xbe75ae78	-0.23992336
167	0xbf1eafc5	-0.61986953
168	0xbef30cdf	-0.47470757
169	0xbf2f9b61	-0.68596464
170	0xbefc2d65	-0.49253383
171	0xbf49d713	-0.788438
172	0xbf16a9d6	-0.588529
173	0xbf0a8198	-0.54103994
174	0xbf4417c3	-0.7659876
175	0xbf1722c1	-0.59037405
176	0xbf350755	-0.7071431
177	0xbf552139	-0.8325382
178	0xbf207362	-0.6267606
179	0xbf2ca5dc	-0.6744058
180	0xbf42df82	-0.76122296
181	0xbf194969	-0.5987764
182	0xbf1f315d	-0.621847
183	0xbf309280	-0.6897354
184	0xbf80b38b	-1.0054792
185	0xbf231acc	-0.63712764
186	0xbf2d8ede	-0.67796123
187	0xbefaf0ba	-0.49011785
188	0xbf092545	-0.53572494
189	0xbf0269a5	-0.5094245
190	0xbf23a4bd	-0.63923246
191	0xbf4de01d	-0.80420095
192	0xbf356c15	-0.70868045
193	0xbf10d292	-0.56571305
194	0xbf196977	-0.5992655
195	0xbf32cb15	-0.6984113
196	0xbf3297bd	-0.69762784
197	0xbf358384	-0.709038
198	0xbf151687	-0.582375
199	0xbf186507	-0.59529155
200	0xbf0ac523	-0.54207057
201	0xbf034d1a	-0.5128952
202	0xbf31bc0e	-0.69427574
203	0x3db859b4	0.090014845
204	0xbf2258c5	-0.634167
205	0xbf3592ba	-0.7092701
206	0xbf0a2d78	-0.5397563
207	0xbef2724c	-0.47352827
208	0xbeeb29f5	-0.45930448
209	0xbf1deea0	-0.6169224
210	0xbf11471b	-0.56749123
211	0xbf07ca9d	-0.5304354
212	0xbf01912c	-0.5061214
213	0xbf196ea0	-0.59934425
214	0xbf0f53ec	-0.5598743
215	0xbe950ab0	-0.29109716
216	0xbf1089cf	-0.5646028
217	0xbf0157e9	-0.50524765
218	0xbf0d07ea	-0.550902
219	0xbf0a9c8d	-0.5414513
220	0xbf1e9f2f	-0.61961645
221	0xbf4b1328	-0.79326105
222	0xbf1067b2	-0.56408226
223	0xbf117a63	-0.5682737
224	0xbec6ee96	-0.38853902
225	0xbed30096	-0.41211385
226	0xbf434db6	-0.7629045
227	0xbea0a454	-0.31375372
228	0xbf0676ac	-0.5252483
229	0xbf10e44c	-0.56598353
230	0xbef3075d	-0.47466555
231	0xbf4fedc5	-0.8122218
232	0xbf44d284	-0.7688372
233	0xbecfa8c4	-0.40558445
234	0xbf482f39	-0.78197056
235	0xbeffb93e	-0.49946016
236	0xbed58052	-0.41699463
237	0xbf2a0b28	-0.66423273
238	0xbf35f314	-0.7107403
239	0xbf0f758f	-0.56038755
240	0xbf0da8e5	-0.5533584
241	0xbf031817	-0.51208633
242	0xbf09bf4d	-0.53807527
243	0xbd01506c	-0.031570837
244	0xbf19f179	-0.60134083
245	0xbf11857e	-0.5684432
246	0xbf0cf5a0	-0.55062294
247	0xbf0ce30f	-0.55033964
248	0xbf2c6c55	-0.673528
249	0xbf2ac9c6	-0.6671413
250	0xbf3a71fa	-0.72830164
251	0xbf5981c0	-0.8496361
252	0xbec0f411	-0.37686208
253	0xbf3d9a93	-0.74063987
254	0xbf16bfd5	-0.5888646
255	0xbf63a372	-0.8892127

bias f4 [128]
0	0xbd2005e2	-0.03906811
1	0xbe003b77	-0.12522684
2	0xbc2a7bc0	-0.010405481
3	0xbf09f9d4	-0.5389683
4	0xbf1e1224	-0.6174643
5	0xbf324b76	-0.69646394
6	0xbedabb07	-0.42720816
7	0xbf2eafc6	-0.6823696
8	0xbf1d6fbe	-0.6149863
9	0x3c81c3f0	0.0158405
10	0xb8535000	-5.0380826e-05
11	0x3e142aa7	0.14469396
12	0xbf0920b5	-0.5356553
13	0xbf0d148b	-0.5510947
14	0x3d91e672	0.07124032
15	0x3dae464e	0.08509503
16	0xbf216bae	-0.6305493
17	0xbd6bc14c	-0.05755739
18	0xbf1fb81e	-0.62390316
19	0xbd64b72c	-0.05583875
20	0x3d20626c	0.039156362
21	0xbf1d3f2d	-0.61424524
22	0xbf508a32	-0.8146087
23	0x3d79c984	0.060983196
24	0xbf5e7b81	-0.869072
25	0xbf21cd99	-0.6320434
26	0xbf0bc89f	-0.54603
27	0x3bc4eba0	0.006009534
28	0xbf224d1c	-0.6339891
29	0xbdc87e60	-0.09789729
30	0xbdec8cf7	-0.115503244
31	0xbf30cc3b	-0.6906163
32	0xbd7faaca	-0.062418737
33	0x3cf06538	0.02934514
34	0xbf04a48a	-0.51813567
35	0xbd88e319	-0.066839404
36	0x3d26f39c	0.040759668
37	0xbdfecdb4	-0.124415785
38	0xbf2ef587	-0.68343395
39	0x3dae4eae	0.08511101
40	0xbf404c86	-0.75116765
41	0xbf409e96	-0.7524198
42	0x3e0bbd99	0.13646545
43	0x3c549ea0	0.012977272
44	0xbd2c376e	-0.04204505
45	0xbf065db9	-0.5248676
46	0xbf0c9f33	-0.5493042
47	0xbf2315aa	-0.6370493
48	0xbd45540a	-0.04817585
49	0xbf112a9c	-0.5670564
50	0xbef8292d	-0.48468915
51	0xbf04ae4d	-0.5182846
52	0xbf0c4627	-0.54794544
53	0xbf35638c	-0.7085502
54	0x3e9a719a	0.30164796
55	0xbf198398	-0.5996642
56	0xbd134dd4	-0.035962895
57	0xbf3f1d61	-0.74654204
58	0xbefb2f58	-0.49059558
59	0xbee854bd	-0.4537715
60	0xbf0f02f5	-0.5586389
61	0xbefd4136	-0.49463814
62	0x3df67b22	0.120352045
63	0xbf1f8e76	-0.62326753
64	0x3d8cf8de	0.06883405
65	0xbeed7809	-0.46380642
66	0xbf3c1d21	-0.7348195
67	0xbced14c0	-0.028940558
68	0xbf1ce0c5	-0.6128047
69	0xbf519280	-0.81864166
70	0xbde646ea	-0.112439945
71	0x3dfe62b2	0.124211684
72	0xbe14202d	-0.14465399
73	0xbd993ec6	-0.07482676
74	0xbf2da3f2	-0.67828286
75	0x3dde27d2	0.10847439
76	0x3d05add4	0.03263648
77	0xbe179688	-0.14803517
78	0xbf2bb6b2	-0.67075646
79	0xbf260d82	-0.6486436
80	0x3de3a2ee	0.11115061
81	0x3b803960	0.0039130896
82	0x3d6a9f5c	0.057280883
83	0xbcd09200	-0.025460243
84	0xbf46ff53	-0.77733344
85	0xbddcb928	-0.10777503
86	0xbf2f2559	-0.68416363
87	0xbf4ff483	-0.8123247
88	0xbdae1e94	-0.08501926
89	0xbf078287	-0.52933544
90	0x3e055e31	0.13024212
91	0xbf20ac3a	-0.62762797
92	0xbcacb430	-0.021082014
93	0xbf0143c5	-0.50494033
94	0xbe0d8c85	-0.13823135
95	0xbd8d9429	-0.06913025
96	0x3e571b2b	0.21006458
97	0xbd18fd52	-0.03735096
98	0x3db1473e	0.086561665
99	0xbe0959d7	-0.13413177
100	0xbf0e8e4d	-0.55685884
101	0xbf2815f5	-0.65658504
102	0xbf298c16	-0.6622938
103	0xbf400a86	-0.7501606
104	0xbc983a28	-0.018582419
105	0xbdc10d57	-0.094263725
106	0xbf3dff85	-0.74218017
107	0xbdfc3d4e	-0.123163804
108	0xbef30383	-0.47463617
109	0x3d2fb2f8	0.042895287
110	0x3d90a3b6	0.070624754
111	0xbdd9c2af	-0.10632836
112	0xbf1aeda1	-0.6051884
113	0xbd608890	-0.054817736
114	0x3dd11c76	0.102105066
115	0x3d9ff146	0.07809691
116	0xbf0fffa0	-0.5624943
117	0xbf01d3f5	-0.50714046
118	0x3d9520a6	0.07281618
119	0xbf0c709d	-0.54859334
120	0xbf18424f	-0.5947618
121	0x3dbe9c6e	0.0930718
122	0xbf25dffc	-0.647949
123	0xbdf7569f	-0.120770685
124	0xbf5110c6	-0.8166622
125	0xbf085375	-0.53252345
126	0xbd2752d4	-0.040850475
127	0xbf2c75f4	-0.6736748

weight f4 [64, 128]
0	0x3d44a53a	0.048009135
1	0x3d7a32da	0.061083652
2	0xbda362c5	-0.07977823
3	0xbf059cf8	-0.5219264
4	0xbf2efefd	-0.6835783
5	0xbf06dd8b	-0.526818
6	0xbf286bbf	-0.6578941
7	0xbf05c6d0	-0.5225649
8	0xbf1c1863	-0.6097471
9	0x3dabe8e3	0.08394029
10	0x3ab537c0	0.0013825819
11	0xbd136f21	-0.035994653
12	0xbf07dcea	-0.53071463
13	0xbf0bebd2	-0.5465671
14	0xbd75294c	-0.059853837
15	0x3c142a58	0.009043299
16	0xbf1fbdf0	-0.62399197
17	0x3a68b200	0.0008876622
18	0xbf1d5baf	-0.61468023
19	0x3d6ad1da	0.057329036
20	0xbd234f94	-0.039870813
21	0xbf158c32	-0.58417046
22	0xbf12e381	-0.57378393
23	0xbd26516e	-0.040605
24	0xbf118d1a	-0.5685593
25	0xbf1bb192	-0.60817826
26	0xbf1c9e0b	-0.61178654
27	0xbc7871f8	-0.015163891
28	0xbf175bc5	-0.59124404
29	0xbd9a6234	-0.07538262
30	0x3ca41bc8	0.020032778
31	0xbf2b6f7c	-0.66966987
32	0x3c1a5438	0.009419493
33	0x3d988755	0.074476875
34	0xbf1730c1	-0.5905877
35	0xbd46109b	-0.04835568
36	0xbd23d5f3	-0.03999896
37	0x3cc79774	0.02436421
38	0xbf0b5b98	-0.54436636
39	0xbf19b403	-0.600403
40	0xbf1e9fa0	-0.6196232
41	0xbf0c3060	-0.54761314
42	0xbadc4280	-0.0016804487
43	0x3d75908e	0.05995231
44	0xbd792a4a	-0.060831346
45	0xbf2d906d	-0.677985
46	0xbf2a79ca	-0.66592085
47	0xbf14c2a1	-0.5810948
48	0xbc7a6a38	-0.015284114
49	0xbf2faabf	-0.6861991
50	0xbf116125	-0.56788856
51	0xbf092546	-0.535725
52	0x3f1093e5	0.5647567
53	0xbf0e371d	-0.55552846
54	0xbf23aaa8	-0.63932276
55	0xbf2c97fb	-0.67419404
56	0xbdb105e3	-0.08643701
57	0xbf1576c3	-0.5838434
58	0xbf05ed48	-0.5231519
59	0xbf17d04f	-0.5930223
60	0xbf03979a	-0.514032
61	0xbf2b00e4	-0.66798234
62	0xbd935264	-0.07193449
63	0xbf287103	-0.6579744
64	0x3d71bc36	0.059017383
65	0xbf237cd9	-0.6386238
66	0xbf20adae	-0.62765014
67	0x3da61fbd	0.08111522
68	0xbf173d35	-0.5907777
69	0xbf1a45fc	-0.6026304
70	0xbd0c7176	-0.034287892
71	0x3d352e1a	0.04423342
72	0xbc108c68	-0.008822538
73	0xbcb4b1ac	-0.022057377
74	0xbf03312f	-0.51246923
75	0x3b9fa6a0	0.004872158
76	0x3ca75d58	0.020430252
77	0xbd6bb848	-0.05754879
78	0xbf0e8a24	-0.55679536
79	0xbf09e1d9	-0.5386024
80	0x3d20d07a	0.03926132
81	0xbd426350	-0.047457993
82	0x3daf7549	0.08567292
83	0x3d884b67	0.06655007
84	0xbf1268a6	-0.5719093
85	0x3d2fc122	0.042908795
86	0xbf2a8836	-0.6661409
87	0xbf04a75c	-0.5181787
88	0x3c4c6d10	0.012477174
89	0xbf131e80	-0.57468414
90	0x3c1b2968	0.009470321
91	0xbf223d11	-0.6337443
92	0x3d85cfd3	0.0653378
93	0xbf07b6f3	-0.53013533
94	0xbc80b6c8	-0.015712157
95	0xbca75664	-0.020426936
96	0xbf163f1c	-0.5869005
97	0xbd0b2b8d	-0.03397708
98	0x3bb73220	0.005590692
99	0xbb1c3e80	-0.0023840964
100	0xbf190530	-0.5977354
101	0xbf16c2d3	-0.5889103
102	0xbf20e369	-0.62847
103	0xbf06e0d2	-0.526868
104	0xbd913256	-0.07089679
105	0x3d3a6646	0.04550769
106	0xbf2333c7	-0.6375088
107	0xbc2272c0	-0.009915054
108	0xbf10c621	-0.5655232
109	0x3d54d022	0.051956303
110	0x3d078134	0.033082202
111	0xbd880f1d	-0.06643508
112	0xbf1c087d	-0.6095045
113	0x3d295c5a	0.04134784
114	0xbd9f8043	-0.07788136
115	0xbc5f4ca0	-0.013629109
116	0xbf0c49f0	-0.5480032
117	0xbf1ccc2e	-0.61249053
118	0x3d825671	0.06364144
119	0xbf1e8496	-0.6192106
120	0xbf2f1b78	-0.6840129
121	0xbd74e312	-0.059786864
122	0xbf07a029	-0.5297876
123	0xbda75c5f	-0.08171915
124	0xbf2bdd6e	-0.6713475
125	0xbf23a094	-0.639169
126	0xbd88ba17	-0.06676119
127	0xbf2f5b12	-0.6849834
128	0x3d73384e	0.05937987
129	0xbd5fd441	-0.05464578
130	0xbbbfc8c0	-0.0058527887
131	0x3d856b2f	0.06514584
132	0xbd6400f5	-0.055664975
133	0x3c944820	0.018100798
134	0x3d3ca91a	0.046059705
135	0x3d3bb0b6	0.04582282
136	0x3ef7d30a	0.48403198
137	0x3da38c85	0.07985786
138	0x3d328516	0.043583952
139	0xbd978b75	-0.07399646
140	0xbd4d6dff	-0.05015373
141	0x3ef12e5f	0.4710569
142	0x3d90a9a5	0.07063607
143	0x3c232a40	0.009958804
144	0x3ee82f36	0.4534852
145	0xbdaea287	-0.085270934
146	0x3c41d498	0.011830471
147	0x3cf09a38	0.029370412
148	0x3d0d7a4c	0.03454046
149	0x3bd24fc0	0.0064181983
150	0x3c82f75c	0.01598709
151	0xbd186501	-0.0372057
152	0x3d72dd2e	0.059292965
153	0x3efe90cd	0.4971985
154	0x3b987200	0.0046522617
155	0xbd3a1853	-0.045433354
156	0x3d6501a2	0.05590976
157	0xbda826a1	-0.08210493
158	0xbd3da6b4	-0.04630156
159	0xbd3d6ed7	-0.046248283
160	0x3da0e1d3	0.078555726
161	0xbd447d36	-0.047970973
162	0xbda4ddfd	-0.080501534
163	0xbdae2791	-0.085036404
164	0xbd72d715	-0.05928715
165	0x3da9102d	0.082550384
166	0x3f000a6d	0.5001591
167	0xbe32163e	-0.17391297
168	0x3d987cdf	0.07445692
169	0xbd621604	-0.055196777
170	0x39d10600	0.00039868057
171	0x3ce4fa54	0.027951397
172	0xbd42deed	-0.04757588
173	0xbd446b4d	-0.047953892
174	0x3d93731f	0.07199692
175	0xbd9a1ee4	-0.07525423
176	0xbcd473bc	-0.025934093
177	0x3f1b4a82	0.60660565
178	0xbd883d56	-0.06652324
179	0x3d30d1d2	0.04316885
180	0x3cb6c580	0.022310972
181	0xbd9b4899	-0.07582206
182	0xbdc1e5c4	-0.094676524
183	0x3f18d624	0.5970175
184	0x3c41ed08	0.011836298
185	0xbd048090	-0.03234917
186	0x3f0c5e4e	0.548314
187	0xbd24f939	-0.04027674
188	0x3ef22c2a	0.4729932
189	0x3ef7887d	0.4834632
190	0x3d1a21ae	0.037629776
191	0xbd13a4a8	-0.0360457
192	0xbd5acee6	-0.05341997
193	0x3efbd137	0.49183056
194	0x3d8e50b3	0.06948986
195	0xbd5e3ea9	-0.054258976
196	0x3ca24b40	0.019811273
197	0xbd2226a3	-0.039587628
198	0xbc43e100	-0.0119555
199	0xbda42eb8	-0.080167234
200	0xbc58df90	-0.013236895
201	0xbd892df6	-0.066982195
202	0xbd83866e	-0.06422125
203	0xbbea32e0	-0.007147178
204	0x3d6925b2	0.056920715
205	0x3da83b75	0.082144655
206	0x3f1015a5	0.56283027
207	0x3eded7b8	0.43523955
208	0x3d130d10	0.03590113
209	0xbd8cc358	-0.06873196
210	0xbd564ac8	-0.05231741
211	0xbd81ca46	-0.06337409
212	0x3cfc7b6c	0.03082057
213	0x3d1f0222	0.038820393
214	0x3f164003	0.58691424
215	0x3ef1ec9a	0.47250825
216	0xbc401d50	-0.011725739
217	0xbd8c2313	-0.068426274
218	0x3da756eb	0.08170875
219	0x3efe8f08	0.497185
220	0xbd2af6ea	-0.04173938
221	0xbea0ad50	-0.31382227
222	0xbdb38577	-0.08765691
223	0x3c8e7298	0.017388627
224	0xbdea6ba0	-0.11446309
225	0x3cb1f0ec	0.021721326
226	0x3c4ad100	0.012378931
227	0x3d36c812	0.044624396
228	0xbd4ab27a	-0.049486615
229	0xbd97b56e	-0.07407652
230	0xbd7e24fe	-0.062046997
231	0x3d70773e	0.05870747
232	0xbd9c9ce8	-0.07647115
233	0x39baa200	0.00035597384
234	0xbca42bd0	-0.020040423
235	0x3d9c120d	0.076206304
236	0xbd6803f9	-0.056644414
237	0xbc1255a0	-0.008931547
238	0x3d7274ae	0.059193306
239	0xbee34515	-0.44388643
240	0xbdaabefe	-0.0833721
241	0x3d975cc5	0.07390741
242	0x3d3a6f3a	0.04551623
243	0xbd7e498e	-0.062081866
244	0x3f015019	0.50512844
245	0xbda95868	-0.08268815
246	0x3ad75180	0.0016427487
247	0xbda6980d	-0.0813447
248	0x3cb7bb98	0.022428319
249	0xbd82a570	-0.06379211
250	0xbce91a28	-0.028454855
251	0x3c4e9a58	0.012610041
252	0xbc72f820	-0.014829665
253	0x3da115a7	0.07865458
254	0x3d989797	0.074507885
255	0x3c869168	0.016426757

bias f4 [64]
0	0xbf0e57b9	-0.55602604
1	0xbeef51ca	-0.46742088
2	0xbf3a6239	-0.72806126
3	0xbf039e89	-0.5141378
4	0xbf1c8e7d	-0.6115492
5	0x3d12c9de	0.035837047
6	0xbf11be3e	-0.5693091
7	0x3f24631f	0.64213747
8	0xbf59ac46	-0.85028493
9	0xbeec4342	-0.46145064
10	0xbf3c948c	-0.73664165
11	0xbf30cdd2	-0.69064057
12	0xbe87db21	-0.2653437
13	0x3c9f4190	0.019440442
14	0xbf345bcb	-0.70452565
15	0x3b1a5a00	0.002355218
16	0xbf046ba5	-0.5172675
17	0xbf2eef49	-0.6833387
18	0xbf19200b	-0.5981452
19	0xbf19c686	-0.6006855
20	0xbf2dba82	-0.67862713
21	0xbccd54f4	-0.025064923
22	0xbef6ffa9	-0.48241928
23	0xbf1dd9df	-0.6166057
24	0x3ce36008	0.027755752
25	0xbf084b87	-0.53240246
26	0xbf323c0a	-0.6962286
27	0xbf35fa75	-0.7108529
28	0xbf0c8d9e	-0.5490359
29	0x3f0978d9	0.53700024
30	0xbf1fc04e	-0.6240281
31	0x3c9b5eb8	0.018966064
32	0xbe9c114c	-0.30481946
33	0x3e898c93	0.26865062
34	0xbf2cf4bc	-0.67560935
35	0xbf357e26	-0.7089561
36	0xbf198829	-0.5997339
37	0xbf21fea1	-0.6327916
38	0xbf28ed2b	-0.6598689
39	0xbf2a1412	-0.66436875
40	0xbf02f3b6	-0.51153123
41	0x3d65b622	0.0560819
42	0xbf44a071	-0.76807314
43	0xbf178b33	-0.59196776
44	0xbf12b6ea	-0.57310355
45	0x3f24a1da	0.64309466
46	0xbf137440	-0.5759926
47	0xbda8307d	-0.082123734
48	0xbf5c71e5	-0.8611129
49	0xbf0e6a71	-0.55631167
50	0xbf19ac46	-0.60028493
51	0x3eca2a26	0.39485282
52	0xbea6db2f	-0.325891
53	0xbf1c53b9	-0.6106525
54	0xbf1da93d	-0.6158636
55	0xbf16efcc	-0.5895965
56	0xbf128426	-0.5723289
57	0xbf5c6aba	-0.8610035
58	0xbeb9fa8c	-0.36323965
59	0xbd8b2469	-0.06794054
60	0xbf47cc4c	-0.7804611
61	0xbf0fdca3	-0.5619604
62	0xbf26714b	-0.6501662
63	0xbf3dd1e1	-0.74148375

weight f4 [32, 64]
0	0x3f372b07	0.7155003
1	0xbf1df56b	-0.61702603
2	0xbd665978	-0.056237668
3	0x3f2f0116	0.6836103
4	0x3f04d32b	0.51884717
5	0xbdd7936c	-0.10526165
6	0xbf0d704c	-0.55249476
7	0xbf4b2631	-0.7935515
8	0xbdd17a8a	-0.102284506
9	0xbf0ca666	-0.54941404
10	0xbf0b3504	-0.5437777
11	0xbf2a5420	-0.66534615
12	0xbf078d66	-0.5295013
13	0xbd39528c	-0.04524474
14	0xbf1450bc	-0.5793569
15	0x3cf768a0	0.030201256
16	0xbf20b4fc	-0.6277616
17	0xbf149d25	-0.58052284
18	0x3f022962	0.50844395
19	0x3f269192	0.6506587
20	0xbf2bfc5d	-0.6718195
21	0xbd1e0ac0	-0.03858447
22	0xbf09fd73	-0.5390236
23	0xbeff56a1	-0.4987078
24	0xbda6cb04	-0.08144191
25	0xbf0d5cda	-0.55219805
26	0xbf0eb874	-0.55750203
27	0xbe887b26	-0.26656455
28	0x3f1aa32c	0.6040523
29	0xbc03a590	-0.008035079
30	0x3f0ee883	0.55823535
31	0x3de356b6	0.11100523
32	0xbef460df	-0.47730157
33	0xbf26177a	-0.6487957
34	0x3f311f93	0.69188803
35	0xbe9e1dfe	-0.30882257
36	0x3f0923e1	0.5357037
37	0x3f03624e	0.51321876
38	0xbf3200ad	-0.6953228
39	0xbeece5b8	-0.46269011
40	0xbf12ce3b	-0.5734593
41	0x3d3861d4	0.04501517
42	0xbd9557f2	-0.07292165
43	0x3f38999d	0.72109395
44	0xbf154d53	-0.5832111
45	0xbf1a1dbc	-0.6020162
46	0x3f17fb22	0.59367573
47	0xbd98d002	-0.07461549
48	0x3f108f67	0.56468815
49	0xbf19aeee	-0.60032547
50	0x3f1c83f3	0.6113884
51	0xbef57718	-0.47942424
52	0xbf202178	-0.6255107
53	0xbf0fdc86	-0.5619587
54	0x3f0aad3f	0.541706
55	0xbf14d7ef	-0.5814199
56	0xbf0046b1	-0.50107867
57	0x3ec7fe8a	0.39061385
58	0xbf29b0f2	-0.6628562
59	0x3d4f87b4	0.050666526
60	0xbeb523ec	-0.3537897
61	0xbf0cb5b7	-0.54964775
62	0xbee164a4	-0.44022095
63	0xbea55b26	-0.32296103
64	0x3c9673c0	0.01836574
65	0xbc8bc138	-0.017059907
66	0x3d2a6098	0.041596025
67	0xbdc88bac	-0.09792265
68	0x3deac506	0.114633605
69	0xbd191000	-0.037368774
70	0x3db19fc8	0.08673054
71	0xbcef1db0	-0.02918896
72	0xbca27ac0	-0.019833922
73	0x3cd92570	0.02650711
74	0xbc6c33d0	-0.01441665
75	0x3d1599e0	0.0365237
76	0x3bea8f00	0.00715816
77	0xbdf3180a	-0.118698195
78	0x3b68ae40	0.0035504252
79	0x3dd15d76	0.102229044
80	0xbd0eb034	-0.03483601
81	0xbd5c8758	-0.05384001
82	0x3de6231a	0.11237164
83	0x3c646d40	0.013942063
84	0xbc715220	-0.014729053
85	0x3d2ab244	0.041673914
86	0xbde3c14e	-0.11120854
87	0xbda27f80	-0.07934475
88	0x3db109d0	0.0864445
89	0x3dc1fce4	0.09472063
90	0x3dd003ee	0.101569995
91	0xbd2a1e80	-0.041532993
92	0x3dbc6cdc	0.09200451
93	0x3c61f190	0.013790503
94	0x3dcc8110	0.09985554
95	0x3dbf083e	0.09327744
96	0x3d27eca4	0.040997162
97	0xbdf62a84	-0.12019828
98	0xbd5b2d1c	-0.053509817
99	0xbd386a68	-0.045023352
100	0x3da5cdb8	0.08095878
101	0x3d4b540c	0.0496407
102	0x3d6a1d9c	0.057157144
103	0xbdf3045e	-0.11866067
104	0xbd8bd904	-0.06828502
105	0x3d6d31fc	0.057908997
106	0x3db646ee	0.089002475
107	0x3d0e293c	0.034707293
108	0xbd4a69bc	-0.049417242
109	0x3d577a1c	0.052606687
110	0xbc8644d0	-0.016390234
111	0xbbc90fc0	-0.0061359107
112	0xbddbbbf0	-0.107292056
113	0x3ddc5e6a	0.107601956
114	0x3dbeffae	0.09326111
115	0x3c0b0d90	0.00848712
116	0xbcf42668	-0.02980347
117	0xbb5b8f40	-0.0033502132
118	0xbd857f90	-0.06518471
119	0x3cb93188	0.022606626
120	0xbc94c878	-0.018161997
121	0xbdc5eaa8	-0.09663898
122	0xbcdb9870	-0.026806086
123	0xbda65df6	-0.081233904
124	0x3d2a3d58	0.04156241
125	0xbd84c636	-0.06483118
126	0xbdc841b0	-0.09778154
127	0x3dca2c8e	0.098717794
128	0xbd844050	-0.06457579
129	0xbf3078b8	-0.689342
130	0xbef0774b	-0.46966013
131	0x3d62fde4	0.05541791
132	0x3dd3048c	0.103036016
133	0x3d3eca8c	0.046579883
134	0x3d2d2be0	0.04227817
135	0xbf4eb86e	-0.8075017
136	0xbf10988d	-0.56482774
137	0xbef9481a	-0.48687822
138	0x3da02624	0.07819775
139	0xbef81bda	-0.4845875
140	0xbf0f85e9	-0.56063706
141	0xbdc5ca0e	-0.096576795
142	0xbd62edf0	-0.055402696
143	0x3d3e31ac	0.04643409
144	0x3d94529a	0.072423175
145	0xbd110eec	-0.03541462
146	0xbd340edc	-0.043959484
147	0xbce4d018	-0.027931258
148	0xbdf69914	-0.12040916
149	0xbcf103d0	-0.029420763
150	0xbddae17c	-0.10687539
151	0xbd0e79f4	-0.034784272
152	0x3ca3eb10	0.020009547
153	0xbdd2fa9c	-0.10301706
154	0x3bcdb140	0.0062772334
155	0xbf0aa85e	-0.5416316
156	0x3b2ca300	0.0026342273
157	0xbdca36a0	-0.098737
158	0xbbab7380	-0.0052322745
159	0x3d6eac88	0.058270007
160	0xbf0e9336	-0.55693376
161	0xbf1ae1e4	-0.6050093
162	0xbdf88b82	-0.12135984
163	0xbef18ca0	-0.471776
164	0x3d3278a8	0.043572098
165	0xbdc63e80	-0.0967989
166	0xbd2b34dc	-0.041798458
167	0xbc523990	-0.012831107
168	0xbd0edc14	-0.03487785
169	0x3d6f70c0	0.058457136
170	0xbedad0bc	-0.42737377
171	0xbc8f24b0	-0.017473549
172	0xbddfdc16	-0.1093065
173	0xbf0a938c	-0.5413139
174	0xbca35810	-0.019939452
175	0xbdb3855c	-0.08765671
176	0xbf08233f	-0.5317878
177	0xbbf16740	-0.0073670447
178	0xbdf0f78c	-0.11765966
179	0xbf13387a	-0.5750805
180	0xbf01d3fa	-0.50714076
181	0x3d86815a	0.065676406
182	0xb98d0e00	-0.00026904047
183	0xbc8be310	-0.017076045
184	0xbece4c9b	-0.4029282
185	0xbecfd190	-0.4058957
186	0xbf13a27a	-0.57669795
187	0xbd191eb0	-0.03738278
188	0xbed95e29	-0.4245465
189	0x3dea4068	0.11438066
190	0x3dd3f1f8	0.10348886
191	0xbee6614b	-0.44996104
192	0x3f228984	0.6349108
193	0xbed228cd	-0.41046754
194	0xbe2d8485	-0.16945083
195	0x3f016eeb	0.5055987
196	0x3f2366aa	0.6382853
197	0xbde0437a	-0.1095037
198	0xbf3e63f5	-0.7437127
199	0xbf3ee7f1	-0.74572664
200	0xbd645bd9	-0.055751655
201	0xbef4dcec	-0.478248
202	0xbf25b478	-0.647285
203	0xbf13baf0	-0.5770712
204	0xbf1b81a0	-0.6074467
205	0x3d8e49ae	0.06947647
206	0xbf262ca1	-0.6491185
207	0x3d052878	0.032509297
208	0xbf18558e	-0.59505546
209	0xbf27dca0	-0.6557102
210	0x3f2f59ab	0.684962
211	0x3f3471e6	0.70486295
212	0xbf155158	-0.58327246
213	0xbcba9138	-0.022774324
214	0xbf14ce60	-0.58127403
215	0xbeee4cdb	-0.4654301
216	0x3cf80f48	0.030280724
217	0xbf3172f4	-0.6931603
218	0xbf195b82	-0.59905255
219	0xbe429c0d	-0.19004841
220	0x3f0eb421	0.55743605
221	0xbc454430	-0.012040183
222	0x3f15d8f2	0.5853416
223	0x3ca7adf0	0.020468682
224	0xbef249b0	-0.47321844
225	0xbf293164	-0.6609099
226	0x3ef51ca4	0.47873414
227	0xbea583c7	-0.323271
228	0x3f0a644a	0.5405928
229	0x3ef410ad	0.47668973
230	0xbf48c532	-0.78425896
231	0xbf01df2d	-0.50731164
232	0xbf0e763d	-0.5564917
233	0x3ac34e00	0.0014900565
234	0xbe5ee186	-0.21765718
235	0x3f010f4d	0.5041397
236	0xbf11ef8f	-0.5700616
237	0xbed503eb	-0.41604552
238	0x3f2b89a8	0.6700692
239	0xbd28f4a4	-0.041248932
240	0x3f11de02	0.5697938
241	0xbf10045a	-0.5625664
242	0x3f058f97	0.52172226
243	0xbf20e2fe	-0.6284636
244	0xbefe3262	-0.49647814
245	0xbf3089eb	-0.68960446
246	0x3f10203c	0.56299186
247	0xbf41d553	-0.7571613
248	0xbefad202	-0.48988348
249	0x3ea818a6	0.32831305
250	0xbf31c472	-0.69440377
251	0x3dba8d50	0.091089845
252	0xbe67e27d	-0.22644992
253	0xbf04fdd8	-0.51949835
254	0xbe9cfb91	-0.3066068
255	0xbe01ca9e	-0.12674949

bias f4 [32]
0	0xbf3cd830	-0.73767376
1	0x3d8772ba	0.06613679
2	0xbf2f7979	-0.6854473
3	0xbf4181fe	-0.7558898
4	0xbf09df68	-0.53856516
5	0xbde4e41d	-0.11176322
6	0x3f149015	0.5803235
7	0xbe388084	-0.18017775
8	0xbecd6063	-0.401126
9	0xbf066aa1	-0.5250645
10	0xbf1c9c13	-0.6117565
11	0xbef3210c	-0.4748615
12	0xbf695fbc	-0.91161704
13	0xbd87d5c8	-0.066325724
14	0xbe8ae0cc	-0.2712463
15	0xbe01796c	-0.12643975
16	0x3f31a662	0.69394505
17	0xbf28767a	-0.6580578
18	0xbf1a945e	-0.6038264
19	0x3d29f914	0.041497305
20	0xbf248de2	-0.64278996
21	0xbe93edd8	-0.28892398
22	0xbef1b45d	-0.4720792
23	0xbf159204	-0.5842593
24	0xbee832a6	-0.45351142
25	0xbef3bff3	-0.47607383
26	0xbdf43ad8	-0.11925286
27	0xbedc4f74	-0.43029368
28	0xbed86e8c	-0.4227184
29	0x3fa15bc0	1.2606125
30	0x3e655f2f	0.22399591
31	0xbeefbbb8	-0.46822906

weight f4 [8, 32]
0	0xbf3a3010	-0.7272959
1	0x3dc6a172	0.09698762
2	0xbe2a5aa9	-0.16636147
3	0xbf1a6c92	-0.60321915
4	0xbf4437bb	-0.7664754
5	0xbf46264b	-0.7740218
6	0x3de144ba	0.10999437
7	0xbf1f30e5	-0.6218398
8	0x3e0dd735	0.13851626
9	0xbcdfe2a8	-0.027329758
10	0x3dd26a12	0.102741376
11	0x3d928fa8	0.071563065
12	0xbdb9f106	-0.09079175
13	0xbd6ec8d4	-0.058296993
14	0xbd83be49	-0.064327784
15	0xbf12fcd3	-0.5741703
16	0x3c9ac240	0.018891454
17	0xbf0d162e	-0.5511197
18	0xbf45a551	-0.7720538
19	0xbd89c39a	-0.06726761
20	0xbdd024a9	-0.10163242
21	0xbf0dc169	-0.55373245
22	0xbd910173	-0.070803545
23	0xbed98f15	-0.42491975
24	0xbf075a7e	-0.52872455
25	0xbd66f532	-0.05638618
26	0xbe29822a	-0.1655356
27	0xbdcd26eb	-0.10017189
28	0xbdc8f2db	-0.09811946
29	0xbcc747d0	-0.024326235
30	0x3e269e87	0.16271411
31	0xbee4799f	-0.4462404
32	0x3ef5fa2d	0.4804243
33	0xbc332530	-0.010934159
34	0xbeb48977	-0.35261127
35	0x3f1eebca	0.62078536
36	0xbd0aa058	-0.033844322
37	0x3efd2f17	0.4944999
38	0xbca9e3e0	-0.020738542
39	0xbf1f90eb	-0.623305
40	0x3f27af9c	0.65502334
41	0x3f079a55	0.52969867
42	0xbdd37f06	-0.10326962
43	0xbcb78878	-0.02240394
44	0x3dc6082a	0.09669526
45	0xbe149b94	-0.14512473
46	0xbf1d0ff9	-0.613525
47	0xbe5e7db6	-0.21727642
48	0x3eba75cc	0.36417997
49	0x3da4673e	0.080275044
50	0x3ec7f319	0.39052656
51	0xbe23d936	-0.16000828
52	0xbed3feb2	-0.41405255
53	0xbf239d88	-0.6391225
54	0x3ec06387	0.37575933
55	0x3f231b55	0.6371358
56	0xbee5aa0e	-0.44856304
57	0xbf06efd6	-0.5270971
58	0x3da7c9fe	0.08192824
59	0xbf271d3c	-0.65278983
60	0x3efe77d8	0.4970081
61	0xbe3dbc0e	-0.18528768
62	0xbe0ae7a6	-0.1356493
63	0x3ed8ef8b	0.42370257
64	0x3f3d3544	0.739094
65	0xbdc048e0	-0.093889
66	0x3e831701	0.25603488
67	0x3f22cd63	0.63594645
68	0x3f1bcf93	0.6086361
69	0x3ecc3903	0.39887246
70	0xbf1900e8	-0.5976701
71	0xbda95f4c	-0.082701296
72	0xbea57eda	-0.32323343
73	0xbf0361f1	-0.5132132
74	0x3f30eff1	0.6911612
75	0x3f18569d	0.5950716
76	0xbea53c96	-0.32272786
77	0x3d392bd8	0.04520783
78	0xbe95e965	-0.29279628
79	0x3e8b07ff	0.27154538
80	0xbf2066f4	-0.62657094
81	0x3ef1ba12	0.47212273
82	0x3f32e8f0	0.69886684
83	0x3e2fc25f	0.1716399
84	0x3ef8aaec	0.48567903
85	0xbda3c7e8	-0.079971135
86	0xbf02dc46	-0.5111736
87	0x3f1dee9d	0.6169222
88	0x3d13db00	0.036097527
89	0xbe83a0b2	-0.25708538
90	0x3db41602	0.0879326
91	0xbe988b82	-0.29793936
92	0xbedc8aee	-0.43074745
93	0xbf3379fd	-0.70108014
94	0xbea3e9b7	-0.32014248
95	0x3eab91e2	0.33509737
96	0xbf27be8c	-0.65525126
97	0x3e0d4d85	0.13799103
98	0x3d2c587c	0.042076573
99	0xbf338631	-0.70126635
100	0xbee47add	-0.44624987
101	0xbf024c99	-0.5089813
102	0xbdc2df4a	-0.09515245
103	0xbf2224a9	-0.6333719
104	0xbe08fa88	-0.1337682
105	0x3d9adba6	0.07561426
106	0x3b7f87c0	0.0038990825
107	0x3befe7a0	0.007321313
108	0xbf009e5e	-0.5024165
109	0x3dbabcce	0.09118043
110	0x3d323ab0	0.043513
111	0x3c58f900	0.01324296
112	0xbd98d309	-0.07462127
113	0xbf3952a0	-0.723917
114	0xbf27582b	-0.6536891
115	0x3bb64980	0.005562961
116	0x3e195d4d	0.14976998
117	0xbf16154a	-0.58626235
118	0xbdf563e6	-0.11981945
119	0xbf10c8b0	-0.56556225
120	0xbf0d83b1	-0.5527907
121	0x3b808a80	0.0039227605
122	0x3e271d0b	0.16319673
123	0xbf0b175b	-0.5433251
124	0x3d74809c	0.059692964
125	0xbdbc8b6e	-0.092062816
126	0xbc609510	-0.013707414
127	0xbe2f05eb	-0.17092101
128	0xbeb1b570	-0.34708738
129	0x3dfaf382	0.12253477
130	0xbc85f778	-0.016353354
131	0xbeea6207	-0.45777914
132	0x3ede954a	0.43473274
133	0xbf275e8b	-0.65378636
134	0x3dfb7e36	0.12279932
135	0x3edb9e23	0.42894086
136	0xbf041006	-0.5158695
137	0xbe1437a7	-0.14474355
138	0xbee5b38b	-0.44863543
139	0xbf013fa4	-0.5048773
140	0xbf3d6876	-0.7398752
141	0xbe0d9322	-0.13825658
142	0xbe2dd0a8	-0.16974127
143	0xbefd746b	-0.49502882
144	0x3db079e6	0.08617
145	0x3f44210d	0.7661293
146	0xbece4232	-0.40284878
147	0xbda6b908	-0.08140761
148	0x3e28c02d	0.16479559
149	0x3f205cb6	0.62641466
150	0xbdbfa0fb	-0.093568765
151	0xbef36ded	-0.47544804
152	0x3f3afd2d	0.73042566
153	0xbcef1978	-0.02918695
154	0xbc814030	-0.015777677
155	0xbf00d675	-0.50327235
156	0x3bd1c480	0.0064015985
157	0xbf2ce60f	-0.6753854
158	0xbf2199ee	-0.63125503
159	0xbeb592e8	-0.35463643
160	0x3d5f817c	0.054566845
161	0x3d4da200	0.050203323
162	0xbedc56a5	-0.43034855
163	0xbd913c53	-0.07091584
164	0xbdbe56e5	-0.092939176
165	0xbef924d4	-0.4866091
166	0x3e059a63	0.13047175
167	0xbf25c15f	-0.64748186
168	0x3d9e7b6c	0.077383846
169	0x3a613900	0.00085915625
170	0xbd13d57c	-0.036092266
171	0x3e008d7b	0.1255397
172	0xbd945dd5	-0.072444595
173	0xbd91b867	-0.0711525
174	0xbf0c3fb6	-0.54784715
175	0xbef899dc	-0.48554885
176	0x3e2a873f	0.16653155
177	0xbc8f78a0	-0.017513573
178	0x3e086a57	0.13321815
179	0x3e235f09	0.15954222
180	0xbf1124de	-0.5669688
181	0xbf1b9a1c	-0.6078203
182	0xbc5ab5c0	-0.013348997
183	0x3b7d7a40	0.0038677603
184	0xbeefd847	-0.46844694
185	0xbef178e9	-0.4716256
186	0xbe047954	-0.12936908
187	0xbf07d494	-0.53058743
188	0xbde63fa6	-0.11242609
189	0xbf196add	-0.59928685
190	0xbeb62d83	-0.35581598
191	0xbbe11640	-0.0068691075
192	0xbdd450bc	-0.10366961
193	0xbdd577d2	-0.104232445
194	0xbe1d9bb8	-0.15391433
195	0x3dbd9b7a	0.092581704
196	0x3d3e5e28	0.046476513
197	0xbdb66955	-0.08906809
198	0xbe215acc	-0.15757293
199	0xbe312439	-0.17298974
200	0x3db5b08a	0.08871563
201	0x3e101b63	0.14072947
202	0xbd4f2d3c	-0.05058025
203	0x3e2fae29	0.1715628
204	0xbc78c900	-0.015184641
205	0x3e135203	0.14386754
206	0xbe0905c7	-0.1338111
207	0xbd1e18b0	-0.038597763
208	0x3e1e6285	0.1546727
209	0xbd5562ac	-0.052096054
210	0x3e00a3cb	0.12562482
211	0xbda315c8	-0.07963139
212	0x3dd5fe5e	0.10448907
213	0xbd9c039a	-0.076178744
214	0xbde38509	-0.11109359
215	0x3dd586aa	0.10426076
216	0xbdf12770	-0.117751
217	0xbdad5f12	-0.08465399
218	0x3dcb1fb6	0.09918158
219	0x3cdffa20	0.027340949
220	0x3d8dbc60	0.06920695
221	0xbd98d421	-0.074623354
222	0xbc4d3270	-0.012524232
223	0xbe02ad33	-0.12761383
224	0xbf3a0175	-0.72658473
225	0x3d29bbf0	0.041438997
226	0x3bfddd80	0.007747352
227	0xbf308ba2	-0.6896306
228	0xbefb0692	-0.4902845
229	0xbf1ac892	-0.60462296
230	0xbe0410da	-0.12897053
231	0xbee48b96	-0.44637746
232	0x3d804112	0.06262411
233	0xbe120e1b	-0.14263193
234	0xbce1aa48	-0.027547017
235	0x3c3e5ff0	0.011619553
236	0xbf308524	-0.68953156
237	0x3d15e7ec	0.03659813
238	0xbd3fad64	-0.046796218
239	0xbf16ca16	-0.5890211
240	0xbe2db5c9	-0.16963877
241	0xbf1973cf	-0.59942335
242	0xbf3732d6	-0.71561944
243	0x3deef76a	0.11668284
244	0xbe2e9937	-0.17050634
245	0xbeebfc53	-0.46090946
246	0xbd25d678	-0.040487736
247	0xbf441474	-0.7659371
248	0xbf0d5e00	-0.5522156
249	0x3e196741	0.14980794
250	0x3dd9c4ca	0.10633238
251	0xbf2f8021	-0.68554884
252	0xbd742952	-0.05960972
253	0xbdd6b823	-0.1048434
254	0x3de5b292	0.112157
255	0xbf139b8d	-0.57659227

bias f4 [8]
0	0xbf447b9b	-0.76751107
1	0xbf00ffd2	-0.5039035
2	0xbe038c2f	-0.12846445
3	0xbed96791	-0.42461827
4	0xbee2647f	-0.44217297
5	0xbf1b0c0d	-0.60565263
6	0xbcf2e948	-0.029652253
7	0xbf044d6b	-0.5168063

weight f4 [4, 8]
0	0xbd41fcf0	-0.04736036
1	0x3e3acd26	0.1824232
2	0x3da30780	0.07960415
3	0x3c725360	0.014790386
4	0xbdf75b00	-0.12077904
5	0x3e1f1cce	0.15538332
6	0x3e794636	0.2434319
7	0x3e8b7993	0.2724119
8	0x3e8837c9	0.2660506
9	0xbe4a7efb	-0.19775002
10	0xbe4d7261	-0.20063163
11	0x3e163a92	0.1467078
12	0x3e9c31ff	0.30506894
13	0x3e5897f6	0.21151718
14	0x3e32d682	0.1746464
15	0xbe986d27	-0.29770777
16	0xbd547510	-0.051869452
17	0x3e5d52b2	0.21613577
18	0xbe74a886	-0.23892412
19	0x3dbed744	0.093184024
20	0x3df7f7c4	0.121078044
21	0x3e75679a	0.23965302
22	0xbdbffe7c	-0.09374711
23	0x3e245b2e	0.16050407
24	0x3e7a6a0a	0.24454513
25	0x3ea05ccf	0.31320807
26	0xbe85bb6e	-0.2611956
27	0x3e99a7bb	0.3001078
28	0x3e350c22	0.1768041
29	0x3dd8c4d0	0.10584414
30	0x3e890e17	0.26768562
31	0xbb1bcf00	-0.0023774505

bias f4 [4]
0	0x3d9f58ec	0.077806324
1	0xbd4da9f0	-0.050210893
2	0xbea1a0b8	-0.3156793
3	0x3e4cb5de	0.19991252
