training/ann/models/ann20.pth (torch, 68636 bytes, 10 tensors)

weight f4 [128, 40]
-0.15119351 -0.0036833584 0.07536945 -0.13960671 -0.06853469 0.0024561882 -0.14624727 -0.031261265
0.061647624 -0.087283336 -0.07631944 0.10862346 0.08525129 0.08532773 0.04916002 0.10784437
-0.09103184 -0.031627208 -0.123668104 -0.121370435 -0.018222094 -0.10019313 0.013531104 0.14160724
-0.05039055 -0.027358785 0.1223311 -0.01246953 0.1406057 -0.059192076 0.031688094 0.09652032
-0.02945882 -0.07294698 0.07940069 0.10981648 -0.122594215 0.06726043 0.02063176 -0.06598077
-0.14764036 -0.12877314 0.14001729 -0.013122216 -0.052317955 0.08933367 -0.1302783 0.07504682
0.14959635 -0.0747046 0.00462842 0.060670465 0.15541954 -0.00029671192 0.07373683 0.07277021
-0.087694615 -0.0030259788 -0.11056037 -0.025655225 0.018821314 0.046714485 0.12057854 -0.058757596
-0.06653211 0.02264662 0.0011813939 -0.09616813 -0.120868094 -0.10767231 -0.07078963 -0.013497829
0.103721246 -0.15580367 0.15291427 0.000108867884 0.045848444 0.08012673 -0.08907339 0.017375693
-0.12478717 -0.08081533 0.10966547 -0.010623649 0.077046305 -0.010744959 -0.058345243 0.055464774
0.1396452 -0.03791111 0.011169106 -0.14068252 -0.1520653 -0.031876266 -0.04395151 0.09287597
0.11483826 0.039815426 0.10171433 0.10404606 -0.03710135 0.029280826 0.10980488 -0.10490333
-0.038242653 -0.14647046 0.033900127 -0.025862068 -0.1384654 -0.019685164 0.041019186 0.04887499
0.070279524 0.1290323 -0.032321706 0.048179492 -0.076383226 -0.14007707 -0.07089516 0.118194655
0.015020612 0.037600722 -0.04213161 -0.151321 0.0940651 -0.1632948 -0.1552918 -0.13991053
0.14234014 -0.042202234 0.058179416 -0.21480045 0.15286663 0.13208912 -0.066619284 -0.12899688
0.07583572 -0.16458197 -0.093613684 -0.14159043 0.19087495 0.09571895 -0.045096282 0.16901313
-0.29508367 0.10138782 -0.11310273 -0.16596183 0.1478555 0.0049034036 -0.12816453 -0.009668166
0.050738454 -0.115948275 0.07437337 0.098560944 -0.004504688 -0.06260944 0.087605074 -0.118255064
0.00856182 -0.06944065 0.10613258 -0.109690055 -0.12161618 -0.01054655 -0.09053946 0.08784503
-0.050506942 -0.052506723 0.032403365 0.12494384 0.12374757 0.015313089 -0.048389636 0.034614444
-0.093303934 0.09769215 -0.10214129 0.016999707 -0.06655466 -0.017303899 0.08739054 -0.015494898
-0.10631879 -0.026487544 -0.014751866 -0.13816027 0.09894927 -0.15690137 -0.11561279 0.014467537
0.023149297 0.12872608 -0.0076334625 -0.072694995 0.077912316 -0.08623322 -0.004889369 0.00895521
-0.14593099 -0.11778193 0.1368746 -0.0474426 0.09876217 -0.013736531 0.039093196 0.087538585
-0.03390138 -0.1419248 0.15342344 -0.0043081194 -0.025690705 0.08433792 0.046568006 0.08018492
-0.10850271 -0.019062936 0.022388697 0.11698745 0.05635251 -0.043493114 -0.04580524 -0.053207986
0.10091363 0.08415508 -0.0635162 0.02317606 -0.033592656 0.101591036 0.045824483 0.011954993
-0.10734007 -0.07115813 -0.08273271 -0.00035485625 -0.061512224 0.0037246644 -0.07459226 -0.11308502
0.14603545 -0.11176277 0.020689547 -0.09202004 0.015968457 -0.13595645 -0.085508965 -0.13494408
-0.12582669 -0.13004746 0.036203116 0.038877264 -0.15098274 -0.12450315 -0.12561624 0.15769373
00000000: 79d2 1abe 8064 71bb 4c5b 9a3d 10f5 0ebe
00000010: ea5b 8cbd 00f8 203b d8c1 15be d00b 00bd
00000020: 3882 7c3d 9bc1 b2bd 5e4d 9cbd fa75 de3d
00000030: 3a98 ae3d 4ec0 ae3d 045c 493d 82dd dc3d
00000040: e76e babd 888b 01bd b445 fdbd 1091 f8bd
00000050: 8046 95bc 0e32 cdbd 90b1 5d3c 7d01 113e
00000060: 5266 4ebd 881f e0bc ba88 fa3d 004d 4cbc
00000070: f1fa 0f3e 6473 72bd 60cb 013d 72ac c53d
00000080: a053 f1bc 3a65 95bd d49c a23d 76e7 e03d
00000090: ad12 fbbd d6bf 893d f003 a93c ed20 87bd
000000a0: 092f 17be 1bdd 03be b160 0f3e 90fe 56bc
000000b0: 5a4b 56bd 92f4 b63d ad67 05be 26b2 993d
000000c0: c92f 193e bafe 98bd 00aa 973b 9881 783d
000000d0: 4d26 1f3e 0090 9bb9 5603 973d 8c08 953d
000000e0: 3c99 b3bd 804f 46bb 7a6d e2bd e82a d2bc
000000f0: 282f 9a3c b057 3f3d e2f1 f63d ceab 70bd
00000100: fd41 88bd 6885 b93c 00d9 9a3a ccf3 c4bd
00000110: b189 f7bd 4d83 dcbd 27fa 90bd 0026 5dbc
00000120: ce6b d43d ff8a 1fbe 8f95 1c3e 0050 e438
00000130: 94cb 3b3d 7c19 a43d 1c6c b6bd 7857 8e3c
00000140: 6a90 ffbd 8282 a5bd 4a98 e03d d00e 2ebc
00000150: 74ca 9d3d a00b 30bc 6cfb 6ebd 082f 633d
00000160: 27ff 0e3e ae48 1bbd a0fe 363c 140f 10be
00000170: 02b7 1bbe b090 02bd 8006 34bd c235 be3d
00000180: 5230 eb3d 8015 233d 9a4f d03d 1a16 d53d
00000190: 96f7 17bd 58de ef3c 62e1 e03d 8fd7 d6bd
000001a0: 54a4 1cbd 5afc 15be dcda 0a3d b0dc d3bc
000001b0: e0c9 0dbe c842 a1bc bc03 283d 2431 483d
000001c0: b6ee 8f3d 0b21 043e c463 04bd dc57 453d
000001d0: cf6e 9cbd 5d70 0fbe 7b31 91bd 0a10 f23d
000001e0: 0319 763c 3703 1a3d 3292 2cbd e4f3 1abe
000001f0: 34a5 c03d c136 27be d004 1fbe b544 0fbe
00000200: 9dc1 113e 40dc 2cbd 8a4d 6e3d a6f4 5bbe
00000210: 1289 1c3e 5f42 073e b16f 88bd c217 04be
00000220: c24f 9b3d 2d88 28be 88b8 bfbd 15fd 10be
00000230: b974 433e 4c08 c43d e1b6 38bd c711 2d3e
00000240: 3515 97be 6ba4 cf3d 67a2 e7bd e6f1 29be
00000250: 6f67 173e bbac a03b 903d 03be 3a67 1ebc
00000260: 20d3 4f3d 4a76 edbd 1151 983d 52da c93d
00000270: 109c 93bb 6139 80bd 4a6a b33d b62f f2bd
00000280: e046 0c3c e636 8ebd 0a5c d93d 2ea5 e0bd
00000290: e711 f9bd 70cb 2cbc c16c b9bd 18e8 b33d
000002a0: 5ee0 4ebd 4a11 57bd 64b9 043d 8ee2 ff3d
000002b0: 5e6f fd3d c0e3 7a3c 3634 46bd e0c7 0d3d
000002c0: 2216 bfbd d212 c83d 742f d1bd f842 8b3c
000002d0: cf4d 88bd e8c0 8dbc d0f9 b23d 50de 7dbc
000002e0: aabd d9bd 68fc d8bc d0b1 71bc e379 0dbe
000002f0: eaa5 ca3d c1aa 20be 66c6 ecbd 4009 6d3c
00000300: 98a3 bd3c c5d0 033e 2022 fabb 1de1 94bd
00000310: 7e90 9f3d 0b9b b0bd 0037 a0bb e0b8 123c
00000320: ef6e 15be a737 f1bd db28 0c3e 2c53 42bd
00000330: d243 ca3d 300f 61bc 3020 203d 6e47 b33d
00000340: 2cdc 0abd bc54 11be 091b 1d3e 202b 8dbb
00000350: 5075 d2bc 5cb9 ac3d 18be 3e3d fe37 a43d
00000360: ab36 debd e029 9cbc 8068 b73c 1e97 ef3d
00000370: e4d1 663d d625 32bd 469e 3bbd 9ef0 59bd
00000380: ceab ce3d 8059 ac3d c814 82bd b8db bd3c
00000390: 7498 09bd f60e d03d 74b2 3b3d e0de 433c
000003a0: 1cd5 dbbd 5bbb 91bd c46f a9bd 000c bab9
000003b0: 3ef4 7bbd 8019 743b d4c3 98bd 1e99 e7bd
000003c0: 518a 153e e1e3 e4bd 207d a93c 0175 bcbd
000003d0: 48d0 823c 2b38 0bbe 531f afbd c82e 0abe
000003e0: b6d8 00be 292b 05be b849 143d c43d 1f3d
000003f0: 389b 1abe 82fb febd 8ba1 00be 777a 213e

bias f4 [128]
0.019781828 -0.15093338 0.024173513 -0.16367438 0.026548654 0.104898795 -0.031084687 0.13551491
-0.09353278 -0.119220756 0.0043256283 -0.06121789 -0.00050840166 0.07701872 0.009396915 0.14242007
-0.10382963 0.08418995 0.056579333 0.10106905 0.0899477 0.05621286 -0.13026927 0.01606886
-0.009750769 0.15076718 0.13553998 -0.11581671 0.1119481 -0.051298574 -0.059365854 -0.09690188
0.01467979 -0.16179322 0.117140815 -0.05330076 -0.11421264 -0.13185251 0.13521555 0.1546448
0.1539415 -0.06388565 0.13561648 -0.122219525 -0.1506079 0.1546383 0.13807242 -0.11106751
-0.026448218 0.063464686 -0.121561535 0.0005105585 -0.052590467 0.14694539 0.12059896 0.10258769
-0.06597387 -0.15159103 -0.028615892 0.09745033 -0.015744463 -0.14170451 0.1346809 -0.14573117
-0.11058433 -0.14129317 0.046221923 -0.103276536 -0.08871932 0.15352704 -0.16046114 0.008086637
-0.14232758 0.13538884 -0.018997064 0.022776952 0.11879696 0.08697646 -0.047595542 0.012592661
-0.13876826 -0.081355885 0.040735327 -0.12750465 -0.07455038 0.09894236 -0.08090543 0.058192715
0.073463395 -0.119723804 -0.02185987 0.046071995 -0.14129063 -0.05713636 0.059052315 -0.043432422
-0.110103786 0.100975245 -0.11115639 0.12462427 -0.0023804903 -0.13957997 -0.08722917 -0.07464368
-0.11898653 -0.069037005 -0.106404416 0.09613109 -0.007976428 0.1521013 -0.12839074 -0.15412222
-0.12972829 -0.15677218 0.06505999 -0.12877843 0.11608341 0.10677629 0.10505603 -0.0038419813
-0.08040922 -0.011334852 -0.045838013 -0.017936882 -0.024064302 0.11923356 -0.070116825 0.024531892
00000000: 800d a23c 488e 1abe 8807 c63c 429a 27be
00000010: 907c d93c 2ed5 d63d 50a5 febc 6cc4 0a3e
00000020: 1d8e bfbd 032a f4bd 00be 8d3b 9cbf 7abd
00000030: 4246 05ba febb 9d3d 85f5 193c 91d6 113e
00000040: a1a4 d4bd c86b ac3d bbbf 673d 4afd ce3d
00000050: 8036 b83d 753f 663d 4f65 05be d8a2 833c
00000060: b0c1 1fbc b662 1a3e feca 0a3e 5031 edbd
00000070: 0c45 e53d 741e 52bd 9c29 73bd 7e74 c6bd
00000080: 8083 703c 1fad 25be 86e7 ef3d e651 5abd
00000090: 51e8 e9bd 5804 07be f275 0a3e 355b 1e3e
000000a0: d7a2 1d3e 7bd6 82bd 0cdf 0a3e 3b4e fabd
000000b0: f538 1abe 8159 1e3e db62 0d3e 5d77 e3bd
000000c0: efa9 d8bc c6f9 813d 41f5 f8bd 00d7 053a
000000d0: 1a69 57bd da78 163e 96fc f63d 7f19 d23d
000000e0: 4f1d 87bd ae3a 1bbe e06b eabc 0a94 c73d
000000f0: 88fa 80bc fd1a 11be cae9 093e 8d3a 15be
00000100: 0a7a e2bd 28af 10be 3353 3d3d a682 d3bd
00000110: 7ab2 b5bd 3136 1d3e ed4f 24be d07d 043c
00000120: 52be 11be 5fa3 0a3e bb9f 9bbc bb96 ba3c
00000130: d24b f33d b720 b23d 8bf3 42bd 7351 4e3c
00000140: 4419 0ebe ea9d a6bd 16da 263d 9490 02be
00000150: dfad 98bd 4ba2 ca3d bfb1 a5bd 7c5b 6e3d
00000160: fa73 963d c131 f5bd 7813 b3bc fdb5 3c3d
00000170: 7eae 10be d107 6abd d7e0 713d 32e6 31bd
00000180: 187e e1bd 1ccc ce3d f6a5 e3bd 023b ff3d
00000190: 0002 1cbb 0dee 0ebe 35a5 b2bd c9de 98bd
000001a0: 36af f3bd 4663 8dbd 8fea d9bd 60e0 c43d
000001b0: 90af 02bc 71c0 1b3e dd78 03be 37d2 1dbe
000001c0: 7ed7 04be e388 20be 2c3e 853d 7ede 03be
000001d0: 24bd ed3d 87ad da3d 9e27 d73d c0c9 7bbb
000001e0: 97ad a4bd d1b5 39bc a4c0 3bbd 5ef0 92bc
000001f0: 8022 c5bc ba30 f43d 6999 8fbd 1bf7 c83c

weight f4 [64, 128]
-0.05389718 0.055733122 0.06716936 0.06454456 -0.014671348 0.0133918375 -0.014233589 -0.0492749
-0.056321148 -0.044221867 -0.082936965 -0.013864192 -0.08064361 -0.05448245 -0.03756801 -0.014934778
0.050139613 0.08060435 0.042437505 0.087045096 -0.0694817 0.046451777 -0.075424 0.027089119
-0.02563902 -0.0058859386 0.040670145 0.07613053 -0.0061656814 -0.053413313 0.043176405 0.08448214
0.000630334 0.074606344 0.022916984 0.03363841 -0.047660593 0.05248814 0.022840915 -0.07718672
-0.018994296 -0.017621182 0.013917278 0.047280498 -0.025166817 -0.008581951 0.030089274 -0.041608524
0.07803539 0.04972277 0.009765308 0.07409545 0.032939166 0.02080882 0.019944005 0.038026318
0.06671458 -0.036145926 -0.043642692 -0.06120622 0.0445747 0.015509939 -0.084197916 0.0810611
-0.028938405 -0.02483022 -0.022492353 0.01166505 -0.020230927 0.013911538 -0.05194622 -0.0045167953
-0.030649442 0.02672264 0.07490215 -0.04359707 -0.07269156 -0.017025115 -0.024653165 -0.085516125
-0.009594157 -0.0014618097 0.041466236 0.014648505 0.036266953 -0.036662802 0.01916802 -0.045514222
-0.08576912 -0.06806154 -0.01493267 0.0036126084 -0.030712724 -0.003344643 0.0482138 -0.01754719
0.020103917 0.028519562 -0.08628365 -0.0019188821 -0.006035574 0.07478731 -0.008285783 0.03342387
0.039291035 -0.069039404 0.0059413803 0.05416766 0.08566477 0.06881691 0.049368106 -0.030391516
0.03819632 0.045791388 7.134422e-05 -0.020290539 0.06718878 0.05556769 0.048693776 -0.009676635
0.05000115 -0.076200485 -0.017414257 0.034075517 0.0412362 0.043221943 -0.011450827 0.023673987
-0.02458527 0.028564833 -0.05622516 0.023444325 -0.054996897 -0.066710114 -0.086367324 0.026156977
-0.04583988 -0.080728725 -0.001669161 -0.009607993 -0.06560103 -0.023793973 0.005335018 -0.011746548
-0.055272367 -0.07987162 -0.08473413 0.0070883185 0.07092015 -0.03933893 -0.028949302 -0.039929356
0.0741036 -0.04954303 -0.08610438 0.07153017 0.07230916 -0.06193977 0.010536984 0.0192682
0.037658565 -0.05008505 0.016921587 0.029626451 0.056146078 -0.024697512 0.030085154 0.03681346
0.03979338 0.06772394 -0.07623212 -0.031043705 0.069244616 0.0036549196 -0.0021498501 -0.007609561
-0.069725804 -0.03505049 0.0031809881 -0.084116586 -0.048802573 0.06496043 0.07202976 0.07124684
-0.06368507 -0.011807427 0.06437404 -0.03409054 -0.0814783 -0.06653087 -0.029717963 0.01694806
0.047187902 -0.026124585 0.06287011 -0.08814262 0.053894676 -0.071617484 -0.0045290366 -0.017816387
-0.062433843 -0.057764478 -0.018935978 0.039099447 -0.010429688 0.032466978 0.015970252 0.0060067475
-0.0068960115 -0.0064009875 0.06483897 0.057117365 0.0637834 0.064341955 -0.08793806 0.0026030242
0.015048809 -0.078031905 -0.07457955 -0.08075459 0.074498825 0.050590493 -0.085590556 0.0065736324
0.0023239031 -0.01523976 -0.028120756 0.015900634 -0.049915396 0.08072386 0.046856396 -0.0063641295
0.076797776 -0.015071534 -0.046532102 -0.021572039 0.023648046 0.018558234 0.0058099777 -0.030099709
-0.058460362 0.043264575 -0.060626175 -0.0010911152 -0.027470104 0.02445826 -0.062383078 0.081084274
-0.01130034 0.06783224 -0.048829503 0.015538901 -0.01135125 -0.082520545 -0.016459547 0.03733865
00000000: 4ac3 5cbd 6a48 643d 1790 893d f02f 843d
00000010: 1860 70bc 7069 5b3c 0034 69bc 7ad4 49bd
00000020: 01b1 66bd fd21 35bd dbda a9bd a326 63bc
00000030: 7a28 a5bd fd28 5fbd eae0 19bd 00b1 74bc
00000040: 325f 4d3d e513 a53d f3d2 2d3d b344 b23d
00000050: 6c4c 8ebd 3844 3e3d e677 9abd 00ea dd3c
00000060: ec08 d2bc d5de c0bb bd95 263d 53ea 9b3d
00000070: 7c09 cabb ebc7 5abd bed9 303d f904 ad3d
00000080: 003d 253a 36cb 983d 66bc bb3c 6ec8 093d
00000090: c137 43bd cefd 563d df1c bb3c 1214 9ebd
000000a0: ed99 9bbc 4c5a 90bc 4b05 643c 32a9 413d
000000b0: a42a cebc 509b 0cbc c87d f63c b36d 2abd
000000c0: 05d1 9f3d 1aaa 4b3d acfe 1f3c 5bbf 973d
000000d0: 38eb 063d 4277 aa3c 9c61 a33c 7cc1 1b3d
000000e0: a7a1 883d c00d 14bd aec2 32bd 60b3 7abd
000000f0: f693 363d 661d 7e3c f56f acbd 5d03 a63d
00000100: 3c10 edbc bf68 cbbc e241 b8bc c41e 3f3c
00000110: 54bb a5bc 38ed 633c 8fc5 54bd a001 94bb
00000120: 8a14 fbbc 70e9 da3c 4c66 993d d792 32bd
00000130: 50df 94bd 4178 8bbc 6ff5 c9bc 1423 afbd
00000140: d030 1dbc 329a bfba 80d8 293d 4800 703c
00000150: a88c 143d bc2b 16bd 4006 9d3c 1f6d 3abd
00000160: b8a7 afbd d963 8bbd 28a8 74bc 83c1 6c3b
00000170: 4099 fbbc cc31 5bbb d57b 453d 20bf 8fbc
00000180: f8b0 a43c dba1 e93c 7bb5 b0bd 0083 fbba
00000190: 10c6 c5bb 172a 993d 18c1 07bc 78e7 083d
000001a0: a3ef 203d 8864 8dbd e9af c23b e9de 5d3d
000001b0: 0371 af3d e1ef 8c3d 3636 4a3d a1f7 f8bc
000001c0: bf73 1c3d c08f 3b3d a39e 9538 5838 a6bc
000001d0: 459a 893d f29a 633d 2073 473d c08a 1ebc
000001e0: 02ce 4c3d 000f 9cbd 58a8 8ebc c592 0b3d
000001f0: 4ae7 283d 7e09 313d 409c 3bbc f3ef c13c
00000200: 0c67 c9bc cc00 ea3c 5a4c 66bd 500e c03c
00000210: 6d44 61bd 509f 88bd 5ae1 b0bd 2847 d63c
00000220: 99c2 3bbd 1a55 a5bd c0c7 daba d86a 1dbc
00000230: d559 86bd 94eb c2bc 60d1 ae3b 9874 40bc
00000240: 4765 62bd bb93 a3bd 1689 adbd 2045 e83b
00000250: 953e 913d dc21 21bd 1627 edbc f78c 23bd
00000260: a1c3 973d a2ed 4abd 7e57 b0bd 697e 923d
00000270: d316 943d 8eb4 7dbd 50a3 2c3c 58d8 9d3c
00000280: de3f 1a3d fb25 4dbd 249f 8a3c 2cb3 f23c
00000290: 6ef9 653d 7052 cabc 2475 f63c b6c9 163d
000002a0: 62fe 223d d9b2 8a3d 961f 9cbd 5e4f febc
000002b0: 1fd0 8d3d 6087 6f3b 80e4 0cbb a059 f9bb
000002c0: 67cc 8ebd 1a91 0fbd 2078 503b 5145 acbd
000002d0: 35e5 47bd f909 853d 5784 933d dde9 913d
000002e0: 516d 82bd f073 41bc 89d6 833d 86a2 0bbd
000002f0: 18de a6bd 5641 88bd 1673 f3bc a8d6 8a3c
00000300: 1a48 413d 3a03 d6bc 0bc2 803d 1e84 b4bd
00000310: aac0 5c3d 30ac 92bd 5068 94bb acf3 91bc
00000320: a1ba 7fbd 729a 6cbd a01f 9bbc be26 203d
00000330: 48e1 2abc 18fc 043d 0cd4 823c 40d4 c43b
00000340: f0f7 e1bb 60bf d1bb 4bca 843d e6f3 693d
00000350: dfa0 823d b7c5 833d df18 b4bd 8097 2a3b
00000360: 488f 763c 31cf 9fbd 2abd 98bd aa62 a5bd
00000370: d792 983d fa37 4f3d 1a4a afbd a067 d73b
00000380: a04c 183b 30b0 79bc 805d e6bc 0c42 823c
00000390: 1674 4cbd 8d52 a53d 7eec 3f3d 308a d0bb
000003a0: 2748 9d3d 98ee 76bc 7298 3ebd d8b7 b0bc
000003b0: 8cb9 c13c 7007 983c a061 be3b aa93 f6bc
000003c0: 2274 6fbd 3236 313d 2753 78bd c003 8fba
000003d0: fc08 e1bc b05c c83c 6685 7fbd 830f a63d
000003e0: 1025 39bc a1eb 8a3d 7201 48bd e096 7e3c
000003f0: 98fa 39bc 8800 a9bd 2cd6 86bc 6af0 183d

bias f4 [64]
-0.032667432 -0.068630055 0.04992391 0.041137896 -0.05639971 0.069260865 -0.040585276 0.07612789
-0.006571956 0.002819852 0.03423889 0.03545463 0.04168583 0.017095774 -0.06012667 0.048935898
-0.017031156 0.021800764 0.04403057 -0.07214646 0.07226198 0.036826827 0.034531534 -0.069826424
-0.020014603 -0.026088817 -0.07667689 -0.06176308 0.027492132 0.050204 0.07042898 -0.0127932
-0.059930284 -0.05579678 0.022274477 0.06294617 -0.07814225 -0.034260996 0.030600598 -0.02920881
-0.029315457 -0.036184523 0.04578864 -0.08618265 0.068632 0.017908983 0.03388144 0.053130366
0.09109751 0.03916677 0.07334056 0.07517439 0.019253694 0.024924096 0.05429621 -0.029889863
-0.0021707427 0.08397842 -0.0447285 -0.08288105 -0.017267078 -0.028279155 -0.051817283 -0.08215138
00000000: 49ce 05bd ea8d 8cbd 047d 4c3d 3680 283d
00000010: 6203 67bd a4d8 8d3d bf3c 26bd f0e8 9b3d
00000020: 9059 d7bb 44cd 383b 143e 0c3d e038 113d
00000030: c3be 2a3d 700c 8c3c 6247 76bd 0271 483d
00000040: ec84 8bbc 8497 b23c 6659 343d 86c1 93bd
00000050: 17fe 933d bad7 163d f070 0d3d 2801 8fbd
00000060: aaf5 a3bc 37b8 d5bc c608 9dbd 49fb 7cbd
00000070: 2e37 e13c b6a2 4d3d 123d 903d 929a 51bc
00000080: 7579 75bd 2a8b 64bd f778 b63c ece9 803d
00000090: 0b09 a0bd 4255 0cbd 1bae fa3c 5047 efbc
000000a0: f826 f0bc 3936 14bd de8c 3b3d 8780 b0bd
000000b0: ef8e 8c3d dcb5 923c 44c7 0a3d 3a9f 593d
000000c0: 5591 ba3d 566d 203d 9333 963d 08f5 993d
000000d0: ecb9 9d3c 9e2d cc3c b465 5e3d 96db f4bc
000000e0: 0543 0ebb e1fc ab3d 3b35 37bd 8abd a9bd
000000f0: b073 8dbc b0a9 e7bc 5c3e 54bd fc3e a8bd

weight f4 [32, 64]
0.078309484 -0.0043525994 -0.10228917 -0.022987202 -0.046601698 0.07218605 0.063753456 0.10637408
-0.06032546 -0.10554232 -0.06317428 -0.013401985 -0.0845866 0.016339883 0.03170024 0.02032555
0.10080216 0.111346945 -0.036125764 0.063719586 -0.043127835 -0.02075097 -0.011110768 0.11121342
0.122205205 -0.060338534 -0.10593749 0.029109914 0.04674551 0.01624617 -0.12586425 -0.052166652
-0.0019078702 -0.022760034 -0.08534813 0.11922224 -0.10389118 -0.006915026 -0.05557046 -0.0363684
-0.0175854 0.02334249 -0.06257683 0.03365098 0.115448736 -0.10944794 -0.11950901 0.06706074
0.08547173 0.096998245 -0.042542018 -0.084846094 0.11578779 0.012045703 -0.08814941 -0.019778155
0.110701956 -0.101220265 0.11723244 -0.079694435 -0.016264394 0.09418596 0.054493338 -0.118259676
-0.018694073 -0.11183143 0.08414037 0.037909105 0.06500782 0.02598915 -0.10468325 -0.09965989
0.02003932 -0.107931376 0.11007355 0.046566963 0.033390883 0.012481287 -0.072264 0.10782065
-0.002785502 -0.002801299 0.09001118 0.03286803 0.003811419 0.063916415 0.12360892 0.033261355
-0.025597839 -0.011194986 0.010996052 0.011057476 0.11321441 0.033435702 0.02287489 -0.018221656
-0.06257146 0.1099399 -0.06071927 -0.1389382 0.08765736 -0.043983947 -0.031526804 -0.12538703
-0.06128132 -0.00036233664 0.06688771 -0.10443309 -0.08130213 0.00038830936 0.03993562 -0.11961025
0.12293979 0.09982592 0.08402181 0.11335866 0.03173767 0.10572823 0.0044228053 0.0842266
-0.014107648 0.05509279 -0.051407576 -0.029810801 0.097554564 0.054076776 -0.040871277 0.025012134
-0.04572168 -0.028212115 -0.080775954 -0.084079295 0.023046464 -0.048303932 0.0070508122 0.019474752
-5.686283e-05 0.08033503 -0.052137494 0.076579854 0.033730477 0.10300529 0.09605926 0.10540683
-0.089282535 0.006211102 -0.11799309 0.031682104 0.003880486 -0.111604616 0.088318214 -0.10715908
-0.06625576 0.115948215 0.1493712 0.12109385 -0.10722285 0.07589485 0.1227351 -0.04082953
0.0049158405 0.1142215 0.009601104 0.016942186 -0.016805783 0.09216369 -0.0922936 0.026558794
0.053488072 -0.11055416 -0.07812017 0.071123585 0.11319522 0.048774958 0.087139234 0.065890044
-0.08192755 -0.121801734 -0.0993147 -0.0061156293 0.07043488 0.0534464 0.07608876 -0.11024812
0.031721864 0.025164174 0.024741352 0.073762275 -0.08306214 -0.0515967 -0.0658447 0.060874403
0.05190813 0.09587416 0.11554593 -0.0975526 -0.09182602 -0.004255356 -0.10711239 -0.005073472
0.089899346 0.019332008 -0.04904084 0.059684947 0.0975339 0.01731211 -0.068540335 0.07367987
0.09051324 -0.10372828 -0.015326396 0.10073809 0.07461114 -0.08073431 -0.003145188 -0.029171435
-0.035201278 -0.049407773 0.1658529 -0.09382044 -0.01586063 0.081010535 0.11458064 0.11077706
0.018303854 -0.06728253 0.056244627 -0.022038583 -0.049855575 0.02841871 0.057301935 -0.07154423
0.0878774 -0.080553815 -0.017220348 0.030423775 -0.040642343 -0.011986211 0.11250651 -0.07511978
-0.031404644 -0.0043695588 0.041671593 0.028002972 0.12306057 -0.031809323 0.10184597 0.08006399
-0.15835784 -0.025287835 -0.07721059 0.06736167 -0.01376906 0.035749465 -0.008316219 0.011272147
00000000: b960 a03d 40a0 8ebb fc7c d1bd a84f bcbc
00000010: 6ce1 3ebd 48d6 933d 2c91 823d a7da d93d
00000020: d417 77bd 9226 d8bd 8461 81bd 0094 5bbc
00000030: bd3b adbd 38db 853c 1cd8 013d c581 a63c
00000040: 5d71 ce3d de09 e43d 9cf8 13bd 6a7f 823d
00000050: d0a6 30bd f0fd a9bc f009 36bc ddc3 e33d
00000060: b946 fa3d 8a25 77bd c1f5 d8bd ea77 ee3c
00000070: 3878 3f3d b016 853c 8fe2 00be b3ac 55bd
00000080: 8011 faba 4073 babc 00cb aebd ca2a f43d
00000090: e6c4 d4bd 7197 e2bb da9d 63bd 08f7 14bd
000000a0: 420f 90bc c038 bf3c 4828 80bd 9cd5 093d
000000b0: 6370 ec3d 3e26 e0bd 24c1 f4bd 2457 893d
000000c0: cd0b af3d 04a7 c63d 8a40 2ebd cac3 adbd
000000d0: 2622 ed3d 575b 453c ae87 b4bd cc05 a2bc
000000e0: b5b7 e23d 924c cfbd 9017 f03d d636 a3bd
000000f0: e83c 85bc 92e4 c03d 6834 5f3d 2132 f2bd
00000100: 5024 99bc e007 e5bd c951 ac3d 9446 1b3d
00000110: d222 853d 33e7 d43c 2c64 d6bd 7c1a ccbd
00000120: 8029 a43c 200b ddbd 3e6e e13d 00bd 3e3d
00000130: e1c4 083d 507e 4c3c 26ff 93bd 13d1 dc3d
00000140: f88c 36bb 0096 37bb c857 b83d a1a0 063d
00000150: 00c9 793b 9ce6 823d ac26 fd3d 0f3d 083d
00000160: 8fb2 d1bc 2d6b 37bc c928 343c 6a2a 353c
00000170: f5dc e73d e0f3 083d 1f64 bb3c 9545 95bc
00000180: 7725 80bd 2c28 e13d c5b4 78bd d145 0ebe
00000190: b485 b33d 8328 34bd 4022 01bd 7565 00be
000001a0: 1f02 7bbd 00f8 bdb9 6cfc 883d 04e1 d5bd
000001b0: bb81 a6bd 0096 cb39 8893 233d 38f6 f4bd
000001c0: dbc7 fb3d 8871 cc3d a013 ac3d 9628 e83d
000001d0: 5cff 013d 0b88 d83d 2eed 903b ff7e ac3d
000001e0: c423 67bc faa8 613d c090 52bd c835 f4bc
000001f0: b0ca c73d 9c7f 5d3d a468 27bd 3fe6 cc3c
00000200: a846 3bbd 181d e7bc dd6d a5bd c431 acbd
00000210: f0cb bc3c 58da 45bd 800a e73b 8489 9f3c
00000220: 0080 6eb8 b186 a43d 208e 55bd e6d5 9c3d
00000230: f828 0a3d 70f4 d23d b8ba c43d 89df d73d
00000240: c3d9 b6bd 8086 cb3b 5ca6 f1bd 18c5 013d
00000250: c04f 7e3b f690 e4bd 2ee0 b43d 3876 dbbd
00000260: 1ab1 87bd 4276 ed3d c4f4 183e 0d00 f83d
00000270: a797 dbbd c26e 9b3d 8a5c fb3d de3c 27bd
00000280: 0f15 a13b f6ec e93d f34d 1d3c 57ca 8a3c
00000290: 48ac 89bc 51c0 bc3d 6d04 bdbd d491 d93c
000002a0: 4f16 5b3d 386a e2bd 78fd 9fbd 3ea9 913d
000002b0: e5d2 e73d 40c8 473d 0e76 b23d 5cf1 863d
000002c0: a2c9 a7bd 3073 f9bd 8165 cbbd 9e65 c8bb
000002d0: 2a40 903d 9dea 5a3d 6cd4 9b3d c4c9 e1bd
000002e0: c9ee 013d 1925 ce3c 60ae ca3c ad10 973d
000002f0: 7c1c aabd 1057 53bd 96d9 86bd 7057 793d
00000300: 9f9d 543d ac59 c43d 58a3 ec3d a8c9 c7bd
00000310: 480f bcbd 8370 8bbb be5d dbbd 5e3f a6bb
00000320: 261d b83d 295e 9e3c 0cdf 48bd 3478 743d
00000330: dabf c73d 20d2 8d3c e05e 8cbd 79e5 963d
00000340: 015f b93d 7e6f d4bd 901b 7bbc c64f ce3d
00000350: bacd 983d 0858 a5bd 801f 4ebb eff8 eebc
00000360: 372f 10bd ce5f 4abd 58d5 293e ee24 c0bd
00000370: 27ee 81bc dae8 a53d 41a9 ea3d 15df e23d
00000380: f7f1 953c 6ccb 89bd c460 663d 428a b4bc
00000390: 5c35 4cbd 5bce e83c 6fb5 6a3d c885 92bd
000003a0: 11f9 b33d 66f9 a4bd b011 8dbc 483b f93c
000003b0: 9678 26bd d061 44bc d069 e63d 66d8 99bd
000003c0: 28a2 00bd 842e 8fbb d5af 2a3d 7d66 e53c
000003d0: 2e07 fc3d 7e4a 02bd 9f94 d03d 97f8 a33d
000003e0: 8f28 22be 6f28 cfbc 9620 9ebd eaf4 893d
000003f0: a097 61bc 086e 123d c040 08bc d0ae 383c

bias f4 [32]
0.08138618 -0.081134126 -0.018048456 -0.0849008 -0.09765992 0.11684664 -0.031433623 -0.043248292
-0.025073282 -0.09340426 0.03532803 0.12146573 -0.09974712 -0.058353998 -0.07633008 -0.06778689
0.05926177 -0.092388615 -0.0971732 -0.124050006 0.034320597 0.017333567 0.02695626 -0.082771644
0.04745564 -0.02294143 -0.10882449 0.07439748 0.066856734 0.017943671 0.11811242 0.07807483
00000000: ccad a63d a629 a6bd 5bda 93bc 78e0 adbd
00000010: ed01 c8bd 4b4d ef3d 8bc0 00bd 1f25 31bd
00000020: 7c66 cdbc bc4a bfbd 20b4 103d 06c3 f83d
00000030: 3848 ccbd 9a04 6fbd f252 9cbd dad3 8abd
00000040: 78bc 723d 3e36 bdbd be02 c7bd ee0d febd
00000050: c193 0c3d 20ff 8d3c 60d3 dc3c 2e84 a9bd
00000060: d860 423d aaef bbbc 60df debd b55d 983d
00000070: 2fec 883d 9bfe 923c ede4 f13d b2e5 9f3d

weight f4 [8, 32]
-0.13273293 -0.1328704 -0.06266531 0.10592431 0.06765986 -0.028854202 0.1400522 -0.10810754
-0.10546471 -0.14173071 0.1056862 0.05263926 -0.17169505 -0.10665922 -0.097554125 -0.13909416
-0.0984979 -0.09089465 0.073707715 -0.061179012 -0.06510362 -0.061362565 -0.06276195 -0.035165623
0.090407774 0.12956363 0.10411109 -0.11326316 0.09557522 -0.15977666 0.07945854 0.08495481
0.09495114 -0.1211816 0.10896906 0.00373389 0.009731122 0.076886244 -0.11504929 -0.16990715
0.09819584 0.12805267 0.003872767 -0.009642721 0.15730067 -0.116943896 -0.07218674 0.040546685
-0.008425161 -0.06349243 0.13337295 0.13059488 -0.17858608 0.018981576 0.009993568 0.033357054
-0.023741826 -0.051971033 0.11023985 -0.12141341 0.15469106 -0.02297389 0.061910406 -0.10115977
-0.034934103 0.025198653 -0.11806044 0.1451311 0.09417699 0.11575861 -0.14200485 -0.17302528
0.10467602 -0.020682216 -0.12687851 -0.04820913 -0.08107186 -0.024931446 -0.16393508 -0.17382438
0.07486664 -0.10564457 -0.16772483 -0.019244775 0.098230705 0.14377274 -0.122296624 -0.12958518
0.13441654 -0.05402872 0.123593196 -0.09285309 0.1534337 -0.051919855 0.055252656 -0.13143381
-0.11916165 -0.1400598 0.15633757 0.112515956 -0.0048321174 0.21003288 0.03332758 0.102941744
-0.10459491 -0.0506737 0.09884678 -0.23062241 -0.111610904 0.18116051 -0.042223006 0.07201878
-0.10453377 0.12811665 -0.07761489 0.10974119 -0.14440152 0.17541496 -0.16707145 -0.016388923
-0.024153635 -0.10506804 0.15742286 0.13813518 0.0050832275 -0.20356685 -0.04126147 -0.041108385
-0.12445722 0.17085181 -0.07100469 0.004185915 -0.05985786 0.10588311 -0.10015347 -0.04857719
-0.059657328 0.14602162 0.074613795 0.11337663 0.0044139326 -0.13706395 -0.10159483 -0.09892944
-0.01130338 -0.0022815168 0.037673935 -0.1332615 -0.122773916 0.08141409 0.12067072 0.0023577362
0.11452155 0.10299702 -0.03214456 0.14133362 0.014320776 0.011847436 0.116447136 -0.013139322
-0.038932726 0.0054646134 -0.05295465 0.06614156 -0.15967639 -0.059837 0.13307084 0.029384509
-0.1308758 0.15160467 -0.12758578 -0.15951511 -0.026705816 0.009351209 0.01568754 -0.16954978
-0.15480416 -0.043537945 -0.13354553 0.024134353 -0.045275003 -0.060389414 0.15901278 -0.15159945
-0.12346873 0.046570778 -0.109989025 -0.101531 0.09313099 -0.08281474 0.12388332 -0.16571835
0.07239693 0.0926267 -0.076428406 0.098624386 0.10196988 0.022489531 0.16752358 -0.014910593
0.009242812 0.0068895575 -0.042053655 0.11120521 0.01413925 0.1366685 -0.17651412 0.036572643
0.10185747 -0.048538297 -0.104537174 0.07880181 -0.03878117 0.12844901 0.13358535 -0.124921784
-0.07950371 -0.17288338 0.09814046 0.087356895 0.16985457 0.17225777 -0.084229216 -0.041321248
0.0024320364 -0.14331812 0.08419407 -0.17118356 0.003543256 -0.12885864 -0.11117223 -0.14194134
0.024890134 0.114041515 0.11072932 -0.056272484 0.0607163 0.13052584 -0.019429341 -0.003891732
-0.120022126 0.11570217 0.11048086 -0.06815187 -0.10443849 0.023278207 0.06506856 -0.106499374
0.00916943 0.027401527 -0.15697864 0.07260784 0.15519488 0.1283888 0.0071884966 0.103207335
00000000: 24eb 07be 2e0f 08be ac56 80bd d8ee d83d
00000010: 4191 8a3d a65f ecbc d869 0f3e 7c67 ddbd
00000020: e2fd d7bd db21 11be 0272 d83d 449c 573d
00000030: d4d0 2fbe 2670 dabd 75ca c7bd b36e 0ebe
00000040: 44b9 c9bd f926 babd 12f4 963d d896 7abd
00000050: 0c55 85bd 5057 7bbd 5689 80bd d409 10bd
00000060: b627 b93d 54ac 043e 3238 d53d 84f6 e7bd
00000070: f1bc c33d 7e9c 23be 29bb a23d cafc ad3d
00000080: be75 c23d 0f2e f8bd 2c2b df3d 47b4 743b
00000090: 496f 1f3c 8976 9d3d f69e ebbd 24fc 2dbe
000000a0: e71a c93d 3d20 033e 40ce 7d3b 81fc 1dbc
000000b0: 6d13 213e 4880 efbd a4d6 93bd 4814 263d
000000c0: b009 0abc 5208 82bd eb92 083e aaba 053e
000000d0: 45df 36be 407f 9b3c 10bc 233c 68a1 083d
000000e0: 387e c2bc 94df 54bd 6ec5 e13d 98a7 f8bd
000000f0: 5567 1e3e bd33 bcbc c495 7d3d da2c cfbd
00000100: 1017 0fbd 686d ce3c acc9 f1bd 3f9d 143e
00000110: dedf c03d da12 ed3d b869 11be 8a2d 31be
00000120: 6260 d63d c06d a9bc 71ec 01be f076 45bd
00000130: 0109 a6bd 083d ccbc 99de 27be 05ff 31be
00000140: ae53 993d 2e5c d8bd 0fc0 2bbe 38a7 9dbc
00000150: 2e2d c93d 2939 133e a776 fabd fab1 04be
00000160: 7da4 093e 384d 5dbd 6e1e fd3d c329 bebd
00000170: b91d 1d3e eaa9 54bd 9c50 623d 9696 06be
00000180: 060b f4bd d66b 0fbe f516 203e c46e e63d
00000190: bd56 9ebb dc12 573e 8082 083d 1fd3 d23d
000001a0: db35 d6bd 3a8f 4fbd 2e70 ca3d 4828 6cbe
000001b0: 4294 e4bd 2482 393e 08f2 2cbd 957e 933d
000001c0: cd15 d6bd 0331 033e 8ef4 9ebd fdbf e03d
000001d0: fedd 13be fb9f 333e c714 2bbe 1042 86bc
000001e0: d8dd c5bc ea2d d7bd 7533 213e 4f73 0d3e
000001f0: 3491 a63b d473 50be ca01 29bd 4461 28bd
00000200: 6de3 febd c7f3 2e3e e86a 91bd 002a 893b
00000210: 842d 75bd 3ed9 d83d 431d cdbd e0f8 46bd
00000220: 3e5b 74bd b186 153e 1ecf 983d 0232 e83d
00000230: c0a2 903b 7e5a 0cbe f310 d0bd 859b cabd
00000240: d031 39bc 8085 15bb fc4f 1a3d b475 08be
00000250: e470 fbbd 6ebc a63d 3622 f73d 4084 1a3b
00000260: 468a ea3d 1af0 d23d 04aa 03bd c3b9 103e
00000270: b0a1 6a3c c01b 423c d67b ee3d 5046 57bc
00000280: ec77 1fbd 8010 b33b fae6 58bd 3a75 873d
00000290: 3582 23be a417 75bd b943 083e c8b7 f03c
000002a0: 4e04 06be 413e 1b3e d9a5 02be ee57 23be
000002b0: 28c6 dabc d035 193c 2883 803c 759e 2dbe
000002c0: fb84 1ebe d854 32bd 29c0 08be 68b5 c53c
000002d0: 4872 39bd e45a 77bd 3fd4 223e e33c 1bbe
000002e0: 2cdd fcbd 00c1 3e3d ed41 e1bd 7cef cfbd
000002f0: 76bb be3d c69a a9bd 8ab6 fd3d 12b2 29be
00000300: d744 943d 11b3 bd3d 7f86 9cbd 95fb c93d
00000310: 96d5 d03d f73b b83c 4d8b 2b3e 8f4b 74bc
00000320: 2a6f 173c ccc1 e13b 7440 2cbd 8fbf e33d
00000330: 50a8 673c d4f2 0b3e 1ec0 34be 32cd 153d
00000340: a69a d03d 18d0 46bd 9617 d6bd d862 a13d
00000350: 01d9 1ebd 2388 033e 99ca 083e fed6 ffbd
00000360: d7d2 a2bd 5708 31be defd c83d 2ce8 b23d
00000370: 5bee 2d3e 5764 303e 5e80 acbd 7840 29bd
00000380: cd62 1f3b fcc1 12be f16d ac3d be4a 2fbe
00000390: f935 683b 85f3 03be 44ae e3bd 1259 11be
000003a0: 65e6 cb3c 998e e93d 0ec6 e23d fa7d 66bd
000003b0: a8b1 783d 91a8 053e 482a 9fbc 6e0c 7fbb
000003c0: 29ce f5bd 42f5 ec3d ca43 e23d 3593 8bbd
000003d0: d9e3 d5bd f0b1 be3c aa42 853d 581c dabd
000003e0: 603b 163c 2b79 e03c 02bf 20be 6bb3 943d
000003f0: 68eb 1e3e 5b78 033e 7b8d eb3b 5e5e d33d

bias f4 [8]
-0.074285574 -0.04548381 -0.03727095 -0.099524304 0.103606954 0.023002088 0.08470739 0.15762089
00000000: 0923 98bd 3b4d 3abd 6ca9 18bd 66d3 cbbd
00000010: e22f d43d e06e bc3c 117b ad3d 5f67 213e

weight f4 [4, 8]
-0.108082056 0.038746566 -0.3431036 -0.16760053 0.3438225 0.28342137 0.13682616 0.06399131
0.12035054 0.17035034 0.09002352 -0.21020538 -0.061007947 0.12011182 0.3183281 0.22688308
0.13877407 -0.18033999 -0.04303342 -0.14452276 -0.33900273 -0.2616644 -0.063776106 -0.11056462
-0.13514926 0.2505224 0.07015255 0.17449978 -0.30275235 -0.32794678 0.31931743 -0.32658365
00000000: 205a ddbd b8b4 1e3d 46ab afbe 799f 2bbe
00000010: 8109 b03e 9b1c 913e 281c 0c3e e00d 833d
00000020: 587a f63d 5270 2e3e 405e b83d 1440 57be
00000030: 78e3 79bd 30fd f53d e7fb a23e 0a54 683e
00000040: ca1a 0e3e 0cab 38be d043 30bd c6fd 13be
00000050: c491 adbe e0f8 85be 0c9d 82bd b46f e2bd
00000060: 9164 0abe 7944 803e 24ac 8f3d 12b0 323e
00000070: 5b02 9bbe a4e8 a7be 937d a33e f935 a7be

bias f4 [4]
0.31693855 -0.031971663 -0.3393892 0.2191557
00000000: c545 a23e b8f4 02bd 6cc4 adbe 5a6a 603e
