training/ann/models/ann21ep800.pth (torch, 69218 bytes, 10 tensors)

weight f4 [128, 40]
0	0x3dbb9749	0.09159715
1	0xbc24b393	-0.010052579
2	0xbdf9616d	-0.121767856
3	0x3ed77e4a	0.42088538
4	0xbdf526da	-0.11970301
5	0x3c42a8b5	0.011881043
6	0x3e91c771	0.28472474
7	0xbdeee195	-0.1166412
8	0x3f27a8b5	0.654918
9	0x3d596574	0.05307527
10	0xbe33b7cd	-0.17550583
11	0xbe8b4d7a	-0.27207547
12	0x3db25dfb	0.087093316
13	0x3e4319b9	0.19052781
14	0xbd51b4b3	-0.05119772
15	0x3eab59c0	0.3346691
16	0xbe76e084	-0.24109083
17	0x3f2d130e	0.676072
18	0xbe74ff2a	-0.23925462
19	0x3f2151ea	0.63015616
20	0x3d9c4552	0.07630409
21	0xbf0c7949	-0.54872566
22	0xbec4ea10	-0.38459826
23	0x3d1658d9	0.036705825
24	0x3d1502f0	0.036379755
25	0x3e08a7f1	0.13345315
26	0x3d9c2a67	0.07625275
27	0xbe09ce8a	-0.13457695
28	0xbc039a31	-0.008032368
29	0xbdeeb542	-0.11655666
30	0x3f00f8f6	0.50379884
31	0xbf0095d2	-0.5022861
32	0xbf0d46a8	-0.5518594
33	0xbd025a5e	-0.031824462
34	0x3e815454	0.2525965
35	0x3dfd1b3d	0.12358711
36	0x3e77b563	0.24190287
37	0xbe7d66b4	-0.2474621
38	0x3ddc1a1f	0.1074717
39	0x3e3cd902	0.18442157
40	0x3d6ba81c	0.05753337
41	0xbcd64e78	-0.026160464
42	0x3e129ca7	0.1431757
43	0xbe192d05	-0.1495858
44	0xbc05b0a0	-0.008159786
45	0x3dd30eca	0.10305555
46	0x3d751988	0.0598388
47	0xbd8e0e22	-0.06936289
48	0xbdb05384	-0.08609679
49	0x3d55b844	0.052177683
50	0x3cb70938	0.022343263
51	0x3d27e770	0.0409922
52	0x3d99e284	0.075139076
53	0x3dab515a	0.08365126
54	0x3e0d313f	0.13788317
55	0xbb96e560	-0.0046049803
56	0xbcba2d58	-0.0227267
57	0xbd0c055e	-0.034184806
58	0x3a1f6c00	0.0006081462
59	0x3e1b2d01	0.15153886
60	0x3d918c68	0.071068585
61	0xbd0f23f6	-0.034946404
62	0x3d181c94	0.03713663
63	0x3c4938f0	0.012281641
64	0x3d8e62a2	0.069524065
65	0xbd17ff64	-0.037108794
66	0xbd623748	-0.0552285
67	0x3e0fbf1f	0.1403775
68	0x3d44aa50	0.048013985
69	0xbdb77a63	-0.0895889
70	0xbdbaf3ab	-0.09128507
71	0x3e1468f9	0.14493169
72	0x3e1d2a73	0.15348224
73	0xbd13e6dc	-0.036108837
74	0x3dc1d3ce	0.09464227
75	0x3cbe36d0	0.023219496
76	0x3e1b1eff	0.15148543
77	0xbcea7fe0	-0.028625429
78	0x3d2b833c	0.0418732
79	0xbd927d9e	-0.07152866
80	0xbe1733f9	-0.1476592
81	0x3deaf318	0.11472148
82	0xbf026d0c	-0.5094764
83	0x3f1613b9	0.58623844
84	0x3eefed2d	0.46860638
85	0xbe752aba	-0.2394208
86	0xbdf1d90d	-0.11808977
87	0xbe3a7bab	-0.18211238
88	0xbed9694b	-0.42463145
89	0xbe32f8ee	-0.17477772
90	0x3e6b7887	0.22995196
91	0xbed80b56	-0.4219615
92	0x3e8cf9d6	0.2753436
93	0xbdf0f35c	-0.11765167
94	0x3c792ffb	0.015209193
95	0xbe113ac6	-0.14182577
96	0x3e1039f8	0.14084613
97	0x3f10831a	0.56450045
98	0xbdf2ba20	-0.11851907
99	0x3e95ff7b	0.2929648
100	0xbe087c98	-0.13328779
101	0xbebe7d47	-0.37204954
102	0xbf0fbfa7	-0.56151813
103	0x3e29183f	0.16513155
104	0x3f0ddc2f	0.554141
105	0x3eaaf5bf	0.33390614
106	0xbdf14551	-0.11780799
107	0x3ddb8efd	0.10720632
108	0xbf1be31c	-0.60893416
109	0xbe47430f	-0.19459175
110	0x3e7d5062	0.24737695
111	0xbe7481a1	-0.23877575
112	0xbf4b1ecd	-0.79343873
113	0xbc64bc56	-0.013960918
114	0x3d2e287b	0.042519074
115	0x3dca8a8a	0.098897055
116	0x3f1c2fa5	0.610102
117	0x3e06fbcc	0.1318199
118	0xbd8d4124	-0.0689719
119	0xbcf74c69	-0.030187802
120	0x3df736ca	0.12070997
121	0xbe06c4f8	-0.13161075
122	0x3cdbe9b0	0.02684483
123	0x3d8fa500	0.07013893
124	0xbd30b22c	-0.043138668
125	0x3df3a56e	0.118967876
126	0xbdeb8afe	-0.1150112
127	0xbbf2a900	-0.0074054003
128	0x3d96ec32	0.073692694
129	0x3de5b056	0.11215274
130	0xbcb94408	-0.022615448
131	0xbe02f45e	-0.12788531
132	0xbdd03c32	-0.10167731
133	0xbca6f360	-0.020379722
134	0x3cde2608	0.027117744
135	0xbcb26d70	-0.0217807
136	0x3dec8eaa	0.115506485
137	0xbdec0ff4	-0.1152648
138	0x3c1c74a0	0.00954929
139	0xbd97cac5	-0.07411722
140	0x3b8eff60	0.004363939
141	0x3d90f1a4	0.07077339
142	0xbdef800e	-0.11694346
143	0x3da3bb72	0.07994737
144	0xbe04602a	-0.12927309
145	0x3e1c62c7	0.15272056
146	0x3dcd55ae	0.10026108
147	0x3db3d33c	0.08780524
148	0x3d3c1bc0	0.045924902
149	0x3e19f657	0.15035377
150	0x3daabb96	0.083365604
151	0xbdf568ec	-0.11982903
152	0xbcc1dd78	-0.023665175
153	0x3da6678c	0.08125219
154	0x3d36be54	0.044615105
155	0xbda292db	-0.07938167
156	0x3d0e1cc4	0.0346954
157	0x3e1524b1	0.14564778
158	0xbc89a988	-0.016804472
159	0x3e113c19	0.14183082
160	0xbd27aa80	-0.040934086
161	0x3dc9da54	0.09856096
162	0xbed739fa	-0.4203642
163	0x3f35046e	0.70709884
164	0xbe54ce9a	-0.20781937
165	0x3d89c309	0.06726653
166	0xbeae9a91	-0.341023
167	0x3e23f10d	0.16009922
168	0xbea578b0	-0.3231864
169	0xbe85da8c	-0.261433
170	0x3e82150d	0.25406685
171	0xbe19d737	-0.15023504
172	0xbb6db49d	-0.0036270984
173	0xbed121d3	-0.40846118
174	0x3eba131b	0.363427
175	0xbc586eef	-0.013210042
176	0x3e0330cb	0.12811582
177	0x3dde039f	0.108405344
178	0xbd0feaf6	-0.035136186
179	0x3e93bf33	0.2885681
180	0x3e14a5cd	0.14516373
181	0xbf75347f	-0.9578323
182	0xbf0550ae	-0.5207623
183	0xbe223e27	-0.15844022
184	0x3d67c731	0.056586448
185	0x3f2df0c9	0.67945534
186	0xbe9e4c76	-0.3091771
187	0x3ee3ea8e	0.4451489
188	0xbf37dd4a	-0.71822035
189	0x3e783010	0.24237084
190	0x3e0bd1e1	0.13654281
191	0xbe752c83	-0.23942761
192	0xbe273755	-0.16329701
193	0x3ee419dd	0.44550982
194	0xbd4e44e7	-0.05035868
195	0xbcdd0e33	-0.02698431
196	0x3de7648a	0.11298473
197	0x3e855f96	0.2604949
198	0xbb3a2287	-0.0028401928
199	0x3e845baf	0.258512
200	0x3c04cef0	0.008105978
201	0xbdadd1f8	-0.08487314
202	0x3dddc0da	0.10827799
203	0xbe022a91	-0.1271155
204	0x3d2c1110	0.04200846
205	0x3d92213c	0.07135245
206	0x3d99a294	0.075017124
207	0xbcc01150	-0.023445755
208	0x3d788e70	0.060682714
209	0xbe179c5c	-0.1480574
210	0x3e082c2f	0.13298105
211	0x3e057611	0.1303332
212	0x3ccb5fc0	0.02482593
213	0x3d0f1890	0.034935534
214	0xbe02bc3d	-0.1276712
215	0xbd2522c0	-0.040316343
216	0x3e10d603	0.14144139
217	0x3d0e6684	0.034765735
218	0xbd88a627	-0.06672316
219	0xbdc39ff9	-0.09551997
220	0xbd883f52	-0.066527024
221	0x3cebc698	0.02878122
222	0xbd51a8b4	-0.05118628
223	0xbd466f0c	-0.048445746
224	0xbdd7ae02	-0.10531236
225	0xbdc93548	-0.09824616
226	0x3be002c0	0.0068362653
227	0xbe0900b8	-0.1337918
228	0xbd8f348b	-0.06992444
229	0x3dc749aa	0.09730847
230	0x3d577738	0.05260393
231	0xbe007d3f	-0.12547778
232	0xbd0575b4	-0.032582954
233	0xbcd671e8	-0.026177362
234	0xbd4e8850	-0.050422966
235	0xbca74b00	-0.020421505
236	0xbc7ca130	-0.0154192895
237	0x3d6bcd08	0.05756858
238	0xbd3c40a8	-0.0459601
239	0xbd90f3ba	-0.07077737
240	0x3dfa2877	0.12214749
241	0x3dc3c366	0.09558754
242	0x3ecb1955	0.39667764
243	0xbf242872	-0.64124215
244	0xbe4e8358	-0.20167291
245	0xbe248080	-0.16064644
246	0x3ed06b45	0.4070684
247	0x3d05b9ee	0.03264802
248	0x3ed5d771	0.4176593
249	0x3c1cc8c1	0.009569348
250	0xbe0b3eb0	-0.13598132
251	0xbd67260d	-0.056432772
252	0xbda82d02	-0.082117096
253	0x3f0c46f1	0.5479575
254	0xbf15d2d0	-0.585248
255	0x3c8f920a	0.017525692

bias f4 [128]
0	0xbd8e4683	-0.06947043
1	0xbdaae8a2	-0.083451524
2	0xbc4ea5ea	-0.012612799
3	0x3db47272	0.08810891
4	0x3cc6fba8	0.02428992
5	0xbd741756	-0.059592567
6	0xbe589b28	-0.21152937
7	0xbc20dcc0	-0.009818256
8	0x3dfc3e9d	0.1231663
9	0xbdaa5f67	-0.08318978
10	0xbd244305	-0.040102977
11	0x3dbfbb42	0.093618885
12	0xbdbfed0d	-0.09371386
13	0xbda3e7de	-0.080032095
14	0xbb948de0	-0.0045335144
15	0x3d465f01	0.048430447
16	0xbddc980b	-0.107711874
17	0xbd2e0c4c	-0.042492196
18	0x3e154d14	0.14580184
19	0xbe205b95	-0.15659936
20	0x3e00d093	0.12579565
21	0x3b40c440	0.002941385
22	0x3e0665af	0.13124727
23	0xbdf9df25	-0.122007646
24	0xbe6923c3	-0.22767548
25	0x3dd6218a	0.10455616
26	0x3ca7549a	0.020426083
27	0xbd81e42e	-0.0634235
28	0x3d8055be	0.06266354
29	0xbe17f860	-0.14840841
30	0xbd1b58d4	-0.03792651
31	0xbdcdbeb6	-0.10046141
32	0xbdf6af4e	-0.120451555
33	0x3d2f9280	0.042864323
34	0xbddf3473	-0.10898676
35	0x3e14f2eb	0.14545791
36	0xbda8d1ab	-0.08243116
37	0x3e0957e5	0.13412435
38	0x3dfe3591	0.12412561
39	0xbdf2bd5a	-0.11852522
40	0xbe3a659a	-0.1820282
41	0xbe0d7203	-0.13813023
42	0xbe24e643	-0.16103463
43	0x3e1cc961	0.15311195
44	0x3cfcb1f0	0.030846566
45	0x3d29490d	0.041329432
46	0xbe27f896	-0.16403422
47	0xbd1dc516	-0.038518034
48	0x3c593512	0.013257282
49	0xbe17b67d	-0.14815708
50	0x3dedb782	0.11607267
51	0xbc25d287	-0.010120994
52	0x3cdae0c1	0.0267185
53	0xbda0b11a	-0.078462794
54	0x3d93dd0e	0.07219897
55	0x3dbea3be	0.09308575
56	0xbdee11ea	-0.116245106
57	0xbe084a93	-0.13309698
58	0xbe31cd81	-0.1736355
59	0xbd80c0ab	-0.062867485
60	0x3d8fdc97	0.07024496
61	0x3e153d03	0.14574055
62	0x3db62a01	0.0889473
63	0x3dfca5fe	0.12336348
64	0xbe3f159b	-0.18660586
65	0x3e122367	0.14271317
66	0x3e03e9ba	0.12882128
67	0xbc9a2378	-0.018815741
68	0x3b923cf4	0.0044628326
69	0xbe17b8c9	-0.14816584
70	0x3d265cca	0.040615834
71	0x3d2bd28f	0.04194885
72	0x3e314b72	0.17313936
73	0x3e0ade14	0.13561279
74	0xbe09b398	-0.13447416
75	0x3ddeb47b	0.10874268
76	0x3e0d9695	0.13826974
77	0x3e1081d3	0.14112024
78	0xbd94048e	-0.07227431
79	0xbd1facf2	-0.038983293
80	0xbda5e429	-0.08100159
81	0xbe076d3a	-0.1322526
82	0x3d324238	0.043520182
83	0x3d38b524	0.045094624
84	0x3e1b32f9	0.15156163
85	0x3d5d8190	0.05407864
86	0xbdee3e17	-0.116329364
87	0xbd1fa2ba	-0.038973548
88	0x3d847ea4	0.06469467
89	0x3d1b4c4a	0.03791455
90	0x3d32ae73	0.0436234
91	0xbdcb49ca	-0.099261835
92	0x3e0146ad	0.12624617
93	0x3d208948	0.03919342
94	0xbdc1e0b8	-0.0946669
95	0x3dc71a0b	0.09721764
96	0xbe28bf8d	-0.16479321
97	0x3df2d776	0.11857502
98	0xbdbb14fa	-0.0913486
99	0xbe17e391	-0.14832903
100	0x3e0be5dc	0.13661903
101	0xbd8671cb	-0.06564673
102	0xbd03fd74	-0.032224134
103	0xbe15ca1b	-0.14627878
104	0xbe298d6e	-0.16557857
105	0xbd2f126e	-0.042742185
106	0xbdc68037	-0.09692424
107	0xbdd733f0	-0.10507953
108	0x3d0b8d6c	0.034070417
109	0x3e05b9c7	0.1305915
110	0x3db49ca6	0.08818941
111	0xbdb116e9	-0.08646948
112	0xbdc71ba0	-0.09722066
113	0xbdd06426	-0.10175352
114	0xbd847a1a	-0.064686015
115	0xbd1b3f5d	-0.037902225
116	0xbd73e838	-0.059547633
117	0xbd5ac397	-0.053409185
118	0x3dd77c37	0.10521739
119	0xbd441e3c	-0.047880396
120	0xbdecae02	-0.11556627
121	0x3e0054cd	0.12532349
122	0xbdd6309a	-0.10458489
123	0x3d21284c	0.03934507
124	0x3cceaf20	0.02522999
125	0x3ce90d18	0.028448626
126	0x3d8e3d74	0.06945315
127	0xbde79cb6	-0.11309187

weight f4 [64, 128]
0	0x3d686822	0.056739934
1	0x3c89439c	0.016755871
2	0x3d8ac4f1	0.06775845
3	0xbd00f104	-0.03147985
4	0x3d6834c2	0.05669094
5	0x3d0c4826	0.034248494
6	0x3d9b7c93	0.0759212
7	0x3cb4ddbc	0.022078387
8	0x3daee93d	0.085405804
9	0xbd9cc11b	-0.076540194
10	0xbd6189dd	-0.055063117
11	0x3ce432c8	0.027856246
12	0x3db032b5	0.086034216
13	0x3b844fd0	0.0040378347
14	0x3d4d61ee	0.05014222
15	0xbd325287	-0.043535735
16	0x3d982757	0.074293785
17	0xbb8eeb50	-0.0043615475
18	0x3ce26268	0.027634814
19	0x3ce4b4a0	0.02791816
20	0x3d325ae2	0.043543704
21	0x3dafb487	0.08579355
22	0xbcc5955c	-0.024119072
23	0x3cb49de8	0.022047952
24	0x3d937a11	0.07201017
25	0xbd140b66	-0.036143683
26	0x3b908d30	0.004411362
27	0x3d4c694a	0.0499051
28	0xbd792700	-0.06082821
29	0x3d159c4e	0.036526017
30	0xbd539d38	-0.051663607
31	0x3d2a691a	0.04160414
32	0xbc8362d0	-0.016038328
33	0xbdae0744	-0.084974796
34	0xbd8bdb79	-0.068289705
35	0xbd91870f	-0.071058385
36	0xbc9c36f8	-0.01906918
37	0xbcecd344	-0.028909333
38	0x3d21e286	0.03952267
39	0x3d996307	0.07489591
40	0xbda04954	-0.07826486
41	0x3d823443	0.063576244
42	0x3d00aef2	0.03141684
43	0xbd027ba8	-0.03185621
44	0xbd9fe161	-0.078066595
45	0x3d85cd8d	0.06533346
46	0xbda78b94	-0.08180919
47	0xbd37aeb9	-0.044844363
48	0x3d875ea3	0.066098474
49	0xbd9fb62a	-0.07798417
50	0x3d875de7	0.06609707
51	0xbd6a7dc0	-0.05724883
52	0xbcb88aac	-0.022527061
53	0xbc88f9f4	-0.01672075
54	0xbdac05f8	-0.08399576
55	0x3d8da723	0.069166444
56	0x3bdea620	0.006794706
57	0x3d98d36d	0.07462201
58	0x3d918f27	0.07107382
59	0xbc825fdc	-0.01591485
60	0x3a9e06c0	0.0012056455
61	0xbc1834b8	-0.009289913
62	0x3b810a70	0.003938012
63	0x3d1ab2ae	0.03776806
64	0x3c967e34	0.018370725
65	0x3d6e682e	0.058204822
66	0x3c390788	0.0112932995
67	0xbd8918fe	-0.0669422
68	0x3d626e96	0.055281244
69	0x3d8707a1	0.06593252
70	0xbd8831b5	-0.06650106
71	0xbdb45bc5	-0.08806566
72	0x3c8d7c64	0.017271228
73	0xbd199d53	-0.03750355
74	0xbd8ba99a	-0.06819458
75	0x3d37a6aa	0.044836678
76	0xbd1faad3	-0.03898127
77	0x3d11c35c	0.0355867
78	0x3d9dff35	0.077146925
79	0xbc3b6dc0	-0.011439741
80	0x3d4f3faa	0.050597824
81	0xbd047f34	-0.032347873
82	0x3d3224d6	0.04349216
83	0x3daaed8f	0.08346092
84	0x3da2d9db	0.07951709
85	0xbbc57bd0	-0.0060267225
86	0xbd7c9e24	-0.061674252
87	0xbcba7440	-0.02276051
88	0x3ade9240	0.0016980842
89	0x3cd08538	0.025454149
90	0xbdaa9779	-0.08329672
91	0xbd656710	-0.05600649
92	0xbda53476	-0.08066647
93	0xbc8d4044	-0.017242558
94	0x3d04e3f2	0.032443948
95	0x3c90a148	0.01765503
96	0x3ba22d10	0.0049492195
97	0x3bca5140	0.0061742365
98	0xbd8d8d5c	-0.06911728
99	0xbc736ac0	-0.014856994
100	0xbbd2cc90	-0.006433077
101	0xbd0244de	-0.031803958
102	0x3d87f37d	0.066382386
103	0x3d6aa4ae	0.057285957
104	0x3db42f85	0.08798126
105	0xbc522000	-0.012825012
106	0xbbc0e160	-0.005886242
107	0x3dae6899	0.08516044
108	0xbb545900	-0.003240168
109	0x3d153730	0.036429584
110	0xbd05ad57	-0.032636013
111	0xbd6ee4fe	-0.058323853
112	0x3d9c83d1	0.076423295
113	0x3d9db463	0.07700422
114	0xbda8015c	-0.08203384
115	0xbc773980	-0.015089393
116	0x3d86f25d	0.06589196
117	0x3d062792	0.03275258
118	0x3d125360	0.035724044
119	0x3d4ce40a	0.050022162
120	0x3d7f62ea	0.06235019
121	0xbd7bf114	-0.061509207
122	0xbd34e6b6	-0.044165336
123	0x3d64b1ea	0.055833735
124	0x3c0b3e70	0.008498773
125	0x3c80eab0	0.015736908
126	0x3d23889e	0.03992521
127	0xbd2a4875	-0.041573007
128	0x3dd7a191	0.10528863
129	0x3bb6f9e0	0.0055839866
130	0x3dab3083	0.08358862
131	0xbcab0654	-0.02087704
132	0x3cb6c2ad	0.022309626
133	0x3d9178c1	0.0710311
134	0x3c22568b	0.009908329
135	0xbdabfb08	-0.0839749
136	0xbd8c5bd7	-0.068534546
137	0xbcd4171d	-0.025889928
138	0x3d58e8ef	0.052956518
139	0xbc36ca20	-0.011156589
140	0x3cdff504	0.027338512
141	0xbd2eab4d	-0.042643834
142	0xbd9b3a6e	-0.07579504
143	0xbd10206a	-0.035187162
144	0x3d982a05	0.074298896
145	0xbd45fbc2	-0.048335798
146	0xbd0c8cdb	-0.034314018
147	0x3d7d20ea	0.061798967
148	0xbd89df7c	-0.067320794
149	0x3db39327	0.087683015
150	0x3d4105a2	0.047124512
151	0xbd10ea6f	-0.035379823
152	0x3d48dbba	0.049037673
153	0x3ce2b828	0.027675703
154	0xbd97f3cd	-0.07419548
155	0x3baec2d0	0.005333282
156	0xbbdc79e0	-0.006728396
157	0x3c7f6960	0.015589088
158	0x3dafb3d2	0.0857922
159	0xbc99beb8	-0.0187677
160	0x3d3e13a4	0.04640545
161	0x3d3db2a2	0.046312936
162	0x3c8cf908	0.017208591
163	0xbcaf3ae4	-0.021390386
164	0xbe520627	-0.2051016
165	0x3e32228e	0.17395994
166	0xbe9dbd3d	-0.3080844
167	0xbe3d4aac	-0.18485516
168	0xbd72837a	-0.059207417
169	0x3d338fbe	0.043838255
170	0x3c787e1a	0.015166784
171	0x3d8e0837	0.069351606
172	0xbd344397	-0.04400977
173	0xbd5751eb	-0.052568357
174	0xbd6dfae7	-0.058100607
175	0xbd26d4e5	-0.040730376
176	0xbdb154c6	-0.086587474
177	0xbbead204	-0.007166149
178	0x3dacc7d3	0.08436551
179	0xbe2211f6	-0.15827164
180	0xbc1fc886	-0.009752398
181	0x3d4140aa	0.04718081
182	0x3da4a127	0.0803855
183	0xbd0b7f2e	-0.034056835
184	0xbd2fd9df	-0.042932387
185	0x3dc2e754	0.095167786
186	0x3e8b609d	0.27222148
187	0x3d197fc6	0.03747537
188	0x3d8c940d	0.06864176
189	0x3da6e67d	0.08149431
190	0x3c994127	0.018707825
191	0x3da6eb41	0.0815034
192	0x3d1422d9	0.036166046
193	0x3d229dfe	0.039701454
194	0xbd892502	-0.06696512
195	0x3d989d1f	0.074518435
196	0x3dbbdf67	0.0917347
197	0xbd3aae6b	-0.045576494
198	0x3c57d3a1	0.013173015
199	0xbc504d48	-0.012713738
200	0xbdca9978	-0.09892553
201	0x3db1493e	0.08656548
202	0xbd4aabed	-0.049480367
203	0x3f080da0	0.5314579
204	0x3ac99d28	0.0015381919
205	0xbd82a099	-0.06378288
206	0x3d356d9e	0.044293992
207	0x3c00d550	0.007863358
208	0x3da79cb2	0.08184184
209	0xbd8e495a	-0.069475845
210	0xbc9694a2	-0.01838142
211	0x3d2222ce	0.039583974
212	0x3d7f0ade	0.062266223
213	0x3ca7ea1c	0.020497374
214	0x3dec30f9	0.11532778
215	0x3cf3dccc	0.02976837
216	0xbd147769	-0.03624669
217	0x3d643bef	0.05572122
218	0xbd9f7087	-0.07785135
219	0xbb2c1460	-0.0026257262
220	0x3d995db3	0.07488575
221	0xbc1531e0	-0.009106129
222	0x3c328710	0.010896459
223	0xbdb5c3d9	-0.088752456
224	0xbda19e90	-0.078915715
225	0x3d47369a	0.048636056
226	0xbd64f64e	-0.055898957
227	0xbd369963	-0.044579875
228	0xbe6dde8e	-0.23229429
229	0xbc9fe0a1	-0.019516291
230	0x3a174a80	0.0005771294
231	0x3da24d5f	0.079249136
232	0x3e090af9	0.13383092
233	0xbd4f949c	-0.050678834
234	0xbd095746	-0.033530496
235	0x3d8f8d0f	0.07009327
236	0xbd5bc542	-0.053654917
237	0x3c846f28	0.016166285
238	0xbcd375a9	-0.02581294
239	0x3c4a5f1d	0.012351778
240	0xbc04c6c0	-0.008104026
241	0x3a90c8c0	0.0011046156
242	0xbd4d61c6	-0.050142072
243	0xbeaf2b72	-0.34212834
244	0xbcdf4dda	-0.027258802
245	0x3d8929a9	0.06697399
246	0x3e862f52	0.26207978
247	0x3da6b3bd	0.08139751
248	0xbd69f257	-0.05711588
249	0x3cdba912	0.026814017
250	0xbdacce80	-0.08437824
251	0xbd60a04c	-0.05484037
252	0xbd2492b7	-0.04017898
253	0xbd0db6a3	-0.034598004
254	0xbdb7d41c	-0.089760035
255	0xbd57c9b0	-0.05268258

bias f4 [64]
0	0x3d896ca3	0.06710174
1	0x3c77991b	0.015112187
2	0xbd784b48	-0.06061867
3	0x3d904da7	0.07046061
4	0xbd560636	-0.052252017
5	0x3d81e7d7	0.06343048
6	0x3cefb806	0.029262554
7	0xbc9f8018	-0.01947026
8	0x3d21d555	0.03951009
9	0x3aea33fa	0.0017868273
10	0xbe18c0c9	-0.14917292
11	0xbbc52765	-0.006016659
12	0x3cce130c	0.025155567
13	0x3c024446	0.007950848
14	0xbd699d8b	-0.05703501
15	0x3d01566c	0.03157656
16	0xbd3f2823	-0.046669137
17	0xbd7f8b0b	-0.06238846
18	0xbaf427c0	-0.0018627569
19	0xbd8a3323	-0.06748035
20	0x3d48fb77	0.04906794
21	0x3d2a34fa	0.04155443
22	0x3d54ffb5	0.052001674
23	0xbb34eabc	-0.0027605733
24	0x3da501f7	0.080570154
25	0xbd97d331	-0.074133284
26	0x3d0fb796	0.03508719
27	0xbd2bce7d	-0.04194497
28	0xbcb23d99	-0.021757888
29	0x3d35121a	0.044206716
30	0x3b91319c	0.0044309627
31	0x3d80b401	0.06284333
32	0x3d3db3fa	0.046314217
33	0xbd0eae90	-0.034834445
34	0x3d7df4ea	0.062001146
35	0xbd8c4880	-0.06849766
36	0x3d035cce	0.032070927
37	0x3c0d36c0	0.00861901
38	0x3db24371	0.0870427
39	0x3ccfb136	0.025353055
40	0xbbee6e80	-0.007276356
41	0xbc4792b8	-0.012180977
42	0xbd5db565	-0.05412807
43	0x3db93a15	0.090442814
44	0x3da018f9	0.07817263
45	0xbc8ddb68	-0.017316535
46	0x3e1bfcab	0.15233104
47	0x3ce7e4a8	0.028307274
48	0x3d6e8052	0.058227845
49	0xbd525e61	-0.051359538
50	0xbc63ce08	-0.013904102
51	0x3d3f9293	0.046770643
52	0xbd5aaeee	-0.053389482
53	0xbd1f89e7	-0.038949873
54	0x3d29b8c5	0.041435976
55	0xbd9697f1	-0.07353199
56	0xbd9967d8	-0.0749051
57	0x3c759283	0.014988544
58	0x3c20ea40	0.009821475
59	0xbbe02ea5	-0.006841498
60	0xbd0fb9d9	-0.035089348
61	0xbd3df893	-0.046379637
62	0x3c535dd5	0.012900789
63	0xbcc09e82	-0.023513082

weight f4 [32, 64]
0	0xbc4c9440	-0.012486517
1	0x3d5d7f2d	0.054076362
2	0x3cdea320	0.027177393
3	0xbdff9ba8	-0.12480861
4	0x3de4714e	0.11154424
5	0x3deea55e	0.11652635
6	0x3df4d25c	0.11954185
7	0x3c036310	0.008019224
8	0x3cf27ce2	0.029600564
9	0xbd5c46bc	-0.053778395
10	0x3dc3b4ab	0.09555944
11	0xbdd84494	-0.10559955
12	0xbcb583a8	-0.022157505
13	0xbd8246d2	-0.06361164
14	0x3d7a21f0	0.06106752
15	0x3b076451	0.0020659158
16	0x3c8e6d84	0.017386205
17	0x3cbdda8a	0.023175497
18	0x3dfb3df8	0.12267679
19	0x3a5b5ee2	0.00083683257
20	0xbdca37d0	-0.09873927
21	0x3de4029a	0.11133309
22	0x3dae82e2	0.08521058
23	0xbd4a13b8	-0.04933521
24	0x3d9d02f4	0.07666579
25	0xbd86a07b	-0.06573578
26	0xbdc0490e	-0.09388934
27	0xbd1b8770	-0.03797096
28	0xbcfdae2e	-0.030966844
29	0x3df1df1c	0.11810133
30	0xbc850f08	-0.016242519
31	0xbc43a900	-0.011942148
32	0xbd7bacc4	-0.06144406
33	0x3cad47ac	0.02115234
34	0xbdc03aeb	-0.09386238
35	0xbd279c3c	-0.04092048
36	0xbdd2a4a1	-0.10285307
37	0xbd337320	-0.043810964
38	0xbc922c00	-0.017843246
39	0x3d849e79	0.06475539
40	0xbdd261c8	-0.102725565
41	0x3ddaf0d0	0.106904626
42	0x3d963806	0.073349044
43	0x3d7ad94b	0.061242383
44	0x3d9bfd64	0.0761669
45	0x3dd80908	0.105485976
46	0xbde6731a	-0.11252423
47	0x3dd91a46	0.106007144
48	0xbd08bf64	-0.03338565
49	0xbde255e8	-0.110515416
50	0xbd0b4ad5	-0.034006912
51	0xbd8d4d14	-0.06899467
52	0xbdccf81c	-0.100082606
53	0xbd84e180	-0.06488323
54	0x3d96aaea	0.07356818
55	0x3d521931	0.051293556
56	0xbd8b7d16	-0.068109676
57	0xbd9ce71e	-0.076612696
58	0x3cdbd4e8	0.02683492
59	0x3da8284a	0.082108095
60	0x3d933f12	0.07189764
61	0xbb8dcce0	-0.0043274015
62	0xbdf906d3	-0.12159505
63	0x3d3f59a6	0.046716355
64	0xbd658d6c	-0.056043074
65	0x3da2dcd2	0.079522744
66	0x3cbec478	0.023287043
67	0x3c87bb50	0.01656881
68	0x3d4f99e4	0.05068387
69	0x3d504fa4	0.0508572
70	0xbc894b08	-0.01675941
71	0xbdab6ba2	-0.08370139
72	0x3c984e08	0.018591896
73	0x3bbca260	0.0057566613
74	0x3dc4393c	0.09581229
75	0xbd0b3504	-0.033986107
76	0xbda7c462	-0.08191754
77	0x3d3e4e00	0.046461105
78	0x3da74746	0.08167891
79	0xbdba280a	-0.09089668
80	0xbdcf17a8	-0.10111934
81	0x3d961906	0.073289916
82	0x3d53f5d4	0.05174811
83	0x3dd750a6	0.10513429
84	0x3def90e6	0.11697559
85	0xbdcc66e2	-0.09980561
86	0xbdf23368	-0.11826211
87	0xbc6983e0	-0.014252633
88	0x3caf5c60	0.021406353
89	0xbda3df4c	-0.08001575
90	0xbdc1bae6	-0.09459476
91	0x3d172ec0	0.03690982
92	0x3c00a6d0	0.007852271
93	0xbdcd3858	-0.10020512
94	0xbde33ce8	-0.11095601
95	0x3ddc2c62	0.10750653
96	0xbdcbc6fe	-0.09950064
97	0xbc6a28c0	-0.014291942
98	0xbda8f86a	-0.08250506
99	0x3dd09d7e	0.10186289
100	0xbdd93c12	-0.10607161
101	0xbdfb8012	-0.12280287
102	0xbdcdfcb4	-0.10057965
103	0xbcf35c80	-0.029707193
104	0x3db0a15e	0.08624528
105	0x3d774ae8	0.06037417
106	0x3c1d0c70	0.009585485
107	0xbdb45062	-0.08804394
108	0xbdc8c8fa	-0.09803958
109	0x3c949778	0.018138632
110	0xbd1c2984	-0.03812553
111	0x3ddd7872	0.10813989
112	0x3d044324	0.032290593
113	0x3de9bcc0	0.11412954
114	0xbd303c10	-0.04302603
115	0xbd9b8d2a	-0.07595284
116	0xbd87ae1e	-0.06625007
117	0x3dc04e46	0.093899295
118	0xbd9255b2	-0.07145251
119	0x3ce94b98	0.028478429
120	0x3cfb8270	0.030701846
121	0xbdb4a03a	-0.08819623
122	0xbca95740	-0.020671487
123	0x3cbfc2c8	0.023408309
124	0xbdb5e8ae	-0.08882271
125	0xbd8d21d6	-0.06891219
126	0x3ded2998	0.11580199
127	0x3a171800	0.0005763769
128	0xbdb9e5ee	-0.09077059
129	0x3de71ca1	0.112847574
130	0xbe05c1c6	-0.130622
131	0xbd88a078	-0.06671232
132	0xbc4d9cf0	-0.012549624
133	0x3df906d0	0.121595025
134	0x3dae0378	0.08496755
135	0x3dae1f88	0.08502108
136	0xbf1d74eb	-0.6150653
137	0xbdcacf81	-0.099028595
138	0x3d9b741d	0.07590506
139	0xbde924ba	-0.11383958
140	0xbd027c42	-0.031856783
141	0x3e86e859	0.26349142
142	0x3c46f1a0	0.012142569
143	0xbd546a71	-0.051859323
144	0xbd43e7c6	-0.04782846
145	0xbee4076e	-0.44536918
146	0x3dfd2004	0.12359622
147	0xbe69c960	-0.22830725
148	0x3abb1c78	0.0014275452
149	0xbdfdd6ec	-0.12394509
150	0xbda412e8	-0.080114186
151	0x3d63e9dd	0.05564295
152	0x3df42afe	0.119222626
153	0xbea4e04a	-0.3220237
154	0xbe10abea	-0.1412808
155	0xbd2b7586	-0.041860126
156	0x3e1838e6	0.14865455
157	0xbd20999c	-0.039208993
158	0xbce54340	-0.027986169
159	0xbba7ab60	-0.005116865
160	0xbda3fc68	-0.08007127
161	0x3dfd84c8	0.12378842
162	0xbe4cc427	-0.19996701
163	0xbd63da64	-0.055628195
164	0xbcd1bdf8	-0.02560328
165	0x3bafb4c0	0.0053621233
166	0x3d815a5e	0.06316064
167	0xbe5d005c	-0.21582168
168	0xbd66b5d0	-0.056325734
169	0xbdc1d0c0	-0.09463644
170	0xbd13e720	-0.03610909
171	0xbd876bcb	-0.06612357
172	0xbd84b3c6	-0.064796016
173	0x3da072b0	0.07834375
174	0x3e15c1e2	0.14624742
175	0xbc9cf5f0	-0.01916024
176	0x3d643a58	0.055719703
177	0x3d49eb16	0.04929646
178	0xbe2ada95	-0.16684945
179	0xbd549937	-0.05190393
180	0xbd05ae18	-0.032636732
181	0x3ca9c8f8	0.020725712
182	0x3db05c87	0.08611398
183	0x3d6662be	0.05624651
184	0xbdd7f85c	-0.10545418
185	0x3e3a7fda	0.18212834
186	0x3d47f228	0.048814923
187	0xbc5615fc	-0.013066765
188	0x3b6a9640	0.0035795122
189	0x3d9eddf0	0.07757175
190	0x3e0681bf	0.13135432
191	0xbc7ded3c	-0.015498456
192	0xbdc07b78	-0.0939855
193	0xbbd88fc0	-0.006608933
194	0xbdd6c880	-0.10487461
195	0x3d06ed00	0.032940865
196	0x3caa8330	0.020814508
197	0x3ddc8892	0.10768236
198	0xbcbf90f8	-0.023384556
199	0x3d68d630	0.05684489
200	0xbd842414	-0.06452194
201	0x3daee6dc	0.08540127
202	0x3db0bce8	0.08629781
203	0x3cd0d508	0.025492206
204	0x3d8e2168	0.069399655
205	0xbdb4df86	-0.08831696
206	0x3dc0c464	0.094124585
207	0xbb8d26a0	-0.004307583
208	0xbdc37a8c	-0.09544858
209	0xbd178af4	-0.03699775
210	0xbde98e38	-0.11404079
211	0x3d99a168	0.07501489
212	0x3dba076a	0.09083445
213	0xbdf49784	-0.11942962
214	0xbd9e66e4	-0.077344686
215	0x3c898778	0.01678823
216	0xbd9eaa48	-0.07747322
217	0x3dcf16e2	0.101117864
218	0xbb7addc0	-0.0038279146
219	0xbd80f7ee	-0.06297289
220	0x3dc9239a	0.098212436
221	0xbd7ae2c4	-0.061251417
222	0xbd816614	-0.06318298
223	0x3d981782	0.07426359
224	0x3d03aa88	0.032145053
225	0xbd4df820	-0.05028546
226	0xbd9c8fe8	-0.076446354
227	0xbd40a3e8	-0.047031313
228	0xbdafb5fc	-0.08579633
229	0xbd418298	-0.047243685
230	0xbdd80e74	-0.10549632
231	0xbde1c104	-0.11023143
232	0xbca84288	-0.020539537
233	0xbde3e03c	-0.11126754
234	0xbdf85c7c	-0.12127015
235	0xbc2ddeb0	-0.010612175
236	0x3d63dee8	0.0556325
237	0xbdb6373e	-0.08897255
238	0xbd9d35d4	-0.076762825
239	0xbdb78e78	-0.08962721
240	0xbdaedf40	-0.08538675
241	0x3cfc0860	0.030765712
242	0x3d875642	0.06608249
243	0x3da2b0fa	0.07943912
244	0x3dabdea2	0.08392073
245	0xbdfd6b7c	-0.12374017
246	0xbda06a28	-0.07832748
247	0xbde00d46	-0.10940032
248	0x3ddb6938	0.10713428
249	0xbd67c4b8	-0.05658409
250	0xbdff08d4	-0.12452856
251	0xba2efb00	-0.0006674975
252	0x3dcb8dc6	0.099391505
253	0xbd245568	-0.040120512
254	0x3c959680	0.01826024
255	0x3d218794	0.039435938

bias f4 [32]
0	0xbdf745f5	-0.1207389
1	0xbbf64540	-0.0075155795
2	0xbbd4aa88	-0.0064900555
3	0xbd911c80	-0.07085514
4	0xbd1f3b69	-0.038875017
5	0xbdb25bf8	-0.08708948
6	0x3e4de738	0.20107734
7	0x3d20d80e	0.039268546
8	0xbdbb17a2	-0.09135367
9	0x3cd8e69a	0.026477147
10	0xbdf646c6	-0.12025218
11	0xbd03017c	-0.031983837
12	0xbd8ac317	-0.06775492
13	0xbc623795	-0.013807197
14	0xbc81fb65	-0.015866945
15	0x3d4eb39d	0.05046426
16	0x3cdea8ce	0.027180102
17	0xbde0948e	-0.109658346
18	0x3d50d474	0.05098386
19	0x3d668cbc	0.05628656
20	0x3da1e119	0.07904262
21	0x3dee8c60	0.11647868
22	0xbdd27e78	-0.10278028
23	0x3e194ad0	0.14969945
24	0xbd1132e5	-0.035448927
25	0x3d856810	0.06513989
26	0x3ded3a26	0.115833566
27	0xbb8d09f2	-0.004304164
28	0xbb149c8a	-0.0022676312
29	0xbd9bf260	-0.07614589
30	0x3c922a2e	0.017842378
31	0xbcefca9c	-0.029271416

weight f4 [8, 32]
0	0x3de93182	0.11386396
1	0xbde6f32d	-0.11276851
2	0x3e29e551	0.16591384
3	0x3dc20872	0.09474267
4	0x3de3b1d1	0.111179
5	0x3bf90de0	0.007600531
6	0xbe0fde13	-0.14049558
7	0x3c83cdd4	0.016089357
8	0x3e0c86c4	0.13723284
9	0xbe256193	-0.16150503
10	0xbe13b055	-0.14422734
11	0xbb8378c0	-0.0040121973
12	0x3e18668b	0.14882867
13	0x3ca6c9c1	0.020359876
14	0xbde25442	-0.11051227
15	0xbd493a1b	-0.04912768
16	0x3dd3f3b2	0.103492156
17	0xbd13453d	-0.035954703
18	0xbe320459	-0.17384471
19	0xbe0c84e4	-0.13722569
20	0xbe31443e	-0.17311189
21	0x3dbf2459	0.09333105
22	0x3b8705e0	0.0041205734
23	0xbcad2aa7	-0.021138502
24	0x3d6baa10	0.05753523
25	0xbe038d94	-0.12846977
26	0x3b81db7e	0.003962933
27	0xbd9cdade	-0.07658933
28	0x3ca07fcf	0.019592194
29	0xbde81901	-0.11332894
30	0x3db59706	0.08866696
31	0xbd9434e4	-0.072366506
32	0xbe00405a	-0.12524548
33	0x3e18a3b9	0.14906205
34	0x3e8021a5	0.2502567
35	0xbdaaadd4	-0.08333936
36	0xbf217a7e	-0.63077533
37	0x3c9b3ffb	0.018951407
38	0x3d2746e1	0.04083908
39	0xbe05c59a	-0.1306366
40	0xbd910dfb	-0.07082745
41	0xbd852a3f	-0.065021984
42	0xbd29ad35	-0.04142495
43	0x3e18562f	0.14876626
44	0xbd32ce5d	-0.043653835
45	0x3e11f7be	0.14254662
46	0x3eba3e56	0.36375684
47	0xbc953ec3	-0.018218404
48	0x3db3d06c	0.08779988
49	0x3e5872e8	0.21137583
50	0xbeea74f9	-0.45792368
51	0xbe493f36	-0.1965302
52	0xbe1c47c4	-0.15261751
53	0xbe118e2c	-0.1421439
54	0x3cd9f2a0	0.02660495
55	0x3ed24783	0.41070184
56	0x3dfc0c1c	0.12306997
57	0x3baca300	0.0052684546
58	0xbd3bfd5d	-0.045895923
59	0x3e27fa4d	0.16404076
60	0xbea30909	-0.3184283
61	0x3e29982a	0.16561952
62	0x3e33505d	0.17511125
63	0xbde0d1a9	-0.109774895
64	0x3df3ab27	0.11897879
65	0xbe13973a	-0.14413157
66	0x3e0a706b	0.13519447
67	0xbd9166e3	-0.07099702
68	0x3f00b3e8	0.50274515
69	0xbdf710b0	-0.1206373
70	0x3d9ea917	0.07747095
71	0xbd580d82	-0.052747257
72	0x3e86e41f	0.26345918
73	0xbe02213f	-0.12707995
74	0xbc13d787	-0.009023554
75	0x3d1a9fb0	0.037749946
76	0x3d454f04	0.04817106
77	0xbe9ac3ba	-0.30227453
78	0x3e57db9f	0.21079873
79	0x3b1b7160	0.00237187
80	0x3e015022	0.12628224
81	0xbcf00109	-0.029297369
82	0x3f0e74a3	0.55646724
83	0x3cca83ab	0.024720987
84	0x3d2c8504	0.04211904
85	0xbdb9479b	-0.09046861
86	0x3da6b03e	0.08139084
87	0xbe25f8fc	-0.16208261
88	0x3cd8bd1f	0.026457367
89	0x3e020cb7	0.12700163
90	0xbb479483	-0.003045351
91	0x3e4afc21	0.19822742
92	0xbd408022	-0.046997197
93	0x3e62d0c2	0.22149947
94	0x3db083b8	0.08618873
95	0x3e7aca4f	0.24491237
96	0xbdb23e2b	-0.08703264
97	0xbe1e862b	-0.15480869
98	0xbeb7f07c	-0.35925663
99	0x3c885b78	0.016645178
100	0xbd66ea30	-0.056375682
101	0xbdb55392	-0.088538304
102	0x3db244a6	0.087045
103	0xbd98ea81	-0.07466603
104	0x3d0b1327	0.033953812
105	0xbca5605c	-0.02018755
106	0xbe01bd9b	-0.12669985
107	0x3cfb3580	0.03066516
108	0x3c8050eb	0.015663585
109	0x3d40ca43	0.04706789
110	0xbe2b284f	-0.16714595
111	0x3c17a230	0.009254977
112	0x3d71a718	0.058997244
113	0x3e3abc1c	0.1823582
114	0xbd5e9d01	-0.05434895
115	0xbe2149de	-0.15750834
116	0x3e869d56	0.26291913
117	0x3db438ec	0.087999195
118	0x3e276341	0.16346456
119	0xbe8d86d3	-0.27641925
120	0xbb9b7804	-0.0047445316
121	0xbe170bb5	-0.1475056
122	0xbdcd66c6	-0.10029368
123	0x3dd9609a	0.106141284
124	0x3bbb1127	0.005708832
125	0x3e8759ff	0.2643585
126	0x3ce99dec	0.028517686
127	0x3dd92c88	0.10604197
128	0xbe114f6e	-0.14190456
129	0x3ccc0298	0.02490358
130	0x3f41eca9	0.7575174
131	0xbda487e6	-0.08033733
132	0xbf3d3632	-0.7391082
133	0x3d7be169	0.061494265
134	0x3e9c5cf9	0.30539683
135	0x3d90cd18	0.070703685
136	0x3d7ce26d	0.061739374
137	0xbe18c316	-0.1491817
138	0xbe0373b5	-0.12837107
139	0xbce1b1c8	-0.027550593
140	0x3ca4ce0e	0.020117786
141	0x3d9a3d59	0.075312324
142	0xbf3cc819	-0.73742825
143	0x3ceb5f76	0.028732043
144	0x3e0f6a26	0.14005336
145	0xbe520a82	-0.20511821
146	0xbdfbb707	-0.12290769
147	0x3eb4b3d1	0.3529344
148	0xbe8c6881	-0.2742348
149	0x3e93bff5	0.2885739
150	0xbd2aa6d4	-0.041663006
151	0x3e5d8427	0.21632443
152	0x3d808faa	0.06277402
153	0xbbc95660	-0.00614433
154	0xbe2f1d2a	-0.17100969
155	0xbef5e588	-0.4802668
156	0x3dce350c	0.10068712
157	0xbd3cc88f	-0.046089705
158	0x3d666f41	0.056258444
159	0xbe99e6e0	-0.30058956
160	0x3c7d9910	0.0154783875
161	0x3d8f3174	0.06991854
162	0xbdb1361e	-0.086529
163	0x3e22751f	0.1586499
164	0xbe045c56	-0.12925848
165	0x3d7d9a03	0.061914455
166	0x3d8e7031	0.069549926
167	0xbe168d25	-0.1470228
168	0x3db1a4d2	0.08674015
169	0xba510255	-0.0007973065
170	0xbdda2c05	-0.10652927
171	0xbda8627d	-0.0822191
172	0x3ddc049d	0.107430674
173	0x3d9bf2bb	0.076146565
174	0xbe3455ff	-0.1761093
175	0xbe2cd1f8	-0.16876972
176	0x3d6259f1	0.055261556
177	0xbc28a308	-0.010292776
178	0x3dccf3b8	0.10007423
179	0xbda6997b	-0.08134743
180	0xbefd8b70	-0.49520445
181	0x3d5e6886	0.0542989
182	0xbb47a280	-0.0030461848
183	0xbda191ff	-0.07889175
184	0xbe33f57e	-0.17574117
185	0xbcae5d58	-0.021284744
186	0x3dd21026	0.10256986
187	0xbdb22035	-0.08697549
188	0xbd9c0437	-0.076179914
189	0xbcff93ca	-0.031198401
190	0xbe57e621	-0.21083881
191	0xbe14898d	-0.14505596
192	0x3e05c253	0.1306241
193	0x3caed680	0.021342516
194	0x3ce96e37	0.028494937
195	0x3de2d77e	0.11076258
196	0xbde51e4b	-0.111874186
197	0x3d93d51c	0.07218382
198	0xbd84dac6	-0.0648704
199	0x3e116524	0.14198738
200	0x3e084a81	0.13309671
201	0xbc7bb006	-0.0153617915
202	0x3e2ca597	0.16860043
203	0x3bb90500	0.005646348
204	0xbe20cbe1	-0.15702774
205	0xbe318dc5	-0.17339237
206	0x3d92bbf6	0.07164757
207	0x3d150b0c	0.03638749
208	0x3de5fa94	0.112294346
209	0xbe348e91	-0.1763251
210	0xba3fe267	-0.00073198084
211	0xbe091c1e	-0.13389632
212	0x3d9720ca	0.07379301
213	0x3daf1e86	0.08550744
214	0xbe158a4c	-0.14603537
215	0xbc7a2d52	-0.015269594
216	0x3dad2736	0.084547445
217	0x3e027b3d	0.12742324
218	0x3e24cd49	0.16093935
219	0x3cacdcaa	0.021101315
220	0xbcdc0d85	-0.026861915
221	0xbda3c6b7	-0.07996886
222	0xbd52a0ff	-0.05142307
223	0xbd961378	-0.07327932
224	0x3bae1d00	0.0053135157
225	0x3df61bd6	0.12017028
226	0x3dcba187	0.09942918
227	0xbcdcb260	-0.026940525
228	0x3e18a424	0.14906365
229	0xbe1e58e4	-0.15463597
230	0x3afa864f	0.0019113513
231	0x3e01e9a1	0.12686779
232	0x3d073dfb	0.033018094
233	0x3d34631e	0.044039838
234	0x3d9252bb	0.07144686
235	0x3a8dca80	0.0010817796
236	0xbe01dd7e	-0.12682149
237	0xbcadb2b0	-0.021203369
238	0xbdfcbc7b	-0.12340637
239	0xb99660f2	-0.0002868246
240	0x3dfc45ec	0.12318024
241	0xbe087add	-0.13328119
242	0x3dd904ba	0.10596605
243	0xbda13632	-0.07871665
244	0x3e281c13	0.1641696
245	0xbe0006e7	-0.12502633
246	0xbdb17a27	-0.08665877
247	0xbc6cad6c	-0.014445644
248	0xbde7bee0	-0.113157034
249	0xbc001f10	-0.007819906
250	0xbc85a81e	-0.016315516
251	0xbd93a109	-0.072084494
252	0xbdacd37f	-0.08438777
253	0xbe2a750d	-0.16646214
254	0xbdc8da3b	-0.09807249
255	0x3d70d18b	0.058793586

bias f4 [8]
0	0xbe021ed4	-0.12707072
1	0xbdb73ac7	-0.08946758
2	0x3e276582	0.16347316
3	0x3daac191	0.08337701
4	0x3de0eda6	0.10982828
5	0xbd927908	-0.07151991
6	0xbe2bbc0e	-0.16770956
7	0x3daac1e5	0.08337764

weight f4 [4, 8]
0	0xbe8bb053	-0.27282962
1	0xbe3d1a11	-0.18466975
2	0x3e5721fa	0.21009055
3	0xbd9ea9f0	-0.07747257
4	0xbea0333b	-0.31289086
5	0xbda5aeb8	-0.080899656
6	0x3ea22cdf	0.3167486
7	0xbe7f4b48	-0.24931061
8	0xbd802c30	-0.06258428
9	0xbeb36ed8	-0.35045505
10	0x3e525e9e	0.20543906
11	0x3e96c729	0.29448822
12	0xbeae188b	-0.340031
13	0xbd8b6e78	-0.068081796
14	0xbe8a97bc	-0.2706889
15	0x3ea74de5	0.32676616
16	0xbe7557bb	-0.23959248
17	0xbd397140	-0.04527402
18	0x3e1fde9a	0.1561226
19	0x3e52b06e	0.20575115
20	0x3d80c054	0.06286684
21	0xbe818f70	-0.25304747
22	0xbe39047f	-0.18068121
23	0x3e406f1e	0.18792388
24	0xbdbb69ec	-0.09151062
25	0xbd089f90	-0.033355296
26	0x3e49e3aa	0.19715753
27	0x3e978e51	0.29600766
28	0xbe3f5b9b	-0.18687288
29	0xbb51cd80	-0.0032013357
30	0x3e41aefa	0.18914405
31	0xbe8591c6	-0.2608778

bias f4 [4]
0	0x3e152542	0.14564994
1	0xbe38cdaa	-0.18047205
2	0x3e46e636	0.19423756
3	0x3e6e54f2	0.23274592
