training/ann/models/ann21ep300.pth (torch, 69218 bytes, 10 tensors)

weight f4 [128, 40]
00000000: 8c86 f43d 83b5 00bc f868 82bc f9d8 173e
00000010: 22b1 ecbc e47b 96bc e9d5 dbbc 8e22 b53c
00000020: 88d3 c43e be52 493e 4de1 93be 8294 863c
00000030: 7e07 2bbd d58d 3a3e 6eef 92bd de5a 293e
00000040: 30d7 19be 1fe1 673e 518e 63bd 8152 bf3e
00000050: d9ec 5a3e 3c92 f0be 0ba1 e5be 6984 e0bc
00000060: 18c1 733e afe4 5dbd ae9e f33d 9008 cbbd
00000070: ded2 973d d949 99bd cbf7 213e c4fc 05be
00000080: 199d 0cbd cbb2 b03d d570 fe3d f98f 043e
00000090: bbc1 713c 24a2 4abe 982c 013e 9707 803d
000000a0: 1ca8 6b3d 784e d6bc a79c 123e 052d 19be
000000b0: a0b0 05bc ca0e d33d 8819 753d 220e 8ebd
000000c0: 8453 b0bd 44b8 553d 3809 b73c 70e7 273d
000000d0: 84e2 993d 5a51 ab3d 3f31 0d3e 60e5 96bb
000000e0: 582d babc 5e05 0cbd 006c 1f3a 012d 1b3e
000000f0: 688c 913d f623 0fbd 941c 183d f038 493c
00000100: a262 8e3d 64ff 17bd 4837 62bd 1fbf 0f3e
00000110: 50aa 443d 637a b7bd abf3 babd f968 143e
00000120: 732a 1d3e dce6 13bd ced3 c13d d036 be3c
00000130: ff1e 1b3e e07f eabc 3c83 2b3d 9e7d 92bd
00000140: 9124 02be 8c0a 0b3e be8d 37be feff 983e
00000150: f71f 9e3e a5d0 54be f808 9abd 3926 94bd
00000160: db08 bfbe 74e1 7bbd 7d34 283e 21ec d13d
00000170: eb48 c63d 19f0 63be 53bb 983d f04e b0bd
00000180: c59d e93d a7bc 3f3e a847 c13b 3a9a a63e
00000190: f491 89be 0fef 79be 95a6 8ebe b2bf 9bbd
000001a0: 5069 1e3f 03fe c23e 211f 15bd ce4d df3a
000001b0: 3d5b 1ebf 2a41 cbbd 782f 1a3d bf92 cbbd
000001c0: ae01 4cbf ff62 6b3d 921d 413e 6158 ec3d
000001d0: a4c8 d03e eeda a13e 43ae 43be 6c5f 173d
000001e0: ca36 f73d f8c4 06be b0e9 db3c 00a5 8f3d
000001f0: 2cb2 30bd 6ea5 f33d fe8a ebbd 00a9 f2bb
00000200: 32ec 963d 56b0 e53d 0844 b9bc 5ef4 02be
00000210: 323c d0bd 60f3 a6bc 0826 de3c 706d b2bc
00000220: aa8e ec3d f40f ecbd a074 1c3c c5ca 97bd
00000230: 60ff 8e3b a4f1 903d 0e80 efbd 72bb a33d
00000240: 2a60 04be c762 1c3e ae55 cd3d 3cd3 b33d
00000250: c01b 3c3d 57f6 193e 96bb aa3d ec68 f5bd
00000260: 78dd c1bc 8c67 a63d 54be 363d db92 a2bd
00000270: c41c 0e3d b124 153e 88a9 89bc 193c 113e
00000280: 22a1 f3bc 3eba f53d b988 a2bd 351d 823e
00000290: d6ea 29be 69dc fe3d 068a 7d3d df31 27bd
000002a0: 93c3 94be aee3 b5be e584 ae3e 7d10 453d
000002b0: 21b5 bebd 6f6b aabe 826b 983e 2377 413e
000002c0: 824e b9bc 518b b53d ae2c 08bd 1163 643e
000002d0: 625e e63d 7643 4fbf 92a0 d4be c143 c7be
000002e0: becd 003f 065d bf3e cf3b d9bd 8d20 c53e
000002f0: 0910 29bf 4383 853e da63 953d 7078 57be
00000300: beb4 01bf 63bf 4d3e 9027 313e 3edf 923c
00000310: 71cc 5c3e c173 a13e c762 b8bd d0c4 a83e
00000320: f0ce 043c f8d1 adbd dac0 dd3d 912a 02be
00000330: 1011 2c3d 3c21 923d 94a2 993d 5011 c0bc
00000340: 708e 783d 5c9c 17be 2f2c 083e 1176 053e
00000350: c05f cb3c 9018 0f3d 3dbc 02be c022 25bd
00000360: 03d6 103e 8466 0e3d 27a6 88bd f99f c3bd
00000370: 523f 88bd 98c6 eb3c b4a8 51bd 0c6f 46bd
00000380: 02ae d7bd 4835 c9bd c002 e03b b800 09be
00000390: 8b34 8fbd aa49 c73d 3877 573d 3f7d 00be
000003a0: b475 05bd e871 d6bc 5088 4ebd 004b a7bc
000003b0: 30a1 7cbc 08cd 6b3d a840 3cbd baf3 90bd
000003c0: a186 153e 1b0e f53d d6c6 ff3d 75c7 97be
000003d0: 13ca 26be 3f58 503e 366d 3f3d 2f88 1cbd
000003e0: 5e73 f33e 618c 463e 68d6 94be 5e3e cbbd
000003f0: ccb6 f2bc 0bd3 c53e 9db9 cebe a23c 1cbe
0.11939725 -0.007855776 -0.015919194 0.14828862 -0.028893057 -0.018369623 -0.026835399 0.022111204
0.38442636 0.1966047 -0.28882828 0.016428236 -0.041755192 0.18218167 -0.07174574 0.1653857
-0.15023494 0.2264447 -0.055555645 0.37367633 0.21379413 -0.46986568 -0.4484943 -0.027406888
0.23804128 -0.054173168 0.118955 -0.099137425 0.074132666 -0.074847884 0.15817182 -0.13084704
-0.034329507 0.08627852 0.12423865 0.12945546 0.014755662 -0.19788414 0.12614667 0.06251448
0.05753337 -0.026160464 0.1431757 -0.1495858 -0.008159786 0.10305555 0.0598388 -0.06936289
-0.08609679 0.052177683 0.022343263 0.0409922 0.075139076 0.08365126 0.13788317 -0.0046049803
-0.0227267 -0.034184806 0.0006081462 0.15153886 0.071068585 -0.034946404 0.03713663 0.012281641
0.069524065 -0.037108794 -0.0552285 0.1403775 0.048013985 -0.0895889 -0.09128507 0.14493169
0.15348224 -0.036108837 0.09464227 0.023219496 0.15148543 -0.028625429 0.0418732 -0.07152866
-0.12709261 0.13578242 -0.17925164 0.29882807 0.30883762 -0.20782717 -0.07521242 -0.07233853
-0.37311444 -0.061494306 0.16426273 0.10250116 0.09681877 -0.22259559 0.07457604 -0.08608806
0.11407045 0.18724309 0.0058984347 0.3253954 -0.26869166 -0.244076 -0.27861467 -0.07604922
0.61879444 0.3808442 -0.03640664 0.0017036737 -0.6185797 -0.099245384 0.037642926 -0.09940099
-0.79690063 0.057467457 0.18858936 0.115402944 0.40778077 0.31612343 -0.19109444 0.036956236
0.12070997 -0.13161075 0.02684483 0.07013893 -0.043138668 0.118967876 -0.1150112 -0.0074054003
0.073692694 0.11215274 -0.022615448 -0.12788531 -0.10167731 -0.020379722 0.027117744 -0.0217807
0.115506485 -0.1152648 0.00954929 -0.07411722 0.004363939 0.07077339 -0.11694346 0.07994737
-0.12927309 0.15272056 0.10026108 0.08780524 0.045924902 0.15035377 0.083365604 -0.11982903
-0.023665175 0.08125219 0.044615105 -0.07938167 0.0346954 0.14564778 -0.016804472 0.14183082
-0.02973992 0.119984135 -0.07936234 0.25412908 -0.16593489 0.12444384 0.061899208 -0.040819045
-0.2905546 -0.35525268 0.34085765 0.048111428 -0.09311891 -0.3328509 0.29769522 0.18893103
-0.022620443 0.08864463 -0.033245735 0.22303416 0.11248471 -0.8096231 -0.41528755 -0.3891888
0.5031394 0.3737566 -0.10607111 0.38501397 -0.6604009 0.26076707 0.07294436 -0.21042037
-0.50666416 0.2009254 0.17300248 0.017928716 0.21562363 0.31533626 -0.09003215 0.32962656
0.008105978 -0.08487314 0.10827799 -0.1271155 0.04200846 0.07135245 0.075017124 -0.023445755
0.060682714 -0.1480574 0.13298105 0.1303332 0.02482593 0.034935534 -0.1276712 -0.040316343
0.14144139 0.034765735 -0.06672316 -0.09551997 -0.066527024 0.02878122 -0.05118628 -0.048445746
-0.10531236 -0.09824616 0.0068362653 -0.1337918 -0.06992444 0.09730847 0.05260393 -0.12547778
-0.032582954 -0.026177362 -0.050422966 -0.020421505 -0.0154192895 0.05756858 -0.0459601 -0.07077737
0.14602138 0.11965581 0.12489097 -0.2964436 -0.16288023 0.20346163 0.04673501 -0.038215812
0.47548956 0.19389488 -0.2906983 -0.09924005 -0.02962818 0.38637576 -0.40375987 -0.15257505

bias f4 [128]
00000000: ba2e a2bd a2e8 aabd 3442 93bb 7272 b43d
00000010: 6f23 913c 5617 74bd 6bdf 3cbe c0dc 20bc
00000020: bfe3 fa3d 5730 6bbd cf26 d8bb 42bb bf3d
00000030: 0ded bfbd dee7 a3bd e08d 94bb aaa2 843d
00000040: 5ffc cdbd 4c0c 2ebd 6e1f 123e 955b 20be
00000050: 93d0 003e 40c4 403b af65 063e 25df f9bd
00000060: fabf 46be 8a21 d63d c06c 323d 2ee4 81bd
00000070: be55 803d 60f8 17be 3ad0 62bc b6be cdbd
00000080: 5cc1 b5bd 8092 2f3d 7334 dfbd ebf2 143e
00000090: 4712 d8bd 1a69 1b3e dff0 fc3d e36f 01be
000000a0: 9f55 22be 0feb 22be 5b7c 27be 61c9 1c3e
000000b0: f0b1 fc3c e1a7 863d c78f e8bd 3d54 52bb
000000c0: 06e7 da3c e122 e7bd 82b7 ed3d 9f0b 53bc
000000d0: 592a ed3c 1ab1 a0bd 8567 ca3d bea3 be3d
000000e0: bab5 c7bd 6a2c dcbd 49cf 1fbe abc0 80bd
000000f0: bb6f c73d d287 1a3e b71d 063e fea5 fc3d
00000100: bb21 29be 6723 123e 1fea f53d 2350 4f3b
00000110: 7b95 403d c9b8 17be 20d9 8d3d 8fd2 2b3d
00000120: ad82 1d3e 30f2 0f3e 98b3 09be 5885 003e
00000130: 1caf 113e d381 103e 8e04 94bd f2ac 1fbd
00000140: cb7e 47bd 3a6d 07be 5f10 983d 24b5 383d
00000150: f932 1b3e 9081 5d3d f374 a9bd baa2 1fbd
00000160: a47e 843d 23c6 9c3d 1e92 9b3d ca49 cbbd
00000170: 47f6 053e 4889 203d b8e0 c1bd 9a97 f83d
00000180: 3c25 11be 76d7 f23d 0b10 d6bd e5e5 84bd
00000190: 78ef ec3d c6c3 62bd 74fd 03bd 1bca 15be
000001a0: 9a71 1fbe 6e12 2fbd d02b aebd f033 d7bd
000001b0: 6c8d 0b3d c7b9 053e fa0b ec3d d18f 63bd
000001c0: a01b c7bd 2664 d0bd 1a7a 84bd 2846 75bd
000001d0: 38e8 73bd c4bd 66bd c18c f53d f388 09bd
000001e0: 02ae ecbd b9fb 0d3e 9a30 d6bd 4c28 213d
000001f0: 20af ce3c 2f9f 3a3d f737 e33d aa02 0bbe
-0.07919069 -0.083451524 -0.004493976 0.08810891 0.017717091 -0.059592567 -0.18444602 -0.009818256
0.1225047 -0.057419147 -0.006596423 0.093618885 -0.09371386 -0.080032095 -0.0045335144 0.06476338
-0.100579016 -0.042492196 0.14269802 -0.15659936 0.12579565 0.002941385 0.13124727 -0.122007646
-0.19409171 0.10455616 0.043560743 -0.0634235 0.06266354 -0.14840841 -0.01384359 -0.10046141
-0.08874771 0.042864323 -0.10898676 0.14545791 -0.10550361 0.15176812 0.1235063 -0.12640338
-0.15852974 -0.1590998 -0.16356032 0.15311195 0.030846566 0.06574989 -0.11355548 -0.0032093667
0.026721489 -0.112859495 0.11607267 -0.012881189 0.028950857 -0.078462794 0.09883026 0.09308575
-0.097514585 -0.10750659 -0.15606417 -0.062867485 0.09738108 0.15090874 0.13097273 0.12336348
-0.16516773 0.14271317 0.12007546 0.0031633459 0.047017556 -0.14816584 0.06926179 0.04194885
0.1538188 0.14057231 -0.13447416 0.12550867 0.14226955 0.14112024 -0.07227431 -0.038983293
-0.048704904 -0.1322526 0.074249975 0.045094624 0.15156163 0.05407864 -0.082742594 -0.038973548
0.06469467 0.07654979 0.07596229 -0.099261835 0.13082229 0.03919342 -0.0946669 0.12138291
-0.1417436 0.11857502 -0.10452279 -0.064891614 0.115691125 -0.055362485 -0.032224134 -0.14627878
-0.1557068 -0.042742185 -0.0850445 -0.10507953 0.034070417 0.1305915 0.11525722 -0.055557076
-0.09722066 -0.10175352 -0.064686015 -0.05988136 -0.059547633 -0.05633332 0.11989737 -0.03357787
-0.11556627 0.13865556 -0.10458489 0.03934507 0.02522999 0.045561966 0.11094659 -0.13575235

weight f4 [64, 128]
00000000: 2268 683d 9c43 893c f1c4 8a3d 04f1 00bd
00000010: c234 683d 2648 0c3d 937c 9b3d bcdd b43c
00000020: 3de9 ae3d 1bc1 9cbd dd89 61bd c832 e43c
00000030: b532 b03d d04f 843b ee61 4d3d 8752 32bd
00000040: 5727 983d 50eb 8ebb 6862 e23c a0b4 e43c
00000050: e25a 323d 87b4 af3d 5c95 c5bc e89d b43c
00000060: 117a 933d 660b 14bd 308d 903b 4a69 4c3d
00000070: 0027 79bd 4e9c 153d 389d 53bd 1a69 2a3d
00000080: d062 83bc 4407 aebd 79db 8bbd 0f87 91bd
00000090: f836 9cbc 44d3 ecbc 86e2 213d 0763 993d
000000a0: 5449 a0bd 4334 823d f2ae 003d a87b 02bd
000000b0: 61e1 9fbd 8dcd 853d 948b a7bd b9ae 37bd
000000c0: a35e 873d 2ab6 9fbd e75d 873d c07d 6abd
000000d0: ac8a b8bc f4f9 88bc f805 acbd 23a7 8d3d
000000e0: 20a6 de3b 6dd3 983d 278f 913d dc5f 82bc
000000f0: c006 9e3a b834 18bc 700a 813b aeb2 1a3d
00000100: 347e 963c 2e68 6e3d 8807 393c fe18 89bd
00000110: 966e 623d a107 873d b531 88bd c55b b4bd
00000120: 647c 8d3c 539d 19bd 9aa9 8bbd aaa6 373d
00000130: d3aa 1fbd 5cc3 113d 35ff 9d3d c06d 3bbc
00000140: aa3f 4f3d 347f 04bd d624 323d 8fed aa3d
00000150: dbd9 a23d d07b c5bb 249e 7cbd 4074 babc
00000160: 4092 de3a 3885 d03c 7997 aabd 1067 65bd
00000170: 7634 a5bd 4440 8dbc f2e3 043d 48a1 903c
00000180: 102d a23b 4051 ca3b 5c8d 8dbd c06a 73bc
00000190: 90cc d2bb de44 02bd 7df3 873d aea4 6a3d
000001a0: 852f b43d 0020 52bc 60e1 c0bb 9968 ae3d
000001b0: 0059 54bb 3037 153d 57ad 05bd fee4 6ebd
000001c0: d183 9c3d 63b4 9d3d 5c01 a8bd 8039 77bc
000001d0: 5df2 863d 9227 063d 6053 123d 0ae4 4c3d
000001e0: ea62 7f3d 14f1 7bbd b6e6 34bd eab1 643d
000001f0: 703e 0b3c b0ea 803c 9e88 233d 7548 2abd
00000200: f76c 063d e0f9 b63b 1c1d 9f3d 5406 abbc
00000210: 458b ca3c c178 913d 3f93 083b 08fb abbd
00000220: e96b 9fbd 1316 17bd b730 4b3d 20ca 36bc
00000230: 04f5 df3c 4dab 2ebd 6e3a 9bbd 5cb8 afbc
00000240: aa38 ae3d c2fb 45bd 85f8 64bd ea20 7d3d
00000250: 7cdf 89bd 2793 b33d a205 413d 6fea 10bd
00000260: c31c 283d 28b8 e23c ee77 9fbd d0c2 ae3b
00000270: e079 dcbb 6069 7f3c 3184 b43d b8be 99bc
00000280: 353d 113d a2b2 3d3d 08f9 8c3c e43a afbc
00000290: 5f69 40be b559 523e e6f6 10be 3edb 5ebd
000002a0: e067 34bd 040d 8dbd c63b c0bb 3708 8e3d
000002b0: 9743 34bd af70 f5bc a1dd ef3c 21bf 23bd
000002c0: cf4b 81bd e749 0dbc d3c7 ac3d c477 20be
000002d0: 1526 103d aa40 413d d862 ab3d 2e7f 0bbd
000002e0: 1ffc 40bd bbe3 a03d 13b4 843e c67f 193d
000002f0: 131d 963d e721 673d d324 a33c 41eb a63d
00000300: cb65 5a3d fe9d 223d b330 a7bd 9adb 9b3d
00000310: c5a2 933d 6bae 3abd 7ae2 d23c 484d 50bc
00000320: 89a6 9bbc 4e35 503d edab 4abd 9204 a23d
00000330: 65b3 7abc 99a0 82bd 9e6d 353d 50d5 003c
00000340: 033b 913d 5a49 8ebd 0f88 aebc ce22 223d
00000350: de0a 7f3d 1cea a73c e60c 983b ccdc f33c
00000360: 6977 14bd f721 743d ebbb 8abd 6014 2cbb
00000370: 8e65 bd3d e031 15bc 1087 323c cb93 26bd
00000380: 2c25 8cbd 9a36 473d 0917 803b 7ed0 bfbc
00000390: 8f08 3abe 5b33 adbc 804a 173a 5f4d a23d
000003a0: 313c 163e 9c94 4fbd cac4 19bc 0f8d 8f3d
000003b0: 42c5 5bbd 286f 843c 71d9 edbc 7391 8c3c
000003c0: c0c6 04bc c0c8 903a c661 4dbd 72f4 85be
000003d0: da4d dfbc 518a 063e a9bc 903e 9093 9b3d
000003e0: 57f2 69bd e069 403c 80ce acbd 4ca0 60bd
000003f0: b792 24bd 652e eabb 2694 90bd 8c0b 8dbd
0.056739934 0.016755871 0.06775845 -0.03147985 0.05669094 0.034248494 0.0759212 0.022078387
0.085405804 -0.076540194 -0.055063117 0.027856246 0.086034216 0.0040378347 0.05014222 -0.043535735
0.074293785 -0.0043615475 0.027634814 0.02791816 0.043543704 0.08579355 -0.024119072 0.022047952
0.07201017 -0.036143683 0.004411362 0.0499051 -0.06082821 0.036526017 -0.051663607 0.04160414
-0.016038328 -0.084974796 -0.068289705 -0.071058385 -0.01906918 -0.028909333 0.03952267 0.07489591
-0.07826486 0.063576244 0.03141684 -0.03185621 -0.078066595 0.06533346 -0.08180919 -0.044844363
0.066098474 -0.07798417 0.06609707 -0.05724883 -0.022527061 -0.01672075 -0.08399576 0.069166444
0.006794706 0.07462201 0.07107382 -0.01591485 0.0012056455 -0.009289913 0.003938012 0.03776806
0.018370725 0.058204822 0.0112932995 -0.0669422 0.055281244 0.06593252 -0.06650106 -0.08806566
0.017271228 -0.03750355 -0.06819458 0.044836678 -0.03898127 0.0355867 0.077146925 -0.011439741
0.050597824 -0.032347873 0.04349216 0.08346092 0.07951709 -0.0060267225 -0.061674252 -0.02276051
0.0016980842 0.025454149 -0.08329672 -0.05600649 -0.08066647 -0.017242558 0.032443948 0.01765503
0.0049492195 0.0061742365 -0.06911728 -0.014856994 -0.006433077 -0.031803958 0.066382386 0.057285957
0.08798126 -0.012825012 -0.005886242 0.08516044 -0.003240168 0.036429584 -0.032636013 -0.058323853
0.076423295 0.07700422 -0.08203384 -0.015089393 0.06589196 0.03275258 0.035724044 0.050022162
0.06235019 -0.061509207 -0.044165336 0.055833735 0.008498773 0.015736908 0.03992521 -0.041573007
0.03281876 0.0055839866 0.07769224 -0.02087704 0.024724612 0.0710311 0.0020839719 -0.0839749
-0.07784254 -0.036886286 0.049607005 -0.011156589 0.027338512 -0.042643834 -0.07579504 -0.021450214
0.085069016 -0.048335798 -0.05590107 0.061798967 -0.067320794 0.087683015 0.047124512 -0.035379823
0.041043054 0.027675703 -0.07786547 0.005333282 -0.006728396 0.015589088 0.08814276 -0.0187677
0.035458762 0.046312936 0.017208591 -0.021390386 -0.18790196 0.20542033 -0.14156684 -0.054408304
-0.044044375 -0.06887248 -0.0058665005 0.069351606 -0.04400977 -0.029960958 0.029280486 -0.039977197
-0.063132875 -0.008623577 0.08436551 -0.15670687 0.035192568 0.04718081 0.08368462 -0.034056835
-0.04711544 0.07855936 0.25918636 0.03747537 0.07329764 0.056428816 0.01991502 0.0815034
0.053319734 0.039701454 -0.081635855 0.07610245 0.0720878 -0.045576494 0.025742758 -0.012713738
-0.019000309 0.050832085 -0.049480367 0.07911028 -0.01530156 -0.06378288 0.044293992 0.007863358
0.07091334 -0.069475845 -0.021305112 0.039583974 0.062266223 0.020497374 0.0046402095 0.02976837
-0.03624669 0.059602704 -0.06774124 -0.0026257262 0.09247886 -0.009106129 0.010896459 -0.04066829
-0.068430275 0.048636056 0.003908996 -0.023414847 -0.18167327 -0.021142652 0.0005771294 0.079249136
0.14671399 -0.050678834 -0.009385297 0.07009327 -0.053654917 0.016166285 -0.029034348 0.0171592
-0.008104026 0.0011046156 -0.050142072 -0.2616306 -0.027258802 0.13138701 0.28268936 0.07596505
-0.05711588 0.011743993 -0.08437824 -0.05484037 -0.04017898 -0.007146644 -0.07059507 -0.06886968

bias f4 [64]
00000000: a36c 893d 7391 bd3c a127 79bd a74d 903d
00000010: 3606 56bd d7e7 813d 1aa2 153d 1880 9fbc
00000020: 9ce3 843d b046 123b fe65 d8bd 4023 31bb
00000030: 0c13 ce3c 421b c0b9 8b9d 69bd e1fb 213d
00000040: de75 59bd 2c34 3ebd c027 f4ba fe64 89bd
00000050: 77fb 483d fa34 2a3d b5ff 543d dc26 b6bb
00000060: f701 a53d c29d 87bd 8fd5 4f3d 0e22 dabc
00000070: 8c8f fdbc 1a12 353d 5604 b83b 01b4 803d
00000080: fab3 3d3d 9579 99bc fe98 5b3d 8048 8cbd
00000090: 067e 393d c036 0d3c 7143 b23d ad15 e33c
000000a0: 806e eebb b892 47bc 65b5 5dbd fcba 973d
000000b0: f918 a03d 68db 8dbc 5dfd d33d a8e4 e73c
000000c0: 5280 6e3d 615e 52bd 4829 59bc 9392 3f3d
000000d0: eeae 5abd e789 1fbd 315e e23c a2c2 6dbd
000000e0: d867 99bd 40eb 8b3c 2607 94bc d0fe c33b
000000f0: d9b9 0fbd 93f8 3dbd 735d 463c d1ac fcbc
0.06710174 0.023140645 -0.06082881 0.07046061 -0.052252017 0.06343048 0.036531545 -0.01947026
0.064887255 0.0022319965 -0.105663285 -0.0027029067 0.025155567 -0.00036641402 -0.05703501 0.03954685
-0.053090923 -0.046436474 -0.0018627569 -0.06708716 0.04906794 0.04155443 0.052001674 -0.0055588316
0.080570154 -0.06621887 0.050740775 -0.026627567 -0.030952238 0.044206716 0.0056157513 0.06284333
0.046314217 -0.018734733 0.0536127 -0.06849766 0.0452862 0.00861901 0.0870427 0.027720297
-0.007276356 -0.012180977 -0.05412807 0.07408711 0.07817263 -0.017316535 0.103510596 0.028307274
0.058227845 -0.051359538 -0.013254471 0.046770643 -0.053389482 -0.038949873 0.027632805 -0.058046944
-0.0749051 0.01707995 -0.018069815 0.0059813038 -0.035089348 -0.046379637 0.012107241 -0.030844124

weight f4 [32, 64]
00000000: 4094 4cbc 6c30 8f3d 20a3 de3c a89b ffbd
00000010: 4e71 e43d 5ea5 ee3d 5cd2 f43d 1063 033c
00000020: 4c22 3a3d bc46 5cbd 3c27 e43d 9444 d8bd
00000030: a883 b5bc 5ce1 43bd f021 7a3d 40b5 923c
00000040: 741c 083d d0d1 1f3d f83d fb3d 88a5 883c
00000050: d037 cabd 9a02 e43d e282 ae3d 7030 09bd
00000060: f402 9d3d 585c 4cbd c8e2 9fbd 7087 1bbd
00000070: f0ca 77bc 1cdf f13d 080f 85bc 00a9 43bc
00000080: c4ac 7bbd ac85 173d dac8 9fbd 3c9c 27bd
00000090: 4c3e b2bd 2073 33bd 002c 92bc 0a11 a53d
000000a0: c861 d2bd d0f0 da3d 0638 963d 38df 9d3d
000000b0: 64fd 9b3d 0809 d83d 0000 c6bd 461a d93d
000000c0: 64bf 08bd e855 e2bd 70cb 94bc 144d 8dbd
000000d0: 1cf8 ccbd 80e1 84bd ee1c b73d 1a7b 893d
000000e0: 167d 8bbd b4ea 78bd 48cf 2e3d 4a28 a83d
000000f0: 123f 933d e0cc 8dbb a2a5 d8bd f61b 803d
00000100: 6c8d 65bd d2dc a23d 78c4 be3c 50bb 873c
00000110: e499 4f3d a44f 503d 084b 89bc a26b abbd
00000120: 084e 983c 60a2 bc3b 3c39 c43d 0435 0bbd
00000130: 62c4 a7bd 004e 3e3d 4647 a73d 0a28 babd
00000140: a817 cfbd 0619 963d d4f5 533d a650 d73d
00000150: e690 ef3d e266 ccbd 6833 f2bd e083 69bc
00000160: 605c af3c 4cdf a3bd e6ba c1bd c02e 173d
00000170: d0a6 003c 5838 cdbd e83c e3bd 622c dc3d
00000180: fec6 cbbd c028 6abc 6af8 a8bd 7e9d d03d
00000190: 123c d9bd 1280 fbbd b4fc cdbd 805c f3bc
000001a0: 5ea1 b03d e84a 773d 700c 1d3c 6250 b4bd
000001b0: fac8 c8bd 7897 943c 8429 1cbd 7278 dd3d
000001c0: 2443 043d c0bc e93d 103c 30bd 2a8d 9bbd
000001d0: 1eae 87bd 464e c03d b255 92bd 984b e93c
000001e0: 7082 fb3c 3aa0 b4bd 4057 a9bc c8c2 bf3c
000001f0: aee8 b5bd d621 8dbd 9829 ed3d 0018 173a
00000200: eee5 b9bd 949c a03c 2f09 a0bd 78a0 88bd
00000210: f09c 4dbc d006 f93d 26af ad3d 881f ae3d
00000220: 41b6 0ebe 81cf cabd 0f2d 0abe 1e84 e6bd
00000230: 427c 02bd be83 1a3e a0f1 463c 8437 9dbd
00000240: b6bc 00bd da71 d9bd 0420 fd3d 97c5 2fbe
00000250: 781c bb3a ecd6 fdbd e812 a4bd 3395 a03b
00000260: fe2a f43d 81c4 19be a1c6 9fbd 40b7 d8bc
00000270: 808b ca3c 9c99 20bd e8a7 8ebc 60ab a7bb
00000280: 68fc a3bd 3694 f53d ae67 0abe 64da 63bd
00000290: c75e 573d c0b4 af3b 5e5a 813d fe0c 23be
000002a0: d0b5 66bd c0d0 c1bd 20e7 13bd 9fbd 0abd
000002b0: c6b3 84bd b072 a03d ae95 fb3d f0f5 9cbc
000002c0: 583a 643d 16eb 493d 89dc 2fbe 3799 54bd
000002d0: 18ae 05bd f8c8 a93c 3799 c33c 769e 953d
000002e0: 5cf8 d7bd 08b9 113e 6777 24bd 9077 aabc
000002f0: 4096 6a3b f0dd 9e3d 6ffd 003e 38a7 e0ba
00000300: 787b c0bd c08f d8bb 80c8 d6bd 00ed 063d
00000310: 3083 aa3c 9288 dc3d f890 bfbc 30d6 683d
00000320: 1424 84bd dce6 ae3d e8bc b03d 08d5 d03c
00000330: 6821 8e3d 86df b4bd 64c4 c03d a026 8dbb
00000340: 8c7a c3bd f48a 17bd 388e e9bd 68a1 993d
00000350: 6a07 ba3d 8497 f4bd e466 9ebd 7887 893c
00000360: 48aa 9ebd e216 cf3d c0dd 7abb eef7 80bd
00000370: 9a23 c93d c4e2 7abd 1466 81bd 8217 983d
00000380: 88aa 033d 20f8 4dbd e88f 9cbd e8a3 40bd
00000390: fcb5 afbd 9882 41bd 740e d8bd 04c1 e1bd
000003a0: 8842 a8bc 3ce0 e3bd 7c5c f8bd b0de 2dbc
000003b0: e8de 633d 3e37 b6bd d435 9dbd 788e b7bd
000003c0: 40df aebd 6008 fc3c 4256 873d fab0 a23d
000003d0: a2de ab3d 7c6b fdbd 286a a0bd 460d e0bd
000003e0: 3869 db3d b8c4 67bd d408 ffbd 00fb 2eba
000003f0: c68d cb3d 6855 24bd 8096 953c 9487 213d
-0.012486517 0.069916576 0.027177393 -0.12480861 0.11154424 0.11652635 0.11954185 0.008019224
0.045442864 -0.053778395 0.11140296 -0.10559955 -0.022157505 -0.04782234 0.06106752 0.017908692
0.03323026 0.039018452 0.12267679 0.016680494 -0.09873927 0.11133309 0.08521058 -0.03349346
0.07666579 -0.049892753 -0.07806927 -0.03797096 -0.015124068 0.11810133 -0.016242519 -0.011942148
-0.06144406 0.036992714 -0.07801981 -0.04092048 -0.087032884 -0.043810964 -0.017843246 0.080598906
-0.102725565 0.106904626 0.073349044 0.07708591 0.0761669 0.105485976 -0.09667969 0.106007144
-0.03338565 -0.110515416 -0.018163413 -0.06899467 -0.100082606 -0.06488323 0.08941065 0.06712933
-0.068109676 -0.060770705 0.042678148 0.082108095 0.07189764 -0.0043274015 -0.10578467 0.06255333
-0.056043074 0.079522744 0.023287043 0.01656881 0.05068387 0.0508572 -0.01675941 -0.08370139
0.018591896 0.0057566613 0.09581229 -0.033986107 -0.08191754 0.046461105 0.08167891 -0.09089668
-0.10111934 0.073289916 0.05174811 0.10513429 0.11697559 -0.09980561 -0.11826211 -0.014252633
0.021406353 -0.08001575 -0.09459476 0.03690982 0.007852271 -0.10020512 -0.11095601 0.10750653
-0.09950064 -0.014291942 -0.08250506 0.10186289 -0.10607161 -0.12280287 -0.10057965 -0.029707193
0.08624528 0.06037417 0.009585485 -0.08804394 -0.09803958 0.018138632 -0.03812553 0.10813989
0.032290593 0.11412954 -0.04302603 -0.07595284 -0.06625007 0.093899295 -0.07145251 0.028478429
0.030701846 -0.08819623 -0.020671487 0.023408309 -0.08882271 -0.06891219 0.11580199 0.0005763769
-0.09077059 0.019605912 -0.07814252 -0.06671232 -0.012549624 0.121595025 0.084806725 0.08502108
-0.13936712 -0.099028595 -0.13493751 -0.11255668 -0.031856783 0.15089318 0.012142569 -0.076766044
-0.03142997 -0.106174186 0.12359622 -0.17165218 0.0014275452 -0.12394509 -0.080114186 0.0049005984
0.119222626 -0.15016367 -0.07801557 -0.026454568 0.024724722 -0.039208993 -0.017414048 -0.005116865
-0.08007127 0.119911596 -0.13516113 -0.055628195 0.05258062 0.0053621233 0.06316064 -0.15922925
-0.056325734 -0.09463644 -0.03610909 -0.033872243 -0.064796016 0.07834375 0.122844085 -0.01916024
0.055719703 0.04929646 -0.17173971 -0.05190393 -0.032636732 0.020725712 0.02387677 0.07305615
-0.10545418 0.1423074 -0.040152933 -0.020808965 0.0035795122 0.07757175 0.12596677 -0.0017139679
-0.0939855 -0.006608933 -0.10487461 0.032940865 0.020814508 0.10768236 -0.023384556 0.05684489
-0.06452194 0.08540127 0.08629781 0.025492206 0.069399655 -0.08831696 0.094124585 -0.004307583
-0.09544858 -0.03699775 -0.11404079 0.07501489 0.09083445 -0.11942962 -0.077344686 0.01678823
-0.07747322 0.101117864 -0.0038279146 -0.06297289 0.098212436 -0.061251417 -0.06318298 0.07426359
0.032145053 -0.05028546 -0.076446354 -0.047031313 -0.08579633 -0.047243685 -0.10549632 -0.11023143
-0.020539537 -0.11126754 -0.12127015 -0.010612175 0.0556325 -0.08897255 -0.076762825 -0.08962721
-0.08538675 0.030765712 0.06608249 0.07943912 0.08392073 -0.12374017 -0.07832748 -0.10940032
0.10713428 -0.05658409 -0.12452856 -0.0006674975 0.099391505 -0.040120512 0.01826024 0.039435938

bias f4 [32]
00000000: b0dc d6bd 4045 f6bb 09a1 eebc 801c 91bd
00000010: 5fbe 82bd f85b b2bd 2c27 2d3e 0ed8 203d
00000020: 69a7 a4bd 9ae6 d83c c646 f6bd 7c01 03bd
00000030: 17c3 8abd 3e77 33bd 2753 9c3c 9db3 4e3d
00000040: cea8 de3c a277 debd 4a41 743d 4c3d af3c
00000050: 27fe b13d 0a13 9b3d 787e d2bd 2d44 e63d
00000060: c8b2 e8bc 1068 853d 263a ed3d dc0d e33c
00000070: 3833 eabc ca38 97bd 1379 a93c a13e 65bc
-0.104913116 -0.0075155795 -0.029129522 -0.07085514 -0.06383967 -0.08708948 0.16909474 0.039268546
-0.080397435 0.026477147 -0.12025218 -0.031983837 -0.06775492 -0.04381489 0.019082619 0.05046426
0.027180102 -0.10862662 0.059632577 0.021391533 0.08691054 0.07571991 -0.10278028 0.11243472
-0.028405562 0.06513989 0.115833566 0.02771657 -0.028588876 -0.073838785 0.020687615 -0.013991983

weight f4 [8, 32]
00000000: 8231 e93d 2df3 e6bd 51e5 293e 7208 c23d
00000010: d1b1 e33d e00d f93b 13de 0fbe d4cd 833c
00000020: c486 0c3e 9361 25be 55b0 13be c078 83bb
00000030: 8b66 183e c1c9 a63c 4254 e2bd 1b3a 49bd
00000040: b2f3 d33d 3d45 13bd 5904 32be e484 0cbe
00000050: 3e44 31be 5924 bf3d e005 873b a72a adbc
00000060: 10aa 6b3d 948d 03be 7edb 813b deda 9cbd
00000070: cf7f a03c 0119 e8bd 0697 b53d e434 94bd
00000080: 5a40 00be b9a3 183e 0373 823e d4ad aabd
00000090: 80b4 88be fb3f 9b3c 1b7a 4c3d 9ac5 05be
000000a0: dd8c 2fbd 3f2a 85bd 35ad 29bd 2f56 183e
000000b0: 5dce 32bd 4251 9f3d 1522 803e c33e 95bc
000000c0: 6cd0 b33d 08d3 3b3e aec2 79bd 9b7f f0bd
000000d0: dd70 1cbe 320a e6bd a0f2 d93c 486d b83e
000000e0: 116d 103e 00a3 ac3b 5dfd 3bbd 4f50 163e
000000f0: 35c4 62be a037 243e 9912 1b3e 942e e5bd
00000100: 6e75 f93d 3a97 13be 7114 af3d e366 91bd
00000110: 25ed 793e b010 f7bd c202 b93d 820d 58bd
00000120: baab 6f3e 3f21 02be 87d7 13bc b09f 1a3d
00000130: 044f 453d c167 4bbe 2a92 eb3d 6071 1b3b
00000140: 2250 013e f2c2 aebb 02a3 9c3e b6a7 713d
00000150: ddc6 093d 6f8d c4bd 3eb0 a63d 3188 b6bd
00000160: 4068 163c b70c 023e 8394 47bb 9a6c 2c3e
00000170: 3718 00bd 43f7 553e a320 863d 479d 453e
00000180: 8ddc 91bd 2b86 1ebe 0113 c6bd 785b 883c
00000190: c585 2cbd 9253 b5bd e791 963d 81ea 98bd
000001a0: 0ef7 d03b 5c60 a5bc 9bbd 01be 8035 fb3c
000001b0: eb50 803c 3d47 343d 4128 a9bd 30a2 173c
000001c0: 18a7 713d bf7e 033e f2c9 9fbd 2003 8cbd
000001d0: 9f30 743e 2faf b93d 4163 273e 71bf 81be
000001e0: 604c 89bb b50b 17be c666 cdbd 34ce d03d
000001f0: 6be0 02bc 30d6 753e fc63 aa3c e43f e13d
00000200: 4780 21be 9802 cc3c 75a5 083e e687 a4bd
00000210: c738 61bd 69e1 7b3d aa83 8f3e 18cd 903d
00000220: e667 c23d 16c3 18be b573 03be c8b1 e1bc
00000230: 0ece a43c 801b d2bb 2889 41be 765f eb3c
00000240: 266a 0f3e 1467 1fbe a4ab aa3d 1b1d 1f3e
00000250: 533e 84be 8f57 843e d4a6 2abd 2ef2 74bc
00000260: ea92 a53d 6056 c9bb 2a1d 2fbe a863 9ebe
00000270: 2279 7c3d eb87 c0bc 9e0e 993d b696 76be
00000280: 1099 7d3c 7431 8f3d 1e36 b1bd 1f75 223e
00000290: 565c 04be 039a 7d3d d6f7 953d 258d 16be
000002a0: d2c7 b33d 5502 51ba 052c dabd 7d62 a8bd
000002b0: 9d04 dc3d 0a7e 9e3d ff55 34be f8d1 2cbe
000002c0: f159 623d ebd2 27bc b8f3 cc3d d517 a6bd
000002d0: 2d10 edbe 95d3 6a3d 80a2 47bb e161 a1bd
000002e0: 7ef5 33be 585d aebc 2610 d23d 3520 b2bd
000002f0: 7854 9bbd 0748 b5bc bb75 56be 4080 14be
00000300: 53c2 053e 80d6 ae3c 376e e93c 7ed7 e23d
00000310: 4b1e e5bd 1cd5 933d c6da 84bd 2465 113e
00000320: 814a 083e 06b0 7bbc 97a5 2c3e 0005 b93b
00000330: e1cb 20be c58d 31be f6bb 923d 0c0b 153d
00000340: 94fa e53d 918e 34be 67e2 3fba 1e1c 09be
00000350: ca20 973d 861e af3d 4c8a 15be 522d 7abc
00000360: 3627 ad3d 3d7b 023e 49cd 243e aadc ac3c
00000370: 850d dcbc b7c6 a3bd ffa0 52bd 7813 96bd
00000380: 001d ae3b d61b f63d 87a1 cb3d 60b2 dcbc
00000390: 24a4 183e e458 1ebe 4f86 fa3a a1e9 013e
000003a0: fb3d 073d 1e63 343d bb52 923d 80ca 8d3a
000003b0: 7edd 01be b0b2 adbc 7bbc fcbd f260 96b9
000003c0: ec45 fc3d dd7a 08be ba04 d93d 3236 a1bd
000003d0: 131c 283e e706 00be 277a b1bd 6cad 6cbc
000003e0: e0be e7bd 101f 00bc 1ea8 85bc 09a1 93bd
000003f0: 7fd3 acbd 0d75 2abe 3bda c8bd 8bd1 703d
0.11386396 -0.11276851 0.16591384 0.09474267 0.111179 0.007600531 -0.14049558 0.016089357
0.13723284 -0.16150503 -0.14422734 -0.0040121973 0.14882867 0.020359876 -0.11051227 -0.04912768
0.103492156 -0.035954703 -0.17384471 -0.13722569 -0.17311189 0.09333105 0.0041205734 -0.021138502
0.05753523 -0.12846977 0.003962933 -0.07658933 0.019592194 -0.11332894 0.08866696 -0.072366506
-0.12524548 0.14906205 0.25478372 -0.08333936 -0.2670021 0.018951407 0.049921136 -0.1306366
-0.042858947 -0.065021984 -0.04142495 0.14876626 -0.043653835 0.077791706 0.25026003 -0.018218404
0.08779988 0.18342221 -0.060976677 -0.11743089 -0.15277429 -0.11232413 0.02660495 0.36020875
0.14104106 0.0052684546 -0.045895923 0.14679073 -0.2214516 0.16036844 0.15143813 -0.11190525
0.12180601 -0.14413157 0.08548821 -0.07099702 0.2440687 -0.1206373 0.09033729 -0.052747257
0.23405352 -0.12707995 -0.009023554 0.037749946 0.04817106 -0.19863798 0.11502488 0.00237187
0.12628224 -0.005333298 0.30593115 0.058997832 0.033636916 -0.09597289 0.08139084 -0.08912695
0.009180129 0.12700163 -0.003045351 0.16838303 -0.031273093 0.20895104 0.06549194 0.19298278
-0.07122145 -0.15480869 -0.096715935 0.016645178 -0.04211976 -0.088538304 0.073520474 -0.07466603
0.0063771075 -0.02018755 -0.12669985 0.03066516 0.015663585 0.04401325 -0.08259631 0.009254977
0.058997244 0.12841319 -0.0780219 -0.068365335 0.23846672 0.09066617 0.16346456 -0.2534137
-0.004190013 -0.1475056 -0.10029368 0.1019558 -0.007988076 0.24007487 0.02079963 0.10998514
-0.1577159 0.02490358 0.13344367 -0.08033733 -0.054985788 0.061494265 0.2803014 0.070703685
0.09492473 -0.1491817 -0.12837107 -0.027550593 0.020117786 -0.0064119697 -0.18899977 0.028732043
0.14005336 -0.15566665 0.08333519 0.15538447 -0.258288 0.25848052 -0.041663006 -0.014950318
0.08084662 -0.00614433 -0.17100969 -0.30935407 0.06163896 -0.02350231 0.07473491 -0.24080929
0.0154783875 0.06991854 -0.086529 0.1586499 -0.12925848 0.061914455 0.073226616 -0.1470228
0.08778347 -0.0007973065 -0.10652927 -0.0822191 0.107430674 0.07738884 -0.1761093 -0.16876972
0.055261556 -0.010243158 0.10007423 -0.08110014 -0.46301404 0.057330687 -0.0030461848 -0.07879997
-0.17574117 -0.021284744 0.10256986 -0.08697549 -0.075844705 -0.022129072 -0.20943348 -0.14502048
0.1306241 0.021342516 0.028494937 0.11076258 -0.111874186 0.07218382 -0.0648704 0.14198738
0.13309671 -0.0153617915 0.16860043 0.005646348 -0.15702774 -0.17339237 0.07164757 0.03638749
0.112294346 -0.1763251 -0.00073198084 -0.13389632 0.07379301 0.08550744 -0.14603537 -0.015269594
0.084547445 0.12742324 0.16093935 0.021101315 -0.026861915 -0.07996886 -0.05142307 -0.07327932
0.0053135157 0.12017028 0.09942918 -0.026940525 0.14906365 -0.15463597 0.0019113513 0.12686779
0.033018094 0.044039838 0.07144686 0.0010817796 -0.12682149 -0.021203369 -0.12340637 -0.0002868246
0.12318024 -0.13328119 0.10596605 -0.07871665 0.1641696 -0.12502633 -0.08665877 -0.014445644
-0.113157034 -0.007819906 -0.016315516 -0.072084494 -0.08438777 -0.16646214 -0.09807249 0.058793586

bias f4 [8]
00000000: d41e 02be 3f63 babd d2ff 363e 3d3c 8a3d
00000010: 617a a93d cbd2 91bd 0ebc 2bbe e5c1 aa3d
-0.12707072 -0.09100961 0.17871025 0.06749771 0.08275295 -0.07120284 -0.16770956 0.08337764

weight f4 [4, 8]
00000000: 53b0 8bbe 111a 3dbe fa21 573e f0a9 9ebd
00000010: 3b33 a0be b8ae a5bd df2c a23e 484b 7fbe
00000020: 302c 80bd d86e b3be 9e5e 523e 29c7 963e
00000030: 8b18 aebe 786e 8bbd bc97 8abe e54d a73e
00000040: bb57 75be 4071 39bd 9ade 1f3e 6eb0 523e
00000050: 54c0 803d 708f 81be 7f04 39be 1e6f 403e
00000060: ec69 bbbd 909f 08bd aae3 493e 518e 973e
00000070: 9b5b 3fbe 80cd 51bb faae 413e c691 85be
-0.27282962 -0.18466975 0.21009055 -0.07747257 -0.31289086 -0.080899656 0.3167486 -0.24931061
-0.06258428 -0.35045505 0.20543906 0.29448822 -0.340031 -0.068081796 -0.2706889 0.32676616
-0.23959248 -0.04527402 0.1561226 0.20575115 0.06286684 -0.25304747 -0.18068121 0.18792388
-0.09151062 -0.033355296 0.19715753 0.29600766 -0.18687288 -0.0032013357 0.18914405 -0.2608778

bias f4 [4]
00000000: 4225 153e aacd 38be 36e6 463e f254 6e3e
0.14564994 -0.18047205 0.19423756 0.23274592
