training/ann/models/ann21ep1000.pth (torch, 69232 bytes, 10 tensors)

weight f4 [128, 40]
00000000: 46cb a83d 1616 febb d1ac 37be 5eaf b83e
00000010: ce7c 46be 7ff7 e1bc c245 943e c5b0 10be
00000020: 23a3 4b3f 6877 e0bd 38a2 95bd 2307 32be
00000030: 9a3a 8d3d 786e 763e 4cc9 83bd 11fe c83e
00000040: 778e 89be 9c6b 483f f48f 8abe c3d5 3a3f
00000050: cb65 8b3d 5bf2 19bf a33c fbbe 37a1 f03d
00000060: 3528 0a3d a00f 603e 6154 283d f67b bdbd
00000070: b186 e5bd 6cda 10be f19a 223f 7adb 28bf
00000080: e7de 80bf da5d 003d 505a c33e d01c 9dbd
00000090: 998a c13e 094e 4fbe f98f 343d 3d42 893e
000000a0: 1ca8 6b3d 784e d6bc a79c 123e 052d 19be
000000b0: a0b0 05bc ca0e d33d 8819 753d 220e 8ebd
000000c0: 8453 b0bd 44b8 553d 3809 b73c 70e7 273d
000000d0: 84e2 993d 5a51 ab3d 3f31 0d3e 60e5 96bb
000000e0: 582d babc 5e05 0cbd 006c 1f3a 012d 1b3e
000000f0: 688c 913d f623 0fbd 941c 183d f038 493c
00000100: a262 8e3d 64ff 17bd 4837 62bd 1fbf 0f3e
00000110: 50aa 443d 637a b7bd abf3 babd f968 143e
00000120: 732a 1d3e dce6 13bd ced3 c13d d036 be3c
00000130: ff1e 1b3e e07f eabc 3c83 2b3d 9e7d 92bd
00000140: 838f 1dbe 9a8e db3d b053 1bbf 1294 213f
00000150: 8990 fe3e 8684 ddbe bcc8 17be 3896 45be
00000160: df18 98be 2dd3 b8be 5ee7 b03e 8dd4 3abf
00000170: 2e67 c43e 57f7 bbbc 6f24 10bd b57b c6bd
00000180: 08c1 da3d f38b 263f 574b 15be 9c4f 623e
00000190: eb2d afbd 9bd7 bbbe fe63 33bf e8fc 8b3e
000001a0: 929a 0f3f 1f2a 893e 44e9 c2bd 369e 183e
000001b0: 110c 1fbf 3963 2fbe 87b3 983e 571f adbe
000001c0: eccd 5fbf c426 8f3d d979 823d 9c8b a33d
000001d0: 87d7 2b3f 39ac 3c3e c420 dfbd 15a8 adbb
000001e0: ca36 f73d f8c4 06be b0e9 db3c 00a5 8f3d
000001f0: 2cb2 30bd 6ea5 f33d fe8a ebbd 00a9 f2bb
00000200: 32ec 963d 56b0 e53d 0844 b9bc 5ef4 02be
00000210: 323c d0bd 60f3 a6bc 0826 de3c 706d b2bc
00000220: aa8e ec3d f40f ecbd a074 1c3c c5ca 97bd
00000230: 60ff 8e3b a4f1 903d 0e80 efbd 72bb a33d
00000240: 2a60 04be c762 1c3e ae55 cd3d 3cd3 b33d
00000250: c01b 3c3d 57f6 193e 96bb aa3d ec68 f5bd
00000260: 78dd c1bc 8c67 a63d 54be 363d db92 a2bd
00000270: c41c 0e3d b124 153e 88a9 89bc 193c 113e
00000280: 5341 31bd d5cb bc3d 32c9 10bf cb68 413f
00000290: c372 4abe b018 973d 0698 b2be 1e80 433e
000002a0: 0fb6 d0be 430b 90be ab9d 8d3e c83b 8dbe
000002b0: f5bc 303d 38b3 c8be 25d3 b63e dde9 a8bb
000002c0: 55ac 003e d00b 313e 9491 67bd f580 b43e
000002d0: 0506 0e3e 252d 82bf a61d 04bf 28ac c2bd
000002e0: cbd1 11be e7c6 3e3f a4c3 a5be 9dc5 db3e
000002f0: 96cf 3cbf 54b5 543e 709d 153e 5cbd 61be
00000300: df05 9bbd a933 143f 7619 9abd e3a5 e7bd
00000310: 22d1 943d d25d 873e 8c81 173d 42aa 383e
00000320: f0ce 043c f8d1 adbd dac0 dd3d 912a 02be
00000330: 1011 2c3d 3c21 923d 94a2 993d 5011 c0bc
00000340: 708e 783d 5c9c 17be 2f2c 083e 1176 053e
00000350: c05f cb3c 9018 0f3d 3dbc 02be c022 25bd
00000360: 03d6 103e 8466 0e3d 27a6 88bd f99f c3bd
00000370: 523f 88bd 98c6 eb3c b4a8 51bd 0c6f 46bd
00000380: 02ae d7bd 4835 c9bd c002 e03b b800 09be
00000390: 8b34 8fbd aa49 c73d 3877 573d 3f7d 00be
000003a0: b475 05bd e871 d6bc 5088 4ebd 004b a7bc
000003b0: 30a1 7cbc 08cd 6b3d a840 3cbd baf3 90bd
000003c0: b31d dd3d c9d6 ae3d 070e 013f 7069 2cbf
000003d0: 4dfc 65be 5c38 bebe f7ba 023f 3d3f 963d
000003e0: 2b20 e53e 96e0 f33c b1cd 30be 51ad 02bd
000003f0: fd92 d0bd c34f 0f3f a059 1bbf 0b03 f7bb
0.08241896 -0.0077540977 -0.17937018 0.36071295 -0.19383547 -0.027583836 0.2895947 -0.14129932
0.795458 -0.10960275 -0.073063314 -0.17385535 0.06895943 0.24065578 -0.06434879 0.39256337
-0.26866505 0.782892 -0.27062953 0.72982424 0.06806525 -0.6013543 -0.490697 0.11749499
0.03372975 0.2188096 0.041096095 -0.09252159 -0.11207331 -0.14145821 0.6351767 -0.65959895
-1.0068024 0.031339504 0.3815484 -0.07671511 0.37801054 -0.20244612 0.044082616 0.26808348
0.05753337 -0.026160464 0.1431757 -0.1495858 -0.008159786 0.10305555 0.0598388 -0.06936289
-0.08609679 0.052177683 0.022343263 0.0409922 0.075139076 0.08365126 0.13788317 -0.0046049803
-0.0227267 -0.034184806 0.0006081462 0.15153886 0.071068585 -0.034946404 0.03713663 0.012281641
0.069524065 -0.037108794 -0.0552285 0.1403775 0.048013985 -0.0895889 -0.09128507 0.14493169
0.15348224 -0.036108837 0.09464227 0.023219496 0.15148543 -0.028625429 0.0418732 -0.07152866
-0.15386777 0.107205585 -0.6067457 0.6311656 0.49719647 -0.4326517 -0.14822668 -0.19295585
-0.29706475 -0.36098614 0.3455152 -0.72980577 0.3835997 -0.02294509 -0.035190996 -0.09691564
0.10681349 0.65057296 -0.14579521 0.22100681 -0.0855368 -0.3668793 -0.7007445 0.2734139
0.5609523 0.26789948 -0.09517148 0.14904103 -0.62127787 -0.17127694 0.29824468 -0.33812973
-0.87423587 0.06989816 0.06370897 0.07985613 0.67125744 0.18425073 -0.108949214 -0.005299578
0.12070997 -0.13161075 0.02684483 0.07013893 -0.043138668 0.118967876 -0.1150112 -0.0074054003
0.073692694 0.11215274 -0.022615448 -0.12788531 -0.10167731 -0.020379722 0.027117744 -0.0217807
0.115506485 -0.1152648 0.00954929 -0.07411722 0.004363939 0.07077339 -0.11694346 0.07994737
-0.12927309 0.15272056 0.10026108 0.08780524 0.045924902 0.15035377 0.083365604 -0.11982903
-0.023665175 0.08125219 0.044615105 -0.07938167 0.0346954 0.14564778 -0.016804472 0.14183082
-0.04327519 0.092185654 -0.56557 0.75550526 -0.1977034 0.07377756 -0.3488161 0.19091842
-0.407639 -0.28133592 0.27659354 -0.27584672 0.043148953 -0.39199233 0.35707965 -0.005154832
0.1256574 0.17289662 -0.05653532 0.35254636 0.13869484 -1.0170027 -0.5160774 -0.095054924
-0.14240186 0.7452225 -0.32375824 0.42924204 -0.7375425 0.20772296 0.14610839 -0.22044891
-0.07569479 0.5789133 -0.075243875 -0.11310937 0.072664514 0.26438767 0.03698878 0.18033698
0.008105978 -0.08487314 0.10827799 -0.1271155 0.04200846 0.07135245 0.075017124 -0.023445755
0.060682714 -0.1480574 0.13298105 0.1303332 0.02482593 0.034935534 -0.1276712 -0.040316343
0.14144139 0.034765735 -0.06672316 -0.09551997 -0.066527024 0.02878122 -0.05118628 -0.048445746
-0.10531236 -0.09824616 0.0068362653 -0.1337918 -0.06992444 0.09730847 0.05260393 -0.12547778
-0.032582954 -0.026177362 -0.050422966 -0.020421505 -0.0154192895 0.05756858 -0.0459601 -0.07077737
0.1079668 0.08537061 0.5041203 -0.67348385 -0.22459526 -0.37152374 0.51066536 0.073362805
0.44751105 0.029770177 -0.17265965 -0.03190357 -0.10184286 0.5598108 -0.6068363 -0.0075382045

bias f4 [128]
00000000: 3d68 81bd a2e8 aabd 252b 6bbc 7272 b43d
00000010: 1ff2 d43c 5617 74bd f454 61be c0dc 20bc
00000020: 8b3c f43d 52aa bdbd ee86 37bd 42bb bf3d
00000030: 0ded bfbd dee7 a3bd e08d 94bb 712a 453d
00000040: fa08 dcbd 4c0c 2ebd d700 133e 955b 20be
00000050: 93d0 003e 40c4 403b af65 063e 25df f9bd
00000060: 6c93 6dbe 8a21 d63d 1422 c73b 2ee4 81bd
00000070: be55 803d 60f8 17be a78f 34bd b6be cdbd
00000080: c064 0abe 8092 2f3d 7334 dfbd ebf2 143e
00000090: 1e3a 9fbd 74fd 093e 65a1 f53d e791 f4bd
000000a0: de58 3fbe 29fd 05be 7556 27be 61c9 1c3e
000000b0: f0b1 fc3c aacb fc3c 0fdd 34be 3eb2 3dbd
000000c0: 0272 693c f1b9 2dbe 82b7 ed3d f1ce 7ebc
000000d0: d9ba ed3c 1ab1 a0bd 0e27 903d bea3 be3d
000000e0: 4583 fdbd f0fa 04be f91d 30be abc0 80bd
000000f0: e939 8e3d edd3 103e b2eb 973d fea5 fc3d
00000100: af55 44be 6723 123e 15eb 053e 488d c8bc
00000110: 0846 5ebc c9b8 17be 4172 273d 8fd2 2b3d
00000120: 96f9 353e 4c48 0f3e 98b3 09be 6f05 e93d
00000130: 3af5 023e d381 103e 8e04 94bd f2ac 1fbd
00000140: a6ce b5bd 3a6d 07be 1410 133d 24b5 383d
00000150: f932 1b3e 9081 5d3d d5d0 e8bd baa2 1fbd
00000160: a47e 843d aa86 003d 2d2b 0c3d ca49 cbbd
00000170: 20a6 013e 4889 203d b8e0 c1bd 4861 b63d
00000180: fd88 30be 76d7 f23d 0490 b8bd 636b 2ebe
00000190: 2d3d 0f3e c309 8bbd 74fd 03bd 1bca 15be
000001a0: afbc 25be 6e12 2fbd e2eb ccbd f033 d7bd
000001b0: 6c8d 0b3d c7b9 053e c30e 903d 7aa8 bcbd
000001c0: a01b c7bd 2664 d0bd 1a7a 84bd 7b09 37bd
000001d0: 38e8 73bd 24c4 58bd b3f1 de3d 0e43 3ebd
000001e0: 02ae ecbd b9a7 f63d 9a30 d6bd 4c28 213d
000001f0: 20af ce3c 1c54 003d 13ae 4e3d 1df4 dbbd
-0.0631871 -0.083451524 -0.014353548 0.08810891 0.025994359 -0.059592567 -0.22005063 -0.009818256
0.1192561 -0.09261002 -0.044806413 0.093618885 -0.09371386 -0.080032095 -0.0045335144 0.04813618
-0.107439 -0.042492196 0.14355789 -0.15659936 0.12579565 0.002941385 0.13124727 -0.122007646
-0.23200768 0.10455616 0.0060770605 -0.0634235 0.06266354 -0.14840841 -0.04408231 -0.10046141
-0.13514996 0.042864323 -0.10898676 0.14545791 -0.07774757 0.13475591 0.11993674 -0.11941891
-0.18686244 -0.13084854 -0.16341574 0.15311195 0.030846566 0.030858833 -0.17662452 -0.046312563
0.014248373 -0.16965462 0.11607267 -0.015552268 0.02901976 -0.078462794 0.07038699 0.09308575
-0.12378553 -0.1298635 -0.17198934 -0.062867485 0.06944639 0.14143343 0.07418002 0.12336348
-0.1917331 0.14271317 0.13077958 -0.02448143 -0.013566501 -0.14816584 0.040880445 0.04194885
0.1777099 0.13992423 -0.13447416 0.113779895 0.12788859 0.14112024 -0.07227431 -0.038983293
-0.08877306 -0.1322526 0.035904005 0.045094624 0.15156163 0.05407864 -0.113679565 -0.038973548
0.06469467 0.031378426 0.034220863 -0.099261835 0.12661028 0.03919342 -0.0946669 0.08905274
-0.17239757 0.11857502 -0.09011844 -0.17033152 0.1398818 -0.06788971 -0.032224134 -0.14627878
-0.16185258 -0.042742185 -0.100059286 -0.10507953 0.034070417 0.1305915 0.070340656 -0.09211822
-0.09722066 -0.10175352 -0.064686015 -0.044686776 -0.059547633 -0.05292143 0.10885944 -0.046450667
-0.11556627 0.12043709 -0.10458489 0.03934507 0.02522999 0.031330213 0.05045898 -0.1073992

weight f4 [64, 128]
00000000: 4899 4f3d 9c43 893c 7a21 783d 04f1 00bd
00000010: 2bf1 4a3d 2648 0c3d 720d 8c3d bcdd b43c
00000020: 9112 a03d 6650 acbd 9e7b 80bd c832 e43c
00000030: b532 b03d d04f 843b ee61 4d3d 22d2 4fbd
00000040: 21e3 843d 50eb 8ebb 4fd7 a73c a0b4 e43c
00000050: e25a 323d 87b4 af3d 5c95 c5bc e89d b43c
00000060: 77c8 823d 660b 14bd 0185 62bb 4a69 4c3d
00000070: 0027 79bd 4e9c 153d 17d9 72bd 1a69 2a3d
00000080: ca74 c0bc 4407 aebd 79db 8bbd 0f87 91bd
00000090: e40f c3bc f9e1 1fbd 2907 053d 920c 8e3d
000000a0: 4183 aebd aabf 373d 249c c63c a87b 02bd
000000b0: 61e1 9fbd 6f82 553d 28a9 b4bd 1391 56bd
000000c0: 41f4 613d f7b5 afbd e75d 873d bee3 8ebd
000000d0: 440b fcbc f4f9 88bc 60df cabd 23a7 8d3d
000000e0: 23c8 dfb9 ed24 8a3d a85b 853d dc5f 82bc
000000f0: 3159 cabb 244a 86bc 3251 94bb aeb2 1a3d
00000100: 7c07 333c 2e68 6e3d 5c4e ac3b 1cb0 98bd
00000110: 5bcc 433d a107 873d 696e 97bd c55b b4bd
00000120: 8997 393c d361 31bd 9aa9 8bbd be21 143d
00000130: 7d83 3ebd 5cc3 113d 35ff 9d3d c06d 3bbc
00000140: 83c5 303d 347f 04bd 4c47 143d 8fed aa3d
00000150: dbd9 a23d d07b c5bb d0bc 99bd 4074 babc
00000160: 4092 de3a 9c02 473c 0ecc b9bd 1067 65bd
00000170: 1e6e afbd 4440 8dbc f2e3 043d 606a 2d3c
00000180: 2873 16bb 4051 ca3b 03b4 9ebd 0e21 e6bc
00000190: 6c33 8b3b 4621 22bd 7df3 873d aea4 6a3d
000001a0: 7be0 cb3d 0020 52bc c8a7 5ebc 9968 ae3d
000001b0: 0059 54bb 3037 153d e9d2 22bd 4404 86bd
000001c0: d183 9c3d 63b4 9d3d 5c01 a8bd 6065 d1bc
000001d0: 5df2 863d 50a9 ac3c 91a8 f43c 158a 303d
000001e0: ea62 7f3d 1b70 8dbd b6e6 34bd eab1 643d
000001f0: 703e 0b3c e882 d93b 161d 033d cd4e 47bd
00000200: 8738 3d3e e0f9 b63b 367d c23d 5406 abbc
00000210: dfb4 d53c c178 913d d884 323c 08fb abbd
00000220: 0743 74bd 359c b6bc b289 573d 20ca 36bc
00000230: 04f5 df3c 4dab 2ebd 6e3a 9bbd 6a65 33bd
00000240: c272 6f3d c2fb 45bd 8be3 a5bc ea20 7d3d
00000250: 7cdf 89bd 2793 b33d a205 413d 6fea 10bd
00000260: 298f f13c 28b8 e23c 0a02 abbd d0c2 ae3b
00000270: e079 dcbb 6069 7f3c ec54 b93d b8be 99bc
00000280: b136 4e3d a2b2 3d3d 08f9 8c3c e43a afbc
00000290: 1cda 48be 27e0 313e bac1 c7be 2eb4 9fbe
000002a0: c7f7 5ebd 1eae 6c3d 07e0 d63c 3708 8e3d
000002b0: 9743 34bd 5bdb 8dbd 6c23 c2bd 89dd 35bd
000002c0: 02b1 c0bd 47d3 2fbc d3c7 ac3d 3113 29be
000002d0: 4f56 adbc aa40 413d 1936 b53d 2e7f 0bbd
000002e0: be33 37bd bf8a cf3d 65e1 903e c67f 193d
000002f0: 0f13 8c3d 2c48 ce3d 1258 873c 41eb a63d
00000300: b420 953c fe9d 223d 0178 8abd c1c0 993d
00000310: 0f25 eb3d 6bae 3abd 3b78 a83b 484d 50bc
00000320: 9d2e f1bd 951c 0a3e edab 4abd f9e3 113f
00000330: 8b03 293c 99a0 82bd 9e6d 353d 50d5 003c
00000340: d34c ba3d 5a49 8ebd 1080 85bc ce22 223d
00000350: de0a 7f3d 1cea a73c b936 0a3e ccdc f33c
00000360: 6977 14bd 31f8 493d 111c b1bd 6014 2cbb
00000370: 9f6e 883d e031 15bc 1087 323c d5ec fbbd
00000380: a420 acbd 9a36 473d c3ff 89bd f7e8 dabd
00000390: 5db7 67be fd8e b0bc 804a 173a 5f4d a23d
000003a0: 62fe 4c3e 9c94 4fbd 64af 09bd 0f8d 8f3d
000003b0: 42c5 5bbd 286f 843c c46a b9bc 1239 3e3c
000003c0: c0c6 04bc c0c8 903a c661 4dbd b98b c4be
000003d0: da4d dfbc 586f cd3c ea78 893e e458 b63d
000003e0: 57f2 69bd 6e90 103d 80ce acbd 4ca0 60bd
000003f0: b792 24bd 9670 73bd aa2a cebd 9eec aebc
0.05068329 0.016755871 0.0605788 -0.03147985 0.049546402 0.034248494 0.06838502 0.022078387
0.07816041 -0.08413772 -0.06273578 0.027856246 0.086034216 0.0040378347 0.05014222 -0.050737508
0.06488634 -0.0043615475 0.02048841 0.02791816 0.043543704 0.08579355 -0.024119072 0.022047952
0.06385892 -0.036143683 -0.003456414 0.0499051 -0.06082821 0.036526017 -0.059289064 0.04160414
-0.02349319 -0.084974796 -0.068289705 -0.071058385 -0.023811288 -0.039033864 0.03247753 0.06935991
-0.085211284 0.04486052 0.024244376 -0.03185621 -0.078066595 0.052126344 -0.088213265 -0.052384447
0.05516458 -0.08579629 0.06609707 -0.06977032 -0.03076709 -0.01672075 -0.09905887 0.069166444
-0.00042682988 0.06745324 0.06511623 -0.01591485 -0.006175183 -0.016392775 -0.004526281 0.03776806
0.010927077 0.058204822 0.0052583646 -0.07455465 0.04780231 0.06593252 -0.07394106 -0.08806566
0.011327633 -0.043306183 -0.06819458 0.03616499 -0.046512116 0.0355867 0.077146925 -0.011439741
0.04315711 -0.032347873 0.036200806 0.08346092 0.07951709 -0.0060267225 -0.07506716 -0.02276051
0.0016980842 0.012146618 -0.090721235 -0.05600649 -0.08565925 -0.017242558 0.032443948 0.010584444
-0.0022956822 0.0061742365 -0.07749178 -0.028091934 0.0042480733 -0.039582513 0.066382386 0.057285957
0.099549256 -0.012825012 -0.013589807 0.08516044 -0.003240168 0.036429584 -0.03975192 -0.06543782
0.076423295 0.07700422 -0.08203384 -0.025561035 0.06589196 0.021076828 0.029865535 0.043100435
0.06235019 -0.06906148 -0.044165336 0.055833735 0.008498773 0.0066379197 0.03201016 -0.048659135
0.18478595 0.0055839866 0.09496538 -0.02087704 0.026087223 0.0710311 0.01089593 -0.0839749
-0.059634235 -0.022291282 0.05262155 -0.011156589 0.027338512 -0.042643834 -0.07579504 -0.043797888
0.05845905 -0.048335798 -0.020250103 0.061798967 -0.067320794 0.087683015 0.047124512 -0.035379823
0.02948721 0.027675703 -0.08349998 0.005333282 -0.006728396 0.015589088 0.09049401 -0.0187677
0.050345127 0.046312936 0.017208591 -0.021390386 -0.19614452 0.17370664 -0.3901499 -0.31192154
-0.054435518 0.05778324 0.026229871 0.069351606 -0.04400977 -0.06926604 -0.094794124 -0.044400726
-0.094087616 -0.010731525 0.08436551 -0.16511227 -0.02115932 0.04718081 0.08848209 -0.034056835
-0.04472708 0.101338856 0.28296962 0.03747537 0.06839573 0.100723594 0.016521487 0.0815034
0.01820407 0.039701454 -0.0676117 0.07507468 0.11481678 -0.045576494 0.0051412857 -0.012713738
-0.11776469 0.13487466 -0.049480367 0.56988484 0.010315786 -0.06378288 0.044293992 0.007863358
0.09096684 -0.069475845 -0.016296417 0.039583974 0.062266223 0.020497374 0.13497438 0.02976837
-0.03624669 0.04930896 -0.08647931 -0.0026257262 0.06661724 -0.009106129 0.010896459 -0.123010315
-0.08404663 0.048636056 -0.06738236 -0.10688966 -0.22628541 -0.021552557 0.0005771294 0.079249136
0.20018914 -0.050678834 -0.03361453 0.07009327 -0.053654917 0.016166285 -0.022633918 0.011610286
-0.008104026 0.0011046156 -0.050142072 -0.3838785 -0.027258802 0.025077507 0.26850063 0.08903673
-0.05711588 0.03529399 -0.08437824 -0.05484037 -0.04017898 -0.059433542 -0.10066731 -0.021353062

bias f4 [64]
00000000: d08b 753d 6b99 bd3c eef2 6ebd a74d 903d
00000010: 3606 56bd d7e7 813d 06b8 ef3c 1880 9fbc
00000020: 5d96 fe3c a2c6 d33a 0f65 25be 6527 c5bb
00000030: be9c 9b3c a11e 8c3b 8b9d 69bd fa67 0b3d
00000040: 0579 41bd e6e2 84bd c027 f4ba 1f18 75bd
00000050: 77fb 483d 1fec db3c b5ff 543d b9b4 b0bb
00000060: f701 a53d f726 94bd 5a8f 073d 7dce 2bbd
00000070: 56eb a4bc 472b f23c 82fa 02ba 01b4 803d
00000080: fab3 3d3d 7264 0fbd 99ba 533d 8048 8cbd
00000090: c114 ee3c c036 0d3c 7143 b23d 2b40 083d
000000a0: 806e eebb b892 47bc 65b5 5dbd 21eb cd3d
000000b0: f918 a03d 68db 8dbc 6efa 313e a8e4 e73c
000000c0: 5280 6e3d 615e 52bd 34ba 2abc 9392 3f3d
000000d0: eeae 5abd e789 1fbd 60b6 223d e9d7 97bd
000000e0: d867 99bd 9387 e53b 79ee 843c a52e e0bb
000000f0: d9b9 0fbd 93f8 3dbd 86f3 873c 7883 dfbc
0.05994779 0.023144444 -0.058337145 0.07046061 -0.052252017 0.06343048 0.029262554 -0.01947026
0.031077558 0.001615722 -0.16151832 -0.006016659 0.018995639 0.004276112 -0.05703501 0.034034707
-0.047234554 -0.0648859 -0.0018627569 -0.059837457 0.04906794 0.02684599 0.052001674 -0.0053926376
0.080570154 -0.072339945 0.033095695 -0.04194497 -0.020131748 0.029561652 -0.0004996435 0.06284333
0.046314217 -0.0350079 0.051691625 -0.06849766 0.02906263 0.00861901 0.0870427 0.03326432
-0.007276356 -0.012180977 -0.05412807 0.10054613 0.07817263 -0.017316535 0.17380688 0.028307274
0.058227845 -0.051359538 -0.010420371 0.046770643 -0.053389482 -0.038949873 0.039724708 -0.074142285
-0.0749051 0.007004687 0.016226994 -0.006841498 -0.035089348 -0.046379637 0.016595613 -0.027284369

weight f4 [32, 64]
00000000: 4094 4cbc 2d7f 5d3d 20a3 de3c a89b ffbd
00000010: 4e71 e43d 5ea5 ee3d 5cd2 f43d 1063 033c
00000020: e27c f23c bc46 5cbd abb4 c33d 9444 d8bd
00000030: a883 b5bc d246 82bd f021 7a3d 5164 073b
00000040: 846d 8e3c 8ada bd3c f83d fb3d e25e 5b3a
00000050: d037 cabd 9a02 e43d e282 ae3d b813 4abd
00000060: f402 9d3d 7ba0 86bd 0e49 c0bd 7087 1bbd
00000070: 2eae fdbc 1cdf f13d 080f 85bc 00a9 43bc
00000080: c4ac 7bbd ac47 ad3c eb3a c0bd 3c9c 27bd
00000090: a1a4 d2bd 2073 33bd 002c 92bc 799e 843d
000000a0: c861 d2bd d0f0 da3d 0638 963d 4bd9 7a3d
000000b0: 64fd 9b3d 0809 d83d 1a73 e6bd 461a d93d
000000c0: 64bf 08bd e855 e2bd d54a 0bbd 144d 8dbd
000000d0: 1cf8 ccbd 80e1 84bd eaaa 963d 3119 523d
000000e0: 167d 8bbd 1ee7 9cbd e8d4 db3c 4a28 a83d
000000f0: 123f 933d e0cc 8dbb d306 f9bd a659 3f3d
00000100: 6c8d 65bd d2dc a23d 78c4 be3c 50bb 873c
00000110: e499 4f3d a44f 503d 084b 89bc a26b abbd
00000120: 084e 983c 60a2 bc3b 3c39 c43d 0435 0bbd
00000130: 62c4 a7bd 004e 3e3d 4647 a73d 0a28 babd
00000140: a817 cfbd 0619 963d d4f5 533d a650 d73d
00000150: e690 ef3d e266 ccbd 6833 f2bd e083 69bc
00000160: 605c af3c 4cdf a3bd e6ba c1bd c02e 173d
00000170: d0a6 003c 5838 cdbd e83c e3bd 622c dc3d
00000180: fec6 cbbd c028 6abc 6af8 a8bd 7e9d d03d
00000190: 123c d9bd 1280 fbbd b4fc cdbd 805c f3bc
000001a0: 5ea1 b03d e84a 773d 700c 1d3c 6250 b4bd
000001b0: fac8 c8bd 7897 943c 8429 1cbd 7278 dd3d
000001c0: 2443 043d c0bc e93d 103c 30bd 2a8d 9bbd
000001d0: 1eae 87bd 464e c03d b255 92bd 984b e93c
000001e0: 7082 fb3c 3aa0 b4bd 4057 a9bc c8c2 bf3c
000001f0: aee8 b5bd d621 8dbd 9829 ed3d 0018 173a
00000200: e708 a0bd 0aff 003e d672 fbbd 78a0 88bd
00000210: f09c 4dbc d006 f93d 7803 ae3d 881f ae3d
00000220: 0b13 39bf 81cf cabd 9cf4 9e3d ba24 e9bd
00000230: 9267 8a3b 132a 973e a0f1 463c 6d6a a3bd
00000240: ce13 5dbd bbcd 02bf 0420 fd3d 5add 71be
00000250: 781c bb3a ecd6 fdbd e812 a4bd 9d1e c93d
00000260: fe2a f43d 0d82 c6be 0643 3abe 8675 2bbd
00000270: 5506 273e 9c99 20bd c3a0 80bc 60ab a7bb
00000280: 68fc a3bd f380 f23d a96d 44be 64da 63bd
00000290: f6ce 55bd c0b4 af3b 5e5a 813d becc 69be
000002a0: d0b5 66bd c0d0 c1bd 20e7 13bd fd45 83bd
000002b0: c6b3 84bd b072 a03d 6e44 1a3e f0f5 9cbc
000002c0: 583a 643d 16eb 493d 6623 15be 3799 54bd
000002d0: 18ae 05bd f8c8 a93c 694e 983d 9c57 163d
000002e0: 5cf8 d7bd 36a7 4d3e a528 553d fc15 56bc
000002f0: 4096 6a3b f0dd 9e3d 8662 0d3e cb87 653d
00000300: 787b c0bd c08f d8bb 80c8 d6bd 00ed 063d
00000310: 3083 aa3c 9288 dc3d f890 bfbc 30d6 683d
00000320: 1424 84bd dce6 ae3d e8bc b03d 08d5 d03c
00000330: 6821 8e3d 86df b4bd 64c4 c03d a026 8dbb
00000340: 8c7a c3bd f48a 17bd 388e e9bd 68a1 993d
00000350: 6a07 ba3d 8497 f4bd e466 9ebd 7887 893c
00000360: 48aa 9ebd e216 cf3d c0dd 7abb eef7 80bd
00000370: 9a23 c93d c4e2 7abd 1466 81bd 8217 983d
00000380: 88aa 033d 20f8 4dbd e88f 9cbd e8a3 40bd
00000390: fcb5 afbd 9882 41bd 740e d8bd 04c1 e1bd
000003a0: 8842 a8bc 3ce0 e3bd 7c5c f8bd b0de 2dbc
000003b0: e8de 633d 3e37 b6bd d435 9dbd 788e b7bd
000003c0: 40df aebd 6008 fc3c 4256 873d fab0 a23d
000003d0: a2de ab3d 7c6b fdbd 286a a0bd 460d e0bd
000003e0: 3869 db3d b8c4 67bd d408 ffbd 00fb 2eba
000003f0: c68d cb3d 6855 24bd 8096 953c 9487 213d
-0.012486517 0.054076362 0.027177393 -0.12480861 0.11154424 0.11652635 0.11954185 0.008019224
0.029600564 -0.053778395 0.09555944 -0.10559955 -0.022157505 -0.06361164 0.06106752 0.0020659158
0.017386205 0.023175497 0.12267679 0.00083683257 -0.09873927 0.11133309 0.08521058 -0.04933521
0.07666579 -0.06573578 -0.09388934 -0.03797096 -0.030966844 0.11810133 -0.016242519 -0.011942148
-0.06144406 0.02115234 -0.09386238 -0.04092048 -0.10285307 -0.043810964 -0.017843246 0.06475539
-0.102725565 0.106904626 0.073349044 0.061242383 0.0761669 0.105485976 -0.11252423 0.106007144
-0.03338565 -0.110515416 -0.034006912 -0.06899467 -0.100082606 -0.06488323 0.07356818 0.051293556
-0.068109676 -0.076612696 0.02683492 0.082108095 0.07189764 -0.0043274015 -0.12159505 0.046716355
-0.056043074 0.079522744 0.023287043 0.01656881 0.05068387 0.0508572 -0.01675941 -0.08370139
0.018591896 0.0057566613 0.09581229 -0.033986107 -0.08191754 0.046461105 0.08167891 -0.09089668
-0.10111934 0.073289916 0.05174811 0.10513429 0.11697559 -0.09980561 -0.11826211 -0.014252633
0.021406353 -0.08001575 -0.09459476 0.03690982 0.007852271 -0.10020512 -0.11095601 0.10750653
-0.09950064 -0.014291942 -0.08250506 0.10186289 -0.10607161 -0.12280287 -0.10057965 -0.029707193
0.08624528 0.06037417 0.009585485 -0.08804394 -0.09803958 0.018138632 -0.03812553 0.10813989
0.032290593 0.11412954 -0.04302603 -0.07595284 -0.06625007 0.093899295 -0.07145251 0.028478429
0.030701846 -0.08819623 -0.020671487 0.023408309 -0.08882271 -0.06891219 0.11580199 0.0005763769
-0.07814198 0.1259729 -0.122777626 -0.06671232 -0.012549624 0.121595025 0.08496755 0.08502108
-0.7229468 -0.099028595 0.07761499 -0.11383958 0.0042237723 0.29524288 0.012142569 -0.079792835
-0.053973965 -0.5109517 0.12359622 -0.23619595 0.0014275452 -0.12394509 -0.080114186 0.09820292
0.119222626 -0.38771096 -0.1818963 -0.041860126 0.16311009 -0.039208993 -0.015701657 -0.005116865
-0.08007127 0.11841001 -0.19182457 -0.055628195 -0.052199326 0.0053621233 0.06316064 -0.22832009
-0.056325734 -0.09463644 -0.03610909 -0.064098336 -0.064796016 0.07834375 0.15065166 -0.01916024
0.055719703 0.04929646 -0.14564285 -0.05190393 -0.032636732 0.020725712 0.074368306 0.036704645
-0.10545418 0.20083317 0.052040715 -0.013066765 0.0035795122 0.07757175 0.13807115 0.056037705
-0.0939855 -0.006608933 -0.10487461 0.032940865 0.020814508 0.10768236 -0.023384556 0.05684489
-0.06452194 0.08540127 0.08629781 0.025492206 0.069399655 -0.08831696 0.094124585 -0.004307583
-0.09544858 -0.03699775 -0.11404079 0.07501489 0.09083445 -0.11942962 -0.077344686 0.01678823
-0.07747322 0.101117864 -0.0038279146 -0.06297289 0.098212436 -0.061251417 -0.06318298 0.07426359
0.032145053 -0.05028546 -0.076446354 -0.047031313 -0.08579633 -0.047243685 -0.10549632 -0.11023143
-0.020539537 -0.11126754 -0.12127015 -0.010612175 0.0556325 -0.08897255 -0.076762825 -0.08962721
-0.08538675 0.030765712 0.06608249 0.07943912 0.08392073 -0.12374017 -0.07832748 -0.10940032
0.10713428 -0.05658409 -0.12452856 -0.0006674975 0.099391505 -0.040120512 0.01826024 0.039435938

bias f4 [32]
00000000: f545 f7bd 4045 f6bb e1a1 b6bb 801c 91bd
00000010: 1769 ecbc f85b b2bd b5b7 543e 0ed8 203d
00000020: 8c59 bfbd 9ae6 d83c faa8 fdbd 7c01 03bd
00000030: 17c3 8abd 8800 c2bb e438 f0bc 9db3 4e3d
00000040: cea8 de3c 4f98 d8bd 98fc 383d 64c5 903d
00000050: ed2c a43d 1bd5 003e 787e d2bd 8303 233e
00000060: e532 11bd 1068 853d 263a ed3d bf2c 59bc
00000070: 1c3e b83b 56f1 94bd 7dd0 873c 3b93 e3bc
-0.1207389 -0.0075155795 -0.0055734967 -0.07085514 -0.028858704 -0.08708948 0.20773204 0.039268546
-0.093432516 0.026477147 -0.12385745 -0.031983837 -0.06775492 -0.0059204735 -0.029324003 0.05046426
0.027180102 -0.105759256 0.045162767 0.07068899 0.080163814 0.12581293 -0.10278028 0.15919308
-0.035448927 0.06513989 0.115833566 -0.013255297 0.0056226384 -0.07272594 0.016578907 -0.027780166

weight f4 [8, 32]
00000000: 8231 e93d 2df3 e6bd 51e5 293e 7208 c23d
00000010: d1b1 e33d e00d f93b 13de 0fbe d4cd 833c
00000020: c486 0c3e 9361 25be 55b0 13be c078 83bb
00000030: 8b66 183e c1c9 a63c 4254 e2bd 1b3a 49bd
00000040: b2f3 d33d 3d45 13bd 5904 32be e484 0cbe
00000050: 3e44 31be 5924 bf3d e005 873b a72a adbc
00000060: 10aa 6b3d 948d 03be 7edb 813b deda 9cbd
00000070: cf7f a03c 0119 e8bd 0697 b53d e434 94bd
00000080: 5a40 00be b9a3 183e 295e 8c3e d4ad aabd
00000090: 262d 40bf fb3f 9b3c c922 083d 9ac5 05be
000000a0: 2e4e c7bd 3f2a 85bd 35ad 29bd 2f56 183e
000000b0: 5dce 32bd 53c8 2f3e 18b2 df3e c33e 95bc
000000c0: 6cd0 b33d e9e1 623e d38b 10bf b9bb a4be
000000d0: 31d0 23be fbe0 27be a0f2 d93c ac7d de3e
000000e0: 1c0c fc3d 00a3 ac3b 5dfd 3bbd 66cd 213e
000000f0: a948 e1be 113c 293e 6c85 503e e89d eebd
00000100: 27ab f33d 3a97 13be cc15 143e e366 91bd
00000110: 8387 163f b010 f7bd 2161 823d 820d 58bd
00000120: 5226 933e 3f21 02be b793 17bd b09f 1a3d
00000130: 044f 453d 930c b5be 4df4 883e 6071 1b3b
00000140: 2250 013e c067 22bd 0083 2a3f 67fb 593d
00000150: ee5a 553d 3aa4 cfbd 3eb0 a63d aec8 3abe
00000160: 1fbd d83c b70c 023e 8394 47bb df7c 6e3e
00000170: 8ec6 76bd 7901 6a3e fa0d b63d 19f5 8b3e
00000180: 2b3e b2bd 2b86 1ebe b601 e6be 785b 883c
00000190: 40e5 99bd 9253 b5bd 682f b83d 81ea 98bd
000001a0: 7173 1d3d 5c60 a5bc 7d7f edbd 8035 fb3c
000001b0: eb50 803c 080d 5d3d 2e1d 46be 30a2 173c
000001c0: 18a7 713d 296b 543e cfb8 ebbd e466 4ebe
000001d0: 94ae 8e3e ce96 b83d 4163 273e 8d7c 96be
000001e0: 0478 9bbb b50b 17be c666 cdbd ae23 bb3d
000001f0: 0eac df3c a83d 8c3e f212 c93c 1329 e73d
00000200: 6e4f 11be 9802 cc3c 3912 693f e687 a4bd
00000210: bfe9 6abf 69e1 7b3d 95c9 a43e 18cd 903d
00000220: 0977 1e3d 16c3 18be ee4c f2bd c8b1 e1bc
00000230: 0ece a43c 09ed e03d 546c 7fbf 765f eb3c
00000240: 266a 0f3e a710 7dbe cefb e7be dc2a d73e
00000250: 419e 9ebe 9250 9c3e d4a6 2abd 174b 9c3e
00000260: aa8f 803d 6056 c9bb 2a1d 2fbe c0d2 11bf
00000270: 75fd ea3d 205d 88bd 43b0 523d 5a19 babe
00000280: 1099 7d3c 7431 8f3d 1e36 b1bd 1f75 223e
00000290: 565c 04be 039a 7d3d fe44 8d3d 258d 16be
000002a0: 9556 b13d 5502 51ba 052c dabd 7d62 a8bd
000002b0: 9d04 dc3d 076c 9b3d ff55 34be f8d1 2cbe
000002c0: f159 623d 08a3 28bc b8f3 cc3d fe9c a6bd
000002d0: 78f3 fdbe f689 5c3d 80a2 47bb ff91 a1bd
000002e0: 7ef5 33be 585d aebc 2610 d23d 3520 b2bd
000002f0: 8812 9cbd 9929 04bd 1b3c 58be f289 14be
00000300: 53c2 053e 80d6 ae3c 376e e93c 7ed7 e23d
00000310: 4b1e e5bd 1cd5 933d c6da 84bd 2465 113e
00000320: 814a 083e 06b0 7bbc 97a5 2c3e 0005 b93b
00000330: e1cb 20be c58d 31be f6bb 923d 0c0b 153d
00000340: 94fa e53d 918e 34be 67e2 3fba 1e1c 09be
00000350: ca20 973d 861e af3d 4c8a 15be 522d 7abc
00000360: 3627 ad3d 3d7b 023e 49cd 243e aadc ac3c
00000370: 850d dcbc b7c6 a3bd ffa0 52bd 7813 96bd
00000380: 001d ae3b d61b f63d 87a1 cb3d 60b2 dcbc
00000390: 24a4 183e e458 1ebe 4f86 fa3a a1e9 013e
000003a0: fb3d 073d 1e63 343d bb52 923d 80ca 8d3a
000003b0: 7edd 01be b0b2 adbc 7bbc fcbd f260 96b9
000003c0: ec45 fc3d dd7a 08be ba04 d93d 3236 a1bd
000003d0: 131c 283e e706 00be 277a b1bd 6cad 6cbc
000003e0: e0be e7bd 101f 00bc 1ea8 85bc 09a1 93bd
000003f0: 7fd3 acbd 0d75 2abe 3bda c8bd 8bd1 703d
0.11386396 -0.11276851 0.16591384 0.09474267 0.111179 0.007600531 -0.14049558 0.016089357
0.13723284 -0.16150503 -0.14422734 -0.0040121973 0.14882867 0.020359876 -0.11051227 -0.04912768
0.103492156 -0.035954703 -0.17384471 -0.13722569 -0.17311189 0.09333105 0.0041205734 -0.021138502
0.05753523 -0.12846977 0.003962933 -0.07658933 0.019592194 -0.11332894 0.08866696 -0.072366506
-0.12524548 0.14906205 0.27415588 -0.08333936 -0.7506889 0.018951407 0.0332363 -0.1306366
-0.097317085 -0.065021984 -0.04142495 0.14876626 -0.043653835 0.17166261 0.43690562 -0.018218404
0.08779988 0.2215649 -0.56463355 -0.3217447 -0.15997387 -0.16394417 0.02660495 0.43455255
0.12306997 0.0052684546 -0.045895923 0.1580101 -0.44000748 0.1652682 0.20363396 -0.11651212
0.11897879 -0.14413157 0.1446144 -0.07099702 0.58800524 -0.1206373 0.06366182 -0.052747257
0.28740174 -0.12707995 -0.037006106 0.037749946 0.04817106 -0.35361156 0.26748887 0.00237187
0.12628224 -0.039649725 0.6660614 0.05321827 0.05208867 -0.101387456 0.08139084 -0.18240616
0.026457367 0.12700163 -0.003045351 0.23289822 -0.06024795 0.22852124 0.088893846 0.27335432
-0.08703264 -0.15480869 -0.4492318 0.016645178 -0.07514429 -0.088538304 0.08993417 -0.07466603
0.03844017 -0.02018755 -0.11596582 0.03066516 0.015663585 0.053967506 -0.19347069 0.009254977
0.058997244 0.20744003 -0.11509859 -0.20156437 0.27867568 0.09013139 0.16346456 -0.293919
-0.0047445316 -0.1475056 -0.10029368 0.09137665 0.027303722 0.2739079 0.024545167 0.11287131
-0.14190456 0.02490358 0.9104343 -0.08033733 -0.9176292 0.061494265 0.32185045 0.070703685
0.03868774 -0.1491817 -0.118310794 -0.027550593 0.020117786 0.10982711 -0.9977467 0.028732043
0.14005336 -0.24713384 -0.453093 0.42024887 -0.30980113 0.3053022 -0.041663006 0.3052604
0.06277402 -0.00614433 -0.17100969 -0.56962204 0.11474124 -0.06658387 0.051437628 -0.36347467
0.0154783875 0.06991854 -0.086529 0.1586499 -0.12925848 0.061914455 0.06897925 -0.1470228
0.08659092 -0.0007973065 -0.10652927 -0.0822191 0.107430674 0.07588964 -0.1761093 -0.16876972
0.055261556 -0.010292776 0.10007423 -0.08135413 -0.49599814 0.053842507 -0.0030461848 -0.07889175
-0.17574117 -0.021284744 0.10256986 -0.08697549 -0.07620722 -0.032266233 -0.21116678 -0.14505747
0.1306241 0.021342516 0.028494937 0.11076258 -0.111874186 0.07218382 -0.0648704 0.14198738
0.13309671 -0.0153617915 0.16860043 0.005646348 -0.15702774 -0.17339237 0.07164757 0.03638749
0.112294346 -0.1763251 -0.00073198084 -0.13389632 0.07379301 0.08550744 -0.14603537 -0.015269594
0.084547445 0.12742324 0.16093935 0.021101315 -0.026861915 -0.07996886 -0.05142307 -0.07327932
0.0053135157 0.12017028 0.09942918 -0.026940525 0.14906365 -0.15463597 0.0019113513 0.12686779
0.033018094 0.044039838 0.07144686 0.0010817796 -0.12682149 -0.021203369 -0.12340637 -0.0002868246
0.12318024 -0.13328119 0.10596605 -0.07871665 0.1641696 -0.12502633 -0.08665877 -0.014445644
-0.113157034 -0.007819906 -0.016315516 -0.072084494 -0.08438777 -0.16646214 -0.09807249 0.058793586

bias f4 [8]
00000000: d41e 02be 5435 b0bd e7a8 263e 9b12 b33d
00000010: 07cf e13d c792 92bd 0ebc 2bbe e5c1 aa3d
-0.12707072 -0.086039215 0.16275369 0.08743783 0.110258155 -0.07156902 -0.16770956 0.08337764

weight f4 [4, 8]
00000000: 53b0 8bbe 111a 3dbe fa21 573e f0a9 9ebd
00000010: 3b33 a0be b8ae a5bd df2c a23e 484b 7fbe
00000020: 302c 80bd d86e b3be 9e5e 523e 29c7 963e
00000030: 8b18 aebe 786e 8bbd bc97 8abe e54d a73e
00000040: bb57 75be 4071 39bd 9ade 1f3e 6eb0 523e
00000050: 54c0 803d 708f 81be 7f04 39be 1e6f 403e
00000060: ec69 bbbd 909f 08bd aae3 493e 518e 973e
00000070: 9b5b 3fbe 80cd 51bb faae 413e c691 85be
-0.27282962 -0.18466975 0.21009055 -0.07747257 -0.31289086 -0.080899656 0.3167486 -0.24931061
-0.06258428 -0.35045505 0.20543906 0.29448822 -0.340031 -0.068081796 -0.2706889 0.32676616
-0.23959248 -0.04527402 0.1561226 0.20575115 0.06286684 -0.25304747 -0.18068121 0.18792388
-0.09151062 -0.033355296 0.19715753 0.29600766 -0.18687288 -0.0032013357 0.18914405 -0.2608778

bias f4 [4]
00000000: 4225 153e aacd 38be 36e6 463e f254 6e3e
0.14564994 -0.18047205 0.19423756 0.23274592
