training/ann/models/ann21ep200.pth (torch, 69218 bytes, 10 tensors)

weight f4 [128, 40]
000000 52 4b fc 3d c5 7b cc bb 2f ed 52 bd 8c b1 9b 3d
       0.12319054 -0.0062403404 -0.051495727 0.07602224
000010 2b 32 bf bb 84 4d c6 3b 97 62 41 bd 39 75 7a bc
       -0.005834838 0.006051721 -0.047213163 -0.015286737
000020 55 b9 c6 3e 32 f9 3b 3e d4 86 8d be 84 3c 8b 3d
       0.38813272 0.18356779 -0.27641928 0.06798652
000030 28 4d 85 bd 4a 18 3c 3e 85 ad 95 bd 56 e4 53 3e
       -0.06508857 0.1836864 -0.07308487 0.20692572
000040 88 f8 3d be 95 a3 4f 3e 9c 62 39 bd ea d3 a9 3e
       -0.18551838 0.20277245 -0.045260057 0.3316949
000050 91 d1 5a 3e c3 7d c6 be 5d ef e2 be 5a 53 4e bd
       0.21369006 -0.38767824 -0.44323245 -0.05037246
000060 37 7b 8f 3e f3 f5 c4 bd f3 dc 08 3e d3 bb ae bd
       0.28023693 -0.096172236 0.13365535 -0.085319184
000070 67 bb a4 3d 4c bc 4b bd a3 9b f5 3d df 42 ef bd
       0.08043557 -0.04974012 0.11992576 -0.116826765
000080 da f4 9d 3d bd b2 a6 3d ef 04 12 3e f4 c6 c5 3d
       0.07712717 0.0813956 0.14259695 0.09657088
000090 e7 0f 8d bc 20 47 40 be da f9 f9 3d 37 f2 6c 3d
       -0.017219497 -0.18777132 0.122058585 0.05784818
0000a0 1c a8 6b 3d 78 4e d6 bc a7 9c 12 3e 05 2d 19 be
       0.05753337 -0.026160464 0.1431757 -0.1495858
0000b0 a0 b0 05 bc ca 0e d3 3d 88 19 75 3d 22 0e 8e bd
       -0.008159786 0.10305555 0.0598388 -0.06936289
0000c0 84 53 b0 bd 44 b8 55 3d 38 09 b7 3c 70 e7 27 3d
       -0.08609679 0.052177683 0.022343263 0.0409922
0000d0 84 e2 99 3d 5a 51 ab 3d 3f 31 0d 3e 60 e5 96 bb
       0.075139076 0.08365126 0.13788317 -0.0046049803
0000e0 58 2d ba bc 5e 05 0c bd 00 6c 1f 3a 01 2d 1b 3e
       -0.0227267 -0.034184806 0.0006081462 0.15153886
0000f0 68 8c 91 3d f6 23 0f bd 94 1c 18 3d f0 38 49 3c
       0.071068585 -0.034946404 0.03713663 0.012281641
000100 a2 62 8e 3d 64 ff 17 bd 48 37 62 bd 1f bf 0f 3e
       0.069524065 -0.037108794 -0.0552285 0.1403775
000110 50 aa 44 3d 63 7a b7 bd ab f3 ba bd f9 68 14 3e
       0.048013985 -0.0895889 -0.09128507 0.14493169
000120 73 2a 1d 3e dc e6 13 bd ce d3 c1 3d d0 36 be 3c
       0.15348224 -0.036108837 0.09464227 0.023219496
000130 ff 1e 1b 3e e0 7f ea bc 3c 83 2b 3d 9e 7d 92 bd
       0.15148543 -0.028625429 0.0418732 -0.07152866
000140 97 cf e0 bd 9c 11 0f 3e 34 1c 3b be 6a 1f 64 3e
       -0.109770946 0.13971561 -0.18272477 0.22277609
000150 cf da 97 3e 69 6c 0e be d6 91 10 3d a4 ba f8 bd
       0.29659125 -0.13908543 0.03529533 -0.12144974
000160 41 c0 a7 be 3b f0 42 be 3c f5 95 3e bd 63 41 3e
       -0.32763866 -0.19036953 0.2928866 0.18885703
000170 0d 8b 9c 3d aa a7 4e be a5 83 99 3d d4 ce bc 3d
       0.07643709 -0.20181146 0.07495812 0.09219137
000180 f0 48 34 bb a8 14 2c 3d 6f ce 89 3d ac a7 7b 3e
       -0.0027509294 0.042011887 0.06728827 0.2457568
000190 a2 ed 6f be 40 f9 3d be 44 98 69 be 05 13 e9 bd
       -0.23430493 -0.18552113 -0.22811991 -0.11380581
0001a0 d7 0c 2b 3f 57 30 bc 3e bb 4f 47 bd 76 91 cb 3d
       0.6681647 0.3675563 -0.04866002 0.09939854
0001b0 76 b5 2d bf d6 f8 8c 3d f6 e9 3f bc 00 ab 45 be
       -0.6785501 0.06883399 -0.0117134955 -0.19303513
0001c0 b0 0c 2b bf 68 91 74 3e e9 77 1f 3e 20 12 e4 bb
       -0.66816235 0.23883593 0.15573086 -0.0069601685
0001d0 7a 03 96 3e b1 89 a8 3e cf 79 2f be ca 08 95 3c
       0.29299527 0.3291755 -0.1713631 0.018192668
0001e0 ca 36 f7 3d f8 c4 06 be b0 e9 db 3c 00 a5 8f 3d
       0.12070997 -0.13161075 0.02684483 0.07013893
0001f0 2c b2 30 bd 6e a5 f3 3d fe 8a eb bd 00 a9 f2 bb
       -0.043138668 0.118967876 -0.1150112 -0.0074054003
000200 32 ec 96 3d 56 b0 e5 3d 08 44 b9 bc 5e f4 02 be
       0.073692694 0.11215274 -0.022615448 -0.12788531
000210 32 3c d0 bd 60 f3 a6 bc 08 26 de 3c 70 6d b2 bc
       -0.10167731 -0.020379722 0.027117744 -0.0217807
000220 aa 8e ec 3d f4 0f ec bd a0 74 1c 3c c5 ca 97 bd
       0.115506485 -0.1152648 0.00954929 -0.07411722
000230 60 ff 8e 3b a4 f1 90 3d 0e 80 ef bd 72 bb a3 3d
       0.004363939 0.07077339 -0.11694346 0.07994737
000240 2a 60 04 be c7 62 1c 3e ae 55 cd 3d 3c d3 b3 3d
       -0.12927309 0.15272056 0.10026108 0.08780524
000250 c0 1b 3c 3d 57 f6 19 3e 96 bb aa 3d ec 68 f5 bd
       0.045924902 0.15035377 0.083365604 -0.11982903
000260 78 dd c1 bc 8c 67 a6 3d 54 be 36 3d db 92 a2 bd
       -0.023665175 0.08125219 0.044615105 -0.07938167
000270 c4 1c 0e 3d b1 24 15 3e 88 a9 89 bc 19 3c 11 3e
       0.0346954 0.14564778 -0.016804472 0.14183082
000280 a0 6b db bc 77 7f fa 3d 5f 8a a6 bd 0e a7 11 3e
       -0.026784718 0.12231343 -0.08131861 0.14223883
000290 ee 27 11 be b9 0b 67 3d 1d d5 46 3e 01 e7 a9 bd
       -0.14175388 0.056407664 0.19417234 -0.082960136
0002a0 20 58 97 be ff af c8 be e2 61 c2 3e 12 bb da 3d
       -0.29559422 -0.39196774 0.37965304 0.10680212
0002b0 5e d9 fa bd 3b e8 86 be 27 c9 74 3e d7 15 86 3e
       -0.12248491 -0.26349053 0.23904859 0.26188537
0002c0 93 21 b3 bd 8d 79 c6 3d fa 85 22 bd e1 dd 30 3e
       -0.08746638 0.09691153 -0.03967855 0.1727214
0002d0 e3 a7 e3 3d 53 bd 31 bf 4a a1 ba be 08 a0 dd be
       0.11116006 -0.6942951 -0.3645118 -0.43286157
0002e0 31 3c 0c 3f 3d 42 a4 3e c8 b1 d2 bd 0f 86 c8 3e
       0.54779345 0.32081786 -0.10287815 0.3916478
0002f0 cd 1c 21 bf 38 5e 9a 3e 31 b1 a4 3d 87 87 85 be
       -0.6293457 0.30150008 0.08041609 -0.26079962
000300 56 6b 0e bf 56 f3 4f 3e 49 5f 48 3e 9b da 8f 3b
       -0.5563253 0.20307669 0.19567598 0.0043900735
000310 c7 0f 67 3e 00 51 98 3e 03 04 97 bd dd ea a2 3e
       0.22564612 0.29749298 -0.07373812 0.3181981
000320 f0 ce 04 3c f8 d1 ad bd da c0 dd 3d 91 2a 02 be
       0.008105978 -0.08487314 0.10827799 -0.1271155
000330 10 11 2c 3d 3c 21 92 3d 94 a2 99 3d 50 11 c0 bc
       0.04200846 0.07135245 0.075017124 -0.023445755
000340 70 8e 78 3d 5c 9c 17 be 2f 2c 08 3e 11 76 05 3e
       0.060682714 -0.1480574 0.13298105 0.1303332
000350 c0 5f cb 3c 90 18 0f 3d 3d bc 02 be c0 22 25 bd
       0.02482593 0.034935534 -0.1276712 -0.040316343
000360 03 d6 10 3e 84 66 0e 3d 27 a6 88 bd f9 9f c3 bd
       0.14144139 0.034765735 -0.06672316 -0.09551997
000370 52 3f 88 bd 98 c6 eb 3c b4 a8 51 bd 0c 6f 46 bd
       -0.066527024 0.02878122 -0.05118628 -0.048445746
000380 02 ae d7 bd 48 35 c9 bd c0 02 e0 3b b8 00 09 be
       -0.10531236 -0.09824616 0.0068362653 -0.1337918
000390 8b 34 8f bd aa 49 c7 3d 38 77 57 3d 3f 7d 00 be
       -0.06992444 0.09730847 0.05260393 -0.12547778
0003a0 b4 75 05 bd e8 71 d6 bc 50 88 4e bd 00 4b a7 bc
       -0.032582954 -0.026177362 -0.050422966 -0.020421505
0003b0 30 a1 7c bc 08 cd 6b 3d a8 40 3c bd ba f3 90 bd
       -0.0154192895 0.05756858 -0.0459601 -0.07077737
0003c0 22 45 12 3e 29 b8 fe 3d 28 50 06 3e e1 5b 4d be
       0.14284185 0.124374695 0.13116515 -0.2005458
0003d0 94 f0 28 be a5 14 69 3e de d8 ac bd f2 02 f0 3a
       -0.16498023 0.22761782 -0.08439802 0.0018311425
0003e0 54 28 ee 3e 92 f3 92 3e af a1 c5 be 3e 9f 02 be
       0.46515143 0.28701454 -0.38599917 -0.12756059
0003f0 69 08 52 bc 54 e8 aa 3e 1b 0e b7 be a1 40 85 be
       -0.012819388 0.33380377 -0.3575295 -0.2602587

bias f4 [128]
000000 82 b5 a2 bd a2 e8 aa bd c6 42 b2 3b 72 72 b4 3d
       -0.07944776 -0.083451524 0.005440089 0.08810891
000010 57 ce 7f 3c 56 17 74 bd 7b 69 39 be c0 dc 20 bc
       0.01561316 -0.059592567 -0.18106644 -0.009818256
000020 e3 f5 ec 3d 4d 72 5c bd 2d dd d8 3b 42 bb bf 3d
       0.11570337 -0.053819943 0.006618163 0.093618885
000030 0d ed bf bd de e7 a3 bd e0 8d 94 bb 0e 65 92 3d
       -0.09371386 -0.080032095 -0.0045335144 0.07148181
000040 8c 1b c6 bd 4c 0c 2e bd 5c 66 11 3e 95 5b 20 be
       -0.09673223 -0.042492196 0.14199203 -0.15659936
000050 93 d0 00 3e 40 c4 40 3b af 65 06 3e 25 df f9 bd
       0.12579565 0.002941385 0.13124727 -0.122007646
000060 35 21 3f be 8a 21 d6 3d 3f 2c 4b 3d 2e e4 81 bd
       -0.18665011 0.10455616 0.049602743 -0.0634235
000070 be 55 80 3d 60 f8 17 be 4d 51 e3 bb b6 be cd bd
       0.06266354 -0.14840841 -0.006937182 -0.10046141
000080 40 ab ad bd 80 92 2f 3d 73 34 df bd eb f2 14 3e
       -0.08479929 0.042864323 -0.10898676 0.14545791
000090 f5 5e e5 bd d5 65 1f 3e 39 9a fb 3d 17 a7 fc bd
       -0.11199752 0.1556619 0.12285275 -0.12336557
0000a0 58 fb 12 be 9d 3e 34 be ab 63 26 be 61 c9 1c 3e
       -0.14353693 -0.1760201 -0.16248958 0.15311195
0000b0 f0 b1 fc 3c c3 d0 97 3d 39 f2 c5 bd 10 8b 44 3c
       0.030846566 0.07412865 -0.09665341 0.011996046
0000c0 78 98 db 3c 5e 63 df bd 82 b7 ed 3d 37 1f 9d bc
       0.026806101 -0.10907625 0.11607267 -0.019179923
0000d0 5e bf 1b 3d 1a b1 a0 bd 96 4d d6 3d be a3 be 3d
       0.0380243 -0.078462794 0.10464017 0.09308575
0000e0 5d d1 d3 bd 38 2a b9 bd 2a 2e 1a be ab c0 80 bd
       -0.10342667 -0.09041256 -0.15056673 -0.062867485
0000f0 2f 04 d8 3d 13 a6 1c 3e 4a 4a 10 3e fe a5 fc 3d
       0.10547673 0.15297727 0.14090839 0.12336348
000100 82 12 13 be 67 23 12 3e 6c b7 f3 3d ee a6 45 3b
       -0.14362529 0.14271317 0.11900219 0.0030159312
000110 00 32 4f 3d c9 b8 17 be 4c c2 9c 3d 8f d2 2b 3d
       0.050584793 -0.14816584 0.07654247 0.04194885
000120 56 37 1a 3e 31 c6 0f 3e 98 b3 09 be 62 ae 13 3e
       0.15060171 0.14040448 -0.13447416 0.1442199
000130 c3 0a 10 3e d3 81 10 3e 8e 04 94 bd f2 ac 1f bd
       0.14066605 0.14112024 -0.07227431 -0.038983293
000140 59 42 ed bc 3a 6d 07 be de 13 af 3d 24 b5 38 3d
       -0.028962301 -0.1322526 0.08548711 0.045094624
000150 f9 32 1b 3e 90 81 5d 3d d0 6b 9b bd ba a2 1f bd
       0.15156163 0.05407864 -0.07588923 -0.038973548
000160 a4 7e 84 3d 50 79 cb 3d f2 6e aa 3d ca 49 cb bd
       0.06469467 0.09935248 0.083219424 -0.099261835
000170 37 59 0a 3e 48 89 20 3d b8 e0 c1 bd ed 8f 05 3e
       0.13510595 0.03919342 -0.0946669 0.13043185
000180 fb 43 0d be 76 d7 f2 3d ac a3 ed bd d2 cb 3d bd
       -0.13795464 0.11857502 -0.116034836 -0.046336956
000190 b9 40 c9 3d db ee 3e bd 74 fd 03 bd 1b ca 15 be
       0.09826798 -0.04661451 -0.032224134 -0.14627878
0001a0 c1 f3 19 be 6e 12 2f bd 1e b9 8f bd f0 33 d7 bd
       -0.15034391 -0.042742185 -0.0701773 -0.10507953
0001b0 6c 8d 0b 3d c7 b9 05 3e a4 e2 ec 3d 97 fe 2e bd
       0.034070417 0.1305915 0.11566666 -0.042723265
0001c0 a0 1b c7 bd 26 64 d0 bd 1a 7a 84 bd a2 db 99 bd
       -0.09722066 -0.10175352 -0.064686015 -0.07512595
0001d0 38 e8 73 bd 93 3a 5d bd 0b dd fe 3d 00 f1 eb bc
       -0.059547633 -0.05401094 0.12444504 -0.028801441
0001e0 02 ae ec bd cc bc 0f 3e 9a 30 d6 bd 4c 28 21 3d
       -0.11556627 0.14036864 -0.10458489 0.03934507
0001f0 20 af ce 3c 49 23 5c 3d 85 13 e3 3d da a2 22 be
       0.02522999 0.053744588 0.110877074 -0.15882435

weight f4 [64, 128]
000000 22 68 68 3d 9c 43 89 3c f1 c4 8a 3d 04 f1 00 bd
       0.056739934 0.016755871 0.06775845 -0.03147985
000010 c2 34 68 3d 26 48 0c 3d 93 7c 9b 3d bc dd b4 3c
       0.05669094 0.034248494 0.0759212 0.022078387
000020 3d e9 ae 3d 1b c1 9c bd dd 89 61 bd c8 32 e4 3c
       0.085405804 -0.076540194 -0.055063117 0.027856246
000030 b5 32 b0 3d d0 4f 84 3b ee 61 4d 3d 87 52 32 bd
       0.086034216 0.0040378347 0.05014222 -0.043535735
000040 57 27 98 3d 50 eb 8e bb 68 62 e2 3c a0 b4 e4 3c
       0.074293785 -0.0043615475 0.027634814 0.02791816
000050 e2 5a 32 3d 87 b4 af 3d 5c 95 c5 bc e8 9d b4 3c
       0.043543704 0.08579355 -0.024119072 0.022047952
000060 11 7a 93 3d 66 0b 14 bd 30 8d 90 3b 4a 69 4c 3d
       0.07201017 -0.036143683 0.004411362 0.0499051
000070 00 27 79 bd 4e 9c 15 3d 38 9d 53 bd 1a 69 2a 3d
       -0.06082821 0.036526017 -0.051663607 0.04160414
000080 d0 62 83 bc 44 07 ae bd 79 db 8b bd 0f 87 91 bd
       -0.016038328 -0.084974796 -0.068289705 -0.071058385
000090 f8 36 9c bc 44 d3 ec bc 86 e2 21 3d 07 63 99 3d
       -0.01906918 -0.028909333 0.03952267 0.07489591
0000a0 54 49 a0 bd 43 34 82 3d f2 ae 00 3d a8 7b 02 bd
       -0.07826486 0.063576244 0.03141684 -0.03185621
0000b0 61 e1 9f bd 8d cd 85 3d 94 8b a7 bd b9 ae 37 bd
       -0.078066595 0.06533346 -0.08180919 -0.044844363
0000c0 a3 5e 87 3d 2a b6 9f bd e7 5d 87 3d c0 7d 6a bd
       0.066098474 -0.07798417 0.06609707 -0.05724883
0000d0 ac 8a b8 bc f4 f9 88 bc f8 05 ac bd 23 a7 8d 3d
       -0.022527061 -0.01672075 -0.08399576 0.069166444
0000e0 20 a6 de 3b 6d d3 98 3d 27 8f 91 3d dc 5f 82 bc
       0.006794706 0.07462201 0.07107382 -0.01591485
0000f0 c0 06 9e 3a b8 34 18 bc 70 0a 81 3b ae b2 1a 3d
       0.0012056455 -0.009289913 0.003938012 0.03776806
000100 34 7e 96 3c 2e 68 6e 3d 88 07 39 3c fe 18 89 bd
       0.018370725 0.058204822 0.0112932995 -0.0669422
000110 96 6e 62 3d a1 07 87 3d b5 31 88 bd c5 5b b4 bd
       0.055281244 0.06593252 -0.06650106 -0.08806566
000120 64 7c 8d 3c 53 9d 19 bd 9a a9 8b bd aa a6 37 3d
       0.017271228 -0.03750355 -0.06819458 0.044836678
000130 d3 aa 1f bd 5c c3 11 3d 35 ff 9d 3d c0 6d 3b bc
       -0.03898127 0.0355867 0.077146925 -0.011439741
000140 aa 3f 4f 3d 34 7f 04 bd d6 24 32 3d 8f ed aa 3d
       0.050597824 -0.032347873 0.04349216 0.08346092
000150 db d9 a2 3d d0 7b c5 bb 24 9e 7c bd 40 74 ba bc
       0.07951709 -0.0060267225 -0.061674252 -0.02276051
000160 40 92 de 3a 38 85 d0 3c 79 97 aa bd 10 67 65 bd
       0.0016980842 0.025454149 -0.08329672 -0.05600649
000170 76 34 a5 bd 44 40 8d bc f2 e3 04 3d 48 a1 90 3c
       -0.08066647 -0.017242558 0.032443948 0.01765503
000180 10 2d a2 3b 40 51 ca 3b 5c 8d 8d bd c0 6a 73 bc
       0.0049492195 0.0061742365 -0.06911728 -0.014856994
000190 90 cc d2 bb de 44 02 bd 7d f3 87 3d ae a4 6a 3d
       -0.006433077 -0.031803958 0.066382386 0.057285957
0001a0 85 2f b4 3d 00 20 52 bc 60 e1 c0 bb 99 68 ae 3d
       0.08798126 -0.012825012 -0.005886242 0.08516044
0001b0 00 59 54 bb 30 37 15 3d 57 ad 05 bd fe e4 6e bd
       -0.003240168 0.036429584 -0.032636013 -0.058323853
0001c0 d1 83 9c 3d 63 b4 9d 3d 5c 01 a8 bd 80 39 77 bc
       0.076423295 0.07700422 -0.08203384 -0.015089393
0001d0 5d f2 86 3d 92 27 06 3d 60 53 12 3d 0a e4 4c 3d
       0.06589196 0.03275258 0.035724044 0.050022162
0001e0 ea 62 7f 3d 14 f1 7b bd b6 e6 34 bd ea b1 64 3d
       0.06235019 -0.061509207 -0.044165336 0.055833735
0001f0 70 3e 0b 3c b0 ea 80 3c 9e 88 23 3d 75 48 2a bd
       0.008498773 0.015736908 0.03992521 -0.041573007
000200 ff 60 04 3d e0 f9 b6 3b de 4b 98 3d 54 06 ab bc
       0.032319065 0.0055839866 0.074363455 -0.02087704
000210 63 dd ef 3c c1 78 91 3d 08 00 ae 3a 08 fb ab bd
       0.02928037 0.0710311 0.0013275156 -0.0839749
000220 84 f2 c2 bd b1 0a 26 bd d1 78 50 3d 20 ca 36 bc
       -0.095189124 -0.04053754 0.05089647 -0.011156589
000230 04 f5 df 3c 4d ab 2e bd 6e 3a 9b bd a6 40 b8 bc
       0.027338512 -0.042643834 -0.07579504 -0.022491764
000240 0c 98 7b 3d c2 fb 45 bd 9f ef 65 bd ea 20 7d 3d
       0.0614243 -0.048335798 -0.056136724 0.061798967
000250 7c df 89 bd 27 93 b3 3d a2 05 41 3d 6f ea 10 bd
       -0.067320794 0.087683015 0.047124512 -0.035379823
000260 ff 0f 0b 3d 28 b8 e2 3c 21 16 aa bd d0 c2 ae 3b
       0.033950802 0.027675703 -0.08305002 0.005333282
000270 e0 79 dc bb 60 69 7f 3c 52 bf af 3d b8 be 99 bc
       -0.006728396 0.015589088 0.08581413 -0.0187677
000280 a5 8f 07 3d a2 b2 3d 3d 08 f9 8c 3c e4 3a af bc
       0.033095974 0.046312936 0.017208591 -0.021390386
000290 1f 89 2a be e2 51 4a 3e 12 6b 00 be 42 d9 4f bd
       -0.1665387 0.19757798 -0.12540844 -0.050744303
0002a0 15 d2 43 bd db a6 2e bd 6f 3c a3 bb 37 08 8e 3d
       -0.04780777 -0.042639595 -0.0049815695 0.069351606
0002b0 97 43 34 bd 2f 9f 02 bd 0c 42 2f 3d 33 f9 30 bd
       -0.04400977 -0.03189009 0.042787597 -0.043206405
0002c0 6c de 6a bd 26 db 25 bc d3 c7 ac 3d c0 43 17 be
       -0.057341024 -0.01012305 0.08436551 -0.14771938
0002d0 34 d5 c0 3c aa 40 41 3d 5e 18 b5 3d 2e 7f 0b bd
       0.023539163 0.04718081 0.08842538 -0.034056835
0002e0 fd 64 25 bd a0 a3 93 3d f4 e7 88 3e c6 7f 19 3d
       -0.040379513 0.07208943 0.26739466 0.03747537
0002f0 b9 63 96 3d 01 af 54 3d 0f 11 54 3c 41 eb a6 3d
       0.07343239 0.05192471 0.01294352 0.0815034
000300 7e db 0d 3d fe 9d 22 3d a9 d7 94 bd da 65 a1 3d
       0.034633152 0.039701454 -0.072676964 0.07880755
000310 1b 24 92 3d 6b ae 3a bd f0 3c d9 3c 48 4d 50 bc
       0.07135793 -0.045576494 0.026518315 -0.012713738
000320 7e ee 8f bb 0a b5 9b 3d ed ab 4a bd 0d 7c 26 3d
       -0.004392444 0.0760289 -0.049480367 0.040645648
000330 86 38 65 bc 99 a0 82 bd 9e 6d 35 3d 50 d5 00 3c
       -0.013990527 -0.06378288 0.044293992 0.007863358
000340 94 73 89 3d 5a 49 8e bd b6 9d c3 bc ce 22 22 3d
       0.06711498 -0.069475845 -0.023878913 0.039583974
000350 de 0a 7f 3d 1c ea a7 3c c1 5d 4e bb cc dc f3 3c
       0.062266223 0.020497374 -0.0031488987 0.02976837
000360 69 77 14 bd a1 c6 1e 3d f7 ab 90 bd 60 14 2c bb
       -0.03624669 0.038763646 -0.0706405 -0.0026257262
000370 db 9e f2 3d e0 31 15 bc 10 87 32 3c c4 fc 28 bd
       0.118467055 -0.009106129 0.010896459 -0.04125668
000380 47 42 8a bd 9a 36 47 3d 6b c9 e5 3c 4b 31 c6 bc
       -0.06750923 0.048636056 0.028050145 -0.024193427
000390 e2 7d ac bd fc da 10 bd 80 4a 17 3a 5f 4d a2 3d
       -0.08422448 -0.03536509 0.0005771294 0.079249136
0003a0 d2 64 a3 3d 9c 94 4f bd 3e af 04 bd 0f 8d 8f 3d
       0.07978214 -0.050678834 -0.032393686 0.07009327
0003b0 42 c5 5b bd 28 6f 84 3c 7a ea ee bc 9b a0 6d 3c
       -0.053654917 0.016166285 -0.029164542 0.014503623
0003c0 c0 c6 04 bc c0 c8 90 3a c6 61 4d bd ec e9 23 be
       -0.008104026 0.0011046156 -0.050142072 -0.16007203
0003d0 da 4d df bc f0 ea b1 3d 73 45 8c 3e a4 09 9e 3d
       -0.027258802 0.08687389 0.27396736 0.077166826
0003e0 57 f2 69 bd 32 e9 55 3c 80 ce ac bd 4c a0 60 bd
       -0.05711588 0.013056086 -0.08437824 -0.05484037
0003f0 b7 92 24 bd c0 04 0e bc 29 a5 92 bd 8d e1 0b bd
       -0.04017898 -0.008668125 -0.07160408 -0.03415065

bias f4 [64]
000000 a3 6c 89 3d 42 37 11 3d 04 6c 6f bd a7 4d 90 3d
       0.06710174 0.03545309 -0.05845262 0.07046061
000010 36 06 56 bd d7 e7 81 3d 1a a2 15 3d 18 80 9f bc
       -0.052252017 0.06343048 0.036531545 -0.01947026
000020 35 b5 9b 3d b0 46 12 3b 30 67 c6 bd 40 23 31 bb
       0.07602922 0.0022319965 -0.0968765 -0.0027029067
000030 0c 13 ce 3c 48 27 85 bc 8b 9d 69 bd 7c e7 25 3d
       0.025155567 -0.016254082 -0.05703501 0.040503964
000040 4b a3 5f bd 27 72 2e bd c0 27 f4 ba bf d1 63 bd
       -0.054599088 -0.042589333 -0.0018627569 -0.05561995
000050 77 fb 48 3d fa 34 2a 3d b5 ff 54 3d bf d9 24 bc
       0.04906794 0.04155443 0.052001674 -0.01006168
000060 f7 01 a5 3d ae 17 5f bd b5 87 5e 3d 0e 22 da bc
       0.080570154 -0.054465942 0.05432864 -0.026627567
000070 23 1c 11 bd 1a 12 35 3d d9 95 b1 3b 01 b4 80 3d
       -0.035427224 0.044206716 0.0054194746 0.06284333
000080 fa b3 3d 3d 7b d1 92 bc fd b9 53 3d 80 48 8c bd
       0.046314217 -0.017922154 0.051691044 -0.06849766
000090 51 dd 42 3d c0 36 0d 3c 71 43 b2 3d e9 25 5a 3d
       0.047574345 0.00861901 0.0870427 0.05325881
0000a0 80 6e ee bb b8 92 47 bc 65 b5 5d bd 76 de 96 3d
       -0.007276356 -0.012180977 -0.05412807 0.0736665
0000b0 f9 18 a0 3d 68 db 8d bc e2 2e c8 3d a8 e4 e7 3c
       0.07817263 -0.017316535 0.09774567 0.028307274
0000c0 52 80 6e 3d d9 23 21 bd c3 a2 11 bc 93 92 3f 3d
       0.058227845 -0.039340828 -0.008888903 0.046770643
0000d0 ee ae 5a bd e7 89 1f bd e0 54 8a 3c 79 df 66 bd
       -0.053389482 -0.038949873 0.016886175 -0.056365464
0000e0 d8 67 99 bd 83 2f b0 3b 9a 71 d5 bc d0 fe c3 3b
       -0.0749051 0.0053767576 -0.026055146 0.0059813038
0000f0 d9 b9 0f bd 93 f8 3d bd d4 95 50 3c 09 fb 2d bd
       -0.035089348 -0.046379637 0.012731034 -0.042475734

weight f4 [32, 64]
000000 40 94 4c bc 6c 30 8f 3d 20 a3 de 3c a8 9b ff bd
       -0.012486517 0.069916576 0.027177393 -0.12480861
000010 4e 71 e4 3d 5e a5 ee 3d 5c d2 f4 3d 10 63 03 3c
       0.11154424 0.11652635 0.11954185 0.008019224
000020 4c 22 3a 3d bc 46 5c bd 3c 27 e4 3d 94 44 d8 bd
       0.045442864 -0.053778395 0.11140296 -0.10559955
000030 a8 83 b5 bc 5c e1 43 bd f0 21 7a 3d 40 b5 92 3c
       -0.022157505 -0.04782234 0.06106752 0.017908692
000040 74 1c 08 3d d0 d1 1f 3d f8 3d fb 3d 88 a5 88 3c
       0.03323026 0.039018452 0.12267679 0.016680494
000050 d0 37 ca bd 9a 02 e4 3d e2 82 ae 3d 70 30 09 bd
       -0.09873927 0.11133309 0.08521058 -0.03349346
000060 f4 02 9d 3d 58 5c 4c bd c8 e2 9f bd 70 87 1b bd
       0.07666579 -0.049892753 -0.07806927 -0.03797096
000070 f0 ca 77 bc 1c df f1 3d 08 0f 85 bc 00 a9 43 bc
       -0.015124068 0.11810133 -0.016242519 -0.011942148
000080 c4 ac 7b bd ac 85 17 3d da c8 9f bd 3c 9c 27 bd
       -0.06144406 0.036992714 -0.07801981 -0.04092048
000090 4c 3e b2 bd 20 73 33 bd 00 2c 92 bc 0a 11 a5 3d
       -0.087032884 -0.043810964 -0.017843246 0.080598906
0000a0 c8 61 d2 bd d0 f0 da 3d 06 38 96 3d 38 df 9d 3d
       -0.102725565 0.106904626 0.073349044 0.07708591
0000b0 64 fd 9b 3d 08 09 d8 3d 00 00 c6 bd 46 1a d9 3d
       0.0761669 0.105485976 -0.09667969 0.106007144
0000c0 64 bf 08 bd e8 55 e2 bd 70 cb 94 bc 14 4d 8d bd
       -0.03338565 -0.110515416 -0.018163413 -0.06899467
0000d0 1c f8 cc bd 80 e1 84 bd ee 1c b7 3d 1a 7b 89 3d
       -0.100082606 -0.06488323 0.08941065 0.06712933
0000e0 16 7d 8b bd b4 ea 78 bd 48 cf 2e 3d 4a 28 a8 3d
       -0.068109676 -0.060770705 0.042678148 0.082108095
0000f0 12 3f 93 3d e0 cc 8d bb a2 a5 d8 bd f6 1b 80 3d
       0.07189764 -0.0043274015 -0.10578467 0.06255333
000100 6c 8d 65 bd d2 dc a2 3d 78 c4 be 3c 50 bb 87 3c
       -0.056043074 0.079522744 0.023287043 0.01656881
000110 e4 99 4f 3d a4 4f 50 3d 08 4b 89 bc a2 6b ab bd
       0.05068387 0.0508572 -0.01675941 -0.08370139
000120 08 4e 98 3c 60 a2 bc 3b 3c 39 c4 3d 04 35 0b bd
       0.018591896 0.0057566613 0.09581229 -0.033986107
000130 62 c4 a7 bd 00 4e 3e 3d 46 47 a7 3d 0a 28 ba bd
       -0.08191754 0.046461105 0.08167891 -0.09089668
000140 a8 17 cf bd 06 19 96 3d d4 f5 53 3d a6 50 d7 3d
       -0.10111934 0.073289916 0.05174811 0.10513429
000150 e6 90 ef 3d e2 66 cc bd 68 33 f2 bd e0 83 69 bc
       0.11697559 -0.09980561 -0.11826211 -0.014252633
000160 60 5c af 3c 4c df a3 bd e6 ba c1 bd c0 2e 17 3d
       0.021406353 -0.08001575 -0.09459476 0.03690982
000170 d0 a6 00 3c 58 38 cd bd e8 3c e3 bd 62 2c dc 3d
       0.007852271 -0.10020512 -0.11095601 0.10750653
000180 fe c6 cb bd c0 28 6a bc 6a f8 a8 bd 7e 9d d0 3d
       -0.09950064 -0.014291942 -0.08250506 0.10186289
000190 12 3c d9 bd 12 80 fb bd b4 fc cd bd 80 5c f3 bc
       -0.10607161 -0.12280287 -0.10057965 -0.029707193
0001a0 5e a1 b0 3d e8 4a 77 3d 70 0c 1d 3c 62 50 b4 bd
       0.08624528 0.06037417 0.009585485 -0.08804394
0001b0 fa c8 c8 bd 78 97 94 3c 84 29 1c bd 72 78 dd 3d
       -0.09803958 0.018138632 -0.03812553 0.10813989
0001c0 24 43 04 3d c0 bc e9 3d 10 3c 30 bd 2a 8d 9b bd
       0.032290593 0.11412954 -0.04302603 -0.07595284
0001d0 1e ae 87 bd 46 4e c0 3d b2 55 92 bd 98 4b e9 3c
       -0.06625007 0.093899295 -0.07145251 0.028478429
0001e0 70 82 fb 3c 3a a0 b4 bd 40 57 a9 bc c8 c2 bf 3c
       0.030701846 -0.08819623 -0.020671487 0.023408309
0001f0 ae e8 b5 bd d6 21 8d bd 98 29 ed 3d 00 18 17 3a
       -0.08882271 -0.06891219 0.11580199 0.0005763769
000200 ee e5 b9 bd 8e a4 48 3d c0 97 74 bd 78 a0 88 bd
       -0.09077059 0.048985057 -0.059715033 -0.06671232
000210 f0 9c 4d bc d0 06 f9 3d 26 af ad 3d 88 1f ae 3d
       -0.012549624 0.121595025 0.084806725 0.08502108
000220 ad 75 e0 bd 81 cf ca bd ac ff c9 bd 1e 84 e6 bd
       -0.10959945 -0.099028595 -0.09863219 -0.11255668
000230 42 7c 02 bd 92 e7 ee 3d a0 f1 46 3c 1d b3 94 bd
       -0.031856783 0.11665262 0.012142569 -0.07260726
000240 88 f8 cb bc 1b 7a 9c bd 04 20 fd 3d a9 e1 02 be
       -0.024898782 -0.07640477 0.12359622 -0.12781395
000250 78 1c bb 3a ec d6 fd bd e8 12 a4 bd e2 b4 22 3a
       0.0014275452 -0.12394509 -0.080114186 0.0006206763
000260 fe 2a f4 3d 93 15 c6 bd 73 88 91 bd 40 b7 d8 bc
       0.119222626 -0.09672084 -0.07106104 -0.026454568
000270 0f 89 a5 3c 9c 99 20 bd e6 c5 8c bc 60 ab a7 bb
       0.020206956 -0.039208993 -0.01718421 -0.005116865
000280 68 fc a3 bd d0 32 12 3e 1a cb 0f be 64 da 63 bd
       -0.08007127 0.14277196 -0.14042321 -0.055628195
000290 e1 1f 8f 3d c0 b4 af 3b 5e 5a 81 3d 1d d7 f0 bd
       0.06988502 0.0053621233 0.06316064 -0.117597796
0002a0 d0 b5 66 bd c0 d0 c1 bd 20 e7 13 bd 28 4a b9 bc
       -0.056325734 -0.09463644 -0.03610909 -0.022618368
0002b0 c6 b3 84 bd b0 72 a0 3d f1 de 01 3e f0 f5 9c bc
       -0.064796016 0.07834375 0.12682702 -0.01916024
0002c0 58 3a 64 3d 5c 06 0b 3d d1 e2 12 be 37 99 54 bd
       0.055719703 0.03394161 -0.14344336 -0.05190393
0002d0 18 ae 05 bd f8 c8 a9 3c 60 23 0d bd 70 84 94 3d
       -0.032636732 0.020725712 -0.034457564 0.07251823
0002e0 5c f8 d7 bd dc 11 05 3e 59 b5 50 bd 90 77 aa bc
       -0.10545418 0.12995094 -0.050954197 -0.020808965
0002f0 40 96 6a 3b f0 dd 9e 3d 25 87 09 3e 11 36 fa bc
       0.0035795122 0.07757175 0.1343046 -0.030543359
000300 78 7b c0 bd c0 8f d8 bb 80 c8 d6 bd 00 ed 06 3d
       -0.0939855 -0.006608933 -0.10487461 0.032940865
000310 30 83 aa 3c 92 88 dc 3d f8 90 bf bc 30 d6 68 3d
       0.020814508 0.10768236 -0.023384556 0.05684489
000320 14 24 84 bd dc e6 ae 3d e8 bc b0 3d 08 d5 d0 3c
       -0.06452194 0.08540127 0.08629781 0.025492206
000330 68 21 8e 3d 86 df b4 bd 64 c4 c0 3d a0 26 8d bb
       0.069399655 -0.08831696 0.094124585 -0.004307583
000340 8c 7a c3 bd f4 8a 17 bd 38 8e e9 bd 68 a1 99 3d
       -0.09544858 -0.03699775 -0.11404079 0.07501489
000350 6a 07 ba 3d 84 97 f4 bd e4 66 9e bd 78 87 89 3c
       0.09083445 -0.11942962 -0.077344686 0.01678823
000360 48 aa 9e bd e2 16 cf 3d c0 dd 7a bb ee f7 80 bd
       -0.07747322 0.101117864 -0.0038279146 -0.06297289
000370 9a 23 c9 3d c4 e2 7a bd 14 66 81 bd 82 17 98 3d
       0.098212436 -0.061251417 -0.06318298 0.07426359
000380 88 aa 03 3d 20 f8 4d bd e8 8f 9c bd e8 a3 40 bd
       0.032145053 -0.05028546 -0.076446354 -0.047031313
000390 fc b5 af bd 98 82 41 bd 74 0e d8 bd 04 c1 e1 bd
       -0.08579633 -0.047243685 -0.10549632 -0.11023143
0003a0 88 42 a8 bc 3c e0 e3 bd 7c 5c f8 bd b0 de 2d bc
       -0.020539537 -0.11126754 -0.12127015 -0.010612175
0003b0 e8 de 63 3d 3e 37 b6 bd d4 35 9d bd 78 8e b7 bd
       0.0556325 -0.08897255 -0.076762825 -0.08962721
0003c0 40 df ae bd 60 08 fc 3c 42 56 87 3d fa b0 a2 3d
       -0.08538675 0.030765712 0.06608249 0.07943912
0003d0 a2 de ab 3d 7c 6b fd bd 28 6a a0 bd 46 0d e0 bd
       0.08392073 -0.12374017 -0.07832748 -0.10940032
0003e0 38 69 db 3d b8 c4 67 bd d4 08 ff bd 00 fb 2e ba
       0.10713428 -0.05658409 -0.12452856 -0.0006674975
0003f0 c6 8d cb 3d 68 55 24 bd 80 96 95 3c 94 87 21 3d
       0.099391505 -0.040120512 0.01826024 0.039435938

bias f4 [32]
000000 b0 dc d6 bd 40 45 f6 bb cd c0 30 bd 80 1c 91 bd
       -0.104913116 -0.0075155795 -0.04315262 -0.07085514
000010 d1 42 6e bd f8 5b b2 bd 59 b8 25 3e 0e d8 20 3d
       -0.05816919 -0.08708948 0.16183604 0.039268546
000020 74 25 a5 bd 9a e6 d8 3c c6 46 f6 bd 7c 01 03 bd
       -0.08063784 0.026477147 -0.12025218 -0.031983837
000030 17 c3 8a bd 7e 71 48 bd 2d df 3d 3c 9d b3 4e 3d
       -0.06775492 -0.04893636 0.011588854 0.05046426
000040 ce a8 de 3c 0b 7e df bd fa 46 86 3d 36 94 78 3c
       0.027180102 -0.10912713 0.065565065 0.015172055
000050 00 97 c3 3d 8a 32 9d 3d 78 7e d2 bd 93 06 9a 3d
       0.09550285 0.07675655 -0.10278028 0.07520785
000060 c8 b2 e8 bc 10 68 85 3d 8a bc ee 3d b1 0b f9 3c
       -0.028405562 0.06513989 0.11657055 0.030401083
000070 df 6d 7d bc 26 32 9b bd 25 d4 46 3b e3 df 19 bc
       -0.01546809 -0.075779244 0.003033885 -0.009391758

weight f4 [8, 32]
000000 82 31 e9 3d 2d f3 e6 bd 51 e5 29 3e 72 08 c2 3d
       0.11386396 -0.11276851 0.16591384 0.09474267
000010 d1 b1 e3 3d e0 0d f9 3b 13 de 0f be d4 cd 83 3c
       0.111179 0.007600531 -0.14049558 0.016089357
000020 c4 86 0c 3e 93 61 25 be 55 b0 13 be c0 78 83 bb
       0.13723284 -0.16150503 -0.14422734 -0.0040121973
000030 8b 66 18 3e c1 c9 a6 3c 42 54 e2 bd 1b 3a 49 bd
       0.14882867 0.020359876 -0.11051227 -0.04912768
000040 b2 f3 d3 3d 3d 45 13 bd 59 04 32 be e4 84 0c be
       0.103492156 -0.035954703 -0.17384471 -0.13722569
000050 3e 44 31 be 59 24 bf 3d e0 05 87 3b a7 2a ad bc
       -0.17311189 0.09333105 0.0041205734 -0.021138502
000060 10 aa 6b 3d 94 8d 03 be 7e db 81 3b de da 9c bd
       0.05753523 -0.12846977 0.003962933 -0.07658933
000070 cf 7f a0 3c 01 19 e8 bd 06 97 b5 3d e4 34 94 bd
       0.019592194 -0.11332894 0.08866696 -0.072366506
000080 5a 40 00 be b9 a3 18 3e d6 ca 5b 3e d4 ad aa bd
       -0.12524548 0.14906205 0.21464095 -0.08333936
000090 70 b2 10 be fb 3f 9b 3c fc 1b 45 3d 9a c5 05 be
       -0.14130569 0.018951407 0.04812239 -0.1306366
0000a0 95 d8 f7 bc 3f 2a 85 bd 35 ad 29 bd 2f 56 18 3e
       -0.030254642 -0.065021984 -0.04142495 0.14876626
0000b0 5d ce 32 bd 23 19 fe 3c fd a3 59 3e c3 3e 95 bc
       -0.043653835 0.031017845 0.21253963 -0.018218404
0000c0 6c d0 b3 3d 94 00 34 3e a0 35 04 3d a1 b0 f8 bd
       0.08779988 0.17578346 0.032277703 -0.12143064
0000d0 59 35 00 be 41 f3 c8 bd a0 f2 d9 3c 78 7b 82 3e
       -0.1252035 -0.09812022 0.02660495 0.25484824
0000e0 11 6d 10 3e 00 a3 ac 3b c5 f7 3d bd bc 27 37 3e
       0.14104106 0.0052684546 -0.04637887 0.17886251
0000f0 b8 bb 25 be d6 81 25 3e 4e 05 0b 3e 7d 7e 63 bd
       -0.1618489 0.1616281 0.13576242 -0.05554055
000100 6e 75 f9 3d 3a 97 13 be c0 03 be 3d e3 66 91 bd
       0.12180601 -0.14413157 0.09278059 -0.07099702
000110 fd a2 42 3e b0 10 f7 bd a1 cb ab 3d 82 0d 58 bd
       0.19007488 -0.1206373 0.083884485 -0.052747257
000120 2a 9a 67 3e 3f 21 02 be 87 d7 13 bc b0 9f 1a 3d
       0.22617403 -0.12707995 -0.009023554 0.037749946
000130 04 4f 45 3d 39 dc 4f be 73 5d 03 3e 60 71 1b 3b
       0.04817106 -0.20298852 0.12828617 0.00237187
000140 22 50 01 3e 7e 20 2b bc f4 54 8b 3e fb 84 88 3d
       0.12628224 -0.010444758 0.27213252 0.06665989
000150 81 ed ca 3c 82 76 dc bd 3e b0 a6 3d 90 93 85 bd
       0.024771454 -0.10764791 0.08139084 -0.06522286
000160 40 68 16 3c b7 0c 02 3e 40 af 32 bb 64 ac 24 3e
       0.009180129 0.12700163 -0.0027265102 0.16081387
000170 87 6f 25 bd 1b 27 4e 3e 1a e8 75 3d ae 56 35 3e
       -0.040389564 0.20132105 0.060035802 0.17708847
000180 8d dc 91 bd 2b 86 1e be 0a 6f 93 bd 78 5b 88 3c
       -0.07122145 -0.15480869 -0.071989134 0.016645178
000190 a3 d0 be bd 92 53 b5 bd a7 48 8f 3d 81 ea 98 bd
       -0.09317138 -0.088538304 0.06996279 -0.07466603
0001a0 3a e7 2b bb 5c 60 a5 bc 9b bd 01 be 80 35 fb 3c
       -0.002623035 -0.02018755 -0.12669985 0.03066516
0001b0 eb 50 80 3c 55 30 5e 3d 2b df 8f bd 30 a2 17 3c
       0.015663585 0.05424531 -0.07024988 0.009254977
0001c0 18 a7 71 3d ce ea 02 3e db 29 fa bd 3f 89 48 bd
       0.058997244 0.12784883 -0.122150145 -0.048959013
0001d0 d6 1d 67 3e cd 30 b1 3d 41 63 27 3e 01 7e 2c be
       0.22569975 0.08651886 0.16346456 -0.16844942
0001e0 60 4c 89 bb b5 0b 17 be c5 5e ae bd c3 61 81 3d
       -0.004190013 -0.1475056 -0.085141696 0.06317475
0001f0 14 21 b3 bc a1 72 71 3e 20 10 9e 3c 68 73 c1 3d
       -0.021866359 0.23578884 0.019294798 0.0944584
000200 47 80 21 be 98 02 cc 3c 3c 1e cc 3d e6 87 a4 bd
       -0.1577159 0.02490358 0.09966704 -0.08033733
000210 e0 65 ee bc 69 e1 7b 3d 89 08 8e 3e 18 cd 90 3d
       -0.029101312 0.061494265 0.27740887 0.070703685
000220 07 19 c1 3d 16 c3 18 be b5 73 03 be c8 b1 e1 bc
       0.09428602 -0.1491817 -0.12837107 -0.027550593
000230 0e ce a4 3c fd 18 5a bc 8f 54 60 be 76 5f eb 3c
       0.020117786 -0.013311622 -0.21907257 0.028732043
000240 26 6a 0f 3e a8 8a 20 be a1 bf ba 3d 8e b3 04 3e
       0.14005336 -0.15677893 0.091185816 0.1295912
000250 24 07 86 be da 8f 82 3e d4 a6 2a bd 7e fb ef bd
       -0.26177323 0.25500375 -0.041663006 -0.1171789
000260 ea 92 a5 3d 60 56 c9 bb 2a 1d 2f be d2 a1 6e be
       0.08084662 -0.00614433 -0.17100969 -0.23303917
000270 90 5c 74 3d f3 5d d0 bc 01 86 9c 3d 4e 37 7d be
       0.059658587 -0.025435423 0.07642747 -0.24728128
000280 10 99 7d 3c 74 31 8f 3d b3 dd b0 bd 1f 75 22 3e
       0.0154783875 0.06991854 -0.08636036 0.1586499
000290 56 5c 04 be 03 9a 7d 3d 0b b8 9c 3d 25 8d 16 be
       -0.12925848 0.061914455 0.07652291 -0.1470228
0002a0 2a 9f b5 3d 55 02 51 ba 05 2c da bd 7d 62 a8 bd
       0.08868249 -0.0007973065 -0.10652927 -0.0822191
0002b0 9d 04 dc 3d 31 06 a0 3d ff 55 34 be f8 d1 2c be
       0.107430674 0.07813681 -0.1761093 -0.16876972
0002c0 f1 59 62 3d 43 f1 23 bc b8 f3 cc 3d 73 b3 a5 bd
       0.055261556 -0.010006252 0.10007423 -0.08090868
0002d0 f4 9f d1 be 3f 57 76 3d 80 a2 47 bb f6 42 a1 bd
       -0.40942347 0.060141798 -0.0030461848 -0.078741
0002e0 7e f5 33 be 58 5d ae bc 26 10 d2 3d 35 20 b2 bd
       -0.17574117 -0.021284744 0.10256986 -0.08697549
0002f0 75 8d 9a bd 67 27 55 bc 32 76 55 be f5 77 14 be
       -0.07546512 -0.0130098825 -0.20845869 -0.14498885
000300 53 c2 05 3e 80 d6 ae 3c 37 6e e9 3c 7e d7 e2 3d
       0.1306241 0.021342516 0.028494937 0.11076258
000310 4b 1e e5 bd 1c d5 93 3d c6 da 84 bd 24 65 11 3e
       -0.111874186 0.07218382 -0.0648704 0.14198738
000320 81 4a 08 3e 06 b0 7b bc 97 a5 2c 3e 00 05 b9 3b
       0.13309671 -0.0153617915 0.16860043 0.005646348
000330 e1 cb 20 be c5 8d 31 be f6 bb 92 3d 0c 0b 15 3d
       -0.15702774 -0.17339237 0.07164757 0.03638749
000340 94 fa e5 3d 91 8e 34 be 67 e2 3f ba 1e 1c 09 be
       0.112294346 -0.1763251 -0.00073198084 -0.13389632
000350 ca 20 97 3d 86 1e af 3d 4c 8a 15 be 52 2d 7a bc
       0.07379301 0.08550744 -0.14603537 -0.015269594
000360 36 27 ad 3d 3d 7b 02 3e 49 cd 24 3e aa dc ac 3c
       0.084547445 0.12742324 0.16093935 0.021101315
000370 85 0d dc bc b7 c6 a3 bd ff a0 52 bd 78 13 96 bd
       -0.026861915 -0.07996886 -0.05142307 -0.07327932
000380 00 1d ae 3b d6 1b f6 3d 87 a1 cb 3d 60 b2 dc bc
       0.0053135157 0.12017028 0.09942918 -0.026940525
000390 24 a4 18 3e e4 58 1e be 4f 86 fa 3a a1 e9 01 3e
       0.14906365 -0.15463597 0.0019113513 0.12686779
0003a0 fb 3d 07 3d 1e 63 34 3d bb 52 92 3d 80 ca 8d 3a
       0.033018094 0.044039838 0.07144686 0.0010817796
0003b0 7e dd 01 be b0 b2 ad bc 7b bc fc bd f2 60 96 b9
       -0.12682149 -0.021203369 -0.12340637 -0.0002868246
0003c0 ec 45 fc 3d dd 7a 08 be ba 04 d9 3d 32 36 a1 bd
       0.12318024 -0.13328119 0.10596605 -0.07871665
0003d0 13 1c 28 3e e7 06 00 be 27 7a b1 bd 6c ad 6c bc
       0.1641696 -0.12502633 -0.08665877 -0.014445644
0003e0 e0 be e7 bd 10 1f 00 bc 1e a8 85 bc 09 a1 93 bd
       -0.113157034 -0.007819906 -0.016315516 -0.072084494
0003f0 7f d3 ac bd 0d 75 2a be 3b da c8 bd 8b d1 70 3d
       -0.08438777 -0.16646214 -0.09807249 0.058793586

bias f4 [8]
000000 d4 1e 02 be 66 ce e6 bd c0 02 36 3e 53 24 90 3d
       -0.12707072 -0.11269836 0.17774487 0.07038178
000010 25 a4 9d 3d 12 38 91 bd 0e bc 2b be e5 c1 aa 3d
       0.07697324 -0.07090773 -0.16770956 0.08337764

weight f4 [4, 8]
000000 53 b0 8b be 11 1a 3d be fa 21 57 3e f0 a9 9e bd
       -0.27282962 -0.18466975 0.21009055 -0.07747257
000010 3b 33 a0 be b8 ae a5 bd df 2c a2 3e 48 4b 7f be
       -0.31289086 -0.080899656 0.3167486 -0.24931061
000020 30 2c 80 bd d8 6e b3 be 9e 5e 52 3e 29 c7 96 3e
       -0.06258428 -0.35045505 0.20543906 0.29448822
000030 8b 18 ae be 78 6e 8b bd bc 97 8a be e5 4d a7 3e
       -0.340031 -0.068081796 -0.2706889 0.32676616
000040 bb 57 75 be 40 71 39 bd 9a de 1f 3e 6e b0 52 3e
       -0.23959248 -0.04527402 0.1561226 0.20575115
000050 54 c0 80 3d 70 8f 81 be 7f 04 39 be 1e 6f 40 3e
       0.06286684 -0.25304747 -0.18068121 0.18792388
000060 ec 69 bb bd 90 9f 08 bd aa e3 49 3e 51 8e 97 3e
       -0.09151062 -0.033355296 0.19715753 0.29600766
000070 9b 5b 3f be 80 cd 51 bb fa ae 41 3e c6 91 85 be
       -0.18687288 -0.0032013357 0.18914405 -0.2608778

bias f4 [4]
000000 42 25 15 3e aa cd 38 be 36 e6 46 3e f2 54 6e 3e
       0.14564994 -0.18047205 0.19423756 0.23274592
