training/ann/models/ann21ep1400.pth (torch, 69232 bytes, 10 tensors)

weight f4 [128, 40]
0	0x3dae009d	0.08496211
1	0xbc041af5	-0.008063068
2	0xbe855f80	-0.26049423
3	0x3eb0ce6c	0.34532487
4	0xbe48840e	-0.19581625
5	0xbdddda43	-0.10832646
6	0x3e6096b6	0.21932492
7	0xbe1f1fc3	-0.1553946
8	0x3f660e4f	0.89865583
9	0xbde8bcdc	-0.11364147
10	0xbd6f0d3c	-0.05836223
11	0x3d052ec0	0.032515287
12	0x3d1ad6d4	0.037802532
13	0x3e4db6a3	0.20089202
14	0xbd187072	-0.03721661
15	0x3f042b00	0.5162811
16	0xbeaa20a9	-0.33228043
17	0x3f300712	0.6876079
18	0xbe6e26d6	-0.23257002
19	0x3f4b89e7	0.795073
20	0x3def1b36	0.11675112
21	0xbf408420	-0.75201607
22	0xbf121bd5	-0.5707372
23	0x3e52aeb5	0.20574458
24	0xbe060eaf	-0.13091539
25	0x3e9119eb	0.28340086
26	0x3cea5e53	0.02860943
27	0xbc2ba70c	-0.010476839
28	0xbe8e3d35	-0.27781072
29	0xbe3bad5c	-0.1832785
30	0x3f50e229	0.81595093
31	0xbf5ae481	-0.8550492
32	0xbfe7e86d	-1.8117806
33	0x3e331bbe	0.17491052
34	0x3f01f85e	0.50769603
35	0xbeabb1c3	-0.3353406
36	0x3f0cac9a	0.5495087
37	0xbd6e0b7e	-0.05811643
38	0x3d8be05f	0.06829905
39	0x3e08e400	0.13368225
40	0x3d6ba81c	0.05753337
41	0xbcd64e78	-0.026160464
42	0x3e129ca7	0.1431757
43	0xbe192d05	-0.1495858
44	0xbc05b0a0	-0.008159786
45	0x3dd30eca	0.10305555
46	0x3d751988	0.0598388
47	0xbd8e0e22	-0.06936289
48	0xbdb05384	-0.08609679
49	0x3d55b844	0.052177683
50	0x3cb70938	0.022343263
51	0x3d27e770	0.0409922
52	0x3d99e284	0.075139076
53	0x3dab515a	0.08365126
54	0x3e0d313f	0.13788317
55	0xbb96e560	-0.0046049803
56	0xbcba2d58	-0.0227267
57	0xbd0c055e	-0.034184806
58	0x3a1f6c00	0.0006081462
59	0x3e1b2d01	0.15153886
60	0x3d918c68	0.071068585
61	0xbd0f23f6	-0.034946404
62	0x3d181c94	0.03713663
63	0x3c4938f0	0.012281641
64	0x3d8e62a2	0.069524065
65	0xbd17ff64	-0.037108794
66	0xbd623748	-0.0552285
67	0x3e0fbf1f	0.1403775
68	0x3d44aa50	0.048013985
69	0xbdb77a63	-0.0895889
70	0xbdbaf3ab	-0.09128507
71	0x3e1468f9	0.14493169
72	0x3e1d2a73	0.15348224
73	0xbd13e6dc	-0.036108837
74	0x3dc1d3ce	0.09464227
75	0x3cbe36d0	0.023219496
76	0x3e1b1eff	0.15148543
77	0xbcea7fe0	-0.028625429
78	0x3d2b833c	0.0418732
79	0xbd927d9e	-0.07152866
80	0xbe2bdc0b	-0.16783158
81	0x3dbd52e1	0.092443235
82	0xbf3114b7	-0.69172233
83	0x3f240ee2	0.6408521
84	0x3f0db6c5	0.5535701
85	0xbf3255bf	-0.6966209
86	0xbed22726	-0.41045493
87	0xbe166684	-0.14687544
88	0xbd9e3f88	-0.077269614
89	0xbf1d8779	-0.6153484
90	0x3f01b2df	0.5066356
91	0xbf8c17b0	-1.0944729
92	0x3efe457a	0.4966238
93	0xbda70e13	-0.08156981
94	0xbbc9286d	-0.0061388523
95	0x3de2447a	0.11048217
96	0xbd2674b6	-0.040638648
97	0x3f24223b	0.6411473
98	0xbe14f384	-0.14546019
99	0x3dd940c3	0.106080554
100	0xbca11848	-0.019664899
101	0xbeb4a196	-0.3527953
102	0xbf58b2ce	-0.84647834
103	0x3ed42037	0.41430828
104	0x3ee62d30	0.4495635
105	0x3e3c4474	0.18385488
106	0xbda29bd2	-0.079398766
107	0x3ddac835	0.10682718
108	0xbef03290	-0.46913576
109	0xbd60b862	-0.05486334
110	0x3e8b7cb1	0.2724357
111	0xbeddf85c	-0.43353546
112	0xbf81386d	-1.0095345
113	0x3c297d58	0.010344826
114	0x3e590048	0.21191514
115	0x3d94b057	0.07260197
116	0x3f4fe228	0.8120446
117	0x3eb458dc	0.35224044
118	0xbe543920	-0.20724916
119	0x3cde618e	0.027146127
120	0x3df736ca	0.12070997
121	0xbe06c4f8	-0.13161075
122	0x3cdbe9b0	0.02684483
123	0x3d8fa500	0.07013893
124	0xbd30b22c	-0.043138668
125	0x3df3a56e	0.118967876
126	0xbdeb8afe	-0.1150112
127	0xbbf2a900	-0.0074054003
128	0x3d96ec32	0.073692694
129	0x3de5b056	0.11215274
130	0xbcb94408	-0.022615448
131	0xbe02f45e	-0.12788531
132	0xbdd03c32	-0.10167731
133	0xbca6f360	-0.020379722
134	0x3cde2608	0.027117744
135	0xbcb26d70	-0.0217807
136	0x3dec8eaa	0.115506485
137	0xbdec0ff4	-0.1152648
138	0x3c1c74a0	0.00954929
139	0xbd97cac5	-0.07411722
140	0x3b8eff60	0.004363939
141	0x3d90f1a4	0.07077339
142	0xbdef800e	-0.11694346
143	0x3da3bb72	0.07994737
144	0xbe04602a	-0.12927309
145	0x3e1c62c7	0.15272056
146	0x3dcd55ae	0.10026108
147	0x3db3d33c	0.08780524
148	0x3d3c1bc0	0.045924902
149	0x3e19f657	0.15035377
150	0x3daabb96	0.083365604
151	0xbdf568ec	-0.11982903
152	0xbcc1dd78	-0.023665175
153	0x3da6678c	0.08125219
154	0x3d36be54	0.044615105
155	0xbda292db	-0.07938167
156	0x3d0e1cc4	0.0346954
157	0x3e1524b1	0.14564778
158	0xbc89a988	-0.016804472
159	0x3e113c19	0.14183082
160	0xbd531136	-0.051530086
161	0x3da97b47	0.082754664
162	0xbf3b78c3	-0.7323114
163	0x3f44ad1b	0.7682664
164	0xbe6d017c	-0.23145097
165	0x3d361ea2	0.044462807
166	0xbe95edea	-0.29283077
167	0x3e75acc5	0.23991688
168	0xbee7294e	-0.451487
169	0xbe9f0c99	-0.310643
170	0x3e9be925	0.30451313
171	0xbed559be	-0.4167003
172	0x3db22405	0.086982764
173	0xbe969bcf	-0.29415748
174	0x3e9e98d1	0.30975965
175	0x3c2617fd	0.010137555
176	0x3dedae45	0.11605505
177	0x3ea6a56c	0.32548082
178	0xbdd6a657	-0.104809456
179	0x3ec010a5	0.375127
180	0x3e1cecf7	0.1532477
181	0xbf89cfcc	-1.076654
182	0xbf05315b	-0.52028435
183	0xbc85474e	-0.016269352
184	0xbed96d7d	-0.42466345
185	0x3f5bce7c	0.85861945
186	0xbe953d9b	-0.29148564
187	0x3ebf12d3	0.3731905
188	0xbf5bd6c8	-0.85874605
189	0x3e116711	0.14199473
190	0x3e4fdb65	0.20298536
191	0xbe677bdd	-0.22605844
192	0xbd738e4e	-0.059461884
193	0x3f39598f	0.7240228
194	0xbcc381f4	-0.023865677
195	0xbe8e1166	-0.2774765
196	0x3d81a1b3	0.0632967
197	0x3e969343	0.29409227
198	0x3d7a518b	0.06111292
199	0x3dcb1f3a	0.09918065
200	0x3c04cef0	0.008105978
201	0xbdadd1f8	-0.08487314
202	0x3dddc0da	0.10827799
203	0xbe022a91	-0.1271155
204	0x3d2c1110	0.04200846
205	0x3d92213c	0.07135245
206	0x3d99a294	0.075017124
207	0xbcc01150	-0.023445755
208	0x3d788e70	0.060682714
209	0xbe179c5c	-0.1480574
210	0x3e082c2f	0.13298105
211	0x3e057611	0.1303332
212	0x3ccb5fc0	0.02482593
213	0x3d0f1890	0.034935534
214	0xbe02bc3d	-0.1276712
215	0xbd2522c0	-0.040316343
216	0x3e10d603	0.14144139
217	0x3d0e6684	0.034765735
218	0xbd88a627	-0.06672316
219	0xbdc39ff9	-0.09551997
220	0xbd883f52	-0.066527024
221	0x3cebc698	0.02878122
222	0xbd51a8b4	-0.05118628
223	0xbd466f0c	-0.048445746
224	0xbdd7ae02	-0.10531236
225	0xbdc93548	-0.09824616
226	0x3be002c0	0.0068362653
227	0xbe0900b8	-0.1337918
228	0xbd8f348b	-0.06992444
229	0x3dc749aa	0.09730847
230	0x3d577738	0.05260393
231	0xbe007d3f	-0.12547778
232	0xbd0575b4	-0.032582954
233	0xbcd671e8	-0.026177362
234	0xbd4e8850	-0.050422966
235	0xbca74b00	-0.020421505
236	0xbc7ca130	-0.0154192895
237	0x3d6bcd08	0.05756858
238	0xbd3c40a8	-0.0459601
239	0xbd90f3ba	-0.07077737
240	0x3dbcd02c	0.09219393
241	0x3d8adb29	0.06780083
242	0x3f1cac2d	0.6120022
243	0xbf2d9c57	-0.6781668
244	0xbe9182b4	-0.2842003
245	0xbf2af89a	-0.66785586
246	0x3f16793f	0.58778757
247	0x3e499b78	0.19688213
248	0x3ee2f573	0.44327888
249	0x3da22a74	0.079182535
250	0xbe829547	-0.25504515
251	0x3d4f5e50	0.050627053
252	0xbe189690	-0.14901185
253	0x3f212b9b	0.6295716
254	0xbf2c1efa	-0.67234766
255	0xbd669b2a	-0.05630032

bias f4 [128]
0	0xbd5ab6db	-0.05339704
1	0xbdaae8a2	-0.083451524
2	0xbc896ed8	-0.016776487
3	0x3db47272	0.08810891
4	0x3ccb5422	0.024820391
5	0xbd741756	-0.059592567
6	0xbe6f91f6	-0.23395523
7	0xbc20dcc0	-0.009818256
8	0x3de5dbde	0.11223577
9	0xbdc7856f	-0.09742247
10	0xbd73f65e	-0.059561126
11	0x3dbfbb42	0.093618885
12	0xbdbfed0d	-0.09371386
13	0xbda3e7de	-0.080032095
14	0xbb948de0	-0.0045335144
15	0x3d3d0d2a	0.046155132
16	0xbdc5c9e9	-0.09657652
17	0xbd2e0c4c	-0.042492196
18	0x3e0f7996	0.14011225
19	0xbe205b95	-0.15659936
20	0x3e00d093	0.12579565
21	0x3b40c440	0.002941385
22	0x3e0665af	0.13124727
23	0xbdf9df25	-0.122007646
24	0xbe6bebd9	-0.23039187
25	0x3dd6218a	0.10455616
26	0xbcecd842	-0.028911714
27	0xbd81e42e	-0.0634235
28	0x3d8055be	0.06266354
29	0xbe17f860	-0.14840841
30	0xbd4dda97	-0.05025729
31	0xbdcdbeb6	-0.10046141
32	0xbe293535	-0.16524203
33	0x3d2f9280	0.042864323
34	0xbddf3473	-0.10898676
35	0x3e14f2eb	0.14545791
36	0xbda4e05d	-0.080506064
37	0x3e0d34e2	0.13789704
38	0x3ded506c	0.11587605
39	0xbdfe87df	-0.12428259
40	0xbe4acb0b	-0.19804017
41	0xbdff7b66	-0.12474708
42	0xbe3237d4	-0.17404109
43	0x3e1cc961	0.15311195
44	0x3cfcb1f0	0.030846566
45	0x3c87dd70	0.016585082
46	0xbe43e5a7	-0.19130574
47	0xbd79d1bc	-0.060991034
48	0x3ca12dfb	0.019675246
49	0xbe4b8979	-0.1987666
50	0x3dedb782	0.11607267
51	0xbd09b80a	-0.03362278
52	0x3d06bd3b	0.032895308
53	0xbda0b11a	-0.078462794
54	0x3d5b9cd1	0.05361635
55	0x3dbea3be	0.09308575
56	0xbe039073	-0.12848072
57	0xbdfd1b47	-0.12358718
58	0xbe26f0f5	-0.16302855
59	0xbd80c0ab	-0.062867485
60	0x3da188d9	0.0788743
61	0x3e0f6f55	0.14007314
62	0x3d5fc0e2	0.054627307
63	0x3dfca5fe	0.12336348
64	0xbe4e926f	-0.20173047
65	0x3e122367	0.14271317
66	0x3e12b704	0.14327627
67	0xbd158103	-0.03649999
68	0xbc127b96	-0.008940598
69	0xbe17b8c9	-0.14816584
70	0x3d2fc8f3	0.04291625
71	0x3d2bd28f	0.04194885
72	0x3e33a34b	0.1754276
73	0x3e17039e	0.14747474
74	0xbe09b398	-0.13447416
75	0x3e026d78	0.12737072
76	0x3dcb608b	0.099305235
77	0x3e1081d3	0.14112024
78	0xbd94048e	-0.07227431
79	0xbd1facf2	-0.038983293
80	0xbdb68a1b	-0.0891306
81	0xbe076d3a	-0.1322526
82	0x3ce231ea	0.027611692
83	0x3d38b524	0.045094624
84	0x3e1b32f9	0.15156163
85	0x3d5d8190	0.05407864
86	0xbde018a2	-0.10942198
87	0xbd1fa2ba	-0.038973548
88	0x3d847ea4	0.06469467
89	0x3c9134ce	0.017725375
90	0x3cdada74	0.026715495
91	0xbdcb49ca	-0.099261835
92	0x3e0597d9	0.13046207
93	0x3d208948	0.03919342
94	0xbdc1e0b8	-0.0946669
95	0x3d965d03	0.07341959
96	0xbe431ff8	-0.19055164
97	0x3df2d776	0.11857502
98	0xbdb6dccf	-0.08928835
99	0xbe695af1	-0.22788598
100	0x3e0add3c	0.13560957
101	0xbd9feeb2	-0.078091994
102	0xbd03fd74	-0.032224134
103	0xbe15ca1b	-0.14627878
104	0xbe2701cc	-0.16309279
105	0xbd2f126e	-0.042742185
106	0xbdcff6a3	-0.10154464
107	0xbdd733f0	-0.10507953
108	0x3d0b8d6c	0.034070417
109	0x3e05b9c7	0.1305915
110	0x3d8a00dd	0.06738446
111	0xbdd4d6ba	-0.10392518
112	0xbdc71ba0	-0.09722066
113	0xbdd06426	-0.10175352
114	0xbd847a1a	-0.064686015
115	0xbd5b2fca	-0.053512372
116	0xbd73e838	-0.059547633
117	0xbd5da109	-0.054108653
118	0x3df64b74	0.1202611
119	0xbd0c5c0c	-0.03426747
120	0xbdecae02	-0.11556627
121	0x3de4fe58	0.11181325
122	0xbdd6309a	-0.10458489
123	0x3d21284c	0.03934507
124	0x3cceaf20	0.02522999
125	0x3cd6b00e	0.026206996
126	0x3d0d391b	0.03447829
127	0xbdc27414	-0.094947964

weight f4 [64, 128]
0	0x3d4f9948	0.05068329
1	0x3c89439c	0.016755871
2	0x3d78217a	0.0605788
3	0xbd00f104	-0.03147985
4	0x3d4af12b	0.049546402
5	0x3d0c4826	0.034248494
6	0x3d8c0d72	0.06838502
7	0x3cb4ddbc	0.022078387
8	0x3da01291	0.07816041
9	0xbdac5066	-0.08413772
10	0xbd807b9e	-0.06273578
11	0x3ce432c8	0.027856246
12	0x3db032b5	0.086034216
13	0x3b844fd0	0.0040378347
14	0x3d4d61ee	0.05014222
15	0xbd4fd222	-0.050737508
16	0x3d84e321	0.06488634
17	0xbb8eeb50	-0.0043615475
18	0x3ca7d74f	0.02048841
19	0x3ce4b4a0	0.02791816
20	0x3d325ae2	0.043543704
21	0x3dafb487	0.08579355
22	0xbcc5955c	-0.024119072
23	0x3cb49de8	0.022047952
24	0x3d82c877	0.06385892
25	0xbd140b66	-0.036143683
26	0xbb628501	-0.003456414
27	0x3d4c694a	0.0499051
28	0xbd792700	-0.06082821
29	0x3d159c4e	0.036526017
30	0xbd72d917	-0.059289064
31	0x3d2a691a	0.04160414
32	0xbcc074ca	-0.02349319
33	0xbdae0744	-0.084974796
34	0xbd8bdb79	-0.068289705
35	0xbd91870f	-0.071058385
36	0xbcc30fe4	-0.023811288
37	0xbd1fe1f9	-0.039033864
38	0x3d050729	0.03247753
39	0x3d8e0c92	0.06935991
40	0xbdae8341	-0.085211284
41	0x3d37bfaa	0.04486052
42	0x3cc69c24	0.024244376
43	0xbd027ba8	-0.03185621
44	0xbd9fe161	-0.078066595
45	0x3d55826f	0.052126344
46	0xbdb4a928	-0.088213265
47	0xbd569113	-0.052384447
48	0x3d61f441	0.05516458
49	0xbdafb5f7	-0.08579629
50	0x3d875de7	0.06609707
51	0xbd8ee3be	-0.06977032
52	0xbcfc0b44	-0.03076709
53	0xbc88f9f4	-0.01672075
54	0xbdcadf60	-0.09905887
55	0x3d8da723	0.069166444
56	0xb9dfc823	-0.00042682988
57	0x3d8a24ed	0.06745324
58	0x3d855ba8	0.06511623
59	0xbc825fdc	-0.01591485
60	0xbbca5931	-0.006175183
61	0xbc864a24	-0.016392775
62	0xbb945132	-0.004526281
63	0x3d1ab2ae	0.03776806
64	0x3c33077c	0.010927077
65	0x3d6e682e	0.058204822
66	0x3bac4e5c	0.0052583646
67	0xbd98b01c	-0.07455465
68	0x3d43cc5b	0.04780231
69	0x3d8707a1	0.06593252
70	0xbd976e69	-0.07394106
71	0xbdb45bc5	-0.08806566
72	0x3c399789	0.011327633
73	0xbd3161d3	-0.043306183
74	0xbd8ba99a	-0.06819458
75	0x3d1421be	0.03616499
76	0xbd3e837d	-0.046512116
77	0x3d11c35c	0.0355867
78	0x3d9dff35	0.077146925
79	0xbc3b6dc0	-0.011439741
80	0x3d30c583	0.04315711
81	0xbd047f34	-0.032347873
82	0x3d14474c	0.036200806
83	0x3daaed8f	0.08346092
84	0x3da2d9db	0.07951709
85	0xbbc57bd0	-0.0060267225
86	0xbd99bcd0	-0.07506716
87	0xbcba7440	-0.02276051
88	0x3ade9240	0.0016980842
89	0x3c47029c	0.012146618
90	0xbdb9cc0e	-0.090721235
91	0xbd656710	-0.05600649
92	0xbdaf6e1e	-0.08565925
93	0xbc8d4044	-0.017242558
94	0x3d04e3f2	0.032443948
95	0x3c2d6a60	0.010584444
96	0xbb167328	-0.0022956822
97	0x3bca5140	0.0061742365
98	0xbd9eb403	-0.07749178
99	0xbce6210e	-0.028091934
100	0x3b8b336c	0.0042480733
101	0xbd222146	-0.039582513
102	0x3d87f37d	0.066382386
103	0x3d6aa4ae	0.057285957
104	0x3dcbe07b	0.099549256
105	0xbc522000	-0.012825012
106	0xbc5ea7c8	-0.013589807
107	0x3dae6899	0.08516044
108	0xbb545900	-0.003240168
109	0x3d153730	0.036429584
110	0xbd22d2e9	-0.03975192
111	0xbd860444	-0.06543782
112	0x3d9c83d1	0.076423295
113	0x3d9db463	0.07700422
114	0xbda8015c	-0.08203384
115	0xbcd16560	-0.025561035
116	0x3d86f25d	0.06589196
117	0x3caca950	0.021076828
118	0x3cf4a891	0.029865535
119	0x3d308a15	0.043100435
120	0x3d7f62ea	0.06235019
121	0xbd8d701b	-0.06906148
122	0xbd34e6b6	-0.044165336
123	0x3d64b1ea	0.055833735
124	0x3c0b3e70	0.008498773
125	0x3bd982e8	0.0066379197
126	0x3d031d16	0.03201016
127	0xbd474ecd	-0.048659135
128	0x3e68622d	0.22693701
129	0x3bb6f9e0	0.0055839866
130	0x3ddf9889	0.10917766
131	0xbcab0654	-0.02087704
132	0x3d110ac3	0.035410654
133	0x3d9178c1	0.0710311
134	0x3c7cbd8b	0.01542605
135	0xbdabfb08	-0.0839749
136	0xbd023a6c	-0.031793997
137	0xbc451361	-0.012028546
138	0x3d73af7c	0.059493527
139	0xbc36ca20	-0.011156589
140	0x3cdff504	0.027338512
141	0xbd2eab4d	-0.042643834
142	0xbd9b3a6e	-0.07579504
143	0xbd446790	-0.047950327
144	0x3d3fd7eb	0.046836775
145	0xbd45fbc2	-0.048335798
146	0xba6264a7	-0.0008636214
147	0x3d7d20ea	0.061798967
148	0xbd89df7c	-0.067320794
149	0x3db39327	0.087683015
150	0x3d4105a2	0.047124512
151	0xbd10ea6f	-0.035379823
152	0x3c80d080	0.01572442
153	0x3ce2b828	0.027675703
154	0xbdb0d4e7	-0.08634358
155	0x3baec2d0	0.005333282
156	0xbbdc79e0	-0.006728396
157	0x3c7f6960	0.015589088
158	0x3db4214a	0.08795412
159	0xbc99beb8	-0.0187677
160	0x3d7aa9e9	0.061197195
161	0x3d3db2a2	0.046312936
162	0x3c8cf908	0.017208591
163	0xbcaf3ae4	-0.021390386
164	0xbe4fd301	-0.20295335
165	0x3e2e68fe	0.17032239
166	0xbedc0523	-0.4297267
167	0xbedddb56	-0.43331403
168	0xbd840952	-0.0644709
169	0x3d8ce86e	0.0688027
170	0x3d4269be	0.047464125
171	0x3d8e0837	0.069351606
172	0xbd344397	-0.04400977
173	0xbd662067	-0.056183245
174	0xbdff853d	-0.12476585
175	0xbd5cf050	-0.053940117
176	0xbdf1763b	-0.11790129
177	0xbc0f1ff8	-0.008735649
178	0x3dacc7d3	0.08436551
179	0xbe4c3e80	-0.19945717
180	0xbc6fbdfd	-0.014632699
181	0x3d4140aa	0.04718081
182	0x3dac550d	0.0841466
183	0xbd0b7f2e	-0.034056835
184	0xbd3a751b	-0.045521837
185	0x3deea288	0.11652094
186	0x3e850142	0.25977522
187	0x3d197fc6	0.03747537
188	0x3d961265	0.07327727
189	0x3e061755	0.13094838
190	0x3c7b0361	0.01532063
191	0x3da6eb41	0.0815034
192	0x3c89620d	0.016770387
193	0x3d229dfe	0.039701454
194	0xbde0dcac	-0.1097959
195	0x3da124f5	0.07868377
196	0x3e1a9a9e	0.15098044
197	0xbd3aae6b	-0.045576494
198	0x3aba9241	0.0014234261
199	0xbc504d48	-0.012713738
200	0xbe111b58	-0.14170587
201	0x3e50cfd6	0.20391783
202	0xbd4aabed	-0.049480367
203	0x3f28ab4f	0.65886396
204	0x3c86a623	0.016436642
205	0xbd82a099	-0.06378288
206	0x3d356d9e	0.044293992
207	0x3c00d550	0.007863358
208	0x3dc81595	0.097697414
209	0xbd8e495a	-0.069475845
210	0xbc8184e5	-0.01581044
211	0x3d2222ce	0.039583974
212	0x3d7f0ade	0.062266223
213	0x3ca7ea1c	0.020497374
214	0x3ded308d	0.11581526
215	0x3cf3dccc	0.02976837
216	0xbd147769	-0.03624669
217	0x3d20f6c3	0.03929783
218	0xbdab73ad	-0.08371673
219	0xbb2c1460	-0.0026257262
220	0x3d0f146e	0.034931593
221	0xbc1531e0	-0.009106129
222	0x3c328710	0.010896459
223	0xbe0e1935	-0.13876803
224	0xbdc0ad23	-0.09408023
225	0x3d47369a	0.048636056
226	0xbdbd567f	-0.092450134
227	0xbe3a86ef	-0.18215536
228	0xbe5f1cbc	-0.21788305
229	0xbc4bfc95	-0.012450357
230	0x3a174a80	0.0005771294
231	0x3da24d5f	0.079249136
232	0x3e9b6a5c	0.30354583
233	0xbd4f949c	-0.050678834
234	0xbd004eb4	-0.031325057
235	0x3d8f8d0f	0.07009327
236	0xbd5bc542	-0.053654917
237	0x3c846f28	0.016166285
238	0x3ad15f8f	0.0015973913
239	0x3c90a156	0.017655056
240	0xbc04c6c0	-0.008104026
241	0x3a90c8c0	0.0011046156
242	0xbd4d61c6	-0.050142072
243	0xbef0951b	-0.46988758
244	0xbcdf4dda	-0.027258802
245	0xbd1175fd	-0.035512913
246	0x3e8d0931	0.27546075
247	0x3ddb7d43	0.10717251
248	0xbd69f257	-0.05711588
249	0x3d309356	0.04310926
250	0xbdacce80	-0.08437824
251	0xbd60a04c	-0.05484037
252	0xbd2492b7	-0.04017898
253	0xbdd3f8ad	-0.103501655
254	0xbdf70fa0	-0.12063527
255	0x3c402170	0.011726722

bias f4 [64]
0	0x3d758bd0	0.05994779
1	0x3d3e0792	0.04639394
2	0xbd2ee9d8	-0.04270348
3	0x3d904da7	0.07046061
4	0xbd560636	-0.052252017
5	0x3d81e7d7	0.06343048
6	0x3cefb806	0.029262554
7	0xbc9f8018	-0.01947026
8	0x3cc1d20b	0.023659727
9	0xb9d25cf3	-0.00040123574
10	0xbe354452	-0.17701843
11	0xbbc52765	-0.006016659
12	0x3c9b9cbe	0.018995639
13	0x3c50cb0d	0.012743724
14	0xbd699d8b	-0.05703501
15	0x3d3acda3	0.045606267
16	0xbd565764	-0.052329436
17	0xbd8066f3	-0.06269636
18	0xbaf427c0	-0.0018627569
19	0xbd0b8a60	-0.03406751
20	0x3d48fb77	0.04906794
21	0x3cdbeb91	0.026845725
22	0x3d54ffb5	0.052001674
23	0x3c057f07	0.008147961
24	0x3d88c12f	0.06677472
25	0xbd899523	-0.06717899
26	0x3d1104a4	0.035404816
27	0xbd2bce7d	-0.04194497
28	0xbb01f827	-0.0019831748
29	0x3cf22b47	0.029561652
30	0xba02fa82	-0.0004996435
31	0x3d80b401	0.06284333
32	0x3d3db3fa	0.046314217
33	0xbcc97123	-0.02459008
34	0x3ce376d9	0.027766632
35	0xbd8c4880	-0.06849766
36	0x3cdead5e	0.027182277
37	0x3c0d36c0	0.00861901
38	0x3db24371	0.0870427
39	0x3d58ac43	0.052898657
40	0xbbee6e80	-0.007276356
41	0xbc4792b8	-0.012180977
42	0xbd5db565	-0.05412807
43	0x3def9a36	0.11699335
44	0x3da018f9	0.07817263
45	0xbc8ddb68	-0.017316535
46	0x3e60a99d	0.21939702
47	0x3ce7e4a8	0.028307274
48	0x3d6e8052	0.058227845
49	0xbd525e61	-0.051359538
50	0x3b66f0fd	0.0035238855
51	0x3d3f9293	0.046770643
52	0xbd5aaeee	-0.053389482
53	0xbd1f89e7	-0.038949873
54	0x3d12d44c	0.035846993
55	0xbd943d9a	-0.07238312
56	0xbd9967d8	-0.0749051
57	0xbc42936c	-0.011875968
58	0x3ca4c7ec	0.020114861
59	0xbbe02ea5	-0.006841498
60	0xbd0fb9d9	-0.035089348
61	0xbd3df893	-0.046379637
62	0x3c9c3ed0	0.01907292
63	0xbd0c20b3	-0.034210872

weight f4 [32, 64]
0	0xbc4c9440	-0.012486517
1	0x3d5d7f2d	0.054076362
2	0x3cdea320	0.027177393
3	0xbdff9ba8	-0.12480861
4	0x3de4714e	0.11154424
5	0x3deea55e	0.11652635
6	0x3df4d25c	0.11954185
7	0x3c036310	0.008019224
8	0x3cf27ce2	0.029600564
9	0xbd5c46bc	-0.053778395
10	0x3dc3b4ab	0.09555944
11	0xbdd84494	-0.10559955
12	0xbcb583a8	-0.022157505
13	0xbd8246d2	-0.06361164
14	0x3d7a21f0	0.06106752
15	0x3b076451	0.0020659158
16	0x3c8e6d84	0.017386205
17	0x3cbdda8a	0.023175497
18	0x3dfb3df8	0.12267679
19	0x3a5b5ee2	0.00083683257
20	0xbdca37d0	-0.09873927
21	0x3de4029a	0.11133309
22	0x3dae82e2	0.08521058
23	0xbd4a13b8	-0.04933521
24	0x3d9d02f4	0.07666579
25	0xbd86a07b	-0.06573578
26	0xbdc0490e	-0.09388934
27	0xbd1b8770	-0.03797096
28	0xbcfdae2e	-0.030966844
29	0x3df1df1c	0.11810133
30	0xbc850f08	-0.016242519
31	0xbc43a900	-0.011942148
32	0xbd7bacc4	-0.06144406
33	0x3cad47ac	0.02115234
34	0xbdc03aeb	-0.09386238
35	0xbd279c3c	-0.04092048
36	0xbdd2a4a1	-0.10285307
37	0xbd337320	-0.043810964
38	0xbc922c00	-0.017843246
39	0x3d849e79	0.06475539
40	0xbdd261c8	-0.102725565
41	0x3ddaf0d0	0.106904626
42	0x3d963806	0.073349044
43	0x3d7ad94b	0.061242383
44	0x3d9bfd64	0.0761669
45	0x3dd80908	0.105485976
46	0xbde6731a	-0.11252423
47	0x3dd91a46	0.106007144
48	0xbd08bf64	-0.03338565
49	0xbde255e8	-0.110515416
50	0xbd0b4ad5	-0.034006912
51	0xbd8d4d14	-0.06899467
52	0xbdccf81c	-0.100082606
53	0xbd84e180	-0.06488323
54	0x3d96aaea	0.07356818
55	0x3d521931	0.051293556
56	0xbd8b7d16	-0.068109676
57	0xbd9ce71e	-0.076612696
58	0x3cdbd4e8	0.02683492
59	0x3da8284a	0.082108095
60	0x3d933f12	0.07189764
61	0xbb8dcce0	-0.0043274015
62	0xbdf906d3	-0.12159505
63	0x3d3f59a6	0.046716355
64	0xbd658d6c	-0.056043074
65	0x3da2dcd2	0.079522744
66	0x3cbec478	0.023287043
67	0x3c87bb50	0.01656881
68	0x3d4f99e4	0.05068387
69	0x3d504fa4	0.0508572
70	0xbc894b08	-0.01675941
71	0xbdab6ba2	-0.08370139
72	0x3c984e08	0.018591896
73	0x3bbca260	0.0057566613
74	0x3dc4393c	0.09581229
75	0xbd0b3504	-0.033986107
76	0xbda7c462	-0.08191754
77	0x3d3e4e00	0.046461105
78	0x3da74746	0.08167891
79	0xbdba280a	-0.09089668
80	0xbdcf17a8	-0.10111934
81	0x3d961906	0.073289916
82	0x3d53f5d4	0.05174811
83	0x3dd750a6	0.10513429
84	0x3def90e6	0.11697559
85	0xbdcc66e2	-0.09980561
86	0xbdf23368	-0.11826211
87	0xbc6983e0	-0.014252633
88	0x3caf5c60	0.021406353
89	0xbda3df4c	-0.08001575
90	0xbdc1bae6	-0.09459476
91	0x3d172ec0	0.03690982
92	0x3c00a6d0	0.007852271
93	0xbdcd3858	-0.10020512
94	0xbde33ce8	-0.11095601
95	0x3ddc2c62	0.10750653
96	0xbdcbc6fe	-0.09950064
97	0xbc6a28c0	-0.014291942
98	0xbda8f86a	-0.08250506
99	0x3dd09d7e	0.10186289
100	0xbdd93c12	-0.10607161
101	0xbdfb8012	-0.12280287
102	0xbdcdfcb4	-0.10057965
103	0xbcf35c80	-0.029707193
104	0x3db0a15e	0.08624528
105	0x3d774ae8	0.06037417
106	0x3c1d0c70	0.009585485
107	0xbdb45062	-0.08804394
108	0xbdc8c8fa	-0.09803958
109	0x3c949778	0.018138632
110	0xbd1c2984	-0.03812553
111	0x3ddd7872	0.10813989
112	0x3d044324	0.032290593
113	0x3de9bcc0	0.11412954
114	0xbd303c10	-0.04302603
115	0xbd9b8d2a	-0.07595284
116	0xbd87ae1e	-0.06625007
117	0x3dc04e46	0.093899295
118	0xbd9255b2	-0.07145251
119	0x3ce94b98	0.028478429
120	0x3cfb8270	0.030701846
121	0xbdb4a03a	-0.08819623
122	0xbca95740	-0.020671487
123	0x3cbfc2c8	0.023408309
124	0xbdb5e8ae	-0.08882271
125	0xbd8d21d6	-0.06891219
126	0x3ded2998	0.11580199
127	0x3a171800	0.0005763769
128	0xbda008e7	-0.07814198
129	0x3e099ee8	0.13439524
130	0xbde455d9	-0.11149187
131	0xbd88a078	-0.06671232
132	0xbc4d9cf0	-0.012549624
133	0x3df906d0	0.121595025
134	0x3dae0378	0.08496755
135	0x3dae1f88	0.08502108
136	0xbf4b8761	-0.79503447
137	0xbdcacf81	-0.099028595
138	0x3dd715c6	0.105022
139	0xbde924ba	-0.11383958
140	0x3b8a6792	0.0042237723
141	0x3eaea8eb	0.3411325
142	0x3c46f1a0	0.012142569
143	0xbdb51a72	-0.08842935
144	0xbd84945b	-0.06473609
145	0xbf15fde8	-0.58590555
146	0x3dfd2004	0.12359622
147	0xbe7d9e7f	-0.24767493
148	0x3abb1c78	0.0014275452
149	0xbdfdd6ec	-0.12394509
150	0xbda412e8	-0.080114186
151	0x3e48908d	0.19586392
152	0x3e0b152a	0.13582292
153	0xbeee3137	-0.46521923
154	0xbe622709	-0.22085203
155	0xbd2b7586	-0.041860126
156	0x3e41d346	0.1892825
157	0xbd20999c	-0.039208993
158	0xbc80a0c3	-0.015701657
159	0xbba7ab60	-0.005116865
160	0xbda3fc68	-0.08007127
161	0x3e2d44b1	0.16920735
162	0xbdff8bb2	-0.12477817
163	0xbd63da64	-0.055628195
164	0xbdee4248	-0.11633736
165	0x3bafb4c0	0.0053621233
166	0x3d815a5e	0.06316064
167	0xbe832209	-0.25611904
168	0xbd66b5d0	-0.056325734
169	0xbdc1d0c0	-0.09463644
170	0xbd13e720	-0.03610909
171	0xbd578598	-0.05261764
172	0xbd84b3c6	-0.064796016
173	0x3da072b0	0.07834375
174	0x3e244199	0.16040649
175	0xbc9cf5f0	-0.01916024
176	0x3d643a58	0.055719703
177	0x3d49eb16	0.04929646
178	0xbddaf1d9	-0.1069066
179	0xbd549937	-0.05190393
180	0xbd05ae18	-0.032636732
181	0x3ca9c8f8	0.020725712
182	0x3d7abaa9	0.06121317
183	0x3cfb514e	0.030678418
184	0xbdd7f85c	-0.10545418
185	0x3e5d8501	0.21632768
186	0xbb6d21e4	-0.003618353
187	0xbc5615fc	-0.013066765
188	0x3b6a9640	0.0035795122
189	0x3d9eddf0	0.07757175
190	0x3e09df3a	0.1346406
191	0x3e5544d7	0.20827042
192	0xbdc07b78	-0.0939855
193	0xbbd88fc0	-0.006608933
194	0xbdd6c880	-0.10487461
195	0x3d06ed00	0.032940865
196	0x3caa8330	0.020814508
197	0x3ddc8892	0.10768236
198	0xbcbf90f8	-0.023384556
199	0x3d68d630	0.05684489
200	0xbd842414	-0.06452194
201	0x3daee6dc	0.08540127
202	0x3db0bce8	0.08629781
203	0x3cd0d508	0.025492206
204	0x3d8e2168	0.069399655
205	0xbdb4df86	-0.08831696
206	0x3dc0c464	0.094124585
207	0xbb8d26a0	-0.004307583
208	0xbdc37a8c	-0.09544858
209	0xbd178af4	-0.03699775
210	0xbde98e38	-0.11404079
211	0x3d99a168	0.07501489
212	0x3dba076a	0.09083445
213	0xbdf49784	-0.11942962
214	0xbd9e66e4	-0.077344686
215	0x3c898778	0.01678823
216	0xbd9eaa48	-0.07747322
217	0x3dcf16e2	0.101117864
218	0xbb7addc0	-0.0038279146
219	0xbd80f7ee	-0.06297289
220	0x3dc9239a	0.098212436
221	0xbd7ae2c4	-0.061251417
222	0xbd816614	-0.06318298
223	0x3d981782	0.07426359
224	0x3d03aa88	0.032145053
225	0xbd4df820	-0.05028546
226	0xbd9c8fe8	-0.076446354
227	0xbd40a3e8	-0.047031313
228	0xbdafb5fc	-0.08579633
229	0xbd418298	-0.047243685
230	0xbdd80e74	-0.10549632
231	0xbde1c104	-0.11023143
232	0xbca84288	-0.020539537
233	0xbde3e03c	-0.11126754
234	0xbdf85c7c	-0.12127015
235	0xbc2ddeb0	-0.010612175
236	0x3d63dee8	0.0556325
237	0xbdb6373e	-0.08897255
238	0xbd9d35d4	-0.076762825
239	0xbdb78e78	-0.08962721
240	0xbdaedf40	-0.08538675
241	0x3cfc0860	0.030765712
242	0x3d875642	0.06608249
243	0x3da2b0fa	0.07943912
244	0x3dabdea2	0.08392073
245	0xbdfd6b7c	-0.12374017
246	0xbda06a28	-0.07832748
247	0xbde00d46	-0.10940032
248	0x3ddb6938	0.10713428
249	0xbd67c4b8	-0.05658409
250	0xbdff08d4	-0.12452856
251	0xba2efb00	-0.0006674975
252	0x3dcb8dc6	0.099391505
253	0xbd245568	-0.040120512
254	0x3c959680	0.01826024
255	0x3d218794	0.039435938

bias f4 [32]
0	0xbdf745f5	-0.1207389
1	0xbbf64540	-0.0075155795
2	0xbb29c984	-0.0025907466
3	0xbd911c80	-0.07085514
4	0xbc7af2f6	-0.015316715
5	0xbdb25bf8	-0.08708948
6	0x3e5db741	0.21651937
7	0x3d20d80e	0.039268546
8	0xbdb0b3ac	-0.0862802
9	0x3cd8e69a	0.026477147
10	0xbe0eb8b1	-0.13937642
11	0xbd3904da	-0.045170642
12	0xbd8ac317	-0.06775492
13	0xbaa56cb2	-0.0012620895
14	0xbd53a01f	-0.051666375
15	0x3d4eb39d	0.05046426
16	0x3cdea8ce	0.027180102
17	0xbdbd39c1	-0.09239531
18	0x3cdd176c	0.026988707
19	0x3db34a49	0.08754403
20	0x3db652d5	0.08902518
21	0x3e03b98b	0.12863748
22	0xbdd27e78	-0.10278028
23	0x3e3721e3	0.1788402
24	0xbd1132e5	-0.035448927
25	0x3d4f3047	0.05058315
26	0x3ded3a26	0.115833566
27	0xbc33e6f2	-0.010980355
28	0x3cd498a8	0.025951698
29	0xbd7c97f9	-0.06166837
30	0x3c10c5c8	0.008836217
31	0xbc78f1f2	-0.015194403

weight f4 [8, 32]
0	0x3de93182	0.11386396
1	0xbde6f32d	-0.11276851
2	0x3e29e551	0.16591384
3	0x3dc20872	0.09474267
4	0x3de3b1d1	0.111179
5	0x3bf90de0	0.007600531
6	0xbe1bd70b	-0.15218751
7	0x3c83cdd4	0.016089357
8	0x3e0b77c2	0.13619903
9	0xbe256193	-0.16150503
10	0xbe13b055	-0.14422734
11	0xbb8378c0	-0.0040121973
12	0x3e18668b	0.14882867
13	0x3c8acb81	0.016942741
14	0xbde25442	-0.11051227
15	0xbd493a1b	-0.04912768
16	0x3dd3f3b2	0.103492156
17	0xbd13453d	-0.035954703
18	0xbe320459	-0.17384471
19	0xbe0c84e4	-0.13722569
20	0xbe31443e	-0.17311189
21	0x3db2bd5a	0.08727522
22	0x3b8705e0	0.0041205734
23	0xbcad2aa7	-0.021138502
24	0x3d6baa10	0.05753523
25	0xbe038d94	-0.12846977
26	0x3b81db7e	0.003962933
27	0xbd9cdade	-0.07658933
28	0x3ca07fcf	0.019592194
29	0xbe08d1a5	-0.13361223
30	0x3da3cea0	0.07998395
31	0xbd948e08	-0.07253653
32	0xbe00405a	-0.12524548
33	0x3e18a3b9	0.14906205
34	0x3e92df3b	0.28685936
35	0xbdaaadd4	-0.08333936
36	0xbf6eb39f	-0.9324283
37	0x3c9b3ffb	0.018951407
38	0x3c69c6d6	0.014268598
39	0xbe05c59a	-0.1306366
40	0xbe1ec1fe	-0.1550369
41	0xbd852a3f	-0.065021984
42	0xbd29ad35	-0.04142495
43	0x3e241e86	0.16027269
44	0xbd32ce5d	-0.043653835
45	0x3e4db54f	0.20088695
46	0x3f03b04e	0.51440895
47	0xbc953ec3	-0.018218404
48	0x3db3d06c	0.08779988
49	0x3e66c21b	0.22534983
50	0xbf246f70	-0.6423254
51	0xbedc21ad	-0.42994443
52	0xbe39f984	-0.18161589
53	0xbe560bc0	-0.2090292
54	0x3cd9f2a0	0.02660495
55	0x3ef18244	0.47169697
56	0x3dfc0c1c	0.12306997
57	0xbbb6e7b9	-0.0055818227
58	0xbd3bfd5d	-0.045895923
59	0x3e1a59b0	0.15073276
60	0xbf298cf8	-0.66230726
61	0x3e220026	0.15820369
62	0x3e95ce7c	0.29259098
63	0xbe049288	-0.12946522
64	0x3df3ab27	0.11897879
65	0xbe13973a	-0.14413157
66	0x3e3c184c	0.18368644
67	0xbd9166e3	-0.07099702
68	0x3f3e53e5	0.7434676
69	0xbdf710b0	-0.1206373
70	0x3d15f710	0.03661257
71	0xbd580d82	-0.052747257
72	0x3eb11ccf	0.34592292
73	0xbe02213f	-0.12707995
74	0xbd9d2fdc	-0.07675144
75	0x3de887d4	0.11354032
76	0x3d454f04	0.04817106
77	0xbee7b7ec	-0.4525751
78	0x3ef1cbec	0.47225893
79	0x3b1b7160	0.00237187
80	0x3e015022	0.12628224
81	0xbd7b8918	-0.06141004
82	0x3f5ff120	0.874773
83	0x3dd55154	0.10415903
84	0x3d832e61	0.064053304
85	0xbe04d4f7	-0.12971865
86	0x3da6b03e	0.08139084
87	0xbe593700	-0.21212387
88	0x3cd8bd1f	0.026457367
89	0x3e01f5a1	0.12691356
90	0xbb479483	-0.003045351
91	0x3ea20a1b	0.31648335
92	0xbd95f9a3	-0.07323005
93	0x3e737ec4	0.23778826
94	0x3db45ce4	0.0880678
95	0x3ea5a274	0.32350504
96	0xbdb23e2b	-0.08703264
97	0xbe1e862b	-0.15480869
98	0xbf1bcc34	-0.60858464
99	0x3c885b78	0.016645178
100	0xbe1e1e45	-0.15441234
101	0xbdb55392	-0.088538304
102	0x3dba8a47	0.091084056
103	0xbd98ea81	-0.07466603
104	0x3cb1ebdc	0.021718912
105	0xbca5605c	-0.02018755
106	0xbdc7e5a4	-0.09760597
107	0xbefaa2ee	-0.4895243
108	0x3c8050eb	0.015663585
109	0x3dc29a65	0.09502105
110	0xbec441f1	-0.3833156
111	0x3c17a230	0.009254977
112	0x3d71a718	0.058997244
113	0x3e891f2e	0.267816
114	0xbea6a0e4	-0.32544625
115	0xbe928a46	-0.2862112
116	0x3ea35dbb	0.31907448
117	0x3dc2e835	0.09516946
118	0x3e276341	0.16346456
119	0xbea605e4	-0.3242637
120	0xbb9b7804	-0.0047445316
121	0xbe0bec11	-0.13664271
122	0xbdcd66c6	-0.10029368
123	0x3d4fd85a	0.05074344
124	0x3d67ffdf	0.056640502
125	0x3e971865	0.295108
126	0x3c1ec88b	0.009691368
127	0x3df4ba0f	0.1194955
128	0xbe114f6e	-0.14190456
129	0x3ccc0298	0.02490358
130	0x3f97710f	1.1831378
131	0xbda487e6	-0.08033733
132	0xbf85042f	-1.0391902
133	0x3d7be169	0.061494265
134	0x3eb7772d	0.3583311
135	0x3d90cd18	0.070703685
136	0x3ac1735d	0.0014759112
137	0xbe18c316	-0.1491817
138	0xbdfa1d58	-0.12212628
139	0xbb615bbd	-0.0034386956
140	0x3ca4ce0e	0.020117786
141	0x3e2de4bc	0.16981786
142	0xbfa7aab7	-1.3098973
143	0x3ceb5f76	0.028732043
144	0x3e0f6a26	0.14005336
145	0xbeb6c4f1	-0.3569713
146	0xbf893c99	-1.0721618
147	0x3f045e2d	0.517062
148	0xbecfaf78	-0.4056356
149	0x3eafa732	0.34307247
150	0xbd2aa6d4	-0.041663006
151	0x3ef7d686	0.48405856
152	0x3d808faa	0.06277402
153	0xbbc95660	-0.00614433
154	0xbe2f1d2a	-0.17100969
155	0xbf5b599b	-0.856836
156	0x3e1082d1	0.14112402
157	0xbdec4b91	-0.11537851
158	0x3d4e6a54	0.05039437
159	0xbef75367	-0.48305818
160	0x3c7d9910	0.0154783875
161	0x3d8f3174	0.06991854
162	0xbdb1361e	-0.086529
163	0x3e22751f	0.1586499
164	0xbe045c56	-0.12925848
165	0x3d7d9a03	0.061914455
166	0x3d8d44fe	0.06897925
167	0xbe168d25	-0.1470228
168	0x3db15695	0.08659092
169	0xba510255	-0.0007973065
170	0xbdda2c05	-0.10652927
171	0xbda8627d	-0.0822191
172	0x3ddc049d	0.107430674
173	0x3d9b6c07	0.07588964
174	0xbe3455ff	-0.1761093
175	0xbe2cd1f8	-0.16876972
176	0x3d6259f1	0.055261556
177	0xbc28a308	-0.010292776
178	0x3dccf3b8	0.10007423
179	0xbda69cfe	-0.08135413
180	0xbefdf378	-0.49599814
181	0x3d5c89f6	0.053842507
182	0xbb47a280	-0.0030461848
183	0xbda191ff	-0.07889175
184	0xbe33f57e	-0.17574117
185	0xbcae5d58	-0.021284744
186	0x3dd21026	0.10256986
187	0xbdb22035	-0.08697549
188	0xbd9c1288	-0.07620722
189	0xbd042999	-0.032266233
190	0xbe583c1b	-0.21116678
191	0xbe1489f2	-0.14505747
192	0x3e05c253	0.1306241
193	0x3caed680	0.021342516
194	0x3ce96e37	0.028494937
195	0x3de2d77e	0.11076258
196	0xbde51e4b	-0.111874186
197	0x3d93d51c	0.07218382
198	0xbd84dac6	-0.0648704
199	0x3e116524	0.14198738
200	0x3e084a81	0.13309671
201	0xbc7bb006	-0.0153617915
202	0x3e2ca597	0.16860043
203	0x3bb90500	0.005646348
204	0xbe20cbe1	-0.15702774
205	0xbe318dc5	-0.17339237
206	0x3d92bbf6	0.07164757
207	0x3d150b0c	0.03638749
208	0x3de5fa94	0.112294346
209	0xbe348e91	-0.1763251
210	0xba3fe267	-0.00073198084
211	0xbe091c1e	-0.13389632
212	0x3d9720ca	0.07379301
213	0x3daf1e86	0.08550744
214	0xbe158a4c	-0.14603537
215	0xbc7a2d52	-0.015269594
216	0x3dad2736	0.084547445
217	0x3e027b3d	0.12742324
218	0x3e24cd49	0.16093935
219	0x3cacdcaa	0.021101315
220	0xbcdc0d85	-0.026861915
221	0xbda3c6b7	-0.07996886
222	0xbd52a0ff	-0.05142307
223	0xbd961378	-0.07327932
224	0x3bae1d00	0.0053135157
225	0x3df61bd6	0.12017028
226	0x3dcba187	0.09942918
227	0xbcdcb260	-0.026940525
228	0x3e18a424	0.14906365
229	0xbe1e58e4	-0.15463597
230	0x3afa864f	0.0019113513
231	0x3e01e9a1	0.12686779
232	0x3d073dfb	0.033018094
233	0x3d34631e	0.044039838
234	0x3d9252bb	0.07144686
235	0x3a8dca80	0.0010817796
236	0xbe01dd7e	-0.12682149
237	0xbcadb2b0	-0.021203369
238	0xbdfcbc7b	-0.12340637
239	0xb99660f2	-0.0002868246
240	0x3dfc45ec	0.12318024
241	0xbe087add	-0.13328119
242	0x3dd904ba	0.10596605
243	0xbda13632	-0.07871665
244	0x3e281c13	0.1641696
245	0xbe0006e7	-0.12502633
246	0xbdb17a27	-0.08665877
247	0xbc6cad6c	-0.014445644
248	0xbde7bee0	-0.113157034
249	0xbc001f10	-0.007819906
250	0xbc85a81e	-0.016315516
251	0xbd93a109	-0.072084494
252	0xbdacd37f	-0.08438777
253	0xbe2a750d	-0.16646214
254	0xbdc8da3b	-0.09807249
255	0x3d70d18b	0.058793586

bias f4 [8]
0	0xbe028856	-0.1274732
1	0xbdbfb84e	-0.09361325
2	0x3e2cd0e7	0.16876565
3	0x3dc12ca6	0.09432344
4	0x3dd1fc61	0.102532156
5	0xbd9292c7	-0.07156902
6	0xbe2bbc0e	-0.16770956
7	0x3daac1e5	0.08337764

weight f4 [4, 8]
0	0xbe8bb053	-0.27282962
1	0xbe3d1a11	-0.18466975
2	0x3e5721fa	0.21009055
3	0xbd9ea9f0	-0.07747257
4	0xbea0333b	-0.31289086
5	0xbda5aeb8	-0.080899656
6	0x3ea22cdf	0.3167486
7	0xbe7f4b48	-0.24931061
8	0xbd802c30	-0.06258428
9	0xbeb36ed8	-0.35045505
10	0x3e525e9e	0.20543906
11	0x3e96c729	0.29448822
12	0xbeae188b	-0.340031
13	0xbd8b6e78	-0.068081796
14	0xbe8a97bc	-0.2706889
15	0x3ea74de5	0.32676616
16	0xbe7557bb	-0.23959248
17	0xbd397140	-0.04527402
18	0x3e1fde9a	0.1561226
19	0x3e52b06e	0.20575115
20	0x3d80c054	0.06286684
21	0xbe818f70	-0.25304747
22	0xbe39047f	-0.18068121
23	0x3e406f1e	0.18792388
24	0xbdbb69ec	-0.09151062
25	0xbd089f90	-0.033355296
26	0x3e49e3aa	0.19715753
27	0x3e978e51	0.29600766
28	0xbe3f5b9b	-0.18687288
29	0xbb51cd80	-0.0032013357
30	0x3e41aefa	0.18914405
31	0xbe8591c6	-0.2608778

bias f4 [4]
0	0x3e152542	0.14564994
1	0xbe38cdaa	-0.18047205
2	0x3e46e636	0.19423756
3	0x3e6e54f2	0.23274592
