training/ann/models/ann21ep600.pth (torch, 69218 bytes, 10 tensors)

weight f4 [128, 40]
000000 4f 82 d8 3d 47 fa 36 bc b6 d2 62 bd ae c1 bf 3e
       0.105717294 -0.011168069 -0.05537673 0.37452453
000010 4e d3 9c bd 0f 00 89 3c 13 19 40 3e a6 50 f8 bc
       -0.07657491 0.01672366 0.18759565 -0.030311894
000020 34 84 f8 3e 4f 17 4c 3e 08 09 90 be 3c 79 60 be
       0.48538363 0.19930767 -0.2813189 -0.21921247
000030 ee 62 8a 3d 45 ab 06 3e 1a cb f0 bc d7 75 56 3e
       0.067571506 0.13151272 -0.029393721 0.2094339
000040 66 a7 2f be 56 57 e5 3e 9d 88 1d be 0c 0e 09 3f
       -0.17153701 0.44793195 -0.15384145 0.5353706
000050 dc a2 ec 3d f4 58 09 bf f3 58 c2 be d3 ba d6 bb
       0.115545005 -0.53651357 -0.37958488 -0.006553033
000060 98 bf 0a 3e 2e 1f 8e 3d 74 09 c9 3d e7 f6 1c be
       0.1354965 0.06939541 0.09816256 -0.15328561
000070 0a ef 6d 3d e8 f5 04 be 1f 8b a3 3e cd e4 7c be
       0.058089294 -0.12984431 0.31942078 -0.24696656
000080 c6 f3 4d be ca 8a 6f bd 13 2a 5c 3e 9a 48 26 3e
       -0.20112523 -0.05848197 0.21500425 0.16238633
000090 ed 78 bc 3d a1 c4 75 be d4 34 2e 3e 7a ec 54 3d
       0.09202752 -0.24000789 0.1701234 0.051983334
0000a0 1c a8 6b 3d 78 4e d6 bc a7 9c 12 3e 05 2d 19 be
       0.05753337 -0.026160464 0.1431757 -0.1495858
0000b0 a0 b0 05 bc ca 0e d3 3d 88 19 75 3d 22 0e 8e bd
       -0.008159786 0.10305555 0.0598388 -0.06936289
0000c0 84 53 b0 bd 44 b8 55 3d 38 09 b7 3c 70 e7 27 3d
       -0.08609679 0.052177683 0.022343263 0.0409922
0000d0 84 e2 99 3d 5a 51 ab 3d 3f 31 0d 3e 60 e5 96 bb
       0.075139076 0.08365126 0.13788317 -0.0046049803
0000e0 58 2d ba bc 5e 05 0c bd 00 6c 1f 3a 01 2d 1b 3e
       -0.0227267 -0.034184806 0.0006081462 0.15153886
0000f0 68 8c 91 3d f6 23 0f bd 94 1c 18 3d f0 38 49 3c
       0.071068585 -0.034946404 0.03713663 0.012281641
000100 a2 62 8e 3d 64 ff 17 bd 48 37 62 bd 1f bf 0f 3e
       0.069524065 -0.037108794 -0.0552285 0.1403775
000110 50 aa 44 3d 63 7a b7 bd ab f3 ba bd f9 68 14 3e
       0.048013985 -0.0895889 -0.09128507 0.14493169
000120 73 2a 1d 3e dc e6 13 bd ce d3 c1 3d d0 36 be 3c
       0.15348224 -0.036108837 0.09464227 0.023219496
000130 ff 1e 1b 3e e0 7f ea bc 3c 83 2b 3d 9e 7d 92 bd
       0.15148543 -0.028625429 0.0418732 -0.07152866
000140 28 45 0b be f7 4b fd 3d 22 26 ae be 63 ed ea 3e
       -0.136006 0.12368005 -0.34013468 0.45884237
000150 fb c2 d5 3e 0d ef 3d be 38 24 18 be af 20 0a be
       0.4175032 -0.18548222 -0.14857566 -0.1348903
000160 00 6c db be f2 9a a1 bd eb 8b 2d 3e 22 1b 25 be
       -0.42855835 -0.078908816 0.16947906 -0.16123632
000170 44 fb 3c 3e 96 af 53 be e9 09 7d 3d 62 f3 01 be
       0.18455225 -0.2067245 0.06177703 -0.126905
000180 2b fb 0a 3e 77 70 e8 3e ff 81 a7 bd 27 17 ae 3e
       0.13572375 0.45398304 -0.08179092 0.3400204
000190 f1 67 54 be a1 c9 a6 be 40 62 cb be 54 5b 3d 3d
       -0.20742775 -0.32575706 -0.39723396 0.046229675
0001a0 c1 29 08 3f 13 43 c3 3e 5e f6 97 bd 17 18 5e 3d
       0.5318871 0.3813711 -0.07420038 0.054222193
0001b0 ea 1d 28 bf 6a a6 30 be b9 9a 3f 3e f7 bb 40 be
       -0.65670645 -0.17250982 0.18711366 -0.18821703
0001c0 37 f0 46 bf 93 e8 78 bd 8f eb 8c 3d 62 cb 16 3e
       -0.7771029 -0.060768675 0.06880867 0.14726022
0001d0 20 db 12 3f c2 89 1c 3e cc 72 8c bd 42 5b 2b bd
       0.5736561 0.15286925 -0.06857833 -0.041835077
0001e0 ca 36 f7 3d f8 c4 06 be b0 e9 db 3c 00 a5 8f 3d
       0.12070997 -0.13161075 0.02684483 0.07013893
0001f0 2c b2 30 bd 6e a5 f3 3d fe 8a eb bd 00 a9 f2 bb
       -0.043138668 0.118967876 -0.1150112 -0.0074054003
000200 32 ec 96 3d 56 b0 e5 3d 08 44 b9 bc 5e f4 02 be
       0.073692694 0.11215274 -0.022615448 -0.12788531
000210 32 3c d0 bd 60 f3 a6 bc 08 26 de 3c 70 6d b2 bc
       -0.10167731 -0.020379722 0.027117744 -0.0217807
000220 aa 8e ec 3d f4 0f ec bd a0 74 1c 3c c5 ca 97 bd
       0.115506485 -0.1152648 0.00954929 -0.07411722
000230 60 ff 8e 3b a4 f1 90 3d 0e 80 ef bd 72 bb a3 3d
       0.004363939 0.07077339 -0.11694346 0.07994737
000240 2a 60 04 be c7 62 1c 3e ae 55 cd 3d 3c d3 b3 3d
       -0.12927309 0.15272056 0.10026108 0.08780524
000250 c0 1b 3c 3d 57 f6 19 3e 96 bb aa 3d ec 68 f5 bd
       0.045924902 0.15035377 0.083365604 -0.11982903
000260 78 dd c1 bc 8c 67 a6 3d 54 be 36 3d db 92 a2 bd
       -0.023665175 0.08125219 0.044615105 -0.07938167
000270 c4 1c 0e 3d b1 24 15 3e 88 a9 89 bc 19 3c 11 3e
       0.0346954 0.14564778 -0.016804472 0.14183082
000280 51 63 17 bd 00 9b dc 3d 27 c3 66 be a3 1e 0e 3f
       -0.03695995 0.107717514 -0.22535382 0.555155
000290 9f dd 55 be dc 7b 1c 3e f6 98 75 be f2 b3 88 3d
       -0.20885323 0.15281624 -0.23984131 0.06674947
0002a0 32 8d 69 be 04 d1 9b be 88 7b 98 3e 91 d4 53 bd
       -0.22807768 -0.30432904 0.29781747 -0.05171639
0002b0 8f ac 27 bd 59 bc c9 be d9 24 b6 3e 51 1c 40 3d
       -0.04093605 -0.3940151 0.35574988 0.046902005
0002c0 0f 3f bc 3d c7 da d9 3d 7b bb 08 bd 30 0f 81 3e
       0.09191715 0.106374316 -0.03338192 0.252069
0002d0 fd 46 0c 3e e4 05 65 bf 39 b9 0c bf c0 5b 69 be
       0.13698955 -0.89462113 -0.5497013 -0.22788906
0002e0 cd cc 93 3e df d5 14 3f 89 ef 69 be c4 6c d0 3e
       0.28867188 0.5813884 -0.22845282 0.40707982
0002f0 51 64 32 bf 8f ed 8e 3e 33 24 da 3d d9 b4 75 be
       -0.6968432 0.27915618 0.10651436 -0.23994769
000300 4e d0 89 be 6a 4d ab 3e 68 b8 7b bc a0 82 9d bc
       -0.26916736 0.334575 -0.01536379 -0.019227326
000310 37 8e 5e 3e 60 97 85 3e e9 2d 71 bd b3 89 ba 3e
       0.21733938 0.26092052 -0.058881674 0.3643318
000320 f0 ce 04 3c f8 d1 ad bd da c0 dd 3d 91 2a 02 be
       0.008105978 -0.08487314 0.10827799 -0.1271155
000330 10 11 2c 3d 3c 21 92 3d 94 a2 99 3d 50 11 c0 bc
       0.04200846 0.07135245 0.075017124 -0.023445755
000340 70 8e 78 3d 5c 9c 17 be 2f 2c 08 3e 11 76 05 3e
       0.060682714 -0.1480574 0.13298105 0.1303332
000350 c0 5f cb 3c 90 18 0f 3d 3d bc 02 be c0 22 25 bd
       0.02482593 0.034935534 -0.1276712 -0.040316343
000360 03 d6 10 3e 84 66 0e 3d 27 a6 88 bd f9 9f c3 bd
       0.14144139 0.034765735 -0.06672316 -0.09551997
000370 52 3f 88 bd 98 c6 eb 3c b4 a8 51 bd 0c 6f 46 bd
       -0.066527024 0.02878122 -0.05118628 -0.048445746
000380 02 ae d7 bd 48 35 c9 bd c0 02 e0 3b b8 00 09 be
       -0.10531236 -0.09824616 0.0068362653 -0.1337918
000390 8b 34 8f bd aa 49 c7 3d 38 77 57 3d 3f 7d 00 be
       -0.06992444 0.09730847 0.05260393 -0.12547778
0003a0 b4 75 05 bd e8 71 d6 bc 50 88 4e bd 00 4b a7 bc
       -0.032582954 -0.026177362 -0.050422966 -0.020421505
0003b0 30 a1 7c bc 08 cd 6b 3d a8 40 3c bd ba f3 90 bd
       -0.0154192895 0.05756858 -0.0459601 -0.07077737
0003c0 2c 38 0c 3e a8 9f d9 3d f6 4d 7c 3e 56 87 03 bf
       0.13693303 0.10626155 0.24639115 -0.5137838
0003d0 be 80 39 be fe 82 80 ba a7 60 50 3e 5a 60 39 3d
       -0.18115517 -0.0009804664 0.2034937 0.045257904
0003e0 ca 3b b9 3e eb c2 98 3d 3a 56 46 be ed 6d 80 bd
       0.36178428 0.07459053 -0.1936883 -0.06270967
0003f0 c2 61 8d bd 67 f9 fd 3e d1 51 07 bf 31 09 0c bd
       -0.069034114 0.4960434 -0.52859217 -0.034188453

bias f4 [128]
000000 61 03 95 bd a2 e8 aa bd 82 d1 18 bc 72 72 b4 3d
       -0.07276035 -0.083451524 -0.009327294 0.08810891
000010 55 bd cd 3c 56 17 74 bd 81 eb 4f be c0 dc 20 bc
       0.025114695 -0.059592567 -0.20304681 -0.009818256
000020 58 51 fe 3d 43 55 98 bd 99 e6 03 bd 42 bb bf 3d
       0.12417859 -0.074381374 -0.032202337 0.093618885
000030 0d ed bf bd de e7 a3 bd e0 8d 94 bb 01 3a 61 3d
       -0.09371386 -0.080032095 -0.0045335144 0.054986957
000040 9d 3f d8 bd 4c 0c 2e bd 49 df 16 3e 95 5b 20 be
       -0.10559008 -0.042492196 0.14733614 -0.15659936
000050 93 d0 00 3e 40 c4 40 3b af 65 06 3e 25 df f9 bd
       0.12579565 0.002941385 0.13124727 -0.122007646
000060 20 ee 5d be 8a 21 d6 3d 13 be f3 3c 2e e4 81 bd
       -0.21672869 0.10455616 0.02975372 -0.0634235
000070 be 55 80 3d 60 f8 17 be 59 8b f0 bc b6 be cd bd
       0.06266354 -0.14840841 -0.029363321 -0.10046141
000080 33 b0 dd bd 80 92 2f 3d 73 34 df bd eb f2 14 3e
       -0.10824623 0.042864323 -0.10898676 0.14545791
000090 0d b4 b4 bd 01 19 0f 3e e3 3f 00 3e 7a 77 f7 bd
       -0.088234045 0.13974382 0.12524371 -0.12083335
0000a0 78 51 35 be 01 a7 15 be 19 87 25 be 61 c9 1c 3e
       -0.17706859 -0.14614488 -0.16164817 0.15311195
0000b0 f0 b1 fc 3c f4 71 3f 3d 7b 32 19 be 59 b5 e8 bc
       0.030846566 0.046739534 -0.14960663 -0.028406786
0000c0 66 3b 87 3c fe 0f 07 be 82 b7 ed 3d 8e ab cc bb
       0.016507816 -0.13189694 0.11607267 -0.006246037
0000d0 9f 5c c5 3c 1a b1 a0 bd 78 68 a1 3d be a3 be 3d
       0.024092017 -0.078462794 0.07881254 0.09308575
0000e0 2b 9a da bd 7c 89 03 be 75 c7 2e be ab c0 80 bd
       -0.106739365 -0.12845415 -0.17068274 -0.062867485
0000f0 83 64 9f 3d 01 a6 19 3e 28 6c d0 3d fe a5 fc 3d
       0.07782843 0.15004732 0.10176879 0.12336348
000100 72 05 37 be 67 23 12 3e 58 47 01 3e ef 3e 27 bc
       -0.17873171 0.14271317 0.12624872 -0.010207876
000110 85 f1 d4 3c c9 b8 17 be b7 04 47 3d 8f d2 2b 3d
       0.025994072 -0.14816584 0.04858848 0.04194885
000120 0d 0d 28 3e d5 f6 0a 3e 98 b3 09 be 09 60 de 3d
       0.16411228 0.13570721 -0.13447416 0.10858161
000130 be d5 11 3e d3 81 10 3e 8e 04 94 bd f2 ac 1f bd
       0.14241692 0.14112024 -0.07227431 -0.038983293
000140 00 60 93 bd 3a 6d 07 be 4e 4c 61 3d 24 b5 38 3d
       -0.07196045 -0.1322526 0.05500441 0.045094624
000150 f9 32 1b 3e 90 81 5d 3d 26 2e e5 bd ba a2 1f bd
       0.15156163 0.05407864 -0.11190443 -0.038973548
000160 a4 7e 84 3d 99 9b 3d 3d 94 93 66 3d ca 49 cb bd
       0.06469467 0.046290968 0.056293085 -0.099261835
000170 ca 23 ff 3d 48 89 20 3d b8 e0 c1 bd d3 de df 3d
       0.12457998 0.03919342 -0.0946669 0.10931172
000180 54 06 1e be 76 d7 f2 3d 6d bb c4 bd 9d 0d f0 bd
       -0.15432101 0.11857502 -0.09606061 -0.117213465
000190 fd 72 05 3e 34 05 80 bd 74 fd 03 bd 1b ca 15 be
       0.13032146 -0.062509924 -0.032224134 -0.14627878
0001a0 2f 80 2a be 6e 12 2f bd 00 90 bd bd f0 33 d7 bd
       -0.1665046 -0.042742185 -0.092559814 -0.10507953
0001b0 6c 8d 0b 3d c7 b9 05 3e a4 86 d8 3d 59 07 9a bd
       0.034070417 0.1305915 0.10572556 -0.07520933
0001c0 a0 1b c7 bd 26 64 d0 bd 1a 7a 84 bd 15 d6 1b bd
       -0.09722066 -0.10175352 -0.064686015 -0.03804596
0001d0 38 e8 73 bd 4b 50 70 bd 90 95 d9 3d 43 28 2b bd
       -0.059547633 -0.058670323 0.1062423 -0.041786443
0001e0 02 ae ec bd bb 93 03 3e 9a 30 d6 bd 4c 28 21 3d
       -0.11556627 0.12849323 -0.10458489 0.03934507
0001f0 20 af ce 3c 28 3f 02 3d 42 ae ba 3d 4e 28 f7 bd
       0.02522999 0.03179851 0.09115268 -0.120682344

weight f4 [64, 128]
000000 22 68 68 3d 9c 43 89 3c f1 c4 8a 3d 04 f1 00 bd
       0.056739934 0.016755871 0.06775845 -0.03147985
000010 c2 34 68 3d 26 48 0c 3d 93 7c 9b 3d bc dd b4 3c
       0.05669094 0.034248494 0.0759212 0.022078387
000020 3d e9 ae 3d 1b c1 9c bd dd 89 61 bd c8 32 e4 3c
       0.085405804 -0.076540194 -0.055063117 0.027856246
000030 b5 32 b0 3d d0 4f 84 3b ee 61 4d 3d 87 52 32 bd
       0.086034216 0.0040378347 0.05014222 -0.043535735
000040 57 27 98 3d 50 eb 8e bb 68 62 e2 3c a0 b4 e4 3c
       0.074293785 -0.0043615475 0.027634814 0.02791816
000050 e2 5a 32 3d 87 b4 af 3d 5c 95 c5 bc e8 9d b4 3c
       0.043543704 0.08579355 -0.024119072 0.022047952
000060 11 7a 93 3d 66 0b 14 bd 30 8d 90 3b 4a 69 4c 3d
       0.07201017 -0.036143683 0.004411362 0.0499051
000070 00 27 79 bd 4e 9c 15 3d 38 9d 53 bd 1a 69 2a 3d
       -0.06082821 0.036526017 -0.051663607 0.04160414
000080 d0 62 83 bc 44 07 ae bd 79 db 8b bd 0f 87 91 bd
       -0.016038328 -0.084974796 -0.068289705 -0.071058385
000090 f8 36 9c bc 44 d3 ec bc 86 e2 21 3d 07 63 99 3d
       -0.01906918 -0.028909333 0.03952267 0.07489591
0000a0 54 49 a0 bd 43 34 82 3d f2 ae 00 3d a8 7b 02 bd
       -0.07826486 0.063576244 0.03141684 -0.03185621
0000b0 61 e1 9f bd 8d cd 85 3d 94 8b a7 bd b9 ae 37 bd
       -0.078066595 0.06533346 -0.08180919 -0.044844363
0000c0 a3 5e 87 3d 2a b6 9f bd e7 5d 87 3d c0 7d 6a bd
       0.066098474 -0.07798417 0.06609707 -0.05724883
0000d0 ac 8a b8 bc f4 f9 88 bc f8 05 ac bd 23 a7 8d 3d
       -0.022527061 -0.01672075 -0.08399576 0.069166444
0000e0 20 a6 de 3b 6d d3 98 3d 27 8f 91 3d dc 5f 82 bc
       0.006794706 0.07462201 0.07107382 -0.01591485
0000f0 c0 06 9e 3a b8 34 18 bc 70 0a 81 3b ae b2 1a 3d
       0.0012056455 -0.009289913 0.003938012 0.03776806
000100 34 7e 96 3c 2e 68 6e 3d 88 07 39 3c fe 18 89 bd
       0.018370725 0.058204822 0.0112932995 -0.0669422
000110 96 6e 62 3d a1 07 87 3d b5 31 88 bd c5 5b b4 bd
       0.055281244 0.06593252 -0.06650106 -0.08806566
000120 64 7c 8d 3c 53 9d 19 bd 9a a9 8b bd aa a6 37 3d
       0.017271228 -0.03750355 -0.06819458 0.044836678
000130 d3 aa 1f bd 5c c3 11 3d 35 ff 9d 3d c0 6d 3b bc
       -0.03898127 0.0355867 0.077146925 -0.011439741
000140 aa 3f 4f 3d 34 7f 04 bd d6 24 32 3d 8f ed aa 3d
       0.050597824 -0.032347873 0.04349216 0.08346092
000150 db d9 a2 3d d0 7b c5 bb 24 9e 7c bd 40 74 ba bc
       0.07951709 -0.0060267225 -0.061674252 -0.02276051
000160 40 92 de 3a 38 85 d0 3c 79 97 aa bd 10 67 65 bd
       0.0016980842 0.025454149 -0.08329672 -0.05600649
000170 76 34 a5 bd 44 40 8d bc f2 e3 04 3d 48 a1 90 3c
       -0.08066647 -0.017242558 0.032443948 0.01765503
000180 10 2d a2 3b 40 51 ca 3b 5c 8d 8d bd c0 6a 73 bc
       0.0049492195 0.0061742365 -0.06911728 -0.014856994
000190 90 cc d2 bb de 44 02 bd 7d f3 87 3d ae a4 6a 3d
       -0.006433077 -0.031803958 0.066382386 0.057285957
0001a0 85 2f b4 3d 00 20 52 bc 60 e1 c0 bb 99 68 ae 3d
       0.08798126 -0.012825012 -0.005886242 0.08516044
0001b0 00 59 54 bb 30 37 15 3d 57 ad 05 bd fe e4 6e bd
       -0.003240168 0.036429584 -0.032636013 -0.058323853
0001c0 d1 83 9c 3d 63 b4 9d 3d 5c 01 a8 bd 80 39 77 bc
       0.076423295 0.07700422 -0.08203384 -0.015089393
0001d0 5d f2 86 3d 92 27 06 3d 60 53 12 3d 0a e4 4c 3d
       0.06589196 0.03275258 0.035724044 0.050022162
0001e0 ea 62 7f 3d 14 f1 7b bd b6 e6 34 bd ea b1 64 3d
       0.06235019 -0.061509207 -0.044165336 0.055833735
0001f0 70 3e 0b 3c b0 ea 80 3c 9e 88 23 3d 75 48 2a bd
       0.008498773 0.015736908 0.03992521 -0.041573007
000200 b9 ad 52 3d e0 f9 b6 3b 3f 59 a3 3d 54 06 ab bc
       0.051435206 0.0055839866 0.07976007 -0.02087704
000210 a6 0b c3 3c c1 78 91 3d 54 71 d9 3b 08 fb ab bd
       0.023809265 0.0710311 0.006635824 -0.0839749
000220 2f 6b 92 bd 58 fc ed bc 47 44 51 3d 20 ca 36 bc
       -0.0714935 -0.029050991 0.051090505 -0.011156589
000230 04 f5 df 3c 4d ab 2e bd 6e 3a 9b bd 4e 82 d2 bc
       0.027338512 -0.042643834 -0.07579504 -0.0256969
000240 fc c3 9c 3d c2 fb 45 bd c7 09 32 bd ea 20 7d 3d
       0.076545686 -0.048335798 -0.043466356 0.061798967
000250 7c df 89 bd 27 93 b3 3d a2 05 41 3d 6f ea 10 bd
       -0.067320794 0.087683015 0.047124512 -0.035379823
000260 36 b2 4d 3d 28 b8 e2 3c 62 fa 94 bd d0 c2 ae 3b
       0.050218783 0.027675703 -0.07274319 0.005333282
000270 e0 79 dc bb 60 69 7f 3c 50 4a b0 3d b8 be 99 bc
       -0.006728396 0.015589088 0.08607924 -0.0187677
000280 84 77 29 3d a2 b2 3d 3d 08 f9 8c 3c e4 3a af bc
       0.041373745 0.046312936 0.017208591 -0.021390386
000290 67 d4 4e be 6d 7c 43 3e 2b 33 5e be dd c3 a7 bd
       -0.20198213 0.19090433 -0.21699207 -0.08191655
0002a0 cc 29 54 bd 2c 79 2c 3c f0 c2 9d 3b 37 08 8e 3d
       -0.051797673 0.0105269365 0.004814498 0.069351606
0002b0 97 43 34 bd 3e 97 35 bd b7 4c cb bc c7 f1 19 bd
       -0.04400977 -0.04433369 -0.024816854 -0.037584092
0002c0 93 92 97 bd 0f 98 be bb d3 c7 ac 3d 0b fc 23 be
       -0.07401004 -0.0058164666 0.08436551 -0.16014116
0002d0 61 cb e0 3b aa 40 41 3d b8 48 9f 3d 2e 7f 0b bd
       0.006860182 0.04718081 0.07777542 -0.034056835
0002e0 95 82 31 bd e6 b0 b4 3d 35 07 89 3e c6 7f 19 3d
       -0.043337423 0.08822803 0.2676331 0.03747537
0002f0 9e 76 92 3d 64 79 90 3d 86 7c 9c 3c 41 eb a6 3d
       0.07151531 0.070544034 0.019102346 0.0815034
000300 dd e2 4f 3d fe 9d 22 3d 0a b7 97 bd 75 45 9b 3d
       0.050753463 0.039701454 -0.07407959 0.07581607
000310 5d f9 a6 3d 6b ae 3a bd 85 e8 a3 3c 48 4d 50 bc
       0.08153031 -0.045576494 0.020008335 -0.012713738
000320 1b 58 75 bd da 4d 8b 3d ed ab 4a bd a8 c0 a9 3e
       -0.059898477 0.068019584 -0.049480367 0.33154798
000330 04 02 06 bc 99 a0 82 bd 9e 6d 35 3d 50 d5 00 3c
       -0.0081791915 -0.06378288 0.044293992 0.007863358
000340 f1 a6 99 3d 5a 49 8e bd 9a bf 9a bc ce 22 22 3d
       0.07502545 -0.069475845 -0.01889019 0.039583974
000350 de 0a 7f 3d 1c ea a7 3c 9a f5 a2 3d cc dc f3 3c
       0.062266223 0.020497374 0.07957001 0.02976837
000360 69 77 14 bd 1d 64 64 3d 9a f7 8c bd 60 14 2c bb
       -0.03624669 0.055759538 -0.06883164 -0.0026257262
000370 e4 f8 8f 3d e0 31 15 bc 10 87 32 3c 3a 4f 64 bd
       0.07029894 -0.009106129 0.010896459 -0.05573962
000380 47 f2 93 bd 9a 36 47 3d 9c 70 f8 bc 72 45 cc bc
       -0.07223945 0.048636056 -0.030327134 -0.024935458
000390 fc a2 61 be b7 97 8d bc 80 4a 17 3a 5f 4d a2 3d
       -0.2203483 -0.017284257 0.0005771294 0.079249136
0003a0 e1 80 fd 3d 9c 94 4f bd e9 34 bb bc 0f 8d 8f 3d
       0.12378097 -0.050678834 -0.022852378 0.07009327
0003b0 42 c5 5b bd 28 6f 84 3c e5 5f c5 bc 9c 74 8d 3c
       -0.053654917 0.016166285 -0.024093578 0.017267518
0003c0 c0 c6 04 bc c0 c8 90 3a c6 61 4d bd 47 a8 a9 be
       -0.008104026 0.0011046156 -0.050142072 -0.33136198
0003d0 da 4d df bc 89 09 ba 3d 9d 8d 8f 3e 77 12 a8 3d
       -0.027258802 0.0908385 0.2803773 0.08206647
0003e0 57 f2 69 bd cc 95 94 3c 80 ce ac bd 4c a0 60 bd
       -0.05711588 0.018137835 -0.08437824 -0.05484037
0003f0 b7 92 24 bd df 1a a6 bc 88 b4 9d bd 7a 51 87 bd
       -0.04017898 -0.020276485 -0.07700449 -0.06607337

bias f4 [64]
000000 a3 6c 89 3d 09 6e 54 3c b1 98 7c bd a7 4d 90 3d
       0.06710174 0.012965688 -0.061669055 0.07046061
000010 36 06 56 bd d7 e7 81 3d 06 b8 ef 3c 18 80 9f bc
       -0.052252017 0.06343048 0.029262554 -0.01947026
000020 6b 1c 42 3d b0 46 12 3b e3 3c 0a be 65 27 c5 bb
       0.047390383 0.0022319965 -0.13499789 -0.006016659
000030 0c 13 ce 3c d3 f2 d5 3b 8b 9d 69 bd b7 e6 f3 3c
       0.025155567 0.006529191 -0.05703501 0.0297731
000040 81 8b 48 bd b9 41 72 bd c0 27 f4 ba e3 13 92 bd
       -0.048961166 -0.05914471 -0.0018627569 -0.07132699
000050 77 fb 48 3d fa 34 2a 3d b5 ff 54 3d 29 e8 a2 3a
       0.04906794 0.04155443 0.052001674 0.0012428808
000060 f7 01 a5 3d 65 04 97 bd 64 2c 24 3d 0e 22 da bc
       0.080570154 -0.07373885 0.040081397 -0.026627567
000070 e1 a1 aa bc 1a 12 35 3d 9c 31 91 3b 01 b4 80 3d
       -0.020829143 0.044206716 0.0044309627 0.06284333
000080 fa b3 3d 3d 7c 07 fb bc b0 8b 7d 3d 80 48 8c bd
       0.046314217 -0.030643217 0.061900795 -0.06849766
000090 f9 3d 1e 3d c0 36 0d 3c 71 43 b2 3d 1b 10 ac 3c
       0.03863332 0.00861901 0.0870427 0.021003773
0000a0 80 6e ee bb b8 92 47 bc 65 b5 5d bd f7 06 ae 3d
       -0.007276356 -0.012180977 -0.05412807 0.08497422
0000b0 f9 18 a0 3d 68 db 8d bc 2e 4f 02 3e a8 e4 e7 3c
       0.07817263 -0.017316535 0.12725517 0.028307274
0000c0 52 80 6e 3d 61 5e 52 bd 40 59 6b bc 93 92 3f 3d
       0.058227845 -0.051359538 -0.014364541 0.046770643
0000d0 ee ae 5a bd e7 89 1f bd c5 e4 1c 3d d1 50 8f bd
       -0.053389482 -0.038949873 0.03830411 -0.069978364
0000e0 d8 67 99 bd 6b db b8 3c da cc c1 3a a5 2e e0 bb
       -0.0749051 0.022565564 0.0014785782 -0.006841498
0000f0 d9 b9 0f bd 93 f8 3d bd 9b 89 2a 3c 8d 1d a1 bc
       -0.035089348 -0.046379637 0.010408784 -0.019667411

weight f4 [32, 64]
000000 40 94 4c bc 2d 7f 5d 3d 20 a3 de 3c a8 9b ff bd
       -0.012486517 0.054076362 0.027177393 -0.12480861
000010 4e 71 e4 3d 5e a5 ee 3d 5c d2 f4 3d 10 63 03 3c
       0.11154424 0.11652635 0.11954185 0.008019224
000020 e2 7c f2 3c bc 46 5c bd ab b4 c3 3d 94 44 d8 bd
       0.029600564 -0.053778395 0.09555944 -0.10559955
000030 a8 83 b5 bc d2 46 82 bd f0 21 7a 3d 51 64 07 3b
       -0.022157505 -0.06361164 0.06106752 0.0020659158
000040 84 6d 8e 3c 8a da bd 3c f8 3d fb 3d e2 5e 5b 3a
       0.017386205 0.023175497 0.12267679 0.00083683257
000050 d0 37 ca bd 9a 02 e4 3d e2 82 ae 3d b8 13 4a bd
       -0.09873927 0.11133309 0.08521058 -0.04933521
000060 f4 02 9d 3d 7b a0 86 bd 0e 49 c0 bd 70 87 1b bd
       0.07666579 -0.06573578 -0.09388934 -0.03797096
000070 2e ae fd bc 1c df f1 3d 08 0f 85 bc 00 a9 43 bc
       -0.030966844 0.11810133 -0.016242519 -0.011942148
000080 c4 ac 7b bd ac 47 ad 3c eb 3a c0 bd 3c 9c 27 bd
       -0.06144406 0.02115234 -0.09386238 -0.04092048
000090 a1 a4 d2 bd 20 73 33 bd 00 2c 92 bc 79 9e 84 3d
       -0.10285307 -0.043810964 -0.017843246 0.06475539
0000a0 c8 61 d2 bd d0 f0 da 3d 06 38 96 3d 4b d9 7a 3d
       -0.102725565 0.106904626 0.073349044 0.061242383
0000b0 64 fd 9b 3d 08 09 d8 3d 1a 73 e6 bd 46 1a d9 3d
       0.0761669 0.105485976 -0.11252423 0.106007144
0000c0 64 bf 08 bd e8 55 e2 bd d5 4a 0b bd 14 4d 8d bd
       -0.03338565 -0.110515416 -0.034006912 -0.06899467
0000d0 1c f8 cc bd 80 e1 84 bd ea aa 96 3d 31 19 52 3d
       -0.100082606 -0.06488323 0.07356818 0.051293556
0000e0 16 7d 8b bd 1e e7 9c bd e8 d4 db 3c 4a 28 a8 3d
       -0.068109676 -0.076612696 0.02683492 0.082108095
0000f0 12 3f 93 3d e0 cc 8d bb d3 06 f9 bd a6 59 3f 3d
       0.07189764 -0.0043274015 -0.12159505 0.046716355
000100 6c 8d 65 bd d2 dc a2 3d 78 c4 be 3c 50 bb 87 3c
       -0.056043074 0.079522744 0.023287043 0.01656881
000110 e4 99 4f 3d a4 4f 50 3d 08 4b 89 bc a2 6b ab bd
       0.05068387 0.0508572 -0.01675941 -0.08370139
000120 08 4e 98 3c 60 a2 bc 3b 3c 39 c4 3d 04 35 0b bd
       0.018591896 0.0057566613 0.09581229 -0.033986107
000130 62 c4 a7 bd 00 4e 3e 3d 46 47 a7 3d 0a 28 ba bd
       -0.08191754 0.046461105 0.08167891 -0.09089668
000140 a8 17 cf bd 06 19 96 3d d4 f5 53 3d a6 50 d7 3d
       -0.10111934 0.073289916 0.05174811 0.10513429
000150 e6 90 ef 3d e2 66 cc bd 68 33 f2 bd e0 83 69 bc
       0.11697559 -0.09980561 -0.11826211 -0.014252633
000160 60 5c af 3c 4c df a3 bd e6 ba c1 bd c0 2e 17 3d
       0.021406353 -0.08001575 -0.09459476 0.03690982
000170 d0 a6 00 3c 58 38 cd bd e8 3c e3 bd 62 2c dc 3d
       0.007852271 -0.10020512 -0.11095601 0.10750653
000180 fe c6 cb bd c0 28 6a bc 6a f8 a8 bd 7e 9d d0 3d
       -0.09950064 -0.014291942 -0.08250506 0.10186289
000190 12 3c d9 bd 12 80 fb bd b4 fc cd bd 80 5c f3 bc
       -0.10607161 -0.12280287 -0.10057965 -0.029707193
0001a0 5e a1 b0 3d e8 4a 77 3d 70 0c 1d 3c 62 50 b4 bd
       0.08624528 0.06037417 0.009585485 -0.08804394
0001b0 fa c8 c8 bd 78 97 94 3c 84 29 1c bd 72 78 dd 3d
       -0.09803958 0.018138632 -0.03812553 0.10813989
0001c0 24 43 04 3d c0 bc e9 3d 10 3c 30 bd 2a 8d 9b bd
       0.032290593 0.11412954 -0.04302603 -0.07595284
0001d0 1e ae 87 bd 46 4e c0 3d b2 55 92 bd 98 4b e9 3c
       -0.06625007 0.093899295 -0.07145251 0.028478429
0001e0 70 82 fb 3c 3a a0 b4 bd 40 57 a9 bc c8 c2 bf 3c
       0.030701846 -0.08819623 -0.020671487 0.023408309
0001f0 ae e8 b5 bd d6 21 8d bd 98 29 ed 3d 00 18 17 3a
       -0.08882271 -0.06891219 0.11580199 0.0005763769
000200 ee e5 b9 bd f1 df bc 3d 04 a0 01 be 78 a0 88 bd
       -0.09077059 0.09222401 -0.12658697 -0.06671232
000210 f0 9c 4d bc d0 06 f9 3d 78 03 ae 3d 88 1f ae 3d
       -0.012549624 0.121595025 0.08496755 0.08502108
000220 34 7b d7 be 81 cf ca bd f2 71 97 3d ba 24 e9 bd
       -0.42086184 -0.099028595 0.0739478 -0.11383958
000230 42 7c 02 bd 2c b5 55 3e a0 f1 46 3c b5 34 1c bd
       -0.031856783 0.20869893 0.012142569 -0.038136203
000240 ab fb 35 bd 28 2d a0 be 04 20 fd 3d 9c 09 5a be
       -0.044429462 -0.3128445 0.12359622 -0.21292728
000250 78 1c bb 3a ec d6 fd bd e8 12 a4 bd d7 03 d4 3c
       0.0014275452 -0.12394509 -0.080114186 0.025880737
000260 fe 2a f4 3d 2b e3 81 be 34 64 da bd 40 b7 d8 bc
       0.119222626 -0.25368628 -0.106636435 -0.026454568
000270 06 c7 f0 3d 9c 99 20 bd 40 43 e5 bc 60 ab a7 bb
       0.11756711 -0.039208993 -0.027986169 -0.005116865
000280 68 fc a3 bd 0e 47 04 3e c9 d3 28 be 64 da 63 bd
       -0.08007127 0.1291773 -0.1648704 -0.055628195
000290 52 2f b7 bb c0 b4 af 3b 5e 5a 81 3d 8a 96 43 be
       -0.005590358 0.0053621233 0.06316064 -0.19100395
0002a0 d0 b5 66 bd c0 d0 c1 bd 20 e7 13 bd 2c 8f 7e bd
       -0.056325734 -0.09463644 -0.03610909 -0.062148258
0002b0 c6 b3 84 bd b0 72 a0 3d 68 cc 0c 3e f0 f5 9c bc
       -0.064796016 0.07834375 0.1374985 -0.01916024
0002c0 58 3a 64 3d 16 eb 49 3d 62 8e 34 be 37 99 54 bd
       0.055719703 0.04929646 -0.1763244 -0.05190393
0002d0 18 ae 05 bd f8 c8 a9 3c 86 de 92 3d dc d6 86 3d
       -0.032636732 0.020725712 0.07171349 0.0658395
0002e0 5c f8 d7 bd 86 7f 25 3e d9 26 a4 3c fc 15 56 bc
       -0.10545418 0.16161928 0.020038055 -0.013066765
0002f0 40 96 6a 3b f0 dd 9e 3d 07 d4 fc 3d 7d c1 69 bd
       0.0035795122 0.07757175 0.123451285 -0.05706929
000300 78 7b c0 bd c0 8f d8 bb 80 c8 d6 bd 00 ed 06 3d
       -0.0939855 -0.006608933 -0.10487461 0.032940865
000310 30 83 aa 3c 92 88 dc 3d f8 90 bf bc 30 d6 68 3d
       0.020814508 0.10768236 -0.023384556 0.05684489
000320 14 24 84 bd dc e6 ae 3d e8 bc b0 3d 08 d5 d0 3c
       -0.06452194 0.08540127 0.08629781 0.025492206
000330 68 21 8e 3d 86 df b4 bd 64 c4 c0 3d a0 26 8d bb
       0.069399655 -0.08831696 0.094124585 -0.004307583
000340 8c 7a c3 bd f4 8a 17 bd 38 8e e9 bd 68 a1 99 3d
       -0.09544858 -0.03699775 -0.11404079 0.07501489
000350 6a 07 ba 3d 84 97 f4 bd e4 66 9e bd 78 87 89 3c
       0.09083445 -0.11942962 -0.077344686 0.01678823
000360 48 aa 9e bd e2 16 cf 3d c0 dd 7a bb ee f7 80 bd
       -0.07747322 0.101117864 -0.0038279146 -0.06297289
000370 9a 23 c9 3d c4 e2 7a bd 14 66 81 bd 82 17 98 3d
       0.098212436 -0.061251417 -0.06318298 0.07426359
000380 88 aa 03 3d 20 f8 4d bd e8 8f 9c bd e8 a3 40 bd
       0.032145053 -0.05028546 -0.076446354 -0.047031313
000390 fc b5 af bd 98 82 41 bd 74 0e d8 bd 04 c1 e1 bd
       -0.08579633 -0.047243685 -0.10549632 -0.11023143
0003a0 88 42 a8 bc 3c e0 e3 bd 7c 5c f8 bd b0 de 2d bc
       -0.020539537 -0.11126754 -0.12127015 -0.010612175
0003b0 e8 de 63 3d 3e 37 b6 bd d4 35 9d bd 78 8e b7 bd
       0.0556325 -0.08897255 -0.076762825 -0.08962721
0003c0 40 df ae bd 60 08 fc 3c 42 56 87 3d fa b0 a2 3d
       -0.08538675 0.030765712 0.06608249 0.07943912
0003d0 a2 de ab 3d 7c 6b fd bd 28 6a a0 bd 46 0d e0 bd
       0.08392073 -0.12374017 -0.07832748 -0.10940032
0003e0 38 69 db 3d b8 c4 67 bd d4 08 ff bd 00 fb 2e ba
       0.10713428 -0.05658409 -0.12452856 -0.0006674975
0003f0 c6 8d cb 3d 68 55 24 bd 80 96 95 3c 94 87 21 3d
       0.099391505 -0.040120512 0.01826024 0.039435938

bias f4 [32]
000000 f5 45 f7 bd 40 45 f6 bb 1c 9f 3b bc 80 1c 91 bd
       -0.1207389 -0.0075155795 -0.011451509 -0.07085514
000010 71 29 4d bd f8 5b b2 bd fa 7e 45 3e 0e d8 20 3d
       -0.05008835 -0.08708948 0.19286719 0.039268546
000020 61 de ab bd 9a e6 d8 3c c6 46 f6 bd 7c 01 03 bd
       -0.08392025 0.026477147 -0.12025218 -0.031983837
000030 17 c3 8a bd 4e f9 f1 bc fd 07 5e 3b 9d b3 4e 3d
       -0.06775492 -0.029537823 0.0033879273 0.05046426
000040 ce a8 de 3c cf 6a e8 bd 4e 73 5c 3d 3c e1 2f 3d
       0.027180102 -0.11348497 0.0538209 0.04293941
000050 18 84 a0 3d 92 42 c6 3d 78 7e d2 bd db 6b 12 3e
       0.07837695 0.09680666 -0.10278028 0.14298956
000060 e5 32 11 bd 10 68 85 3d 26 3a ed 3d e9 19 4f 3c
       -0.035448927 0.06513989 0.115833566 0.012640455
000070 f8 f3 71 bc 5d 72 9d bd 9d 67 cc 3c 36 2e c4 bc
       -0.014767639 -0.07687829 0.02495175 -0.023947816

weight f4 [8, 32]
000000 82 31 e9 3d 2d f3 e6 bd 51 e5 29 3e 72 08 c2 3d
       0.11386396 -0.11276851 0.16591384 0.09474267
000010 d1 b1 e3 3d e0 0d f9 3b 13 de 0f be d4 cd 83 3c
       0.111179 0.007600531 -0.14049558 0.016089357
000020 c4 86 0c 3e 93 61 25 be 55 b0 13 be c0 78 83 bb
       0.13723284 -0.16150503 -0.14422734 -0.0040121973
000030 8b 66 18 3e c1 c9 a6 3c 42 54 e2 bd 1b 3a 49 bd
       0.14882867 0.020359876 -0.11051227 -0.04912768
000040 b2 f3 d3 3d 3d 45 13 bd 59 04 32 be e4 84 0c be
       0.103492156 -0.035954703 -0.17384471 -0.13722569
000050 3e 44 31 be 59 24 bf 3d e0 05 87 3b a7 2a ad bc
       -0.17311189 0.09333105 0.0041205734 -0.021138502
000060 10 aa 6b 3d 94 8d 03 be 7e db 81 3b de da 9c bd
       0.05753523 -0.12846977 0.003962933 -0.07658933
000070 cf 7f a0 3c 01 19 e8 bd 06 97 b5 3d e4 34 94 bd
       0.019592194 -0.11332894 0.08866696 -0.072366506
000080 5a 40 00 be b9 a3 18 3e 77 d3 7a 3e d4 ad aa bd
       -0.12524548 0.14906205 0.2449473 -0.08333936
000090 48 7e f9 be fb 3f 9b 3c 3f 52 3d 3d 9a c5 05 be
       -0.48729157 0.018951407 0.046221014 -0.1306366
0000a0 45 7c 68 bd 3f 2a 85 bd 35 ad 29 bd 2f 56 18 3e
       -0.056759138 -0.065021984 -0.04142495 0.14876626
0000b0 5d ce 32 bd 5a 2c fa 3d 9b 96 93 3e c3 3e 95 bc
       -0.043653835 0.12215491 0.2882584 -0.018218404
0000c0 6c d0 b3 3d 10 b7 4b 3e 2e 92 85 be 36 c7 d7 bd
       0.08779988 0.19894052 -0.2608809 -0.10536043
0000d0 f7 7e 1a be 3a 1a 00 be a0 f2 d9 3c b4 9a c8 3e
       -0.15087496 -0.12510005 0.02660495 0.3918053
0000e0 1c 0c fc 3d 00 a3 ac 3b 5d fd 3b bd 10 42 22 3e
       0.12306997 0.0052684546 -0.045895923 0.15845513
0000f0 07 0a 73 be d3 17 27 3e 20 df 24 3e 52 ba e4 bd
       -0.23734294 0.16317682 0.1610074 -0.1116835
000100 27 ab f3 3d 3a 97 13 be ab 34 f6 3d e3 66 91 bd
       0.11897879 -0.14413157 0.12021764 -0.07099702
000110 51 cb d1 3e b0 10 f7 bd b2 ae b3 3d 82 0d 58 bd
       0.4097543 -0.1206373 0.08773555 -0.052747257
000120 2b 55 7b 3e 3f 21 02 be 87 d7 13 bc b0 9f 1a 3d
       0.24544208 -0.12707995 -0.009023554 0.037749946
000130 04 4f 45 3d 9c d3 7d be 51 dd 25 3e 60 71 1b 3b
       0.04817106 -0.24787754 0.16197707 0.00237187
000140 22 50 01 3e 68 aa 84 bc 7a 4b e0 3e 1f 02 85 3c
       0.12628224 -0.016194537 0.43807584 0.016236363
000150 b3 3a 16 3d e0 f9 ad bd 3e b0 a6 3d e4 51 0b be
       0.036677074 -0.084949255 0.08139084 -0.13605458
000160 1f bd d8 3c b7 0c 02 3e 83 94 47 bb 3d 14 3b 3e
       0.026457367 0.12700163 -0.003045351 0.18269439
000170 1b b7 fc bc dc 80 5c 3e 18 60 98 3d 34 49 61 3e
       -0.03084903 0.21533531 0.074402034 0.22000581
000180 2b 3e b2 bd 2b 86 1e be 92 fd 77 be 78 5b 88 3c
       -0.08703264 -0.15480869 -0.24217823 0.016645178
000190 9b 8c 6e bd 92 53 b5 bd 10 ce a8 3d 81 ea 98 bd
       -0.05823956 -0.088538304 0.08242428 -0.07466603
0001a0 35 75 e0 3c 5c 60 a5 bc 9b bd 01 be 80 35 fb 3c
       0.027399639 -0.02018755 -0.12669985 0.03066516
0001b0 eb 50 80 3c ce 01 10 3d 10 aa 1e be 30 a2 17 3c
       0.015663585 0.03515797 -0.15494561 0.009254977
0001c0 18 a7 71 3d 0b b6 1c 3e db 2a 84 bd 44 75 e3 bd
       0.058997244 0.15303819 -0.064534865 -0.11106351
0001d0 1a 4d 7f 3e d7 13 b5 3d 41 63 27 3e 63 d9 8c be
       0.24931756 0.08841675 0.16346456 -0.27509603
0001e0 04 78 9b bb b5 0b 17 be c6 66 cd bd 24 02 e0 3d
       -0.0047445316 -0.1475056 -0.10029368 0.10937908
0001f0 3a cc 0e bc 60 85 82 3e c7 ee 00 3d ab 1a d4 3d
       -0.008715684 0.25492382 0.031477716 0.10356649
000200 6e 4f 11 be 98 02 cc 3c c0 67 f8 3e e6 87 a4 bd
       -0.14190456 0.02490358 0.48516655 -0.08033733
000210 01 66 de be 69 e1 7b 3d ea be 95 3e 18 cd 90 3d
       -0.43437198 0.061494265 0.29247218 0.070703685
000220 83 73 a2 3d 16 c3 18 be b5 73 03 be c8 b1 e1 bc
       0.07932188 -0.1491817 -0.12837107 -0.027550593
000230 0e ce a4 3c 60 1c 2c 3d 89 00 bc be 76 5f eb 3c
       0.020117786 0.042019248 -0.36719158 0.028732043
000240 26 6a 0f 3e 68 e6 2b be 90 a3 24 3d b4 70 88 3e
       0.14005336 -0.16787112 0.040195048 0.26648486
000250 4b 66 82 be ce e5 8b 3e d4 a6 2a bd 4f 17 19 3e
       -0.25468668 0.27323765 -0.041663006 0.14950298
000260 aa 8f 80 3d 60 56 c9 bb 2a 1d 2f be 37 2c d5 be
       0.06277402 -0.00614433 -0.17100969 -0.41635296
000270 8c 36 a9 3d 78 91 fe bc 9d 7c 87 3d 0c 14 82 be
       0.08262357 -0.031075224 0.06615565 -0.2540592
000280 10 99 7d 3c 74 31 8f 3d 1e 36 b1 bd 1f 75 22 3e
       0.0154783875 0.06991854 -0.086529 0.1586499
000290 56 5c 04 be 03 9a 7d 3d e8 8d 92 3d 25 8d 16 be
       -0.12925848 0.061914455 0.07155973 -0.1470228
0002a0 db da b2 3d 55 02 51 ba 05 2c da bd 7d 62 a8 bd
       0.087331496 -0.0007973065 -0.10652927 -0.0822191
0002b0 9d 04 dc 3d 76 6e 9d 3d ff 55 34 be f8 d1 2c be
       0.107430674 0.076870844 -0.1761093 -0.16876972
0002c0 f1 59 62 3d f3 47 28 bc b8 f3 cc 3d 46 58 a6 bd
       0.055261556 -0.01027106 0.10007423 -0.081223056
0002d0 11 a5 f6 be 83 13 65 3d 80 a2 47 bb 61 81 a1 bd
       -0.4817281 0.05592681 -0.0030461848 -0.07886005
0002e0 7e f5 33 be 58 5d ae bc 26 10 d2 3d 35 20 b2 bd
       -0.17574117 -0.021284744 0.10256986 -0.08697549
0002f0 82 ad 9b bd 6b 83 d9 bc c3 09 57 be 9a 81 14 be
       -0.07601453 -0.026551923 -0.20999818 -0.14502564
000300 53 c2 05 3e 80 d6 ae 3c 37 6e e9 3c 7e d7 e2 3d
       0.1306241 0.021342516 0.028494937 0.11076258
000310 4b 1e e5 bd 1c d5 93 3d c6 da 84 bd 24 65 11 3e
       -0.111874186 0.07218382 -0.0648704 0.14198738
000320 81 4a 08 3e 06 b0 7b bc 97 a5 2c 3e 00 05 b9 3b
       0.13309671 -0.0153617915 0.16860043 0.005646348
000330 e1 cb 20 be c5 8d 31 be f6 bb 92 3d 0c 0b 15 3d
       -0.15702774 -0.17339237 0.07164757 0.03638749
000340 94 fa e5 3d 91 8e 34 be 67 e2 3f ba 1e 1c 09 be
       0.112294346 -0.1763251 -0.00073198084 -0.13389632
000350 ca 20 97 3d 86 1e af 3d 4c 8a 15 be 52 2d 7a bc
       0.07379301 0.08550744 -0.14603537 -0.015269594
000360 36 27 ad 3d 3d 7b 02 3e 49 cd 24 3e aa dc ac 3c
       0.084547445 0.12742324 0.16093935 0.021101315
000370 85 0d dc bc b7 c6 a3 bd ff a0 52 bd 78 13 96 bd
       -0.026861915 -0.07996886 -0.05142307 -0.07327932
000380 00 1d ae 3b d6 1b f6 3d 87 a1 cb 3d 60 b2 dc bc
       0.0053135157 0.12017028 0.09942918 -0.026940525
000390 24 a4 18 3e e4 58 1e be 4f 86 fa 3a a1 e9 01 3e
       0.14906365 -0.15463597 0.0019113513 0.12686779
0003a0 fb 3d 07 3d 1e 63 34 3d bb 52 92 3d 80 ca 8d 3a
       0.033018094 0.044039838 0.07144686 0.0010817796
0003b0 7e dd 01 be b0 b2 ad bc 7b bc fc bd f2 60 96 b9
       -0.12682149 -0.021203369 -0.12340637 -0.0002868246
0003c0 ec 45 fc 3d dd 7a 08 be ba 04 d9 3d 32 36 a1 bd
       0.12318024 -0.13328119 0.10596605 -0.07871665
0003d0 13 1c 28 3e e7 06 00 be 27 7a b1 bd 6c ad 6c bc
       0.1641696 -0.12502633 -0.08665877 -0.014445644
0003e0 e0 be e7 bd 10 1f 00 bc 1e a8 85 bc 09 a1 93 bd
       -0.113157034 -0.007819906 -0.016315516 -0.072084494
0003f0 7f d3 ac bd 0d 75 2a be 3b da c8 bd 8b d1 70 3d
       -0.08438777 -0.16646214 -0.09807249 0.058793586

bias f4 [8]
000000 d4 1e 02 be bd 89 b6 bd ef ab 2f 3e 88 51 98 3d
       -0.12707072 -0.0891299 0.17155431 0.07437426
000010 78 b3 d2 3d 9c 1e 92 bd 0e bc 2b be e5 c1 aa 3d
       0.10288137 -0.071347445 -0.16770956 0.08337764

weight f4 [4, 8]
000000 53 b0 8b be 11 1a 3d be fa 21 57 3e f0 a9 9e bd
       -0.27282962 -0.18466975 0.21009055 -0.07747257
000010 3b 33 a0 be b8 ae a5 bd df 2c a2 3e 48 4b 7f be
       -0.31289086 -0.080899656 0.3167486 -0.24931061
000020 30 2c 80 bd d8 6e b3 be 9e 5e 52 3e 29 c7 96 3e
       -0.06258428 -0.35045505 0.20543906 0.29448822
000030 8b 18 ae be 78 6e 8b bd bc 97 8a be e5 4d a7 3e
       -0.340031 -0.068081796 -0.2706889 0.32676616
000040 bb 57 75 be 40 71 39 bd 9a de 1f 3e 6e b0 52 3e
       -0.23959248 -0.04527402 0.1561226 0.20575115
000050 54 c0 80 3d 70 8f 81 be 7f 04 39 be 1e 6f 40 3e
       0.06286684 -0.25304747 -0.18068121 0.18792388
000060 ec 69 bb bd 90 9f 08 bd aa e3 49 3e 51 8e 97 3e
       -0.09151062 -0.033355296 0.19715753 0.29600766
000070 9b 5b 3f be 80 cd 51 bb fa ae 41 3e c6 91 85 be
       -0.18687288 -0.0032013357 0.18914405 -0.2608778

bias f4 [4]
000000 42 25 15 3e aa cd 38 be 36 e6 46 3e f2 54 6e 3e
       0.14564994 -0.18047205 0.19423756 0.23274592
