training/ann/models/ann21ep2000.pth (torch, 69232 bytes, 10 tensors)

weight f4 [128, 40]
00000000: f9da ba3d 0c17 0dbc 974e d6be 6cce b03e
00000010: cf4e 65be 352e 113d 3d76 183e 1a29 1ebe
00000020: 8f97 7a3f a5ae 01bd ae48 a4bd a895 243e
00000030: a780 3c3d 8b07 663e 5e36 94bc 3085 203f
00000040: d7b9 bbbe 6e60 1e3f 816c 45be 1ac5 4d3f
00000050: 9dda 833e 5407 82bf 51b2 20bf 1ca8 853e
00000060: 9ae4 0abe c278 813e 4469 1e3d e690 813d
00000070: bf9e 79be 59ab bbbe 31f2 6d3f 2cd8 4fbf
00000080: 009c 08c0 63e7 463e 5776 213f 8a13 00bf
00000090: c9f2 363f f5c6 e73a c559 f13d 6722 823d
000000a0: 1ca8 6b3d 784e d6bc a79c 123e 052d 19be
000000b0: a0b0 05bc ca0e d33d 8819 753d 220e 8ebd
000000c0: 8453 b0bd 44b8 553d 3809 b73c 70e7 273d
000000d0: 84e2 993d 5a51 ab3d 3f31 0d3e 60e5 96bb
000000e0: 582d babc 5e05 0cbd 006c 1f3a 012d 1b3e
000000f0: 688c 913d f623 0fbd 941c 183d f038 493c
00000100: a262 8e3d 64ff 17bd 4837 62bd 1fbf 0f3e
00000110: 50aa 443d 637a b7bd abf3 babd f968 143e
00000120: 732a 1d3e dce6 13bd ced3 c13d d036 be3c
00000130: ff1e 1b3e e07f eabc 3c83 2b3d 9e7d 92bd
00000140: 6666 40be 4a0c 9b3d 88b3 bdbe 8d0e 243f
00000150: d3c5 2a3f 5f3b 79bf fbe5 06bf 56e2 80be
00000160: 4fd9 2f3e cfc6 4abf d1d5 1e3f 6944 b8bf
00000170: 4f15 153f 9dca 01be 1f92 3e3c aef8 c33e
00000180: 127f 4fbe dc5a 173f 68af 07be e8d7 42be
00000190: 66bf 5c3e 6b0c e0be b37a 86bf 5b73 123f
000001a0: 0106 c43e 6121 353e ffab fa39 cf15 c83c
000001b0: cfec 00bf 1147 243e 8a76 4f3c 81a0 b0be
000001c0: 5303 88bf f4ca 9bbe 8e10 873e 6506 013f
000001d0: bb8e 373f 9ab1 ee3e 1d8b a6be 9f8a 133e
000001e0: ca36 f73d f8c4 06be b0e9 db3c 00a5 8f3d
000001f0: 2cb2 30bd 6ea5 f33d fe8a ebbd 00a9 f2bb
00000200: 32ec 963d 56b0 e53d 0844 b9bc 5ef4 02be
00000210: 323c d0bd 60f3 a6bc 0826 de3c 706d b2bc
00000220: aa8e ec3d f40f ecbd a074 1c3c c5ca 97bd
00000230: 60ff 8e3b a4f1 903d 0e80 efbd 72bb a33d
00000240: 2a60 04be c762 1c3e ae55 cd3d 3cd3 b33d
00000250: c01b 3c3d 57f6 193e 96bb aa3d ec68 f5bd
00000260: 78dd c1bc 8c67 a63d 54be 363d db92 a2bd
00000270: c41c 0e3d b124 153e 88a9 89bc 193c 113e
00000280: 9634 60bd 6004 9c3d b3e9 2bbf 30ad 443f
00000290: c2e1 80be 8677 09be 558a afbe 1e4f 913e
000002a0: 8c3b e8be 17ce c8be 373b bd3e 919e debe
000002b0: bc2f a23d b946 a1be daf2 9a3e 2d34 6d3d
000002c0: c354 a03d 06ec c63e 93f3 08be e23d a73e
000002d0: 3e04 1f3e 9c5d 87bf 4727 f6be b82b cdbc
000002e0: 55bc 06bf a25d 713f 3971 7ebe 8639 573e
000002f0: 248b 60bf b05f 583d a9ed 6b3e 1e30 5abe
00000300: 88bc c8bd b567 533f 98e2 623c ee62 babe
00000310: 3b09 a93c 9bcc 9c3e 5371 2a3d 43fb b83d
00000320: f0ce 043c f8d1 adbd dac0 dd3d 912a 02be
00000330: 1011 2c3d 3c21 923d 94a2 993d 5011 c0bc
00000340: 708e 783d 5c9c 17be 2f2c 083e 1176 053e
00000350: c05f cb3c 9018 0f3d 3dbc 02be c022 25bd
00000360: 03d6 103e 8466 0e3d 27a6 88bd f99f c3bd
00000370: 523f 88bd 98c6 eb3c b4a8 51bd 0c6f 46bd
00000380: 02ae d7bd 4835 c9bd c002 e03b b800 09be
00000390: 8b34 8fbd aa49 c73d 3877 573d 3f7d 00be
000003a0: b475 05bd e871 d6bc 5088 4ebd 004b a7bc
000003b0: 30a1 7cbc 08cd 6b3d a840 3cbd baf3 90bd
000003c0: bfd2 b73d d291 5a3d 7406 153f 609c 2dbf
000003d0: 262a aebe e5fc 32bf caa3 683f 76fa 643e
000003e0: b20e f03e 6ae6 e43d c524 91be e0c2 243d
000003f0: c0cf 0ebe c35a 373f 2066 35bf 67f3 96bd
0.09123797 -0.008611452 -0.41856834 0.34532487 -0.22393344 0.035444457 0.14888854 -0.15445367
0.9788751 -0.031660695 -0.08021675 0.16072714 0.04602113 0.22463815 -0.01809233 0.6270323
-0.36665222 0.6186589 -0.19279672 0.8037888 0.25752726 -1.0158486 -0.6277209 0.2610482
-0.13563767 0.25287443 0.038674608 0.06326465 -0.24376963 -0.36654165 0.9294768 -0.8118923
-2.1345215 0.19424205 0.630712 -0.50029814 0.7146421 0.0017683195 0.117847 0.06354218
0.05753337 -0.026160464 0.1431757 -0.1495858 -0.008159786 0.10305555 0.0598388 -0.06936289
-0.08609679 0.052177683 0.022343263 0.0409922 0.075139076 0.08365126 0.13788317 -0.0046049803
-0.0227267 -0.034184806 0.0006081462 0.15153886 0.071068585 -0.034946404 0.03713663 0.012281641
0.069524065 -0.037108794 -0.0552285 0.1403775 0.048013985 -0.0895889 -0.09128507 0.14493169
0.15348224 -0.036108837 0.09464227 0.023219496 0.15148543 -0.028625429 0.0418732 -0.07152866
-0.18789062 0.07570703 -0.37051034 0.640847 0.66708106 -0.9735622 -0.5269467 -0.2517268
0.1717274 -0.7920961 0.6204501 -1.4395877 0.5823564 -0.12674947 0.011631518 0.38275665
-0.20263317 0.59123015 -0.13250506 -0.19027674 0.21557388 -0.43759474 -1.0506195 0.5720727
0.3828583 0.17688514 0.00047811863 0.024424462 -0.5036134 0.16042735 0.012662539 -0.34497455
-1.0626014 -0.30428278 0.26379818 0.5040038 0.71702164 0.46619874 -0.3252801 0.14408349
0.12070997 -0.13161075 0.02684483 0.07013893 -0.043138668 0.118967876 -0.1150112 -0.0074054003
0.073692694 0.11215274 -0.022615448 -0.12788531 -0.10167731 -0.020379722 0.027117744 -0.0217807
0.115506485 -0.1152648 0.00954929 -0.07411722 0.004363939 0.07077339 -0.11694346 0.07994737
-0.12927309 0.15272056 0.10026108 0.08780524 0.045924902 0.15035377 0.083365604 -0.11982903
-0.023665175 0.08125219 0.044615105 -0.07938167 0.0346954 0.14564778 -0.016804472 0.14183082
-0.05473765 0.07618022 -0.6715347 0.76826763 -0.2517224 -0.13424501 -0.34285226 0.28380674
-0.4535793 -0.39219734 0.3695924 -0.43480352 0.07919261 -0.3149927 0.30263406 0.057911087
0.07828667 0.38851947 -0.13374166 0.326644 0.15528962 -1.0575442 -0.4807684 -0.02504526
-0.5263112 0.942835 -0.24847879 0.21018037 -0.8771231 0.05282563 0.23039879 -0.21307418
-0.098015845 0.8258012 0.0138479695 -0.36403602 0.020634284 0.30624852 0.04161198 0.09032299
0.008105978 -0.08487314 0.10827799 -0.1271155 0.04200846 0.07135245 0.075017124 -0.023445755
0.060682714 -0.1480574 0.13298105 0.1303332 0.02482593 0.034935534 -0.1276712 -0.040316343
0.14144139 0.034765735 -0.06672316 -0.09551997 -0.066527024 0.02878122 -0.05118628 -0.048445746
-0.10531236 -0.09824616 0.0068362653 -0.1337918 -0.06992444 0.09730847 0.05260393 -0.12547778
-0.032582954 -0.026177362 -0.050422966 -0.020421505 -0.0154192895 0.05756858 -0.0459601 -0.07077737
0.089757435 0.05336172 0.5821297 -0.67816734 -0.34016532 -0.69917136 0.9087492 0.22361168
0.46886212 0.111767605 -0.28348365 0.04022491 -0.13946438 0.71622866 -0.70858955 -0.07370644

bias f4 [128]
00000000: d1f3 f5bc a2e8 aabd 0e6c a9bc 7272 b43d
00000010: 8256 4e3c 5617 74bd 21cf 68be c0dc 20bc
00000020: 085c e73d 3297 adbd 8979 88bd 42bb bf3d
00000030: 0ded bfbd dee7 a3bd e08d 94bb 061d f83c
00000040: 2dea b3bd 4c0c 2ebd a3a2 0a3e 955b 20be
00000050: 93d0 003e 40c4 403b af65 063e 25df f9bd
00000060: c95f 60be 8a21 d63d 8f24 5fbd 2ee4 81bd
00000070: be55 803d 60f8 17be 9b34 74bd b6be cdbd
00000080: e9f9 28be 8092 2f3d 7334 dfbd ebf2 143e
00000090: b1ed c8bd 5a91 173e fa8b f83d 2c3b 10be
000000a0: 2028 51be bb12 f9bd d5e0 2fbe 61c9 1c3e
000000b0: f0b1 fc3c 7c92 bbbb 0db7 46be 616a 84bd
000000c0: a930 933c e130 5abe 82b7 ed3d ca34 6bbd
000000d0: b647 263d 1ab1 a0bd 8a5a 2c3d bea3 be3d
000000e0: d518 15be 5a9e dbbd d796 1dbe abc0 80bd
000000f0: a4cb b33d aec1 103e 33dc 3a3d fea5 fc3d
00000100: ecf0 57be 6723 123e a785 1a3e 75d9 42bd
00000110: 7fcd d53b c9b8 17be df44 fc3c 8fd2 2b3d
00000120: 45f2 263e f3b9 343e 98b3 09be abfe 133e
00000130: a227 843d d381 103e 8e04 94bd f2ac 1fbd
00000140: 95b3 babd 3a6d 07be 455c 913c 24b5 383d
00000150: f932 1b3e 9081 5d3d 374e d9bd baa2 1fbd
00000160: a47e 843d eb8d 333c f3c2 643c ca49 cbbd
00000170: 3c5e 133e 4889 203d b8e0 c1bd 8329 413d
00000180: 788e 62be 76d7 f23d 6875 b8bd f5fb 8bbe
00000190: a4f8 d13d 580e a3bd 74fd 03bd 1bca 15be
000001a0: 8e1b 25be 6e12 2fbd 07cb dfbd f033 d7bd
000001b0: 6c8d 0b3d c7b9 053e 001b 8d3d 8d8b e3bd
000001c0: a01b c7bd 2664 d0bd 1a7a 84bd 3c9d 87bd
000001d0: 38e8 73bd e28f 4cbd abb5 093e b4c5 f8bc
000001e0: 02ae ecbd 5224 e73d 9a30 d6bd 4c28 213d
000001f0: 20af ce3c 2556 af3c 6968 973c 8826 bdbd
-0.030023487 -0.083451524 -0.020681407 0.08810891 0.012593867 -0.059592567 -0.22735263 -0.009818256
0.112968504 -0.08476104 -0.06663806 0.093618885 -0.09371386 -0.080032095 -0.0045335144 0.030287277
-0.087849 -0.042492196 0.13538603 -0.15659936 0.12579565 0.002941385 0.13124727 -0.122007646
-0.21911539 0.10455616 -0.054478224 -0.0634235 0.06266354 -0.14840841 -0.05962048 -0.10046141
-0.16501583 0.042864323 -0.10898676 0.14545791 -0.09810961 0.14801541 0.121360734 -0.14085072
-0.20425463 -0.12161776 -0.1717561 0.15311195 0.030846566 -0.0057242494 -0.19405766 -0.06465603
0.017967539 -0.21307708 0.11607267 -0.05742339 0.040595733 -0.078462794 0.042078532 0.09308575
-0.14560254 -0.107235625 -0.15389572 -0.062867485 0.08779076 0.14136383 0.045620155 0.12336348
-0.21087998 0.14271317 0.15090047 -0.047570664 0.006524741 -0.14816584 0.030794559 0.04194885
0.16303356 0.17649059 -0.13447416 0.14452617 0.06452872 0.14112024 -0.07227431 -0.038983293
-0.09116284 -0.1322526 0.017744193 0.045094624 0.15156163 0.05407864 -0.106106214 -0.038973548
0.06469467 0.010959129 0.013962495 -0.099261835 0.14391416 0.03919342 -0.0946669 0.04715873
-0.2212466 0.11857502 -0.090067685 -0.27340665 0.102525026 -0.0796172 -0.032224134 -0.14627878
-0.16123793 -0.042742185 -0.10927396 -0.10507953 0.034070417 0.1305915 0.068899155 -0.111106016
-0.09722066 -0.10175352 -0.064686015 -0.06621787 -0.059547633 -0.049941905 0.13448207 -0.03036771
-0.11556627 0.112862244 -0.10458489 0.03934507 0.02522999 0.021403382 0.018482404 -0.09235865

weight f4 [64, 128]
00000000: 0436 1b3d 9c43 893c 9719 553d 04f1 00bd
00000010: b9e5 233d 2648 0c3d e904 6f3d bcdd b43c
00000020: 827a 863d 8062 c1bd 42da 83bd c832 e43c
00000030: b532 b03d d04f 843b ee61 4d3d f6d4 73bd
00000040: 4ace 543d 50eb 8ebb 33d9 1b3c a0b4 e43c
00000050: e25a 323d 87b4 af3d 5c95 c5bc e89d b43c
00000060: bbda 573d 660b 14bd 470c 20bc 4a69 4c3d
00000070: 0027 79bd 4e9c 153d 4211 84bd 1a69 2a3d
00000080: 7db0 01bd 4407 aebd 79db 8bbd 0f87 91bd
00000090: e40f c3bc 5538 36bd 0e8e c03c 1228 633d
000000a0: 4183 aebd aabf 373d ed90 6e3c a87b 02bd
000000b0: 61e1 9fbd 6f82 553d 0a2d d2bd f979 76bd
000000c0: 41f4 613d 80df bdbd e75d 873d ab86 93bd
000000d0: 440b fcbc f4f9 88bc 66bd d0bd 23a7 8d3d
000000e0: 3ae8 01bc 28d3 673d ecf2 513d dc5f 82bc
000000f0: 53fc 8bbc caaa e8bc 1bb4 e4bb aeb2 1a3d
00000100: 376b bbba 2e68 6e3d c4e0 18bc bc3e 99bd
00000110: 98ed 193d a107 873d 9745 9ebd c55b b4bd
00000120: 8997 393c dfd2 60bd 9aa9 8bbd a9fd c03c
00000130: cf9b 63bd 5cc3 113d 35ff 9d3d c06d 3bbc
00000140: 4773 063d 347f 04bd e011 db3c 8fed aa3d
00000150: dbd9 a23d d07b c5bb d0bc 99bd 4074 babc
00000160: 4092 de3a 6641 0a3c ddd3 c4bd 1067 65bd
00000170: 3c6b cdbd 4440 8dbc f2e3 043d 606a 2d3c
00000180: ccf0 d6bb 4051 ca3b 03b4 9ebd 0e21 e6bc
00000190: 6c33 8b3b 54fb 4dbd 7df3 873d aea4 6a3d
000001a0: 7be0 cb3d 0020 52bc 9b1a d1bc 9968 ae3d
000001b0: 0059 54bb 3037 153d e4bc 4dbd 84c9 98bd
000001c0: d183 9c3d 63b4 9d3d 5c01 a8bd 6065 d1bc
000001d0: 5df2 863d 50a9 ac3c 75e9 803c af46 013d
000001e0: ea62 7f3d 4dc3 9cbd b6e6 34bd eab1 643d
000001f0: 703e 0b3c e882 d93b 161d 033d 9cb2 7cbd
00000200: 69fc 823e e0f9 b63b 4d80 e23d 5406 abbc
00000210: da9e 2a3d c178 913d 4dc4 963c 08fb abbd
00000220: ed1c 453c 9cce d7bb 35cb 893d 20ca 36bc
00000230: 04f5 df3c 4dab 2ebd 6e3a 9bbd 3a90 7fbd
00000240: cb60 bb3c c2fb 45bd 5bc1 a03c ea20 7d3d
00000250: 7cdf 89bd 2793 b33d a205 413d 6fea 10bd
00000260: d151 803c 28b8 e23c 0495 82bd d0c2 ae3b
00000270: e079 dcbb 6069 7f3c ebd5 8b3d b8be 99bc
00000280: 9738 b83d a2b2 3d3d 08f9 8c3c e43a afbc
00000290: b54b 75be d73c 753e e907 c4be 5e62 0bbf
000002a0: 8b25 e4bd c37b 883d 23d8 913d 3708 8e3d
000002b0: 9743 34bd ffe6 ca3b d7fa 0dbe 30c8 aebd
000002c0: fe16 4abe d76f 18bb d3c7 ac3d 90b6 42be
000002d0: 5f03 ebbc aa40 413d e741 b43d 2e7f 0bbd
000002e0: 29ff 7cbd a93c 023e 5a72 453e c67f 193d
000002f0: 72ad 923d ea6a 223e eb07 413c 41eb a63d
00000300: 31f5 393d fe9d 223d da3a 47be 1dcf 953d
00000310: 3891 3b3e 6bae 3abd b31d fbba 484d 50bc
00000320: 179c 31be 87da b33e edab 4abd 6155 5a3f
00000330: dc99 c03c 99a0 82bd 9e6d 353d 50d5 003c
00000340: 8ebb bc3d 5a49 8ebd cd3c 9fbc ce22 223d
00000350: de0a 7f3d 1cea a73c d724 733e ccdc f33c
00000360: 6977 14bd 2542 cb3c 138c cabd 6014 2cbb
00000370: 2cac a13d e031 15bc 1087 323c 76b3 13be
00000380: 27e2 09be 9a36 473d b412 fbbd 47f5 69be
00000390: 4a76 62be e411 54bb 804a 173a 5f4d a23d
000003a0: 4255 c03e 9c94 4fbd 338e febc 0f8d 8f3d
000003b0: 42c5 5bbd 286f 843c 1321 e33c b6a0 bf3c
000003c0: c0c6 04bc c0c8 903a c661 4dbd ae5f f8be
000003d0: da4d dfbc 3367 12bd 62a1 633e b997 e73d
000003e0: 57f2 69bd d8a7 113d 80ce acbd 4ca0 60bd
000003f0: b792 24bd 487a 1fbe 7db9 34be b3d2 a83c
0.03789331 0.016755871 0.052026358 -0.03147985 0.040014002 0.034248494 0.058354292 0.022078387
0.06566335 -0.094426155 -0.06438114 0.027856246 0.086034216 0.0040378347 0.05014222 -0.059529267
0.051954545 -0.0043615475 0.009512234 0.02791816 0.043543704 0.08579355 -0.024119072 0.022047952
0.052698832 -0.036143683 -0.009768552 0.0499051 -0.06082821 0.036526017 -0.06448604 0.04160414
-0.031662453 -0.084974796 -0.068289705 -0.071058385 -0.023811288 -0.044487316 0.023505237 0.055458136
-0.085211284 0.04486052 0.01456092 -0.03185621 -0.078066595 0.052126344 -0.10262497 -0.060174916
0.05516458 -0.09271145 0.06609707 -0.0720342 -0.03076709 -0.01672075 -0.10192375 0.069166444
-0.007928902 0.05659786 0.05125706 -0.01591485 -0.017088091 -0.028401751 -0.006979478 0.03776806
-0.001429892 0.058204822 -0.009330932 -0.07482669 0.037580103 0.06593252 -0.07728117 -0.08806566
0.011327633 -0.054888602 -0.06819458 0.023558455 -0.055568513 0.0355867 0.077146925 -0.011439741
0.03282478 -0.032347873 0.026741922 0.08346092 0.07951709 -0.0060267225 -0.07506716 -0.02276051
0.0016980842 0.008438444 -0.09610722 -0.05600649 -0.10030219 -0.017242558 0.032443948 0.010584444
-0.006559467 0.0061742365 -0.07749178 -0.028091934 0.0042480733 -0.050288513 0.066382386 0.057285957
0.099549256 -0.012825012 -0.025525382 0.08516044 -0.003240168 0.036429584 -0.05022897 -0.07460311
0.076423295 0.07700422 -0.08203384 -0.025561035 0.06589196 0.021076828 0.015736321 0.03156155
0.06235019 -0.07654438 -0.044165336 0.055833735 0.008498773 0.0066379197 0.03201016 -0.061693773
0.255832 0.0055839866 0.11059628 -0.02087704 0.0416554 0.0710311 0.01840415 -0.0839749
0.012030822 -0.006585909 0.06728212 -0.011156589 0.027338512 -0.042643834 -0.07579504 -0.062393405
0.022873303 -0.048335798 0.01962345 0.061798967 -0.067320794 0.087683015 0.047124512 -0.035379823
0.015664013 0.027675703 -0.06376079 0.005333282 -0.006728396 0.015589088 0.06827911 -0.0187677
0.08995169 0.046312936 0.017208591 -0.021390386 -0.23954661 0.2394899 -0.38287285 -0.5444697
-0.11139973 0.06664231 0.07121303 0.069351606 -0.04400977 0.0061920877 -0.13865219 -0.085342765
-0.19735333 -0.002326002 0.08436551 -0.19014955 -0.02868813 0.04718081 0.088016324 -0.034056835
-0.061766777 0.12718453 0.19281903 0.03747537 0.07161988 0.15861097 0.011781673 0.0815034
0.04539985 0.039701454 -0.19456044 0.07314894 0.18317115 -0.045576494 -0.0019158631 -0.012713738
-0.173447 0.3512766 -0.049480367 0.8528653 0.023510866 -0.06378288 0.044293992 0.007863358
0.09215461 -0.069475845 -0.019438172 0.039583974 0.062266223 0.020497374 0.23744522 0.02976837
-0.03624669 0.024811814 -0.09889998 -0.0026257262 0.07894167 -0.009106129 0.010896459 -0.14423928
-0.13465177 0.048636056 -0.12259427 -0.22847472 -0.22115436 -0.0032359296 0.0005771294 0.079249136
0.37565047 -0.050678834 -0.031073665 0.07009327 -0.053654917 0.016166285 0.027725732 0.023392063
-0.008104026 0.0011046156 -0.050142072 -0.48510498 -0.027258802 -0.03574295 0.22229531 0.11308236
-0.05711588 0.03556046 -0.08437824 -0.05484037 -0.04017898 -0.1557399 -0.17648883 0.020608282

bias f4 [64]
00000000: 4f6d 453d a4a2 b03d f9ac f4bc a74d 903d
00000010: 3606 56bd d7e7 813d 06b8 ef3c 1880 9fbc
00000020: b5f0 a33c f35c d2b9 80df 2abe 6527 c5bb
00000030: be9c 9b3c d309 d43c 4fd4 90bd ba50 923d
00000040: 1b78 61bd 0b92 6ebd 4595 84bb 24ce b93b
00000050: 77fb 483d 91eb db3c b5ff 543d 251a b1bb
00000060: 2fc1 883d 6730 74bd 1336 173d 7dce 2bbd
00000070: 2682 5c3c 472b f23c 1057 ce38 3017 803d
00000080: fab3 3d3d 0ffb 1ebc 7720 7c3c 8048 8cbd
00000090: 3437 a13c c036 0d3c 67b5 b13d 9439 b33d
000000a0: 806e eebb b892 47bc 65b5 5dbd ef58 0a3e
000000b0: f918 a03d 69b5 d1bc 183f 973e a8e4 e73c
000000c0: 5280 6e3d 615e 52bd fa1f e93c 9392 3f3d
000000d0: 1b6b 8dbd 747c 27bd aa31 0c3d c5e5 9bbd
000000e0: d279 b8bd a44f 1bbd c6e0 013d a52e e0bb
000000f0: d9b9 0fbd 05eb 5fbd d1c3 9c3c 99e4 44bd
0.048199948 0.08624771 -0.029867636 0.07046061 -0.052252017 0.06343048 0.029262554 -0.01947026
0.020012239 -0.00040123574 -0.16686821 -0.006016659 0.018995639 0.02588359 -0.07071745 0.071443036
-0.055046182 -0.058244746 -0.0040461146 0.005670326 0.04906794 0.026845725 0.052001674 -0.005404728
0.06677472 -0.059616473 0.036916804 -0.04194497 0.013458764 0.029561652 9.839062e-05 0.06254423
0.046314217 -0.009703412 0.0153886 -0.06849766 0.019679643 0.00861901 0.08677178 0.087512165
-0.007276356 -0.012180977 -0.05412807 0.13510488 0.07817263 -0.025599198 0.29540324 0.028307274
0.058227845 -0.051359538 0.02845763 0.046770643 -0.06905194 -0.040890172 0.03422705 -0.076121844
-0.090076104 -0.037917748 0.0317085 -0.006841498 -0.035089348 -0.05466749 0.019136341 -0.04806957

weight f4 [32, 64]
00000000: 4094 4cbc 2d7f 5d3d 20a3 de3c a89b ffbd
00000010: 4e71 e43d 5ea5 ee3d 5cd2 f43d 1063 033c
00000020: e27c f23c bc46 5cbd abb4 c33d 9444 d8bd
00000030: a883 b5bc d246 82bd f021 7a3d 5164 073b
00000040: 846d 8e3c 8ada bd3c f83d fb3d e25e 5b3a
00000050: d037 cabd 9a02 e43d e282 ae3d b813 4abd
00000060: f402 9d3d 7ba0 86bd 0e49 c0bd 7087 1bbd
00000070: 2eae fdbc 1cdf f13d 080f 85bc 00a9 43bc
00000080: c4ac 7bbd ac47 ad3c eb3a c0bd 3c9c 27bd
00000090: a1a4 d2bd 2073 33bd 002c 92bc 799e 843d
000000a0: c861 d2bd d0f0 da3d 0638 963d 4bd9 7a3d
000000b0: 64fd 9b3d 0809 d83d 1a73 e6bd 461a d93d
000000c0: 64bf 08bd e855 e2bd d54a 0bbd 144d 8dbd
000000d0: 1cf8 ccbd 80e1 84bd eaaa 963d 3119 523d
000000e0: 167d 8bbd 1ee7 9cbd e8d4 db3c 4a28 a83d
000000f0: 123f 933d e0cc 8dbb d306 f9bd a659 3f3d
00000100: 6c8d 65bd 6d64 823d f981 f53b 50bb 873c
00000110: e499 4f3d a44f 503d 084b 89bc a26b abbd
00000120: 6109 353b 60a2 bc3b 2fc0 a33d 0435 0bbd
00000130: 62c4 a7bd c887 ff3c 4647 a73d b987 dabd
00000140: ba81 efbd df48 6b3d d4f5 533d b7d7 b63d
00000150: e690 ef3d e266 ccbd 6833 f2bd ff50 f6bc
00000160: 605c af3c 52e9 c3bd 31fa e1bd c02e 173d
00000170: 774b 03bc 5838 cdbd e83c e3bd 622c dc3d
00000180: fec6 cbbd 0cb8 efbc 213d c9bd 7e9d d03d
00000190: 123c d9bd 1280 fbbd b4fc cdbd 929d 3abd
000001a0: 5ea1 b03d e84a 773d 700c 1d3c 8cc7 d4bd
000001b0: fac8 c8bd 7897 943c 1430 5dbd 7278 dd3d
000001c0: 2443 043d c0bc e93d 2d2c 71bd 2a8d 9bbd
000001d0: 1eae 87bd 464e c03d d971 b2bd b8e9 4f3c
000001e0: 7082 fb3c 70d3 d4bd 6276 15bd c8c2 bf3c
000001f0: aee8 b5bd d621 8dbd 16b7 cc3d 0018 173a
00000200: e708 a0bd 00b5 2a3e 1e3d fbbd 78a0 88bd
00000210: f09c 4dbc d006 f93d 7803 ae3d 881f ae3d
00000220: fb48 56bf 81cf cabd df15 e73d ba24 e9bd
00000230: 9267 8a3b 6880 d23e e0ce 243d 056a 9bbd
00000240: da91 b1bd 8c86 2dbf 9292 ef3d 5fe4 7cbe
00000250: 781c bb3a ecd6 fdbd e812 a4bd 0fd1 843e
00000260: 2a15 0b3e fd8d 0ebf 1735 84be 8675 2bbd
00000270: c592 503e 9c99 20bd 784a a2bc ba78 a7bb
00000280: 68fc a3bd d641 6c3e cca8 053d 64da 63bd
00000290: 8a9a 3cbe c0b4 af3b 8883 863d 4a87 92be
000002a0: d0b5 66bd c0d0 c1bd 20e7 13bd 532e 56bd
000002b0: c6b3 84bd b072 a03d 84e4 3a3e f0f5 9cbc
000002c0: 583a 643d 16eb 493d 3e1e 86bd 3799 54bd
000002d0: 5691 a9bc 55f3 a93c 3408 8b3d 0b94 103d
000002e0: 635c d7bd 652e 723e b0ef abbd fc15 56bc
000002f0: 4096 6a3b 67d0 853d dd86 073e 36e1 9e3e
00000300: 787b c0bd c08f d8bb 80c8 d6bd 00ed 063d
00000310: 3083 aa3c 9288 dc3d f890 bfbc 30d6 683d
00000320: 1424 84bd dce6 ae3d e8bc b03d 08d5 d03c
00000330: 6821 8e3d 86df b4bd 64c4 c03d a026 8dbb
00000340: 8c7a c3bd f48a 17bd 388e e9bd 68a1 993d
00000350: 6a07 ba3d 8497 f4bd e466 9ebd 7887 893c
00000360: 48aa 9ebd e216 cf3d c0dd 7abb eef7 80bd
00000370: 9a23 c93d c4e2 7abd 1466 81bd 8217 983d
00000380: 88aa 033d 20f8 4dbd e88f 9cbd e8a3 40bd
00000390: fcb5 afbd 9882 41bd 740e d8bd 04c1 e1bd
000003a0: 8842 a8bc 3ce0 e3bd 7c5c f8bd b0de 2dbc
000003b0: e8de 633d 3e37 b6bd d435 9dbd 788e b7bd
000003c0: 40df aebd 6008 fc3c 4256 873d fab0 a23d
000003d0: a2de ab3d 7c6b fdbd 286a a0bd 460d e0bd
000003e0: 3869 db3d b8c4 67bd d408 ffbd 00fb 2eba
000003f0: c68d cb3d 6855 24bd 8096 953c 9487 213d
-0.012486517 0.054076362 0.027177393 -0.12480861 0.11154424 0.11652635 0.11954185 0.008019224
0.029600564 -0.053778395 0.09555944 -0.10559955 -0.022157505 -0.06361164 0.06106752 0.0020659158
0.017386205 0.023175497 0.12267679 0.00083683257 -0.09873927 0.11133309 0.08521058 -0.04933521
0.07666579 -0.06573578 -0.09388934 -0.03797096 -0.030966844 0.11810133 -0.016242519 -0.011942148
-0.06144406 0.02115234 -0.09386238 -0.04092048 -0.10285307 -0.043810964 -0.017843246 0.06475539
-0.102725565 0.106904626 0.073349044 0.061242383 0.0761669 0.105485976 -0.11252423 0.106007144
-0.03338565 -0.110515416 -0.034006912 -0.06899467 -0.100082606 -0.06488323 0.07356818 0.051293556
-0.068109676 -0.076612696 0.02683492 0.082108095 0.07189764 -0.0043274015 -0.12159505 0.046716355
-0.056043074 0.06366811 0.0074923006 0.01656881 0.05068387 0.0508572 -0.01675941 -0.08370139
0.0027623998 0.0057566613 0.079956405 -0.033986107 -0.08191754 0.031192675 0.08167891 -0.10670418
-0.11694665 0.057442542 0.05174811 0.08927863 0.11697559 -0.09980561 -0.11826211 -0.030067919
0.021406353 -0.09565987 -0.11034048 0.03690982 -0.008013598 -0.10020512 -0.11095601 0.10750653
-0.09950064 -0.029262565 -0.098261125 0.10186289 -0.10607161 -0.12280287 -0.10057965 -0.045560427
0.08624528 0.06037417 0.009585485 -0.10389623 -0.09803958 0.018138632 -0.05400093 0.10813989
0.032290593 0.11412954 -0.05888002 -0.07595284 -0.06625007 0.093899295 -0.08713121 0.01269
0.030701846 -0.10391891 -0.03648985 0.023408309 -0.08882271 -0.06891219 0.09995858 0.0005763769
-0.07814198 0.16670609 -0.122675166 -0.06671232 -0.012549624 0.121595025 0.08496755 0.08502108
-0.8370511 -0.099028595 0.112834685 -0.11383958 0.0042237723 0.4111359 0.040236354 -0.07588581
-0.08670397 -0.6778343 0.11697878 -0.24696492 0.0014275452 -0.12394509 -0.080114186 0.2594075
0.13582292 -0.55685407 -0.25821754 -0.041860126 0.20368488 -0.039208993 -0.0198109 -0.0051108273
-0.08007127 0.2307199 0.03263168 -0.055628195 -0.18418327 0.0053621233 0.06568056 -0.28618842
-0.056325734 -0.09463644 -0.03610909 -0.052290272 -0.064796016 0.07834375 0.18251234 -0.01916024
0.055719703 0.04929646 -0.06548737 -0.05190393 -0.020699184 0.020745913 0.06788674 0.035297435
-0.10515668 0.2365051 -0.08395326 -0.013066765 0.0035795122 0.0653389 0.1323504 0.31031197
-0.0939855 -0.006608933 -0.10487461 0.032940865 0.020814508 0.10768236 -0.023384556 0.05684489
-0.06452194 0.08540127 0.08629781 0.025492206 0.069399655 -0.08831696 0.094124585 -0.004307583
-0.09544858 -0.03699775 -0.11404079 0.07501489 0.09083445 -0.11942962 -0.077344686 0.01678823
-0.07747322 0.101117864 -0.0038279146 -0.06297289 0.098212436 -0.061251417 -0.06318298 0.07426359
0.032145053 -0.05028546 -0.076446354 -0.047031313 -0.08579633 -0.047243685 -0.10549632 -0.11023143
-0.020539537 -0.11126754 -0.12127015 -0.010612175 0.0556325 -0.08897255 -0.076762825 -0.08962721
-0.08538675 0.030765712 0.06608249 0.07943912 0.08392073 -0.12374017 -0.07832748 -0.10940032
0.10713428 -0.05658409 -0.12452856 -0.0006674975 0.099391505 -0.040120512 0.01826024 0.039435938

bias f4 [32]
00000000: f545 f7bd 03dc bcbc d5ad 043c 801c 91bd
00000010: 92f0 233b db41 cabd 755a 713e 1e70 053d
00000020: b702 8ebd 2138 333c b1b8 0ebe f0af e1bd
00000030: 17c3 8abd 2195 013c a26f a6bd 9db3 4e3d
00000040: cea8 de3c 93f7 a1bd 512d c63b 1b92 cc3d
00000050: d343 c63d e5d3 0f3e 787e d2bd 00e2 663e
00000060: 0c7a 14bd 4730 4f3d 3ed5 e43d d943 1cbc
00000070: 5fe4 7e3d 972f 6abd 8a33 b13b 0a01 18bc
-0.1207389 -0.023054129 0.008098085 -0.07085514 0.0025015217 -0.09875842 0.23569663 0.032577626
-0.069341116 0.010938675 -0.13937642 -0.110198855 -0.06775492 0.00790909 -0.08126761 0.05046426
0.027180102 -0.07908549 0.0060478826 0.09988805 0.09680905 0.14045675 -0.10278028 0.2254715
-0.036249205 0.05058315 0.11173485 -0.0095376605 0.06222951 -0.05717429 0.0054077553 -0.0092775915

weight f4 [8, 32]
00000000: 8231 e93d 2df3 e6bd 51e5 293e 7208 c23d
00000010: d1b1 e33d e00d f93b 9267 24be d4cd 833c
00000020: de50 0a3e 9361 25be 55b0 13be c078 83bb
00000030: 8b66 183e 6ca9 653c 4254 e2bd 1b3a 49bd
00000040: b2f3 d33d 3d45 13bd 5904 32be e484 0cbe
00000050: 3e44 31be 6048 a93d e005 873b a72a adbc
00000060: 10aa 6b3d 948d 03be 7edb 813b deda 9cbd
00000070: adc1 9e3c 95bb 0dbe 38a7 943d ca10 95bd
00000080: 5a40 00be b9a3 183e 865b 9d3e d4ad aabd
00000090: c590 8dbf fb3f 9b3c f759 b0bc a7c5 05be
000000a0: cb5e 94be 3f2a 85bd 35ad 29bd dd87 193e
000000b0: 5dce 32bd 9aaf 7c3e 3da5 1b3f c33e 95bc
000000c0: 6cd0 b33d d09d 673e 6045 40bf bbd9 07bf
000000d0: 2dda 52be a93c 76be a0f2 d93c 918c 053f
000000e0: 3379 fa3d b9e7 b6bb 1128 3abd 8d90 0f3e
000000f0: 115e 65bf 4523 183e 6556 e23e 054c 23be
00000100: 27ab f33d 8180 22be 91f2 9c3e e366 91bd
00000110: 9e30 713f c355 15be f97d f23b fe4a 73bd
00000120: 96e3 df3e 3f21 02be dc2f 9dbd 6b1a e53e
00000130: 044f 453d 0987 17bf f073 3b3f 6071 1b3b
00000140: 2250 013e c3ff d2bd 85c6 933f cd88 3f3e
00000150: fb00 543d 016c 37be 3eb0 a63d 9cf3 75be
00000160: 0af9 db3c a1f5 013e e1a9 17bc 2bb9 dd3e
00000170: 3811 a4bd 8431 753e 03b5 b63d 675b c23e
00000180: 2b3e b2bd 832a 0fbe 73af 6cbf 785b 883c
00000190: a982 96be 5eea 93bd 11f8 b83d 0368 83bd
000001a0: 0283 08bd 421a cdbc a4e5 c7bd 1782 e8bf
000001b0: eb50 803c c32a 443e eacf 2bbf 30a2 173c
000001c0: 18a7 713d 2c95 b53e ab28 1dbf 4e3f d1be
000001d0: 0538 c83e 6135 e33d 4163 273e b1a0 b2be
000001e0: 1ed2 9ebb 11ec 0bbe 7d03 bcbd 450b 25bd
000001f0: f109 a23d f005 a73e b76d adbc b780 fb3d
00000200: 6e4f 11be ac86 393c 13b6 bd3f e687 a4bd
00000210: b44b b0bf fd3f 403d 51eb d43e 13da 8f3d
00000220: 58be 03bd 6e3f 16be 581d fabd 556a 6cbe
00000230: 0ece a43c d4ee 6a3e 619e c2bf 765f eb3c
00000240: 266a 0f3e ed5e 08bf 3ab9 d2bf 776d 263f
00000250: e0b7 15bf 9c3b cd3e d4a6 2abd 9a09 353f
00000260: aa8f 803d 6056 c9bb 89fc 33be 4c54 98bf
00000270: 410c 2a3e 2946 53be f5c6 863d 216a 28bf
00000280: 1099 7d3c 7431 8f3d 1e36 b1bd 1f75 223e
00000290: 565c 04be 039a 7d3d fe44 8d3d 258d 16be
000002a0: 9556 b13d 5502 51ba 052c dabd 7d62 a8bd
000002b0: 9d04 dc3d 076c 9b3d ff55 34be f8d1 2cbe
000002c0: f159 623d 08a3 28bc b8f3 cc3d fe9c a6bd
000002d0: 78f3 fdbe f689 5c3d 80a2 47bb ff91 a1bd
000002e0: 7ef5 33be 585d aebc 2610 d23d 3520 b2bd
000002f0: 8812 9cbd 9929 04bd 1b3c 58be f289 14be
00000300: 53c2 053e 80d6 ae3c 376e e93c 7ed7 e23d
00000310: 4b1e e5bd 1cd5 933d c6da 84bd 2465 113e
00000320: 814a 083e 06b0 7bbc 97a5 2c3e 0005 b93b
00000330: e1cb 20be c58d 31be f6bb 923d 0c0b 153d
00000340: 94fa e53d 918e 34be 67e2 3fba 1e1c 09be
00000350: ca20 973d 861e af3d 4c8a 15be 522d 7abc
00000360: 3627 ad3d 3d7b 023e 49cd 243e aadc ac3c
00000370: 850d dcbc b7c6 a3bd ffa0 52bd 7813 96bd
00000380: 001d ae3b d61b f63d 87a1 cb3d 60b2 dcbc
00000390: 24a4 183e e458 1ebe 4f86 fa3a a1e9 013e
000003a0: fb3d 073d 1e63 343d bb52 923d 80ca 8d3a
000003b0: 7edd 01be b0b2 adbc 7bbc fcbd f260 96b9
000003c0: ec45 fc3d dd7a 08be ba04 d93d 3236 a1bd
000003d0: 131c 283e e706 00be 277a b1bd 6cad 6cbc
000003e0: e0be e7bd 101f 00bc 1ea8 85bc 09a1 93bd
000003f0: 7fd3 acbd 0d75 2abe 3bda c8bd 8bd1 703d
0.11386396 -0.11276851 0.16591384 0.09474267 0.111179 0.007600531 -0.16055134 0.016089357
0.13507411 -0.16150503 -0.14422734 -0.0040121973 0.14882867 0.014017444 -0.11051227 -0.04912768
0.103492156 -0.035954703 -0.17384471 -0.13722569 -0.17311189 0.082657576 0.0041205734 -0.021138502
0.05753523 -0.12846977 0.003962933 -0.07658933 0.019379461 -0.13841088 0.07258457 -0.07278593
-0.12524548 0.14906205 0.3073389 -0.08333936 -1.1059805 0.018951407 -0.021527274 -0.1306368
-0.2897857 -0.065021984 -0.04142495 0.14993234 -0.043653835 0.24676362 0.6079901 -0.018218404
0.08779988 0.22618794 -0.7510586 -0.53066605 -0.2059104 -0.24046578 0.02660495 0.5216761
0.12230148 -0.0055818227 -0.045448367 0.14019985 -0.8959666 0.14857204 0.4420654 -0.15946968
0.11897879 -0.15869333 0.30653813 -0.07099702 0.9421481 -0.14583497 0.007400271 -0.05939769
0.43728322 -0.12707995 -0.07675144 0.44746718 0.04817106 -0.5919042 0.7322378 0.00237187
0.12628224 -0.10302689 1.1544958 0.18704529 0.051758748 -0.17912294 0.08139084 -0.24018711
0.02685215 0.12691356 -0.009256811 0.43305334 -0.08011097 0.2394467 0.08921244 0.3796036
-0.08703264 -0.1398106 -0.92455214 0.016645178 -0.2939656 -0.07222436 0.0903169 -0.06416323
-0.033328064 -0.025036935 -0.09760597 -1.81647 0.015663585 0.19156937 -0.67114127 0.009254977
0.058997244 0.35465372 -0.6139018 -0.4086861 0.3910524 0.110941656 0.16346456 -0.34888223
-0.0048468253 -0.13664271 -0.09180353 -0.04029395 0.079120524 0.32621717 -0.02117048 0.1228041
-0.14190456 0.011323612 1.482119 -0.08033733 -1.3773103 0.046936024 0.41585782 0.07024016
-0.032163948 -0.14672634 -0.12212628 -0.23087437 0.020117786 0.22942668 -1.5204583 0.028732043
0.14005336 -0.53269845 -1.6462777 0.6501078 -0.58483696 0.4008454 -0.041663006 0.70717776
0.06277402 -0.00614433 -0.17576803 -1.1900725 0.16606237 -0.20632233 0.06580917 -0.6578694
0.0154783875 0.06991854 -0.086529 0.1586499 -0.12925848 0.061914455 0.06897925 -0.1470228
0.08659092 -0.0007973065 -0.10652927 -0.0822191 0.107430674 0.07588964 -0.1761093 -0.16876972
0.055261556 -0.010292776 0.10007423 -0.08135413 -0.49599814 0.053842507 -0.0030461848 -0.07889175
-0.17574117 -0.021284744 0.10256986 -0.08697549 -0.07620722 -0.032266233 -0.21116678 -0.14505747
0.1306241 0.021342516 0.028494937 0.11076258 -0.111874186 0.07218382 -0.0648704 0.14198738
0.13309671 -0.0153617915 0.16860043 0.005646348 -0.15702774 -0.17339237 0.07164757 0.03638749
0.112294346 -0.1763251 -0.00073198084 -0.13389632 0.07379301 0.08550744 -0.14603537 -0.015269594
0.084547445 0.12742324 0.16093935 0.021101315 -0.026861915 -0.07996886 -0.05142307 -0.07327932
0.0053135157 0.12017028 0.09942918 -0.026940525 0.14906365 -0.15463597 0.0019113513 0.12686779
0.033018094 0.044039838 0.07144686 0.0010817796 -0.12682149 -0.021203369 -0.12340637 -0.0002868246
0.12318024 -0.13328119 0.10596605 -0.07871665 0.1641696 -0.12502633 -0.08665877 -0.014445644
-0.113157034 -0.007819906 -0.016315516 -0.072084494 -0.08438777 -0.16646214 -0.09807249 0.058793586

bias f4 [8]
00000000: 80d5 02be 2307 d7bd b11f 273e e1a0 d73d
00000010: 4442 d03d c792 92bd 0ebc 2bbe e5c1 aa3d
-0.12776756 -0.10499408 0.16320683 0.10528732 0.10168889 -0.07156902 -0.16770956 0.08337764

weight f4 [4, 8]
00000000: 53b0 8bbe 111a 3dbe fa21 573e f0a9 9ebd
00000010: 3b33 a0be b8ae a5bd df2c a23e 484b 7fbe
00000020: 302c 80bd d86e b3be 9e5e 523e 29c7 963e
00000030: 8b18 aebe 786e 8bbd bc97 8abe e54d a73e
00000040: bb57 75be 4071 39bd 9ade 1f3e 6eb0 523e
00000050: 54c0 803d 708f 81be 7f04 39be 1e6f 403e
00000060: ec69 bbbd 909f 08bd aae3 493e 518e 973e
00000070: 9b5b 3fbe 80cd 51bb faae 413e c691 85be
-0.27282962 -0.18466975 0.21009055 -0.07747257 -0.31289086 -0.080899656 0.3167486 -0.24931061
-0.06258428 -0.35045505 0.20543906 0.29448822 -0.340031 -0.068081796 -0.2706889 0.32676616
-0.23959248 -0.04527402 0.1561226 0.20575115 0.06286684 -0.25304747 -0.18068121 0.18792388
-0.09151062 -0.033355296 0.19715753 0.29600766 -0.18687288 -0.0032013357 0.18914405 -0.2608778

bias f4 [4]
00000000: 4225 153e aacd 38be 36e6 463e f254 6e3e
0.14564994 -0.18047205 0.19423756 0.23274592
