training/ann/models/ann21ep1900.pth (torch, 69232 bytes, 10 tensors)

weight f4 [128, 40]
00000000: 3958 b73d c7ea 08bc 3c7f d6be 6cce b03e
00000010: 064b 6abe 143c 1f3b 593c 1b3e 9d36 19be
00000020: 4c60 793f 3c80 14bd 6f13 a6bd 4d46 133e
00000030: cdb9 363d a8c1 6d3e cdb0 babc 2ea5 1d3f
00000040: 4b6c babe 1e52 203f 28ce 49be 6197 4c3f
00000050: da61 783e 54d3 7bbf 8662 20bf 6df0 833e
00000060: 0aea 0fbe e9c6 823e f741 0f3d 8094 733d
00000070: a37a 7abe e3a4 b0be 74ed 6a3f 114f 51bf
00000080: b03f 08c0 655f 523e cb46 1c3f 24ae f8be
00000090: feef 303f 64ef f9bb 71c0 f33d 3cb3 7b3d
000000a0: 1ca8 6b3d 784e d6bc a79c 123e 052d 19be
000000b0: a0b0 05bc ca0e d33d 8819 753d 220e 8ebd
000000c0: 8453 b0bd 44b8 553d 3809 b73c 70e7 273d
000000d0: 84e2 993d 5a51 ab3d 3f31 0d3e 60e5 96bb
000000e0: 582d babc 5e05 0cbd 006c 1f3a 012d 1b3e
000000f0: 688c 913d f623 0fbd 941c 183d f038 493c
00000100: a262 8e3d 64ff 17bd 4837 62bd 1fbf 0f3e
00000110: 50aa 443d 637a b7bd abf3 babd f968 143e
00000120: 732a 1d3e dce6 13bd ced3 c13d d036 be3c
00000130: ff1e 1b3e e07f eabc 3c83 2b3d 9e7d 92bd
00000140: edcd 39be 573b a43d 368d d5be 8d0e 243f
00000150: b056 273f e2e6 6bbf 8db1 06bf 116e 72be
00000160: 0e61 203e fcdc 46bf 9cdb 1c3f 2e5f b3bf
00000170: 148f 133f 453b ffbd b0be 613c cb01 ac3e
00000180: 00fe 32be 3443 173f 59a7 04be 04fa 15be
00000190: 8739 393e 2669 d5be ccc7 81bf 5691 0e3f
000001a0: 79e6 b73e 96ba 243e b835 1cbc 56e8 6a3d
000001b0: bd91 febe 127b 0b3e 4642 3e3d 608d b6be
000001c0: 9597 88bf 737f 88be 4341 8d3e dd1b e93e
000001d0: ac81 3b3f 8527 eb3e 2837 a4be 434a 173e
000001e0: ca36 f73d f8c4 06be b0e9 db3c 00a5 8f3d
000001f0: 2cb2 30bd 6ea5 f33d fe8a ebbd 00a9 f2bb
00000200: 32ec 963d 56b0 e53d 0844 b9bc 5ef4 02be
00000210: 323c d0bd 60f3 a6bc 0826 de3c 706d b2bc
00000220: aa8e ec3d f40f ecbd a074 1c3c c5ca 97bd
00000230: 60ff 8e3b a4f1 903d 0e80 efbd 72bb a33d
00000240: 2a60 04be c762 1c3e ae55 cd3d 3cd3 b33d
00000250: c01b 3c3d 57f6 193e 96bb aa3d ec68 f5bd
00000260: 78dd c1bc 8c67 a63d 54be 363d db92 a2bd
00000270: c41c 0e3d b124 153e 88a9 89bc 193c 113e
00000280: 951f 5fbd 7d89 9d3d 2f83 29bf 30ad 443f
00000290: a9ca 7ebe 6d09 07be b03a abbe 6e26 8f3e
000002a0: a437 e7be 2e8d c3be 6a8c b83e 3093 e3be
000002b0: addb a73d 4b2d a1be 9070 9b3e af4c 2f3d
000002c0: 6ece b03d 0d4a c23e d42f 06be e31d ab3e
000002d0: 2c50 1f3e f955 88bf cc12 febe f407 96bc
000002e0: b246 06bf 3fa1 6c3f 9bb4 81be 4c7d 6f3e
000002f0: 4864 60bf f030 803d e5fb 653e cce1 59be
00000300: 216f b6bd 4c70 4f3f 729a 183c ebe4 b5be
00000310: 8f8a db3c 4ea7 a03e 3d92 2d3d 1bc2 ac3d
00000320: f0ce 043c f8d1 adbd dac0 dd3d 912a 02be
00000330: 1011 2c3d 3c21 923d 94a2 993d 5011 c0bc
00000340: 708e 783d 5c9c 17be 2f2c 083e 1176 053e
00000350: c05f cb3c 9018 0f3d 3dbc 02be c022 25bd
00000360: 03d6 103e 8466 0e3d 27a6 88bd f99f c3bd
00000370: 523f 88bd 98c6 eb3c b4a8 51bd 0c6f 46bd
00000380: 02ae d7bd 4835 c9bd c002 e03b b800 09be
00000390: 8b34 8fbd aa49 c73d 3877 573d 3f7d 00be
000003a0: b475 05bd e871 d6bc 5088 4ebd 004b a7bc
000003b0: 30a1 7cbc 08cd 6b3d a840 3cbd baf3 90bd
000003c0: 0101 b93d f4c8 633d 281e 143f 609c 2dbf
000003d0: 46dd aabe 6abf 33bf 8055 573f 0470 633e
000003e0: 1683 f73e fcf4 d23d 86b5 8abe 3e02 563d
000003f0: 8340 11be a9e8 353f 9f7c 34bf 050e 93bd
0.08952374 -0.0083567565 -0.41893947 0.34532487 -0.22880182 0.0024297284 0.1515974 -0.1496224
0.9741256 -0.036255106 -0.081091754 0.14382286 0.044610787 0.23218405 -0.022789383 0.6158017
-0.36410746 0.626253 -0.19707549 0.79918486 0.24256077 -0.98369336 -0.62650335 0.25769368
-0.14054123 0.2554238 0.03497502 0.059467793 -0.24460845 -0.345008 0.91768575 -0.8176127
-2.1288872 0.20544203 0.6104552 -0.4857036 0.691162 -0.0076274145 0.1190194 0.061450228
0.05753337 -0.026160464 0.1431757 -0.1495858 -0.008159786 0.10305555 0.0598388 -0.06936289
-0.08609679 0.052177683 0.022343263 0.0409922 0.075139076 0.08365126 0.13788317 -0.0046049803
-0.0227267 -0.034184806 0.0006081462 0.15153886 0.071068585 -0.034946404 0.03713663 0.012281641
0.069524065 -0.037108794 -0.0552285 0.1403775 0.048013985 -0.0895889 -0.09128507 0.14493169
0.15348224 -0.036108837 0.09464227 0.023219496 0.15148543 -0.028625429 0.0418732 -0.07152866
-0.1814496 0.08019131 -0.41709298 0.640847 0.6536665 -0.92149174 -0.5261467 -0.236748
0.15662023 -0.77680945 0.612726 -1.4013422 0.57640195 -0.12462477 0.013778374 0.33595118
-0.17479706 0.5908692 -0.12954463 -0.14646155 0.18088351 -0.41681784 -1.0139098 0.55690515
0.35918024 0.16086802 -0.009534292 0.05735048 -0.49720564 0.13621166 0.046449922 -0.35654736
-1.0671259 -0.26659736 0.27588853 0.4552907 0.7324474 0.45928589 -0.3207333 0.14774422
0.12070997 -0.13161075 0.02684483 0.07013893 -0.043138668 0.118967876 -0.1150112 -0.0074054003
0.073692694 0.11215274 -0.022615448 -0.12788531 -0.10167731 -0.020379722 0.027117744 -0.0217807
0.115506485 -0.1152648 0.00954929 -0.07411722 0.004363939 0.07077339 -0.11694346 0.07994737
-0.12927309 0.15272056 0.10026108 0.08780524 0.045924902 0.15035377 0.083365604 -0.11982903
-0.023665175 0.08125219 0.044615105 -0.07938167 0.0346954 0.14564778 -0.016804472 0.14183082
-0.05447348 0.076922394 -0.66215795 0.76826763 -0.24881996 -0.1318719 -0.33443213 0.27959007
-0.45159638 -0.3819365 0.36044627 -0.44448233 0.08196197 -0.31479868 0.30359316 0.04279774
0.08633123 0.3794712 -0.13104182 0.3342124 0.15557927 -1.0651237 -0.49623716 -0.01831434
-0.5245162 0.9243354 -0.25333104 0.2338764 -0.8765302 0.06259334 0.22459371 -0.21277541
-0.08907915 0.81030726 0.009314166 -0.35526213 0.026799468 0.31377643 0.04237579 0.0843546
0.008105978 -0.08487314 0.10827799 -0.1271155 0.04200846 0.07135245 0.075017124 -0.023445755
0.060682714 -0.1480574 0.13298105 0.1303332 0.02482593 0.034935534 -0.1276712 -0.040316343
0.14144139 0.034765735 -0.06672316 -0.09551997 -0.066527024 0.02878122 -0.05118628 -0.048445746
-0.10531236 -0.09824616 0.0068362653 -0.1337918 -0.06992444 0.09730847 0.05260393 -0.12547778
-0.032582954 -0.026177362 -0.050422966 -0.020421505 -0.0154192895 0.05756858 -0.0459601 -0.07077737
0.090333946 0.055611566 0.57858515 -0.67816734 -0.33371943 -0.7021395 0.8411484 0.222107
0.48342198 0.10300633 -0.27091616 0.052248232 -0.14184766 0.71058136 -0.70502657 -0.071804084

bias f4 [128]
00000000: d142 06bd a2e8 aabd c40c 92bc 7272 b43d
00000010: 89f0 5c3c 5617 74bd d0fd 67be c0dc 20bc
00000020: 822f e43d ae2f afbd e0b1 87bd 42bb bf3d
00000030: 0ded bfbd dee7 a3bd e08d 94bb c4de 013d
00000040: e9ba b8bd 4c0c 2ebd e6d0 093e 955b 20be
00000050: 93d0 003e 40c4 403b af65 063e 25df f9bd
00000060: 5f7f 62be 8a21 d63d 180f 54bd 2ee4 81bd
00000070: be55 803d 60f8 17be 3f41 67bd b6be cdbd
00000080: 2050 2abe 8092 2f3d 7334 dfbd ebf2 143e
00000090: 49d5 c5bd 24d6 173e b2f6 f53d 5f88 0dbe
000000a0: ba91 51be be93 f8bd e88f 30be 61c9 1c3e
000000b0: f0b1 fc3c 16ec fdba f95f 46be c1b9 7fbd
000000c0: 2c0a a03c 2ed4 57be 82b7 ed3d 4aa1 62bd
000000d0: d75b 213d 1ab1 a0bd b0dd 313d bea3 be3d
000000e0: 38fb 11be a751 dfbd 881f 1dbe abc0 80bd
000000f0: 2a75 b43d 0b15 103e c8ca 3a3d fea5 fc3d
00000100: ecde 57be 6723 123e e6c6 183e a5df 3abd
00000110: d663 c43b c9b8 17be d3da 0d3d 8fd2 2b3d
00000120: 3a85 273e c6ca 333e 98b3 09be 8ada 133e
00000130: 5d94 8d3d d381 103e 8e04 94bd f2ac 1fbd
00000140: 1d7b b8bd 3a6d 07be 1b2e 8f3c 24b5 383d
00000150: f932 1b3e 9081 5d3d 4162 d7bd baa2 1fbd
00000160: a47e 843d 33b4 3b3c a48d 6e3c ca49 cbbd
00000170: e1ac 123e 4889 203d b8e0 c1bd a556 483d
00000180: c8b0 60be 76d7 f23d e98b b9bd aed3 89be
00000190: dbbd dd3d 0e5b a0bd 74fd 03bd 1bca 15be
000001a0: 0357 24be 6e12 2fbd 65f3 dfbd f033 d7bd
000001b0: 6c8d 0b3d c7b9 053e 930e 8b3d ac94 e0bd
000001c0: a01b c7bd 2664 d0bd 1a7a 84bd e2a5 86bd
000001d0: 38e8 73bd de65 4bbd be41 093e 93cd fcbc
000001e0: 02ae ecbd 0f8e ea3d 9a30 d6bd 4c28 213d
000001f0: 20af ce3c 9370 ac3c 9ddd b53c 1c77 bbbd
-0.032778565 -0.083451524 -0.017828353 0.08810891 0.013485082 -0.059592567 -0.22655416 -0.009818256
0.11141874 -0.08554016 -0.06625724 0.093618885 -0.09371386 -0.080032095 -0.0045335144 0.031706586
-0.09020025 -0.042492196 0.13458595 -0.15659936 0.12579565 0.002941385 0.13124727 -0.122007646
-0.221189 0.10455616 -0.051772207 -0.0634235 0.06266354 -0.14840841 -0.056458708 -0.10046141
-0.16632128 0.042864323 -0.10898676 0.14545791 -0.096598215 0.14827782 0.12009944 -0.13821553
-0.20465747 -0.121375546 -0.17242396 0.15311195 0.030846566 -0.0019372727 -0.19372548 -0.062433008
0.0195361 -0.21077034 0.11607267 -0.0553296 0.039394226 -0.078462794 0.04342431 0.09308575
-0.14255989 -0.10904246 -0.1534406 -0.062867485 0.0881141 0.14070527 0.045603544 0.12336348
-0.21081132 0.14271317 0.14919624 -0.04562344 0.0059933467 -0.14816584 0.034632515 0.04194885
0.16359416 0.1755782 -0.13447416 0.14438835 0.06913064 0.14112024 -0.07227431 -0.038983293
-0.09007857 -0.1322526 0.01747804 0.045094624 0.15156163 0.05407864 -0.10516787 -0.038973548
0.06469467 0.011456537 0.014560137 -0.099261835 0.1432376 0.03919342 -0.0946669 0.048910756
-0.21942437 0.11857502 -0.09059889 -0.2691931 0.10827228 -0.07829867 -0.032224134 -0.14627878
-0.16048817 -0.042742185 -0.10935096 -0.10507953 0.034070417 0.1305915 0.06789889 -0.10965857
-0.09722066 -0.10175352 -0.064686015 -0.065746084 -0.059547633 -0.049657695 0.13403985 -0.030859744
-0.11556627 0.11452877 -0.10458489 0.03934507 0.02522999 0.021049773 0.0222004 -0.09153578

weight f4 [64, 128]
00000000: 0436 1b3d 9c43 893c 9719 553d 04f1 00bd
00000010: b9e5 233d 2648 0c3d e904 6f3d bcdd b43c
00000020: 827a 863d 8062 c1bd 42da 83bd c832 e43c
00000030: b532 b03d d04f 843b ee61 4d3d f6d4 73bd
00000040: 4ace 543d 50eb 8ebb 33d9 1b3c a0b4 e43c
00000050: e25a 323d 87b4 af3d 5c95 c5bc e89d b43c
00000060: bbda 573d 660b 14bd 470c 20bc 4a69 4c3d
00000070: 0027 79bd 4e9c 153d 4211 84bd 1a69 2a3d
00000080: 7db0 01bd 4407 aebd 79db 8bbd 0f87 91bd
00000090: e40f c3bc 5538 36bd 0e8e c03c 1228 633d
000000a0: 4183 aebd aabf 373d ed90 6e3c a87b 02bd
000000b0: 61e1 9fbd 6f82 553d 0a2d d2bd f979 76bd
000000c0: 41f4 613d 80df bdbd e75d 873d ab86 93bd
000000d0: 440b fcbc f4f9 88bc 66bd d0bd 23a7 8d3d
000000e0: 3ae8 01bc 28d3 673d ecf2 513d dc5f 82bc
000000f0: 53fc 8bbc caaa e8bc 1bb4 e4bb aeb2 1a3d
00000100: 376b bbba 2e68 6e3d c4e0 18bc bc3e 99bd
00000110: 98ed 193d a107 873d 9745 9ebd c55b b4bd
00000120: 8997 393c dfd2 60bd 9aa9 8bbd a9fd c03c
00000130: cf9b 63bd 5cc3 113d 35ff 9d3d c06d 3bbc
00000140: 4773 063d 347f 04bd e011 db3c 8fed aa3d
00000150: dbd9 a23d d07b c5bb d0bc 99bd 4074 babc
00000160: 4092 de3a 6641 0a3c ddd3 c4bd 1067 65bd
00000170: 3c6b cdbd 4440 8dbc f2e3 043d 606a 2d3c
00000180: ccf0 d6bb 4051 ca3b 03b4 9ebd 0e21 e6bc
00000190: 6c33 8b3b 54fb 4dbd 7df3 873d aea4 6a3d
000001a0: 7be0 cb3d 0020 52bc 9b1a d1bc 9968 ae3d
000001b0: 0059 54bb 3037 153d e4bc 4dbd 84c9 98bd
000001c0: d183 9c3d 63b4 9d3d 5c01 a8bd 6065 d1bc
000001d0: 5df2 863d 50a9 ac3c 75e9 803c af46 013d
000001e0: ea62 7f3d 4dc3 9cbd b6e6 34bd eab1 643d
000001f0: 703e 0b3c e882 d93b 161d 033d 9cb2 7cbd
00000200: f5d9 833e e0f9 b63b 6fe9 e73d 5406 abbc
00000210: 4c6f 223d c178 913d efd0 8f3c 08fb abbd
00000220: 5acf fa3b 98f6 d5bb 19dd 853d 20ca 36bc
00000230: 04f5 df3c 4dab 2ebd 6e3a 9bbd fe9d 75bd
00000240: 57d7 df3c c2fb 45bd 5884 8a3c ea20 7d3d
00000250: 7cdf 89bd 2793 b33d a205 413d 6fea 10bd
00000260: 4920 803c 28b8 e23c c96e 8fbd d0c2 ae3b
00000270: e079 dcbb 6069 7f3c 6096 953d b8be 99bc
00000280: ca0b a83d a2b2 3d3d 08f9 8c3c e43a afbc
00000290: 2bbd 6ebe f965 4f3e bd8a cdbe c370 09bf
000002a0: 4a89 bdbd e51d 803d d4c4 873d 3708 8e3d
000002b0: 9743 34bd 927d a7bb 52bd 0bbe 107a 99bd
000002c0: 8fe5 33be b6a6 7cbb d3c7 ac3d 4b3a 4fbe
000002d0: 4270 cebc aa40 413d 7338 b13d 2e7f 0bbd
000002e0: c0e5 7bbd dfb9 003e d2b8 583e c67f 193d
000002f0: 0ca4 933d f567 1f3e f3fc 803c 41eb a63d
00000300: c91b 2f3d fe9d 223d b21c 40be fe3e 8e3d
00000310: cead 393e 6bae 3abd 7a61 febb 484d 50bc
00000320: 574e 2ebe a85d a63e edab 4abd a41a 513f
00000330: 9bc1 bd3c 99a0 82bd 9e6d 353d 50d5 003c
00000340: cc7d c53d 5a49 8ebd 4fdd 6abc ce22 223d
00000350: de0a 7f3d 1cea a73c d3fb 543e ccdc f33c
00000360: 6977 14bd 43d3 0e3d 6704 bdbd 6014 2cbb
00000370: 21fd 913d e031 15bc 1087 323c cd4a 19be
00000380: 7deb fcbd 9a36 473d 142d f9bd b765 63be
00000390: 3d78 63be 10ea 343a 804a 173a 5f4d a23d
000003a0: 1a4e b93e 9c94 4fbd 76b3 dcbc 0f8d 8f3d
000003b0: 42c5 5bbd 286f 843c 76e8 cf3c 116c c33c
000003c0: c0c6 04bc c0c8 903a c661 4dbd 8d7d f9be
000003d0: da4d dfbc ba36 09bd 72a3 693e 3eb6 e33d
000003e0: 57f2 69bd d7d1 1d3d 80ce acbd 4ca0 60bd
000003f0: b792 24bd 3d03 14be 4180 25be 8e84 613c
0.03789331 0.016755871 0.052026358 -0.03147985 0.040014002 0.034248494 0.058354292 0.022078387
0.06566335 -0.094426155 -0.06438114 0.027856246 0.086034216 0.0040378347 0.05014222 -0.059529267
0.051954545 -0.0043615475 0.009512234 0.02791816 0.043543704 0.08579355 -0.024119072 0.022047952
0.052698832 -0.036143683 -0.009768552 0.0499051 -0.06082821 0.036526017 -0.06448604 0.04160414
-0.031662453 -0.084974796 -0.068289705 -0.071058385 -0.023811288 -0.044487316 0.023505237 0.055458136
-0.085211284 0.04486052 0.01456092 -0.03185621 -0.078066595 0.052126344 -0.10262497 -0.060174916
0.05516458 -0.09271145 0.06609707 -0.0720342 -0.03076709 -0.01672075 -0.10192375 0.069166444
-0.007928902 0.05659786 0.05125706 -0.01591485 -0.017088091 -0.028401751 -0.006979478 0.03776806
-0.001429892 0.058204822 -0.009330932 -0.07482669 0.037580103 0.06593252 -0.07728117 -0.08806566
0.011327633 -0.054888602 -0.06819458 0.023558455 -0.055568513 0.0355867 0.077146925 -0.011439741
0.03282478 -0.032347873 0.026741922 0.08346092 0.07951709 -0.0060267225 -0.07506716 -0.02276051
0.0016980842 0.008438444 -0.09610722 -0.05600649 -0.10030219 -0.017242558 0.032443948 0.010584444
-0.006559467 0.0061742365 -0.07749178 -0.028091934 0.0042480733 -0.050288513 0.066382386 0.057285957
0.099549256 -0.012825012 -0.025525382 0.08516044 -0.003240168 0.036429584 -0.05022897 -0.07460311
0.076423295 0.07700422 -0.08203384 -0.025561035 0.06589196 0.021076828 0.015736321 0.03156155
0.06235019 -0.07654438 -0.044165336 0.055833735 0.008498773 0.0066379197 0.03201016 -0.061693773
0.25752226 0.0055839866 0.11323821 -0.02087704 0.039656922 0.0710311 0.017555682 -0.0839749
0.0076541128 -0.0065296404 0.06536312 -0.011156589 0.027338512 -0.042643834 -0.07579504 -0.059965126
0.027324362 -0.048335798 0.01690881 0.061798967 -0.067320794 0.087683015 0.047124512 -0.035379823
0.015640395 0.027675703 -0.070035525 0.005333282 -0.006728396 0.015589088 0.073040724 -0.0187677
0.082053736 0.046312936 0.017208591 -0.021390386 -0.2331435 0.20253743 -0.4014491 -0.53687686
-0.092547014 0.06255702 0.06629339 0.069351606 -0.04400977 -0.0051114047 -0.13646439 -0.07493985
-0.17568038 -0.0038551516 0.08436551 -0.20237081 -0.025200013 0.04718081 0.08653345 -0.034056835
-0.061498404 0.12570904 0.21164253 0.03747537 0.07209024 0.15567 0.015745616 0.0815034
0.042751107 0.039701454 -0.18760946 0.069456086 0.18132707 -0.045576494 -0.007763085 -0.012713738
-0.17022072 0.3249333 -0.049480367 0.81681275 0.023163607 -0.06378288 0.044293992 0.007863358
0.096431345 -0.069475845 -0.014334991 0.039583974 0.062266223 0.020497374 0.20799188 0.02976837
-0.03624669 0.034869444 -0.09229355 -0.0026257262 0.07128359 -0.009106129 0.010896459 -0.1496994
-0.12349603 0.048636056 -0.12166801 -0.2220677 -0.22213836 0.0006901333 0.0005771294 0.079249136
0.361924 -0.050678834 -0.026941042 0.07009327 -0.053654917 0.016166285 0.0253794 0.023855241
-0.008104026 0.0011046156 -0.050142072 -0.487286 -0.027258802 -0.033499457 0.22816256 0.11118744
-0.05711588 0.038530197 -0.08437824 -0.05484037 -0.04017898 -0.1445436 -0.16162206 0.013764514

bias f4 [64]
00000000: 4f6d 453d 7717 a93d ac64 04bd a74d 903d
00000010: 3606 56bd d7e7 813d 06b8 ef3c 1880 9fbc
00000020: 6d08 a43c f35c d2b9 4f85 2bbe 6527 c5bb
00000030: be9c 9b3c 321c db3c 4fd4 90bd b6c5 8c3d
00000040: 8058 5cbd 399a 70bd 4595 84bb 7258 de3a
00000050: 77fb 483d 91eb db3c b5ff 543d f58a abbb
00000060: 2fc1 883d 6ca3 74bd bb3b 1c3d 7dce 2bbd
00000070: db6b 1d3c 472b f23c c7a6 24bb 3017 803d
00000080: fab3 3d3d 62f6 2bbc a2a8 863c 8048 8cbd
00000090: 510a aa3c c036 0d3c 67b5 b13d fbd8 aa3d
000000a0: 806e eebb b892 47bc 65b5 5dbd 12e3 063e
000000b0: f918 a03d 69b5 d1bc 3695 923e a8e4 e73c
000000c0: 5280 6e3d 615e 52bd b91e ce3c 9392 3f3d
000000d0: eeae 5abd 747c 27bd 20ab 0e3d 52ea 98bd
000000e0: d279 b8bd 1024 0dbd 1998 eb3c a52e e0bb
000000f0: d9b9 0fbd 05eb 5fbd aa0a a53c 4380 43bd
0.048199948 0.08256429 -0.03232257 0.07046061 -0.052252017 0.06343048 0.029262554 -0.01947026
0.020023549 -0.00040123574 -0.16750072 -0.006016659 0.018995639 0.026746843 -0.07071745 0.06873648
-0.053795338 -0.05874083 -0.0040461146 0.0016963615 0.04906794 0.026845725 0.052001674 -0.005235071
0.06677472 -0.059726164 0.0381429 -0.04194497 0.009608234 0.029561652 -0.002512382 0.06254423
0.046314217 -0.010495754 0.016437832 -0.06849766 0.020756872 0.00861901 0.08677178 0.08342167
-0.007276356 -0.012180977 -0.05412807 0.13172558 0.07817263 -0.025599198 0.28629464 0.028307274
0.058227845 -0.051359538 0.025161134 0.046770643 -0.053389482 -0.040890172 0.034831166 -0.07466568
-0.090076104 -0.03445822 0.02875905 -0.006841498 -0.035089348 -0.05466749 0.020146687 -0.04772974

weight f4 [32, 64]
00000000: 4094 4cbc 2d7f 5d3d 20a3 de3c a89b ffbd
00000010: 4e71 e43d 5ea5 ee3d 5cd2 f43d 1063 033c
00000020: e27c f23c bc46 5cbd abb4 c33d 9444 d8bd
00000030: a883 b5bc d246 82bd f021 7a3d 5164 073b
00000040: 846d 8e3c 8ada bd3c f83d fb3d e25e 5b3a
00000050: d037 cabd 9a02 e43d e282 ae3d b813 4abd
00000060: f402 9d3d 7ba0 86bd 0e49 c0bd 7087 1bbd
00000070: 2eae fdbc 1cdf f13d 080f 85bc 00a9 43bc
00000080: c4ac 7bbd ac47 ad3c eb3a c0bd 3c9c 27bd
00000090: a1a4 d2bd 2073 33bd 002c 92bc 799e 843d
000000a0: c861 d2bd d0f0 da3d 0638 963d 4bd9 7a3d
000000b0: 64fd 9b3d 0809 d83d 1a73 e6bd 461a d93d
000000c0: 64bf 08bd e855 e2bd d54a 0bbd 144d 8dbd
000000d0: 1cf8 ccbd 80e1 84bd eaaa 963d 3119 523d
000000e0: 167d 8bbd 1ee7 9cbd e8d4 db3c 4a28 a83d
000000f0: 123f 933d e0cc 8dbb d306 f9bd a659 3f3d
00000100: 6c8d 65bd 6d64 823d f981 f53b 50bb 873c
00000110: e499 4f3d a44f 503d 084b 89bc a26b abbd
00000120: 6109 353b 60a2 bc3b 2fc0 a33d 0435 0bbd
00000130: 62c4 a7bd c887 ff3c 4647 a73d b987 dabd
00000140: ba81 efbd df48 6b3d d4f5 533d b7d7 b63d
00000150: e690 ef3d e266 ccbd 6833 f2bd ff50 f6bc
00000160: 605c af3c 52e9 c3bd 31fa e1bd c02e 173d
00000170: 774b 03bc 5838 cdbd e83c e3bd 622c dc3d
00000180: fec6 cbbd 0cb8 efbc 213d c9bd 7e9d d03d
00000190: 123c d9bd 1280 fbbd b4fc cdbd 929d 3abd
000001a0: 5ea1 b03d e84a 773d 700c 1d3c 8cc7 d4bd
000001b0: fac8 c8bd 7897 943c 1430 5dbd 7278 dd3d
000001c0: 2443 043d c0bc e93d 2d2c 71bd 2a8d 9bbd
000001d0: 1eae 87bd 464e c03d d971 b2bd b8e9 4f3c
000001e0: 7082 fb3c 70d3 d4bd 6276 15bd c8c2 bf3c
000001f0: aee8 b5bd d621 8dbd 16b7 cc3d 0018 173a
00000200: e708 a0bd a46b 263e e896 fbbd 78a0 88bd
00000210: f09c 4dbc d006 f93d 7803 ae3d 881f ae3d
00000220: 73ba 55bf 81cf cabd dd55 ef3d ba24 e9bd
00000230: 9267 8a3b 0144 ce3e e0ce 243d 2143 9abd
00000240: 4e9f a8bd 31b1 29bf 9292 ef3d 54bb 7dbe
00000250: 781c bb3a ecd6 fdbd e812 a4bd a526 7c3e
00000260: 2a15 0b3e ac99 0abf f2fd 7fbe 8675 2bbd
00000270: 8cec 4e3e 9c99 20bd 6bb6 b4bc ba78 a7bb
00000280: 68fc a3bd 45bd 643e 2a3b b03c 64da 63bd
00000290: 356e 38be c0b4 af3b 8883 863d f872 90be
000002a0: d0b5 66bd c0d0 c1bd 20e7 13bd 37ab 56bd
000002b0: c6b3 84bd b072 a03d d73e 373e f0f5 9cbc
000002c0: 583a 643d 16eb 493d b59c 96bd 3799 54bd
000002d0: 18ae 05bd 55f3 a93c b533 883d 2f20 1a3d
000002e0: 635c d7bd 81a8 6f3e 23ac 98bd fc15 56bc
000002f0: 4096 6a3b 67d0 853d 97a9 073e ca36 983e
00000300: 787b c0bd c08f d8bb 80c8 d6bd 00ed 063d
00000310: 3083 aa3c 9288 dc3d f890 bfbc 30d6 683d
00000320: 1424 84bd dce6 ae3d e8bc b03d 08d5 d03c
00000330: 6821 8e3d 86df b4bd 64c4 c03d a026 8dbb
00000340: 8c7a c3bd f48a 17bd 388e e9bd 68a1 993d
00000350: 6a07 ba3d 8497 f4bd e466 9ebd 7887 893c
00000360: 48aa 9ebd e216 cf3d c0dd 7abb eef7 80bd
00000370: 9a23 c93d c4e2 7abd 1466 81bd 8217 983d
00000380: 88aa 033d 20f8 4dbd e88f 9cbd e8a3 40bd
00000390: fcb5 afbd 9882 41bd 740e d8bd 04c1 e1bd
000003a0: 8842 a8bc 3ce0 e3bd 7c5c f8bd b0de 2dbc
000003b0: e8de 633d 3e37 b6bd d435 9dbd 788e b7bd
000003c0: 40df aebd 6008 fc3c 4256 873d fab0 a23d
000003d0: a2de ab3d 7c6b fdbd 286a a0bd 460d e0bd
000003e0: 3869 db3d b8c4 67bd d408 ffbd 00fb 2eba
000003f0: c68d cb3d 6855 24bd 8096 953c 9487 213d
-0.012486517 0.054076362 0.027177393 -0.12480861 0.11154424 0.11652635 0.11954185 0.008019224
0.029600564 -0.053778395 0.09555944 -0.10559955 -0.022157505 -0.06361164 0.06106752 0.0020659158
0.017386205 0.023175497 0.12267679 0.00083683257 -0.09873927 0.11133309 0.08521058 -0.04933521
0.07666579 -0.06573578 -0.09388934 -0.03797096 -0.030966844 0.11810133 -0.016242519 -0.011942148
-0.06144406 0.02115234 -0.09386238 -0.04092048 -0.10285307 -0.043810964 -0.017843246 0.06475539
-0.102725565 0.106904626 0.073349044 0.061242383 0.0761669 0.105485976 -0.11252423 0.106007144
-0.03338565 -0.110515416 -0.034006912 -0.06899467 -0.100082606 -0.06488323 0.07356818 0.051293556
-0.068109676 -0.076612696 0.02683492 0.082108095 0.07189764 -0.0043274015 -0.12159505 0.046716355
-0.056043074 0.06366811 0.0074923006 0.01656881 0.05068387 0.0508572 -0.01675941 -0.08370139
0.0027623998 0.0057566613 0.079956405 -0.033986107 -0.08191754 0.031192675 0.08167891 -0.10670418
-0.11694665 0.057442542 0.05174811 0.08927863 0.11697559 -0.09980561 -0.11826211 -0.030067919
0.021406353 -0.09565987 -0.11034048 0.03690982 -0.008013598 -0.10020512 -0.11095601 0.10750653
-0.09950064 -0.029262565 -0.098261125 0.10186289 -0.10607161 -0.12280287 -0.10057965 -0.045560427
0.08624528 0.06037417 0.009585485 -0.10389623 -0.09803958 0.018138632 -0.05400093 0.10813989
0.032290593 0.11412954 -0.05888002 -0.07595284 -0.06625007 0.093899295 -0.08713121 0.01269
0.030701846 -0.10391891 -0.03648985 0.023408309 -0.08882271 -0.06891219 0.09995858 0.0005763769
-0.07814198 0.16251999 -0.122846425 -0.06671232 -0.012549624 0.121595025 0.08496755 0.08502108
-0.83487624 -0.099028595 0.11686299 -0.11383958 0.0042237723 0.40286258 0.040236354 -0.07532335
-0.0823351 -0.66286 0.11697878 -0.24778491 0.0014275452 -0.12394509 -0.080114186 0.24624117
0.13582292 -0.54140735 -0.24999216 -0.041860126 0.20207423 -0.039208993 -0.02205964 -0.0051108273
-0.08007127 0.22337826 0.021512587 -0.055628195 -0.1801079 0.0053621233 0.06568056 -0.28212714
-0.056325734 -0.09463644 -0.03610909 -0.052409377 -0.064796016 0.07834375 0.17895065 -0.01916024
0.055719703 0.04929646 -0.07354108 -0.05190393 -0.032636732 0.020745913 0.06650487 0.03762835
-0.10515668 0.23404123 -0.074547075 -0.013066765 0.0035795122 0.0653389 0.13248287 0.297293
-0.0939855 -0.006608933 -0.10487461 0.032940865 0.020814508 0.10768236 -0.023384556 0.05684489
-0.06452194 0.08540127 0.08629781 0.025492206 0.069399655 -0.08831696 0.094124585 -0.004307583
-0.09544858 -0.03699775 -0.11404079 0.07501489 0.09083445 -0.11942962 -0.077344686 0.01678823
-0.07747322 0.101117864 -0.0038279146 -0.06297289 0.098212436 -0.061251417 -0.06318298 0.07426359
0.032145053 -0.05028546 -0.076446354 -0.047031313 -0.08579633 -0.047243685 -0.10549632 -0.11023143
-0.020539537 -0.11126754 -0.12127015 -0.010612175 0.0556325 -0.08897255 -0.076762825 -0.08962721
-0.08538675 0.030765712 0.06608249 0.07943912 0.08392073 -0.12374017 -0.07832748 -0.10940032
0.10713428 -0.05658409 -0.12452856 -0.0006674975 0.099391505 -0.040120512 0.01826024 0.039435938

bias f4 [32]
00000000: f545 f7bd 03dc bcbc 9417 d53b 801c 91bd
00000010: 4e45 1f39 db41 cabd 0012 6e3e 1e70 053d
00000020: c49b 94bd 2138 333c b1b8 0ebe d2c5 d6bd
00000030: 17c3 8abd fef5 f03b 23cd a0bd 9db3 4e3d
00000040: cea8 de3c a0e2 a1bd ca2e 1d3c a87f c63d
00000050: 2c54 c73d 57e6 0e3e 787e d2bd 31b4 5e3e
00000060: 0c7a 14bd 4730 4f3d 3ed5 e43d f50a 34bc
00000070: 5bc2 703d f9be 66bd 0f71 233b 1919 17bc
-0.1207389 -0.023054129 0.006503055 -0.07085514 0.0001518924 -0.09875842 0.23249054 0.032577626
-0.072562724 0.010938675 -0.13937642 -0.1048695 -0.06775492 0.0073535433 -0.07851627 0.05046426
0.027180102 -0.079045534 0.009593675 0.09692317 0.097328514 0.13955055 -0.10278028 0.21748425
-0.036249205 0.05058315 0.11173485 -0.0109889405 0.0587791 -0.05633447 0.0024939214 -0.009222292

weight f4 [8, 32]
00000000: 8231 e93d 2df3 e6bd 51e5 293e 7208 c23d
00000010: d1b1 e33d e00d f93b ed58 23be d4cd 833c
00000020: 5d95 0a3e 9361 25be 55b0 13be c078 83bb
00000030: 8b66 183e e58f 6c3c 4254 e2bd 1b3a 49bd
00000040: b2f3 d33d 3d45 13bd 5904 32be e484 0cbe
00000050: 3e44 31be 1db0 aa3d e005 873b a72a adbc
00000060: 10aa 6b3d 948d 03be 7edb 813b deda 9cbd
00000070: 3ac9 9f3c 056d 0dbe 03b8 963d fded 94bd
00000080: 5a40 00be b9a3 183e 6a20 9b3e d4ad aabd
00000090: 24e1 8abf fb3f 9b3c 07ee 85bc a7c5 05be
000000a0: f227 89be 3f2a 85bd 35ad 29bd c50d 233e
000000b0: 5dce 32bd 143f 753e 8ddf 183f c33e 95bc
000000c0: 6cd0 b33d e5bd 663e c3a3 3abf 2621 05bf
000000d0: db0e 50be f75a 73be a0f2 d93c 53d9 033f
000000e0: 3379 fa3d b9e7 b6bb 1128 3abd ab4f 133e
000000f0: 6929 5ebf bca6 193e 7642 d83e 0a54 1ebe
00000100: 27ab f33d 8180 22be e6ac 923e e366 91bd
00000110: fff2 683f c355 15be a843 393c fe4a 73bd
00000120: 666b d93e 3f21 02be dc2f 9dbd 447f c23e
00000130: 044f 453d 565e 12bf 34b7 323f 6071 1b3b
00000140: 2250 013e fcca c5bd 3218 8e3f eaa4 303e
00000150: f2e4 5f3d 38b9 2fbe 3eb0 a63d e82c 72be
00000160: 0af9 db3c a1f5 013e e1a9 17bc bc12 d53e
00000170: d4f6 a1bd 3470 753e c97f b63d 8473 be3e
00000180: 2b3e b2bd 832a 0fbe f4f6 5fbf 785b 883c
00000190: 0c69 88be 5eea 93bd 53c7 b73d 0368 83bd
000001a0: 032b cebc 421a cdbc a4e5 c7bd 9ccd cebf
000001b0: eb50 803c ab05 343e a045 22bf 30a2 173c
000001c0: 18a7 713d a9c4 af3e 7f4f 12bf a2f8 c7be
000001d0: 704b c33e 5fc7 db3d 4163 273e b068 b1be
000001e0: 1ed2 9ebb 11ec 0bbe 7d03 bcbd df0b d7bc
000001f0: d8e5 9b3d fad1 a43e fb7b 8dbc 502f fc3d
00000200: 6e4f 11be ac86 393c b0d3 b83f e687 a4bd
00000210: 825a abbf fd3f 403d 21f4 d03e 13da 8f3d
00000220: 1f42 e0bc 6e3f 16be 581d fabd f13b 6ebe
00000230: 0ece a43c 2998 633e e1d2 bebf 765f eb3c
00000240: 266a 0f3e b6d0 02bf 9465 c6bf 4162 223f
00000250: e28a 0fbf ae5c c93e d4a6 2abd c089 2c3f
00000260: aa8f 803d 6056 c9bb 89fc 33be 8cb9 92bf
00000270: 1179 273e 5f9d 45be dd8e 813d 8d11 22bf
00000280: 1099 7d3c 7431 8f3d 1e36 b1bd 1f75 223e
00000290: 565c 04be 039a 7d3d fe44 8d3d 258d 16be
000002a0: 9556 b13d 5502 51ba 052c dabd 7d62 a8bd
000002b0: 9d04 dc3d 076c 9b3d ff55 34be f8d1 2cbe
000002c0: f159 623d 08a3 28bc b8f3 cc3d fe9c a6bd
000002d0: 78f3 fdbe f689 5c3d 80a2 47bb ff91 a1bd
000002e0: 7ef5 33be 585d aebc 2610 d23d 3520 b2bd
000002f0: 8812 9cbd 9929 04bd 1b3c 58be f289 14be
00000300: 53c2 053e 80d6 ae3c 376e e93c 7ed7 e23d
00000310: 4b1e e5bd 1cd5 933d c6da 84bd 2465 113e
00000320: 814a 083e 06b0 7bbc 97a5 2c3e 0005 b93b
00000330: e1cb 20be c58d 31be f6bb 923d 0c0b 153d
00000340: 94fa e53d 918e 34be 67e2 3fba 1e1c 09be
00000350: ca20 973d 861e af3d 4c8a 15be 522d 7abc
00000360: 3627 ad3d 3d7b 023e 49cd 243e aadc ac3c
00000370: 850d dcbc b7c6 a3bd ffa0 52bd 7813 96bd
00000380: 001d ae3b d61b f63d 87a1 cb3d 60b2 dcbc
00000390: 24a4 183e e458 1ebe 4f86 fa3a a1e9 013e
000003a0: fb3d 073d 1e63 343d bb52 923d 80ca 8d3a
000003b0: 7edd 01be b0b2 adbc 7bbc fcbd f260 96b9
000003c0: ec45 fc3d dd7a 08be ba04 d93d 3236 a1bd
000003d0: 131c 283e e706 00be 277a b1bd 6cad 6cbc
000003e0: e0be e7bd 101f 00bc 1ea8 85bc 09a1 93bd
000003f0: 7fd3 acbd 0d75 2abe 3bda c8bd 8bd1 703d
0.11386396 -0.11276851 0.16591384 0.09474267 0.111179 0.007600531 -0.15951891 0.016089357
0.1353354 -0.16150503 -0.14422734 -0.0040121973 0.14882867 0.014438604 -0.11051227 -0.04912768
0.103492156 -0.035954703 -0.17384471 -0.13722569 -0.17311189 0.08334372 0.0041205734 -0.021138502
0.05753523 -0.12846977 0.003962933 -0.07658933 0.019505132 -0.13811119 0.07359316 -0.07271955
-0.12524548 0.14906205 0.30298167 -0.08333936 -1.0849957 0.018951407 -0.016348852 -0.1306368
-0.26788288 -0.065021984 -0.04142495 0.15923221 -0.043653835 0.23949844 0.5971611 -0.018218404
0.08779988 0.22533377 -0.7290613 -0.52003706 -0.20318167 -0.23765169 0.02660495 0.51503485
0.12230148 -0.0055818227 -0.045448367 0.1438586 -0.86781937 0.1500501 0.42238206 -0.15461746
0.11897879 -0.15869333 0.28647536 -0.07099702 0.9099578 -0.14583497 0.011307634 -0.05939769
0.4246475 -0.12707995 -0.07675144 0.3798772 0.04817106 -0.57175195 0.69810796 0.00237187
0.12628224 -0.09657857 1.1101134 0.1725041 0.0546617 -0.17160499 0.08139084 -0.23649943
0.02685215 0.12691356 -0.009256811 0.41615856 -0.07908407 0.23968583 0.08911092 0.37197506
-0.08703264 -0.1398106 -0.87486196 0.016645178 -0.26642644 -0.07222436 0.08973565 -0.06416323
-0.025166994 -0.025036935 -0.09760597 -1.6156497 0.015663585 0.17580287 -0.6338749 0.009254977
0.058997244 0.34329727 -0.5715255 -0.3905688 0.38143492 0.107313864 0.16346456 -0.34650183
-0.0048468253 -0.13664271 -0.09180353 -0.026250778 0.076121986 0.3219145 -0.017271033 0.12313712
-0.14190456 0.011323612 1.4439602 -0.08033733 -1.3386996 0.046936024 0.40811256 0.07024016
-0.027375279 -0.14672634 -0.12212628 -0.23265053 0.020117786 0.22226013 -1.4908105 0.028732043
0.14005336 -0.5109972 -1.5499749 0.63431174 -0.56071293 0.3932852 -0.041663006 0.6739769
0.06277402 -0.00614433 -0.17576803 -1.1462874 0.16354777 -0.19298314 0.06326077 -0.6330803
0.0154783875 0.06991854 -0.086529 0.1586499 -0.12925848 0.061914455 0.06897925 -0.1470228
0.08659092 -0.0007973065 -0.10652927 -0.0822191 0.107430674 0.07588964 -0.1761093 -0.16876972
0.055261556 -0.010292776 0.10007423 -0.08135413 -0.49599814 0.053842507 -0.0030461848 -0.07889175
-0.17574117 -0.021284744 0.10256986 -0.08697549 -0.07620722 -0.032266233 -0.21116678 -0.14505747
0.1306241 0.021342516 0.028494937 0.11076258 -0.111874186 0.07218382 -0.0648704 0.14198738
0.13309671 -0.0153617915 0.16860043 0.005646348 -0.15702774 -0.17339237 0.07164757 0.03638749
0.112294346 -0.1763251 -0.00073198084 -0.13389632 0.07379301 0.08550744 -0.14603537 -0.015269594
0.084547445 0.12742324 0.16093935 0.021101315 -0.026861915 -0.07996886 -0.05142307 -0.07327932
0.0053135157 0.12017028 0.09942918 -0.026940525 0.14906365 -0.15463597 0.0019113513 0.12686779
0.033018094 0.044039838 0.07144686 0.0010817796 -0.12682149 -0.021203369 -0.12340637 -0.0002868246
0.12318024 -0.13328119 0.10596605 -0.07871665 0.1641696 -0.12502633 -0.08665877 -0.014445644
-0.113157034 -0.007819906 -0.016315516 -0.072084494 -0.08438777 -0.16646214 -0.09807249 0.058793586

bias f4 [8]
00000000: f3c9 02be a66a d6bd d577 273e ea26 d73d
00000010: b930 ce3d c792 92bd 0ebc 2bbe e5c1 aa3d
-0.1277235 -0.1046956 0.16354306 0.10505469 0.10067887 -0.07156902 -0.16770956 0.08337764

weight f4 [4, 8]
00000000: 53b0 8bbe 111a 3dbe fa21 573e f0a9 9ebd
00000010: 3b33 a0be b8ae a5bd df2c a23e 484b 7fbe
00000020: 302c 80bd d86e b3be 9e5e 523e 29c7 963e
00000030: 8b18 aebe 786e 8bbd bc97 8abe e54d a73e
00000040: bb57 75be 4071 39bd 9ade 1f3e 6eb0 523e
00000050: 54c0 803d 708f 81be 7f04 39be 1e6f 403e
00000060: ec69 bbbd 909f 08bd aae3 493e 518e 973e
00000070: 9b5b 3fbe 80cd 51bb faae 413e c691 85be
-0.27282962 -0.18466975 0.21009055 -0.07747257 -0.31289086 -0.080899656 0.3167486 -0.24931061
-0.06258428 -0.35045505 0.20543906 0.29448822 -0.340031 -0.068081796 -0.2706889 0.32676616
-0.23959248 -0.04527402 0.1561226 0.20575115 0.06286684 -0.25304747 -0.18068121 0.18792388
-0.09151062 -0.033355296 0.19715753 0.29600766 -0.18687288 -0.0032013357 0.18914405 -0.2608778

bias f4 [4]
00000000: 4225 153e aacd 38be 36e6 463e f254 6e3e
0.14564994 -0.18047205 0.19423756 0.23274592
