training/ann/models/ann21ep700.pth (torch, 69218 bytes, 10 tensors)

weight f4 [128, 40]
000000 ae d7 cd 3d e0 c9 2b bc a1 ed c7 bd f9 af d7 3e
       0.10050903 -0.0104851425 -0.09762121 0.42126444
000010 13 8f ac bd d3 ee 64 3c a1 a6 7b 3e 07 2c a7 bd
       -0.08425727 0.013972956 0.24575283 -0.081626944
000020 23 a7 10 3f 3c e5 25 3e 48 2d 80 be 17 01 80 be
       0.5650503 0.16200727 -0.25034547 -0.2500083
000030 25 04 a2 3d 95 18 11 3e f7 ea 03 bd 10 06 8f 3e
       0.07910947 0.14169534 -0.0322065 0.27934313
000040 bc 25 58 be c4 6a 12 3f 1e fd 4e be ae 13 15 3f
       -0.21108145 0.5719416 -0.20213744 0.58233154
000050 ae d0 b6 3d 91 07 08 bf 02 7e b7 be 7e 54 eb 3b
       0.08926521 -0.53136545 -0.35838324 0.007181703
000060 34 e0 7e 3d 6c da be 3d eb f7 b5 3d 4c 1a 09 be
       0.062225536 0.093190044 0.08885177 -0.13388938
000070 c5 91 a7 3c 5b 3b f8 bd 87 df cf 3e f4 e1 b9 be
       0.02045525 -0.12120696 0.40600225 -0.363052
000080 86 1c bf be 98 eb 51 bd fa 5c 6d 3e 39 08 29 3e
       -0.3732645 -0.05125007 0.23179999 0.16507043
000090 92 77 1d 3e e4 e8 78 be 47 aa 18 3e 33 6f cc 3d
       0.15377644 -0.2430759 0.14908706 0.09982147
0000a0 1c a8 6b 3d 78 4e d6 bc a7 9c 12 3e 05 2d 19 be
       0.05753337 -0.026160464 0.1431757 -0.1495858
0000b0 a0 b0 05 bc ca 0e d3 3d 88 19 75 3d 22 0e 8e bd
       -0.008159786 0.10305555 0.0598388 -0.06936289
0000c0 84 53 b0 bd 44 b8 55 3d 38 09 b7 3c 70 e7 27 3d
       -0.08609679 0.052177683 0.022343263 0.0409922
0000d0 84 e2 99 3d 5a 51 ab 3d 3f 31 0d 3e 60 e5 96 bb
       0.075139076 0.08365126 0.13788317 -0.0046049803
0000e0 58 2d ba bc 5e 05 0c bd 00 6c 1f 3a 01 2d 1b 3e
       -0.0227267 -0.034184806 0.0006081462 0.15153886
0000f0 68 8c 91 3d f6 23 0f bd 94 1c 18 3d f0 38 49 3c
       0.071068585 -0.034946404 0.03713663 0.012281641
000100 a2 62 8e 3d 64 ff 17 bd 48 37 62 bd 1f bf 0f 3e
       0.069524065 -0.037108794 -0.0552285 0.1403775
000110 50 aa 44 3d 63 7a b7 bd ab f3 ba bd f9 68 14 3e
       0.048013985 -0.0895889 -0.09128507 0.14493169
000120 73 2a 1d 3e dc e6 13 bd ce d3 c1 3d d0 36 be 3c
       0.15348224 -0.036108837 0.09464227 0.023219496
000130 ff 1e 1b 3e e0 7f ea bc 3c 83 2b 3d 9e 7d 92 bd
       0.15148543 -0.028625429 0.0418732 -0.07152866
000140 cb dd 0f be 4f 68 f5 3d 1e 4d da be 0f a0 08 3f
       -0.14049451 0.11982786 -0.4263696 0.5336923
000150 57 cf e7 3e c4 6f 48 be 50 db 09 be 59 84 2a be
       0.45275375 -0.19573885 -0.13462567 -0.16652049
000160 2d 01 df be 3f 08 e2 bd 3e 09 42 3e 2c 3a 8c be
       -0.43555585 -0.11036729 0.18948838 -0.27388132
000170 f5 6b 65 3e ce 62 2c be 55 2f 2d 3d 8c e2 0c be
       0.22404464 -0.16834566 0.042281467 -0.13758296
000180 b5 22 10 3e 54 b9 01 3f 6b af ca bd 2a d4 a5 3e
       0.1407574 0.50673413 -0.098967396 0.3238843
000190 00 b6 32 be a4 18 b3 be 70 e7 f4 be 5c dd d9 3d
       -0.1745224 -0.34979737 -0.47832823 0.10637924
0001a0 de 60 09 3f 77 86 b9 3e 1c 17 ca bd 9a 82 b7 3d
       0.5366343 0.362354 -0.09867689 0.08960457
0001b0 42 2d 26 bf af a4 3e be 37 4f 64 3e 7b 8f 5c be
       -0.6491281 -0.1861751 0.22295843 -0.21539108
0001c0 1f ed 46 bf a3 44 45 bd cd 5e 76 3d b3 d3 f7 3d
       -0.7770557 -0.04816116 0.060149003 0.12100925
0001d0 b5 3e 16 3f 12 02 0c 3e e2 5a 74 bd 5e 39 40 bd
       0.58689433 0.13672665 -0.059656985 -0.04692971
0001e0 ca 36 f7 3d f8 c4 06 be b0 e9 db 3c 00 a5 8f 3d
       0.12070997 -0.13161075 0.02684483 0.07013893
0001f0 2c b2 30 bd 6e a5 f3 3d fe 8a eb bd 00 a9 f2 bb
       -0.043138668 0.118967876 -0.1150112 -0.0074054003
000200 32 ec 96 3d 56 b0 e5 3d 08 44 b9 bc 5e f4 02 be
       0.073692694 0.11215274 -0.022615448 -0.12788531
000210 32 3c d0 bd 60 f3 a6 bc 08 26 de 3c 70 6d b2 bc
       -0.10167731 -0.020379722 0.027117744 -0.0217807
000220 aa 8e ec 3d f4 0f ec bd a0 74 1c 3c c5 ca 97 bd
       0.115506485 -0.1152648 0.00954929 -0.07411722
000230 60 ff 8e 3b a4 f1 90 3d 0e 80 ef bd 72 bb a3 3d
       0.004363939 0.07077339 -0.11694346 0.07994737
000240 2a 60 04 be c7 62 1c 3e ae 55 cd 3d 3c d3 b3 3d
       -0.12927309 0.15272056 0.10026108 0.08780524
000250 c0 1b 3c 3d 57 f6 19 3e 96 bb aa 3d ec 68 f5 bd
       0.045924902 0.15035377 0.083365604 -0.11982903
000260 78 dd c1 bc 8c 67 a6 3d 54 be 36 3d db 92 a2 bd
       -0.023665175 0.08125219 0.044615105 -0.07938167
000270 c4 1c 0e 3d b1 24 15 3e 88 a9 89 bc 19 3c 11 3e
       0.0346954 0.14564778 -0.016804472 0.14183082
000280 b1 63 20 bd dd df d3 3d fd 82 a4 be a5 58 26 3f
       -0.039157573 0.10345433 -0.32131186 0.6497901
000290 90 55 5b be df 17 d0 3d 13 e5 99 be 3e b7 f7 3d
       -0.21419358 0.10160803 -0.30057582 0.120954975
0002a0 e9 ec 84 be ff db 90 be 2c bb 8d 3e 02 b5 c5 bd
       -0.25961998 -0.28292844 0.27681863 -0.09653665
0002b0 76 3d bd bc 7d d2 cb be d9 9f b7 3e 69 95 05 3c
       -0.023100596 -0.39809027 0.35864142 0.008153298
0002c0 0e 0e ef 3d 35 ee d1 3d 27 e8 00 bd 1a 9b 87 3e
       0.116726026 0.102505125 -0.031471398 0.2648552
0002d0 52 e6 11 3e 70 aa 6b bf 82 67 09 bf d7 74 45 be
       0.14248016 -0.9205694 -0.53673565 -0.19282852
0002e0 fb bf 37 3e 1a 97 23 3f 51 a1 91 be 0c 3f e2 3e
       0.17944328 0.6390244 -0.28443387 0.44188726
0002f0 8c ad 35 bf da e6 85 3e e0 98 06 3e ae e0 7c be
       -0.70967937 0.26152688 0.13144255 -0.24695083
000300 bb fc 60 be 01 d5 c7 3e f6 a8 16 bd c1 0e ac bc
       -0.21971409 0.39029697 -0.036782227 -0.021003129
000310 69 d9 2d 3e a2 c8 82 3e 09 ce 03 bd 28 9a a4 3e
       0.16977467 0.25543696 -0.032178912 0.32148862
000320 f0 ce 04 3c f8 d1 ad bd da c0 dd 3d 91 2a 02 be
       0.008105978 -0.08487314 0.10827799 -0.1271155
000330 10 11 2c 3d 3c 21 92 3d 94 a2 99 3d 50 11 c0 bc
       0.04200846 0.07135245 0.075017124 -0.023445755
000340 70 8e 78 3d 5c 9c 17 be 2f 2c 08 3e 11 76 05 3e
       0.060682714 -0.1480574 0.13298105 0.1303332
000350 c0 5f cb 3c 90 18 0f 3d 3d bc 02 be c0 22 25 bd
       0.02482593 0.034935534 -0.1276712 -0.040316343
000360 03 d6 10 3e 84 66 0e 3d 27 a6 88 bd f9 9f c3 bd
       0.14144139 0.034765735 -0.06672316 -0.09551997
000370 52 3f 88 bd 98 c6 eb 3c b4 a8 51 bd 0c 6f 46 bd
       -0.066527024 0.02878122 -0.05118628 -0.048445746
000380 02 ae d7 bd 48 35 c9 bd c0 02 e0 3b b8 00 09 be
       -0.10531236 -0.09824616 0.0068362653 -0.1337918
000390 8b 34 8f bd aa 49 c7 3d 38 77 57 3d 3f 7d 00 be
       -0.06992444 0.09730847 0.05260393 -0.12547778
0003a0 b4 75 05 bd e8 71 d6 bc 50 88 4e bd 00 4b a7 bc
       -0.032582954 -0.026177362 -0.050422966 -0.020421505
0003b0 30 a1 7c bc 08 cd 6b 3d a8 40 3c bd ba f3 90 bd
       -0.0154192895 0.05756858 -0.0459601 -0.07077737
0003c0 9f ad 04 3e c0 58 cf 3d ec 85 a5 3e ff 7e 17 bf
       0.12956856 0.101243496 0.32328737 -0.59178156
0003d0 88 ba 47 be 3f dd b0 bd 9c 58 a0 3e 23 e0 43 3d
       -0.1950475 -0.08635949 0.31317604 0.047821175
0003e0 3b 72 c5 3e 20 d2 08 3d 4b 75 1e be dd eb 4f bd
       0.38563713 0.033403516 -0.15474431 -0.050762046
0003f0 ff 6d a2 bd 7c 44 07 3f aa f9 0f bf ad c4 8a 3a
       -0.07931136 0.52838874 -0.5624033 0.0010587178

bias f4 [128]
000000 9d e2 91 bd a2 e8 aa bd f9 a5 2e bc 72 72 b4 3d
       -0.07123301 -0.083451524 -0.010659688 0.08810891
000010 d6 eb cf 3c 56 17 74 bd 90 1b 54 be c0 dc 20 bc
       0.02538101 -0.059592567 -0.2071364 -0.009818256
000020 e4 08 fd 3d 8e 96 a2 bd 3d eb 12 bd 42 bb bf 3d
       0.123552114 -0.07938872 -0.035868872 0.093618885
000030 0d ed bf bd de e7 a3 bd e0 8d 94 bb 91 1b 51 3d
       -0.09371386 -0.080032095 -0.0045335144 0.05105168
000040 08 d1 db bd 4c 0c 2e bd 93 7b 16 3e 95 5b 20 be
       -0.10733229 -0.042492196 0.14695577 -0.15659936
000050 93 d0 00 3e 40 c4 40 3b af 65 06 3e 25 df f9 bd
       0.12579565 0.002941385 0.13124727 -0.122007646
000060 92 1c 64 be 8a 21 d6 3d e0 56 ca 3c 2e e4 81 bd
       -0.22276524 0.10455616 0.024699628 -0.0634235
000070 be 55 80 3d 60 f8 17 be 47 e7 08 bd b6 be cd bd
       0.06266354 -0.14840841 -0.03342369 -0.10046141
000080 68 9c e9 bd 80 92 2f 3d 73 34 df bd eb f2 14 3e
       -0.11406785 0.042864323 -0.10898676 0.14545791
000090 f4 af aa bd 01 e6 0a 3e 4a 89 00 3e 42 4c f2 bd
       -0.08334342 0.13564302 0.12552372 -0.11830951
0000a0 ce 59 3b be 55 01 11 be c4 fb 24 be 61 c9 1c 3e
       -0.18295977 -0.14160664 -0.16111666 0.15311195
0000b0 f0 b1 fc 3c 8b dc 33 3d 1a d2 20 be 54 5d 0a bd
       0.030846566 0.043911498 -0.15705147 -0.03378041
0000c0 14 57 56 3c e0 83 0f be 82 b7 ed 3d ac ba ea bb
       0.0130822845 -0.1401515 0.11607267 -0.0071633663
0000d0 75 20 c5 3c 1a b1 a0 bd 1d 67 96 3d be a3 be 3d
       0.024063328 -0.078462794 0.07343886 0.09308575
0000e0 d2 bc e4 bd 44 b4 06 be ef bf 30 be ab c0 80 bd
       -0.11168827 -0.13154703 -0.17260717 -0.062867485
0000f0 8c f9 96 3d 0c f3 17 3e 38 49 c1 3d fe a5 fc 3d
       0.07371816 0.14838809 0.094377935 0.12336348
000100 50 57 3b be 67 23 12 3e c8 94 03 3e 8f 25 6c bc
       -0.18295026 0.14271317 0.12849724 -0.014413252
000110 8c 90 82 3c c9 b8 17 be 38 06 33 3d 8f d2 2b 3d
       0.015938066 -0.14816584 0.043707103 0.04194885
000120 33 d8 2d 3e db 49 0b 3e 98 b3 09 be bf 18 dc 3d
       0.16977005 0.13602392 -0.13447416 0.107469074
000130 2a 38 10 3e d3 81 10 3e 8e 04 94 bd f2 ac 1f bd
       0.14083925 0.14112024 -0.07227431 -0.038983293
000140 e3 4c 9d bd 3a 6d 07 be 12 60 46 3d 24 b5 38 3d
       -0.076806806 -0.1322526 0.048431464 0.045094624
000150 f9 32 1b 3e 90 81 5d 3d db 74 eb bd ba a2 1f bd
       0.15156163 0.05407864 -0.11496898 -0.038973548
000160 a4 7e 84 3d 3b d0 26 3d 0c a9 48 3d ca 49 cb bd
       0.06469467 0.040725928 0.04898934 -0.099261835
000170 f8 2e 00 3e 48 89 20 3d b8 e0 c1 bd cd 1f d3 3d
       0.12517917 0.03919342 -0.0946669 0.103088
000180 77 76 23 be 76 d7 f2 3d fd b9 bd bd df 46 08 be
       -0.1596316 0.11857502 -0.0926399 -0.13308285
000190 9a 21 0a 3e 4b 00 84 bd 74 fd 03 bd 1b ca 15 be
       0.1348938 -0.064453684 -0.032224134 -0.14627878
0001a0 7a 74 2b be 6e 12 2f bd 31 b3 c2 bd f0 33 d7 bd
       -0.16743651 -0.042742185 -0.09506834 -0.10507953
0001b0 6c 8d 0b 3d c7 b9 05 3e ec 6d c9 3d e8 1e a6 bd
       0.034070417 0.1305915 0.09835419 -0.08111364
0001c0 a0 1b c7 bd 26 64 d0 bd 1a 7a 84 bd cf b4 16 bd
       -0.09722066 -0.10175352 -0.064686015 -0.036793526
0001d0 38 e8 73 bd 70 aa 65 bd ed f8 d7 3d 92 7d 36 bd
       -0.059547633 -0.056070745 0.10545526 -0.044553347
0001e0 02 ae ec bd 5c 63 02 3e 9a 30 d6 bd 4c 28 21 3d
       -0.11556627 0.12733215 -0.10458489 0.03934507
0001f0 20 af ce 3c 26 ba e8 3c 9f 7b a5 3d 31 cb eb bd
       0.02522999 0.028409075 0.080802195 -0.11513365

weight f4 [64, 128]
000000 22 68 68 3d 9c 43 89 3c f1 c4 8a 3d 04 f1 00 bd
       0.056739934 0.016755871 0.06775845 -0.03147985
000010 c2 34 68 3d 26 48 0c 3d 93 7c 9b 3d bc dd b4 3c
       0.05669094 0.034248494 0.0759212 0.022078387
000020 3d e9 ae 3d 1b c1 9c bd dd 89 61 bd c8 32 e4 3c
       0.085405804 -0.076540194 -0.055063117 0.027856246
000030 b5 32 b0 3d d0 4f 84 3b ee 61 4d 3d 87 52 32 bd
       0.086034216 0.0040378347 0.05014222 -0.043535735
000040 57 27 98 3d 50 eb 8e bb 68 62 e2 3c a0 b4 e4 3c
       0.074293785 -0.0043615475 0.027634814 0.02791816
000050 e2 5a 32 3d 87 b4 af 3d 5c 95 c5 bc e8 9d b4 3c
       0.043543704 0.08579355 -0.024119072 0.022047952
000060 11 7a 93 3d 66 0b 14 bd 30 8d 90 3b 4a 69 4c 3d
       0.07201017 -0.036143683 0.004411362 0.0499051
000070 00 27 79 bd 4e 9c 15 3d 38 9d 53 bd 1a 69 2a 3d
       -0.06082821 0.036526017 -0.051663607 0.04160414
000080 d0 62 83 bc 44 07 ae bd 79 db 8b bd 0f 87 91 bd
       -0.016038328 -0.084974796 -0.068289705 -0.071058385
000090 f8 36 9c bc 44 d3 ec bc 86 e2 21 3d 07 63 99 3d
       -0.01906918 -0.028909333 0.03952267 0.07489591
0000a0 54 49 a0 bd 43 34 82 3d f2 ae 00 3d a8 7b 02 bd
       -0.07826486 0.063576244 0.03141684 -0.03185621
0000b0 61 e1 9f bd 8d cd 85 3d 94 8b a7 bd b9 ae 37 bd
       -0.078066595 0.06533346 -0.08180919 -0.044844363
0000c0 a3 5e 87 3d 2a b6 9f bd e7 5d 87 3d c0 7d 6a bd
       0.066098474 -0.07798417 0.06609707 -0.05724883
0000d0 ac 8a b8 bc f4 f9 88 bc f8 05 ac bd 23 a7 8d 3d
       -0.022527061 -0.01672075 -0.08399576 0.069166444
0000e0 20 a6 de 3b 6d d3 98 3d 27 8f 91 3d dc 5f 82 bc
       0.006794706 0.07462201 0.07107382 -0.01591485
0000f0 c0 06 9e 3a b8 34 18 bc 70 0a 81 3b ae b2 1a 3d
       0.0012056455 -0.009289913 0.003938012 0.03776806
000100 34 7e 96 3c 2e 68 6e 3d 88 07 39 3c fe 18 89 bd
       0.018370725 0.058204822 0.0112932995 -0.0669422
000110 96 6e 62 3d a1 07 87 3d b5 31 88 bd c5 5b b4 bd
       0.055281244 0.06593252 -0.06650106 -0.08806566
000120 64 7c 8d 3c 53 9d 19 bd 9a a9 8b bd aa a6 37 3d
       0.017271228 -0.03750355 -0.06819458 0.044836678
000130 d3 aa 1f bd 5c c3 11 3d 35 ff 9d 3d c0 6d 3b bc
       -0.03898127 0.0355867 0.077146925 -0.011439741
000140 aa 3f 4f 3d 34 7f 04 bd d6 24 32 3d 8f ed aa 3d
       0.050597824 -0.032347873 0.04349216 0.08346092
000150 db d9 a2 3d d0 7b c5 bb 24 9e 7c bd 40 74 ba bc
       0.07951709 -0.0060267225 -0.061674252 -0.02276051
000160 40 92 de 3a 38 85 d0 3c 79 97 aa bd 10 67 65 bd
       0.0016980842 0.025454149 -0.08329672 -0.05600649
000170 76 34 a5 bd 44 40 8d bc f2 e3 04 3d 48 a1 90 3c
       -0.08066647 -0.017242558 0.032443948 0.01765503
000180 10 2d a2 3b 40 51 ca 3b 5c 8d 8d bd c0 6a 73 bc
       0.0049492195 0.0061742365 -0.06911728 -0.014856994
000190 90 cc d2 bb de 44 02 bd 7d f3 87 3d ae a4 6a 3d
       -0.006433077 -0.031803958 0.066382386 0.057285957
0001a0 85 2f b4 3d 00 20 52 bc 60 e1 c0 bb 99 68 ae 3d
       0.08798126 -0.012825012 -0.005886242 0.08516044
0001b0 00 59 54 bb 30 37 15 3d 57 ad 05 bd fe e4 6e bd
       -0.003240168 0.036429584 -0.032636013 -0.058323853
0001c0 d1 83 9c 3d 63 b4 9d 3d 5c 01 a8 bd 80 39 77 bc
       0.076423295 0.07700422 -0.08203384 -0.015089393
0001d0 5d f2 86 3d 92 27 06 3d 60 53 12 3d 0a e4 4c 3d
       0.06589196 0.03275258 0.035724044 0.050022162
0001e0 ea 62 7f 3d 14 f1 7b bd b6 e6 34 bd ea b1 64 3d
       0.06235019 -0.061509207 -0.044165336 0.055833735
0001f0 70 3e 0b 3c b0 ea 80 3c 9e 88 23 3d 75 48 2a bd
       0.008498773 0.015736908 0.03992521 -0.041573007
000200 c7 ac 90 3d e0 f9 b6 3b 2b 57 a7 3d 54 06 ab bc
       0.07064205 0.0055839866 0.08170923 -0.02087704
000210 91 bc c2 3c c1 78 91 3d a1 07 19 3c 08 fb ab bd
       0.023771556 0.0710311 0.009340198 -0.0839749
000220 4d f3 8f bd c6 8f da bc 3f 51 5d 3d 20 ca 36 bc
       -0.07028828 -0.026679885 0.05403256 -0.011156589
000230 04 f5 df 3c 4d ab 2e bd 6e 3a 9b bd 15 c4 ee bc
       0.027338512 -0.042643834 -0.07579504 -0.029146234
000240 e1 a8 9c 3d c2 fb 45 bd 76 90 1d bd ea 20 7d 3d
       0.076493986 -0.048335798 -0.038467847 0.061798967
000250 7c df 89 bd 27 93 b3 3d a2 05 41 3d 6f ea 10 bd
       -0.067320794 0.087683015 0.047124512 -0.035379823
000260 8e 0e 53 3d 28 b8 e2 3c dd 2d 93 bd d0 c2 ae 3b
       0.051527552 0.027675703 -0.07186482 0.005333282
000270 e0 79 dc bb 60 69 7f 3c ff 9e b0 3d b8 be 99 bc
       -0.006728396 0.015589088 0.08624076 -0.0187677
000280 04 d7 36 3d a2 b2 3d 3d 08 f9 8c 3c e4 3a af bc
       0.04463865 0.046312936 0.017208591 -0.021390386
000290 0d 45 51 be 83 93 3a 3e 03 be 85 be 4a 94 fc bd
       -0.20436497 0.18220334 -0.2612153 -0.123329714
0002a0 71 b6 6b bd c2 ac 07 3d 55 99 2c 3c 37 08 8e 3d
       -0.057547037 0.03312374 0.010534604 0.069351606
0002b0 97 43 34 bd d2 4f 3f bd 47 de 2f bd 3d 69 1c bd
       -0.04400977 -0.046706982 -0.04293659 -0.0381863
0002c0 83 77 a0 bd 6d 19 ab bb d3 c7 ac 3d d4 dc 21 be
       -0.07835295 -0.005221537 0.08436551 -0.15806895
0002d0 52 71 09 bb aa 40 41 3d 0a ad a2 3d 2e 7f 0b bd
       -0.0020972085 0.04718081 0.07943161 -0.034056835
0002e0 1d 90 2c bd ea f9 bd 3d 37 d0 89 3e c6 7f 19 3d
       -0.042129625 0.09276183 0.26916668 0.03747537
0002f0 3b 82 91 3d 0b 90 9c 3d 5b 23 a2 3c 41 eb a6 3d
       0.071049176 0.076446615 0.01979225 0.0815034
000300 1f b8 35 3d fe 9d 22 3d 9f d4 8d bd d4 67 9c 3d
       0.044365045 0.039701454 -0.0692532 0.07636991
000310 48 dc b0 3d 6b ae 3a bd 6f fb 92 3c 48 4d 50 bc
       0.08635765 -0.045576494 0.017942159 -0.012713738
000320 00 4b a4 bd b9 58 9c 3d ed ab 4a bd 5d 2a e5 3e
       -0.080221176 0.0763411 -0.049480367 0.44758883
000330 36 dd 2e bb 99 a0 82 bd 9e 6d 35 3d 50 d5 00 3c
       -0.0026682145 -0.06378288 0.044293992 0.007863358
000340 45 e5 a0 3d 5a 49 8e bd 9a 71 93 bc ce 22 22 3d
       0.0785623 -0.069475845 -0.017998505 0.039583974
000350 de 0a 7f 3d 1c ea a7 3c 81 24 d3 3d cc dc f3 3c
       0.062266223 0.020497374 0.10309697 0.02976837
000360 69 77 14 bd c9 f5 65 3d be ca 92 bd 60 14 2c bb
       -0.03624669 0.056142602 -0.07167576 -0.0026257262
000370 20 c8 93 3d e0 31 15 bc 10 87 32 3c 3a 45 8e bd
       0.07215905 -0.009106129 0.010896459 -0.06946798
000380 9c f6 98 bd 9a 36 47 3d b9 3c 2c bd 23 b9 f9 bc
       -0.07468912 0.048636056 -0.042050097 -0.030483788
000390 b8 86 67 be e6 17 91 bc 80 4a 17 3a 5f 4d a2 3d
       -0.22609985 -0.017711591 0.0005771294 0.079249136
0003a0 9b 2b 00 3e 9c 94 4f bd 58 e4 ec bc 0f 8d 8f 3d
       0.12516634 -0.050678834 -0.028917477 0.07009327
0003b0 42 c5 5b bd 28 6f 84 3c 17 58 c4 bc 05 56 7e 3c
       -0.053654917 0.016166285 -0.023967786 0.015523438
0003c0 c0 c6 04 bc c0 c8 90 3a c6 61 4d bd 64 7f aa be
       -0.008104026 0.0011046156 -0.050142072 -0.33300316
0003d0 da 4d df bc 9f 9c a3 3d 3d cd 8a 3e 77 ce a8 3d
       -0.027258802 0.079888575 0.2710971 0.08242505
0003e0 57 f2 69 bd 46 16 be 3c 80 ce ac bd 4c a0 60 bd
       -0.05711588 0.02320398 -0.08437824 -0.05484037
0003f0 b7 92 24 bd 23 29 d1 bc 1d fb a7 bd 74 91 74 bd
       -0.04017898 -0.02553231 -0.08202193 -0.059709027

bias f4 [64]
000000 a3 6c 89 3d 9e 14 63 3c 49 5b 7d bd a7 4d 90 3d
       0.06710174 0.013859896 -0.061854634 0.07046061
000010 36 06 56 bd d7 e7 81 3d 06 b8 ef 3c 18 80 9f bc
       -0.052252017 0.06343048 0.029262554 -0.01947026
000020 87 d0 2e 3d 8e a9 fe 3a b1 74 12 be 65 27 c5 bb
       0.042679336 0.0019429193 -0.14302327 -0.006016659
000030 0c 13 ce 3c 0b b6 10 3c 8b 9d 69 bd 70 5e ed 3c
       0.025155567 0.008832465 -0.05703501 0.028975695
000040 ae 23 45 bd 27 7a 7d bd c0 27 f4 ba 0b 6c 8f bd
       -0.04812973 -0.06188407 -0.0018627569 -0.070030294
000050 77 fb 48 3d fa 34 2a 3d b5 ff 54 3d a4 3f a6 3a
       0.04906794 0.04155443 0.052001674 0.0012683761
000060 f7 01 a5 3d 34 43 99 bd 85 5f 17 3d 7d ce 2b bd
       0.080570154 -0.07483521 0.03695633 -0.04194497
000070 4c da a1 bc 1a 12 35 3d 9c 31 91 3b 01 b4 80 3d
       -0.019757412 0.044206716 0.0044309627 0.06284333
000080 fa b3 3d 3d 9a c8 06 bd 80 20 81 3d 80 48 8c bd
       0.046314217 -0.032906152 0.06305027 -0.06849766
000090 62 99 16 3d c0 36 0d 3c 71 43 b2 3d 7b b8 b5 3c
       0.03676737 0.00861901 0.0870427 0.022182694
0000a0 80 6e ee bb b8 92 47 bc 65 b5 5d bd ae 66 b3 3d
       -0.007276356 -0.012180977 -0.05412807 0.08759819
0000b0 f9 18 a0 3d 68 db 8d bc 55 70 10 3e a8 e4 e7 3c
       0.07817263 -0.017316535 0.14105351 0.028307274
0000c0 52 80 6e 3d 61 5e 52 bd 74 54 6f bc 93 92 3f 3d
       0.058227845 -0.051359538 -0.014607538 0.046770643
0000d0 ee ae 5a bd e7 89 1f bd f4 2c 23 3d 83 99 93 bd
       -0.053389482 -0.038949873 0.039837793 -0.072070144
0000e0 d8 67 99 bd 56 ab a2 3c 8f 0c d8 3b a5 2e e0 bb
       -0.0749051 0.01985709 0.006593294 -0.006841498
0000f0 d9 b9 0f bd 93 f8 3d bd e7 7c 48 3c be 13 ad bc
       -0.035089348 -0.046379637 0.01223681 -0.021127578

weight f4 [32, 64]
000000 40 94 4c bc 2d 7f 5d 3d 20 a3 de 3c a8 9b ff bd
       -0.012486517 0.054076362 0.027177393 -0.12480861
000010 4e 71 e4 3d 5e a5 ee 3d 5c d2 f4 3d 10 63 03 3c
       0.11154424 0.11652635 0.11954185 0.008019224
000020 e2 7c f2 3c bc 46 5c bd ab b4 c3 3d 94 44 d8 bd
       0.029600564 -0.053778395 0.09555944 -0.10559955
000030 a8 83 b5 bc d2 46 82 bd f0 21 7a 3d 51 64 07 3b
       -0.022157505 -0.06361164 0.06106752 0.0020659158
000040 84 6d 8e 3c 8a da bd 3c f8 3d fb 3d e2 5e 5b 3a
       0.017386205 0.023175497 0.12267679 0.00083683257
000050 d0 37 ca bd 9a 02 e4 3d e2 82 ae 3d b8 13 4a bd
       -0.09873927 0.11133309 0.08521058 -0.04933521
000060 f4 02 9d 3d 7b a0 86 bd 0e 49 c0 bd 70 87 1b bd
       0.07666579 -0.06573578 -0.09388934 -0.03797096
000070 2e ae fd bc 1c df f1 3d 08 0f 85 bc 00 a9 43 bc
       -0.030966844 0.11810133 -0.016242519 -0.011942148
000080 c4 ac 7b bd ac 47 ad 3c eb 3a c0 bd 3c 9c 27 bd
       -0.06144406 0.02115234 -0.09386238 -0.04092048
000090 a1 a4 d2 bd 20 73 33 bd 00 2c 92 bc 79 9e 84 3d
       -0.10285307 -0.043810964 -0.017843246 0.06475539
0000a0 c8 61 d2 bd d0 f0 da 3d 06 38 96 3d 4b d9 7a 3d
       -0.102725565 0.106904626 0.073349044 0.061242383
0000b0 64 fd 9b 3d 08 09 d8 3d 1a 73 e6 bd 46 1a d9 3d
       0.0761669 0.105485976 -0.11252423 0.106007144
0000c0 64 bf 08 bd e8 55 e2 bd d5 4a 0b bd 14 4d 8d bd
       -0.03338565 -0.110515416 -0.034006912 -0.06899467
0000d0 1c f8 cc bd 80 e1 84 bd ea aa 96 3d 31 19 52 3d
       -0.100082606 -0.06488323 0.07356818 0.051293556
0000e0 16 7d 8b bd 1e e7 9c bd e8 d4 db 3c 4a 28 a8 3d
       -0.068109676 -0.076612696 0.02683492 0.082108095
0000f0 12 3f 93 3d e0 cc 8d bb d3 06 f9 bd a6 59 3f 3d
       0.07189764 -0.0043274015 -0.12159505 0.046716355
000100 6c 8d 65 bd d2 dc a2 3d 78 c4 be 3c 50 bb 87 3c
       -0.056043074 0.079522744 0.023287043 0.01656881
000110 e4 99 4f 3d a4 4f 50 3d 08 4b 89 bc a2 6b ab bd
       0.05068387 0.0508572 -0.01675941 -0.08370139
000120 08 4e 98 3c 60 a2 bc 3b 3c 39 c4 3d 04 35 0b bd
       0.018591896 0.0057566613 0.09581229 -0.033986107
000130 62 c4 a7 bd 00 4e 3e 3d 46 47 a7 3d 0a 28 ba bd
       -0.08191754 0.046461105 0.08167891 -0.09089668
000140 a8 17 cf bd 06 19 96 3d d4 f5 53 3d a6 50 d7 3d
       -0.10111934 0.073289916 0.05174811 0.10513429
000150 e6 90 ef 3d e2 66 cc bd 68 33 f2 bd e0 83 69 bc
       0.11697559 -0.09980561 -0.11826211 -0.014252633
000160 60 5c af 3c 4c df a3 bd e6 ba c1 bd c0 2e 17 3d
       0.021406353 -0.08001575 -0.09459476 0.03690982
000170 d0 a6 00 3c 58 38 cd bd e8 3c e3 bd 62 2c dc 3d
       0.007852271 -0.10020512 -0.11095601 0.10750653
000180 fe c6 cb bd c0 28 6a bc 6a f8 a8 bd 7e 9d d0 3d
       -0.09950064 -0.014291942 -0.08250506 0.10186289
000190 12 3c d9 bd 12 80 fb bd b4 fc cd bd 80 5c f3 bc
       -0.10607161 -0.12280287 -0.10057965 -0.029707193
0001a0 5e a1 b0 3d e8 4a 77 3d 70 0c 1d 3c 62 50 b4 bd
       0.08624528 0.06037417 0.009585485 -0.08804394
0001b0 fa c8 c8 bd 78 97 94 3c 84 29 1c bd 72 78 dd 3d
       -0.09803958 0.018138632 -0.03812553 0.10813989
0001c0 24 43 04 3d c0 bc e9 3d 10 3c 30 bd 2a 8d 9b bd
       0.032290593 0.11412954 -0.04302603 -0.07595284
0001d0 1e ae 87 bd 46 4e c0 3d b2 55 92 bd 98 4b e9 3c
       -0.06625007 0.093899295 -0.07145251 0.028478429
0001e0 70 82 fb 3c 3a a0 b4 bd 40 57 a9 bc c8 c2 bf 3c
       0.030701846 -0.08819623 -0.020671487 0.023408309
0001f0 ae e8 b5 bd d6 21 8d bd 98 29 ed 3d 00 18 17 3a
       -0.08882271 -0.06891219 0.11580199 0.0005763769
000200 ee e5 b9 bd ff 89 d3 3d 6f 5d 07 be 78 a0 88 bd
       -0.09077059 0.10329055 -0.13219236 -0.06671232
000210 f0 9c 4d bc d0 06 f9 3d 78 03 ae 3d 88 1f ae 3d
       -0.012549624 0.121595025 0.08496755 0.08502108
000220 aa d4 09 bf 81 cf ca bd 58 03 9a 3d ba 24 e9 bd
       -0.53840125 -0.099028595 0.07520169 -0.11383958
000230 42 7c 02 bd 3e 34 76 3e a0 f1 46 3c bb e4 26 bd
       -0.031856783 0.24043366 0.012142569 -0.040745478
000240 20 50 39 bd 98 80 ca be 04 20 fd 3d 3f 32 63 be
       -0.04524243 -0.39551234 0.12359622 -0.22187136
000250 78 1c bb 3a ec d6 fd bd e8 12 a4 bd 73 d7 2e 3d
       0.0014275452 -0.12394509 -0.080114186 0.042685937
000260 fe 2a f4 3d 1b 11 93 be ae 5f fa bd 86 75 2b bd
       0.119222626 -0.28723988 -0.12225281 -0.041860126
000270 9e d5 0d 3e 9c 99 20 bd 40 43 e5 bc 60 ab a7 bb
       0.1385102 -0.039208993 -0.027986169 -0.005116865
000280 68 fc a3 bd fe 0a 01 3e f3 cb 48 be 64 da 63 bd
       -0.08007127 0.1260185 -0.1960905 -0.055628195
000290 cd 9b 81 bc c0 b4 af 3b 5e 5a 81 3d 79 0d 53 be
       -0.015821362 0.0053621233 0.06316064 -0.20610608
0002a0 d0 b5 66 bd c0 d0 c1 bd 20 e7 13 bd 21 05 85 bd
       -0.056325734 -0.09463644 -0.03610909 -0.06495119
0002b0 c6 b3 84 bd b0 72 a0 3d cb 9c 12 3e f0 f5 9c bc
       -0.064796016 0.07834375 0.14317624 -0.01916024
0002c0 58 3a 64 3d 16 eb 49 3d f9 9f 31 be 37 99 54 bd
       0.055719703 0.04929646 -0.17346181 -0.05190393
0002d0 18 ae 05 bd f8 c8 a9 3c d3 05 af 3d 58 75 80 3d
       -0.032636732 0.020725712 0.08546033 0.062723815
0002e0 5c f8 d7 bd bc 3e 30 3e c1 c6 1f 3d fc 15 56 bc
       -0.10545418 0.17211431 0.039007906 -0.013066765
0002f0 40 96 6a 3b f0 dd 9e 3d b5 ee 01 3e 4e c8 22 bd
       0.0035795122 0.07757175 0.12688716 -0.039741807
000300 78 7b c0 bd c0 8f d8 bb 80 c8 d6 bd 00 ed 06 3d
       -0.0939855 -0.006608933 -0.10487461 0.032940865
000310 30 83 aa 3c 92 88 dc 3d f8 90 bf bc 30 d6 68 3d
       0.020814508 0.10768236 -0.023384556 0.05684489
000320 14 24 84 bd dc e6 ae 3d e8 bc b0 3d 08 d5 d0 3c
       -0.06452194 0.08540127 0.08629781 0.025492206
000330 68 21 8e 3d 86 df b4 bd 64 c4 c0 3d a0 26 8d bb
       0.069399655 -0.08831696 0.094124585 -0.004307583
000340 8c 7a c3 bd f4 8a 17 bd 38 8e e9 bd 68 a1 99 3d
       -0.09544858 -0.03699775 -0.11404079 0.07501489
000350 6a 07 ba 3d 84 97 f4 bd e4 66 9e bd 78 87 89 3c
       0.09083445 -0.11942962 -0.077344686 0.01678823
000360 48 aa 9e bd e2 16 cf 3d c0 dd 7a bb ee f7 80 bd
       -0.07747322 0.101117864 -0.0038279146 -0.06297289
000370 9a 23 c9 3d c4 e2 7a bd 14 66 81 bd 82 17 98 3d
       0.098212436 -0.061251417 -0.06318298 0.07426359
000380 88 aa 03 3d 20 f8 4d bd e8 8f 9c bd e8 a3 40 bd
       0.032145053 -0.05028546 -0.076446354 -0.047031313
000390 fc b5 af bd 98 82 41 bd 74 0e d8 bd 04 c1 e1 bd
       -0.08579633 -0.047243685 -0.10549632 -0.11023143
0003a0 88 42 a8 bc 3c e0 e3 bd 7c 5c f8 bd b0 de 2d bc
       -0.020539537 -0.11126754 -0.12127015 -0.010612175
0003b0 e8 de 63 3d 3e 37 b6 bd d4 35 9d bd 78 8e b7 bd
       0.0556325 -0.08897255 -0.076762825 -0.08962721
0003c0 40 df ae bd 60 08 fc 3c 42 56 87 3d fa b0 a2 3d
       -0.08538675 0.030765712 0.06608249 0.07943912
0003d0 a2 de ab 3d 7c 6b fd bd 28 6a a0 bd 46 0d e0 bd
       0.08392073 -0.12374017 -0.07832748 -0.10940032
0003e0 38 69 db 3d b8 c4 67 bd d4 08 ff bd 00 fb 2e ba
       0.10713428 -0.05658409 -0.12452856 -0.0006674975
0003f0 c6 8d cb 3d 68 55 24 bd 80 96 95 3c 94 87 21 3d
       0.099391505 -0.040120512 0.01826024 0.039435938

bias f4 [32]
000000 f5 45 f7 bd 40 45 f6 bb c1 cb ea bb 80 1c 91 bd
       -0.1207389 -0.0075155795 -0.0071654026 -0.07085514
000010 85 2c 34 bd f8 5b b2 bd 75 c1 4a 3e 0e d8 20 3d
       -0.04398777 -0.08708948 0.1980036 0.039268546
000020 25 4c b3 bd 9a e6 d8 3c c6 46 f6 bd 7c 01 03 bd
       -0.08754758 0.026477147 -0.12025218 -0.031983837
000030 17 c3 8a bd a1 d1 ad bc 85 35 b7 bb 9d b3 4e 3d
       -0.06775492 -0.021218123 -0.005591097 0.05046426
000040 ce a8 de 3c 02 4d e5 bd d9 b7 54 3d 0d 08 4c 3d
       0.027180102 -0.11196329 0.051933143 0.049812365
000050 c5 04 a1 3d 36 d3 da 3d 78 7e d2 bd d6 9a 15 3e
       0.07862238 0.106848165 -0.10278028 0.14609846
000060 e5 32 11 bd 10 68 85 3d 26 3a ed 3d 37 3e 92 3b
       -0.035448927 0.06513989 0.115833566 0.004462983
000070 69 9b 0c bc 71 4f 9d bd 30 20 ab 3c 32 46 dd bc
       -0.008581975 -0.07681168 0.020889372 -0.02701101

weight f4 [8, 32]
000000 82 31 e9 3d 2d f3 e6 bd 51 e5 29 3e 72 08 c2 3d
       0.11386396 -0.11276851 0.16591384 0.09474267
000010 d1 b1 e3 3d e0 0d f9 3b 13 de 0f be d4 cd 83 3c
       0.111179 0.007600531 -0.14049558 0.016089357
000020 c4 86 0c 3e 93 61 25 be 55 b0 13 be c0 78 83 bb
       0.13723284 -0.16150503 -0.14422734 -0.0040121973
000030 8b 66 18 3e c1 c9 a6 3c 42 54 e2 bd 1b 3a 49 bd
       0.14882867 0.020359876 -0.11051227 -0.04912768
000040 b2 f3 d3 3d 3d 45 13 bd 59 04 32 be e4 84 0c be
       0.103492156 -0.035954703 -0.17384471 -0.13722569
000050 3e 44 31 be 59 24 bf 3d e0 05 87 3b a7 2a ad bc
       -0.17311189 0.09333105 0.0041205734 -0.021138502
000060 10 aa 6b 3d 94 8d 03 be 7e db 81 3b de da 9c bd
       0.05753523 -0.12846977 0.003962933 -0.07658933
000070 cf 7f a0 3c 01 19 e8 bd 06 97 b5 3d e4 34 94 bd
       0.019592194 -0.11332894 0.08866696 -0.072366506
000080 5a 40 00 be b9 a3 18 3e a5 b0 78 3e d4 ad aa bd
       -0.12524548 0.14906205 0.24286135 -0.08333936
000090 58 0b 10 bf fb 3f 9b 3c cd e6 30 3d 9a c5 05 be
       -0.5626731 0.018951407 0.04318886 -0.1306366
0000a0 95 75 82 bd 3f 2a 85 bd 35 ad 29 bd 2f 56 18 3e
       -0.06370083 -0.065021984 -0.04142495 0.14876626
0000b0 5d ce 32 bd 82 39 07 3e c1 1d a7 3e c3 3e 95 bc
       -0.043653835 0.13205531 0.32639888 -0.018218404
0000c0 6c d0 b3 3d 33 eb 51 3e 6b 51 bb be dd 2d 0c be
       0.08779988 0.20499878 -0.36585554 -0.1368937
0000d0 0f 95 1b be 90 69 08 be a0 f2 d9 3c a4 65 cd 3e
       -0.1519358 -0.13321519 0.02660495 0.40116608
0000e0 1c 0c fc 3d 00 a3 ac 3b 5d fd 3b bd d2 97 27 3e
       0.12306997 0.0052684546 -0.045895923 0.16366509
0000f0 f5 cc 8a be 59 1f 28 3e a4 52 2b 3e df ca e1 bd
       -0.27109495 0.16418208 0.16730744 -0.11025023
000100 27 ab f3 3d 3a 97 13 be e1 2a 01 3e e3 66 91 bd
       0.11897879 -0.14413157 0.12614013 -0.07099702
000110 df d8 e9 3e b0 10 f7 bd d4 72 aa 3d 82 0d 58 bd
       0.45673272 -0.1206373 0.08322683 -0.052747257
000120 c0 9a 81 3e 3f 21 02 be 87 d7 13 bc b0 9f 1a 3d
       0.25313377 -0.12707995 -0.009023554 0.037749946
000130 04 4f 45 3d 20 9c 8c be e5 b4 40 3e 60 71 1b 3b
       0.04817106 -0.27462864 0.18819006 0.00237187
000140 22 50 01 3e 61 8b b9 bc 7f ac 00 3f ad 82 5b 3c
       0.12628224 -0.022649469 0.5026321 0.013397855
000150 f6 d4 1e 3d 62 6f b1 bd 3e b0 a6 3d 33 69 18 be
       0.038777314 -0.08663823 0.08139084 -0.1488388
000160 1f bd d8 3c b7 0c 02 3e 83 94 47 bb e6 8e 40 3e
       0.026457367 0.12700163 -0.003045351 0.18804511
000170 1b 7f 1d bd c6 72 5f 3e 71 96 a6 3d 66 7d 6d 3e
       -0.038451295 0.21821126 0.08134163 0.23192367
000180 2b 3e b2 bd 2b 86 1e be 41 bd 9b be 78 5b 88 3c
       -0.08703264 -0.15480869 -0.30417827 0.016645178
000190 e8 7d 5e bd 92 53 b5 bd 18 4a ae 3d 81 ea 98 bd
       -0.054319292 -0.088538304 0.08510226 -0.07466603
0001a0 d3 cc fe 3c 5c 60 a5 bc 9b bd 01 be 80 35 fb 3c
       0.031103527 -0.02018755 -0.12669985 0.03066516
0001b0 eb 50 80 3c ed 6c 2b 3d 55 c8 2c be 30 a2 17 3c
       0.015663585 0.041851927 -0.16873296 0.009254977
0001c0 18 a7 71 3d a0 a9 2c 3e 99 7e 6d bd 79 ee 07 be
       0.058997244 0.16861582 -0.05798206 -0.13274564
0001d0 67 14 83 3e d9 c3 b3 3d 41 63 27 3e cc 07 8c be
       0.25601503 0.08777589 0.16346456 -0.273497
0001e0 04 78 9b bb b5 0b 17 be c6 66 cd bd 91 3b df 3d
       -0.0047445316 -0.1475056 -0.10029368 0.10900033
0001f0 23 10 5a bb a3 17 85 3e 3c cd f2 3c 18 55 d3 3d
       -0.0033273778 0.25994596 0.029638879 0.10318965
000200 6e 4f 11 be 98 02 cc 3c 83 5e 28 3f e6 87 a4 bd
       -0.14190456 0.02490358 0.65769213 -0.08033733
000210 f6 b7 17 bf 69 e1 7b 3d ff cd 98 3e 18 cd 90 3d
       -0.5926508 0.061494265 0.29844663 0.070703685
000220 47 57 93 3d 16 c3 18 be b5 73 03 be c8 b1 e1 bc
       0.07194381 -0.1491817 -0.12837107 -0.027550593
000230 0e ce a4 3c 20 c8 69 3d de 64 11 bf 76 5f eb 3c
       0.020117786 0.05707562 -0.56794536 0.028732043
000240 26 6a 0f 3e b4 17 40 be 7c a4 f6 bc 64 cd 9f 3e
       0.14005336 -0.18759042 -0.03010773 0.31211388
000250 f8 58 86 be 3f b9 8f 3e d4 a6 2a bd 15 67 34 3e
       -0.26239753 0.2807102 -0.041663006 0.17617448
000260 aa 8f 80 3d 60 56 c9 bb 2a 1d 2f be b7 2b e5 be
       0.06277402 -0.00614433 -0.17100969 -0.44759914
000270 34 7b bd 3d ca ec 1b bd f6 63 79 3d 57 d4 8b be
       0.09252015 -0.038067617 0.060886346 -0.2731044
000280 10 99 7d 3c 74 31 8f 3d 1e 36 b1 bd 1f 75 22 3e
       0.0154783875 0.06991854 -0.086529 0.1586499
000290 56 5c 04 be 03 9a 7d 3d cf 26 90 3d 25 8d 16 be
       -0.12925848 0.061914455 0.07038652 -0.1470228
0002a0 9e 23 b2 3d 55 02 51 ba 05 2c da bd 7d 62 a8 bd
       0.086982 -0.0007973065 -0.10652927 -0.0822191
0002b0 9d 04 dc 3d 10 9c 9c 3d ff 55 34 be f8 d1 2c be
       0.107430674 0.07646954 -0.1761093 -0.16876972
0002c0 f1 59 62 3d 1e 89 28 bc b8 f3 cc 3d 0c 85 a6 bd
       0.055261556 -0.010286598 0.10007423 -0.081308454
0002d0 9e 65 fb be 21 2d 61 3d 80 a2 47 bb dc 8d a1 bd
       -0.49100965 0.05497468 -0.0030461848 -0.07888386
0002e0 7e f5 33 be 58 5d ae bc 26 10 d2 3d 35 20 b2 bd
       -0.17574117 -0.021284744 0.10256986 -0.08697549
0002f0 a0 e3 9b bd 2e d4 f0 bc 00 80 57 be b8 86 14 be
       -0.076117754 -0.02939805 -0.21044922 -0.14504516
000300 53 c2 05 3e 80 d6 ae 3c 37 6e e9 3c 7e d7 e2 3d
       0.1306241 0.021342516 0.028494937 0.11076258
000310 4b 1e e5 bd 1c d5 93 3d c6 da 84 bd 24 65 11 3e
       -0.111874186 0.07218382 -0.0648704 0.14198738
000320 81 4a 08 3e 06 b0 7b bc 97 a5 2c 3e 00 05 b9 3b
       0.13309671 -0.0153617915 0.16860043 0.005646348
000330 e1 cb 20 be c5 8d 31 be f6 bb 92 3d 0c 0b 15 3d
       -0.15702774 -0.17339237 0.07164757 0.03638749
000340 94 fa e5 3d 91 8e 34 be 67 e2 3f ba 1e 1c 09 be
       0.112294346 -0.1763251 -0.00073198084 -0.13389632
000350 ca 20 97 3d 86 1e af 3d 4c 8a 15 be 52 2d 7a bc
       0.07379301 0.08550744 -0.14603537 -0.015269594
000360 36 27 ad 3d 3d 7b 02 3e 49 cd 24 3e aa dc ac 3c
       0.084547445 0.12742324 0.16093935 0.021101315
000370 85 0d dc bc b7 c6 a3 bd ff a0 52 bd 78 13 96 bd
       -0.026861915 -0.07996886 -0.05142307 -0.07327932
000380 00 1d ae 3b d6 1b f6 3d 87 a1 cb 3d 60 b2 dc bc
       0.0053135157 0.12017028 0.09942918 -0.026940525
000390 24 a4 18 3e e4 58 1e be 4f 86 fa 3a a1 e9 01 3e
       0.14906365 -0.15463597 0.0019113513 0.12686779
0003a0 fb 3d 07 3d 1e 63 34 3d bb 52 92 3d 80 ca 8d 3a
       0.033018094 0.044039838 0.07144686 0.0010817796
0003b0 7e dd 01 be b0 b2 ad bc 7b bc fc bd f2 60 96 b9
       -0.12682149 -0.021203369 -0.12340637 -0.0002868246
0003c0 ec 45 fc 3d dd 7a 08 be ba 04 d9 3d 32 36 a1 bd
       0.12318024 -0.13328119 0.10596605 -0.07871665
0003d0 13 1c 28 3e e7 06 00 be 27 7a b1 bd 6c ad 6c bc
       0.1641696 -0.12502633 -0.08665877 -0.014445644
0003e0 e0 be e7 bd 10 1f 00 bc 1e a8 85 bc 09 a1 93 bd
       -0.113157034 -0.007819906 -0.016315516 -0.072084494
0003f0 7f d3 ac bd 0d 75 2a be 3b da c8 bd 8b d1 70 3d
       -0.08438777 -0.16646214 -0.09807249 0.058793586

bias f4 [8]
000000 d4 1e 02 be 36 fa b8 bd 4e 3d 2b 3e 74 28 a2 3d
       -0.12707072 -0.09032099 0.16722605 0.07917872
000010 81 74 db 3d 6b 53 92 bd 0e bc 2b be e5 c1 aa 3d
       0.10715581 -0.07144817 -0.16770956 0.08337764

weight f4 [4, 8]
000000 53 b0 8b be 11 1a 3d be fa 21 57 3e f0 a9 9e bd
       -0.27282962 -0.18466975 0.21009055 -0.07747257
000010 3b 33 a0 be b8 ae a5 bd df 2c a2 3e 48 4b 7f be
       -0.31289086 -0.080899656 0.3167486 -0.24931061
000020 30 2c 80 bd d8 6e b3 be 9e 5e 52 3e 29 c7 96 3e
       -0.06258428 -0.35045505 0.20543906 0.29448822
000030 8b 18 ae be 78 6e 8b bd bc 97 8a be e5 4d a7 3e
       -0.340031 -0.068081796 -0.2706889 0.32676616
000040 bb 57 75 be 40 71 39 bd 9a de 1f 3e 6e b0 52 3e
       -0.23959248 -0.04527402 0.1561226 0.20575115
000050 54 c0 80 3d 70 8f 81 be 7f 04 39 be 1e 6f 40 3e
       0.06286684 -0.25304747 -0.18068121 0.18792388
000060 ec 69 bb bd 90 9f 08 bd aa e3 49 3e 51 8e 97 3e
       -0.09151062 -0.033355296 0.19715753 0.29600766
000070 9b 5b 3f be 80 cd 51 bb fa ae 41 3e c6 91 85 be
       -0.18687288 -0.0032013357 0.18914405 -0.2608778

bias f4 [4]
000000 42 25 15 3e aa cd 38 be 36 e6 46 3e f2 54 6e 3e
       0.14564994 -0.18047205 0.19423756 0.23274592
