training/ann/models/ann21ep100.pth (torch, 69218 bytes, 10 tensors)

weight f4 [128, 40]
0.13006213 -0.0026472153 -0.030901285 0.030520655 0.004582993 0.016563054 -0.06039548 -0.016283438
0.370977 0.16364694 -0.25654846 0.09266514 -0.074784815 0.17834495 -0.06895784 0.22366454
-0.19946347 0.17141746 -0.032046586 0.2871157 0.18935224 -0.2812185 -0.39023477 -0.07611524
0.27630377 -0.11848273 0.13405642 -0.0610861 0.07549641 -0.03404884 0.094720766 -0.106027104
0.24647322 0.08809375 0.13599242 0.059307892 -0.071819246 -0.19100323 0.13372296 0.042079832
0.05753337 -0.026160464 0.1431757 -0.1495858 -0.008159786 0.10305555 0.0598388 -0.06936289
-0.08609679 0.052177683 0.022343263 0.0409922 0.075139076 0.08365126 0.13788317 -0.0046049803
-0.0227267 -0.034184806 0.0006081462 0.15153886 0.071068585 -0.034946404 0.03713663 0.012281641
0.069524065 -0.037108794 -0.0552285 0.1403775 0.048013985 -0.0895889 -0.09128507 0.14493169
0.15348224 -0.036108837 0.09464227 0.023219496 0.15148543 -0.028625429 0.0418732 -0.07152866
-0.11658673 0.14533268 -0.12651695 0.15002893 0.2285557 -0.036695607 0.024581412 -0.13833305
-0.17378876 -0.18824579 0.29644823 0.22133389 0.067163676 -0.08417809 0.007992854 0.14736262
-0.03727232 0.021773906 0.07950929 0.1836987 -0.24609631 -0.08430804 -0.11125233 -0.11919078
0.5637418 0.25012612 -0.10103892 0.108924665 -0.49651167 0.12583551 -0.06577352 -0.18522689
-0.36898032 0.19336396 0.107586704 -0.08782291 0.2238559 0.3039394 -0.15189864 0.020883886
0.12070997 -0.13161075 0.02684483 0.07013893 -0.043138668 0.118967876 -0.1150112 -0.0074054003
0.073692694 0.11215274 -0.022615448 -0.12788531 -0.10167731 -0.020379722 0.027117744 -0.0217807
0.115506485 -0.1152648 0.00954929 -0.07411722 0.004363939 0.07077339 -0.11694346 0.07994737
-0.12927309 0.15272056 0.10026108 0.08780524 0.045924902 0.15035377 0.083365604 -0.11982903
-0.023665175 0.08125219 0.044615105 -0.07938167 0.0346954 0.14564778 -0.016804472 0.14183082
-0.03007713 0.1265984 -0.03556937 0.07188647 -0.17842747 0.094349496 0.20876297 -0.0928562
-0.20710237 -0.37463465 0.35478055 0.12688245 -0.13556582 -0.13528706 0.12440879 0.24286932
-0.072756186 0.12486337 -0.057312462 0.10689723 0.08729531 -0.47386414 -0.27940956 -0.42253342
0.47988147 0.18492265 -0.16125882 0.35522068 -0.4071862 0.26442656 0.027924612 -0.16716768
-0.3868536 0.13031414 0.21625045 -0.026780395 0.20865846 0.29104412 -0.07017421 0.3129486
0.008105978 -0.08487314 0.10827799 -0.1271155 0.04200846 0.07135245 0.075017124 -0.023445755
0.060682714 -0.1480574 0.13298105 0.1303332 0.02482593 0.034935534 -0.1276712 -0.040316343
0.14144139 0.034765735 -0.06672316 -0.09551997 -0.066527024 0.02878122 -0.05118628 -0.048445746
-0.10531236 -0.09824616 0.0068362653 -0.1337918 -0.06992444 0.09730847 0.05260393 -0.12547778
-0.032582954 -0.026177362 -0.050422966 -0.020421505 -0.0154192895 0.05756858 -0.0459601 -0.07077737
0.16157866 0.13411036 0.08109773 -0.13084508 -0.10211989 0.17696156 -0.05622118 0.03313568
0.30901292 0.29367453 -0.36986002 -0.12276387 0.0021336451 0.20836218 -0.24039522 -0.255887
00000000: 022f 053e e77c 2dbb b124 fdbc 7406 fa3c
00000010: ef2c 963b 3eaf 873c 4061 77bd d864 85bc
00000020: b3f0 bd3e 1093 273e 525a 83be 39c7 bd3d
00000030: c828 99bd 0fa0 363e c539 8dbd 5108 653e
00000040: 2740 4cbe 0f88 2f3e 4843 03bd d400 933e
00000050: 8ee5 413e dffb 8fbe dacc c7be 4fe2 9bbd
00000060: b077 8d3e 13a7 f2bd 1646 093e 6b35 7abd
00000070: dd9d 9a3d cc76 0bbd f6fc c13d bd24 d9bd
00000080: 7a63 7c3e 7f6a b43d 9941 0b3e d5ec 723d
00000090: f815 93bd 5a96 43be acee 083e e75b 2c3d
000000a0: 1ca8 6b3d 784e d6bc a79c 123e 052d 19be
000000b0: a0b0 05bc ca0e d33d 8819 753d 220e 8ebd
000000c0: 8453 b0bd 44b8 553d 3809 b73c 70e7 273d
000000d0: 84e2 993d 5a51 ab3d 3f31 0d3e 60e5 96bb
000000e0: 582d babc 5e05 0cbd 006c 1f3a 012d 1b3e
000000f0: 688c 913d f623 0fbd 941c 183d f038 493c
00000100: a262 8e3d 64ff 17bd 4837 62bd 1fbf 0f3e
00000110: 50aa 443d 637a b7bd abf3 babd f968 143e
00000120: 732a 1d3e dce6 13bd ced3 c13d d036 be3c
00000130: ff1e 1b3e e07f eabc 3c83 2b3d 9e7d 92bd
00000140: 06c5 eebd 17d2 143e a98d 01be 2fa1 193e
00000150: 810a 6a3e 224e 16bd f55e c93c 2ea7 0dbe
00000160: aef5 31be 81c3 40be 10c8 973e 5aa5 623e
00000170: 1c8d 893d 9065 acbd 76f4 023c 3ae6 163e
00000180: dcaa 18bd 315f b23c c4d5 a23d 831b 3c3e
00000190: ac00 7cbe b2a9 acbd 43d8 e3bd 4c1a f4bd
000001a0: 6251 103f 8810 803e 7eed cebd e513 df3d
000001b0: c736 febe 06db 003e 44b4 86bd 1eac 3dbe
000001c0: fdea bcbe 3401 463e 6b56 dc3d 7fdc b3bd
000001d0: 7b3a 653e f29d 9b3e 518b 1bbe af14 ab3c
000001e0: ca36 f73d f8c4 06be b0e9 db3c 00a5 8f3d
000001f0: 2cb2 30bd 6ea5 f33d fe8a ebbd 00a9 f2bb
00000200: 32ec 963d 56b0 e53d 0844 b9bc 5ef4 02be
00000210: 323c d0bd 60f3 a6bc 0826 de3c 706d b2bc
00000220: aa8e ec3d f40f ecbd a074 1c3c c5ca 97bd
00000230: 60ff 8e3b a4f1 903d 0e80 efbd 72bb a33d
00000240: 2a60 04be c762 1c3e ae55 cd3d 3cd3 b33d
00000250: c01b 3c3d 57f6 193e 96bb aa3d ec68 f5bd
00000260: 78dd c1bc 8c67 a63d 54be 363d db92 a2bd
00000270: c41c 0e3d b124 153e 88a9 89bc 193c 113e
00000280: 5064 f6bc 03a3 013e 30b1 11bd 3739 933d
00000290: b1b5 36be 4f3a c13d f6c5 553e 642b bebd
000002a0: a512 54be 1dd0 bfbe cca5 b53e 79ed 013e
000002b0: c4d1 0abe b188 0abe 09ca fe3d bcb2 783e
000002c0: 3201 95bd 5eb8 ff3d 79c0 6abd efec da3d
000002d0: e2c7 b23d 529e f2be c50e 8fbe 4d56 d8be
000002e0: 06b3 f53e 5d5c 3d3e 0821 25be 7cdf b53e
000002f0: b67a d0be eb62 873e 28c2 e43c 012e 2bbe
00000300: ad11 c6be 1271 053e c270 5d3e 8f62 dbbc
00000310: 90aa 553e bc03 953e 7fb7 8fbd cd3a a03e
00000320: f0ce 043c f8d1 adbd dac0 dd3d 912a 02be
00000330: 1011 2c3d 3c21 923d 94a2 993d 5011 c0bc
00000340: 708e 783d 5c9c 17be 2f2c 083e 1176 053e
00000350: c05f cb3c 9018 0f3d 3dbc 02be c022 25bd
00000360: 03d6 103e 8466 0e3d 27a6 88bd f99f c3bd
00000370: 523f 88bd 98c6 eb3c b4a8 51bd 0c6f 46bd
00000380: 02ae d7bd 4835 c9bd c002 e03b b800 09be
00000390: 8b34 8fbd aa49 c73d 3877 573d 3f7d 00be
000003a0: b475 05bd e871 d6bc 5088 4ebd 004b a7bc
000003b0: 30a1 7cbc 08cd 6b3d a840 3cbd baf3 90bd
000003c0: e074 253e 3a54 093e 9116 a63d 41fc 05be
000003d0: 3c24 d1bd 6935 353e 2e48 66bd 47b9 073d
000003e0: f136 9e3e 825c 963e 4b5e bdbe a06b fbbd
000003f0: a0d4 0b3b e55c 553e 2a2a 76be 9f03 83be

bias f4 [128]
-0.07907249 -0.083451524 0.008912566 0.08810891 0.013126493 -0.059592567 -0.16653064 -0.009818256
0.108350955 -0.05138242 0.020010076 0.093618885 -0.09371386 -0.080032095 -0.0045335144 0.083060324
-0.07864513 -0.042492196 0.13834198 -0.15659936 0.12579565 0.002941385 0.13124727 -0.122007646
-0.17160396 0.10455616 0.054601066 -0.0634235 0.06266354 -0.14840841 0.0021904286 -0.10046141
-0.0776326 0.042864323 -0.10898676 0.14545791 -0.12243278 0.16093811 0.12646267 -0.12467022
-0.12994894 -0.15628129 -0.15903226 0.15311195 0.030846566 0.08407999 -0.083065905 0.025109142
0.030449664 -0.10928717 0.11607267 -0.025926461 0.04898373 -0.078462794 0.11657516 0.09308575
-0.0921481 -0.07996415 -0.14243382 -0.062867485 0.117410176 0.15054803 0.14756465 0.12336348
-0.1368195 0.14271317 0.117559284 0.012376102 0.04816819 -0.14816584 0.08777922 0.04194885
0.14791256 0.14380054 -0.13447416 0.15404966 0.1390253 0.14112024 -0.07227431 -0.038983293
-0.013511124 -0.1322526 0.08409515 0.045094624 0.15156163 0.05407864 -0.06994802 -0.038973548
0.06469467 0.11638149 0.08413481 -0.099261835 0.14300615 0.03919342 -0.0946669 0.13268594
-0.12983166 0.11857502 -0.12457478 -0.035517573 0.09850676 -0.046215944 -0.032224134 -0.14627878
-0.14267087 -0.042742185 -0.06654778 -0.10507953 0.034070417 0.1305915 0.11282533 -0.042149674
-0.09722066 -0.10175352 -0.064686015 -0.08360838 -0.059547633 -0.04655677 0.12945026 -0.028739676
-0.11556627 0.14764528 -0.10458489 0.03934507 0.02522999 0.06290924 0.110118166 -0.1577978
00000000: c2f0 a1bd a2e8 aabd 0306 123c 7272 b43d
00000010: 8110 573c 5617 74bd 0287 2abe c0dc 20bc
00000020: 1be7 dd3d 5f76 52bd 2cec a33c 42bb bf3d
00000030: 0ded bfbd dee7 a3bd e08d 94bb 881b aa3d
00000040: b310 a1bd 4c0c 2ebd 85a9 0d3e 955b 20be
00000050: 93d0 003e 40c4 403b af65 063e 25df f9bd
00000060: f3b8 2fbe 8a21 d63d 5ea5 5f3d 2ee4 81bd
00000070: be55 803d 60f8 17be 4b8d 0f3b b6be cdbd
00000080: d7fd 9ebd 8092 2f3d 7334 dfbd ebf2 143e
00000090: 0abe fabd f6cc 243e 6e7f 013e 1a53 ffbd
000000a0: 5611 05be 3408 20be 5ad9 22be 61c9 1c3e
000000b0: f0b1 fc3c 2132 ac3d 751e aabd b0b1 cd3c
000000c0: 9371 f93c f4d1 dfbd 82b7 ed3d bb63 d4bc
000000d0: 2aa3 483d 1ab1 a0bd f5be ee3d bea3 be3d
000000e0: 25b8 bcbd 3fc4 a3bd 2cda 11be abc0 80bd
000000f0: bf74 f03d 4329 1a3e 301b 173e fea5 fc3d
00000100: 691a 0cbe 6723 123e ecc2 f03d 22c5 4a3c
00000110: 024c 453d c9b8 17be 97c5 b33d 8fd2 2b3d
00000120: 6476 173e 7340 133e 98b3 09be 32bf 1d3e
00000130: a65c 0e3e d381 103e 8e04 94bd f2ac 1fbd
00000140: c35d 5dbc 3a6d 07be 143a ac3d 24b5 383d
00000150: f932 1b3e 9081 5d3d e840 8fbd baa2 1fbd
00000160: a47e 843d 6b59 ee3d df4e ac3d ca49 cbbd
00000170: 3470 123e 4889 203d b8e0 c1bd d3de 073e
00000180: 97f2 04be 76d7 f23d 1021 ffbd e07a 11bd
00000190: eabd c93d ee4c 3dbd 74fd 03bd 1bca 15be
000001a0: 5018 12be 6e12 2fbd 344a 88bd f033 d7bd
000001b0: 6c8d 0b3d c7b9 053e f710 e73d 23a5 2cbd
000001c0: a01b c7bd 2664 d0bd 1a7a 84bd df3a abbd
000001d0: 38e8 73bd 50b2 3ebd 9c8e 043e 786f ebbc
000001e0: 02ae ecbd 5330 173e 9a30 d6bd 4c28 213d
000001f0: 20af ce3c 8fd6 803d a285 e13d bf95 21be

weight f4 [64, 128]
0.056739934 0.016755871 0.06775845 -0.03147985 0.05669094 0.034248494 0.0759212 0.022078387
0.085405804 -0.076540194 -0.055063117 0.027856246 0.086034216 0.0040378347 0.05014222 -0.043535735
0.074293785 -0.0043615475 0.027634814 0.02791816 0.043543704 0.08579355 -0.024119072 0.022047952
0.07201017 -0.036143683 0.004411362 0.0499051 -0.06082821 0.036526017 -0.051663607 0.04160414
-0.016038328 -0.084974796 -0.068289705 -0.071058385 -0.01906918 -0.028909333 0.03952267 0.07489591
-0.07826486 0.063576244 0.03141684 -0.03185621 -0.078066595 0.06533346 -0.08180919 -0.044844363
0.066098474 -0.07798417 0.06609707 -0.05724883 -0.022527061 -0.01672075 -0.08399576 0.069166444
0.006794706 0.07462201 0.07107382 -0.01591485 0.0012056455 -0.009289913 0.003938012 0.03776806
0.018370725 0.058204822 0.0112932995 -0.0669422 0.055281244 0.06593252 -0.06650106 -0.08806566
0.017271228 -0.03750355 -0.06819458 0.044836678 -0.03898127 0.0355867 0.077146925 -0.011439741
0.050597824 -0.032347873 0.04349216 0.08346092 0.07951709 -0.0060267225 -0.061674252 -0.02276051
0.0016980842 0.025454149 -0.08329672 -0.05600649 -0.08066647 -0.017242558 0.032443948 0.01765503
0.0049492195 0.0061742365 -0.06911728 -0.014856994 -0.006433077 -0.031803958 0.066382386 0.057285957
0.08798126 -0.012825012 -0.005886242 0.08516044 -0.003240168 0.036429584 -0.032636013 -0.058323853
0.076423295 0.07700422 -0.08203384 -0.015089393 0.06589196 0.03275258 0.035724044 0.050022162
0.06235019 -0.061509207 -0.044165336 0.055833735 0.008498773 0.015736908 0.03992521 -0.041573007
0.033043355 0.0055839866 0.07994147 -0.02087704 0.037631605 0.0710311 0.0007504566 -0.0839749
-0.09874231 -0.039779592 0.055545356 -0.011156589 0.027338512 -0.042643834 -0.07579504 -0.019421611
0.059497572 -0.048335798 -0.05320187 0.061798967 -0.067320794 0.087683015 0.047124512 -0.035379823
0.030680621 0.027675703 -0.08167622 0.005333282 -0.006728396 0.015589088 0.08775049 -0.0187677
0.033924233 0.046312936 0.017208591 -0.021390386 -0.13429098 0.18409826 -0.12577876 -0.051934354
-0.04309597 -0.025353102 -0.0016638197 0.069351606 -0.04400977 -0.025081536 0.025155509 -0.042085096
-0.048209485 -0.0074254093 0.08436551 -0.1327684 0.029812278 0.04718081 0.094785735 -0.034056835
-0.033808794 0.07241188 0.25713453 0.03747537 0.07602645 0.04951223 0.014514469 0.0815034
0.02667267 0.039701454 -0.067706615 0.083691314 0.07376175 -0.045576494 0.031175856 -0.012713738
0.018039105 0.085541114 -0.049480367 0.034876034 -0.009535657 -0.06378288 0.044293992 0.007863358
0.07084859 -0.069475845 -0.021564292 0.039583974 0.062266223 0.020497374 -0.020051755 0.02976837
-0.03624669 0.035796233 -0.06915187 -0.0026257262 0.11380431 -0.009106129 0.010896459 -0.038738083
-0.06401284 0.048636056 0.038622297 -0.0233818 -0.025070034 -0.037293617 0.0005771294 0.079249136
-0.002011636 -0.050678834 -0.0379179 0.07009327 -0.053654917 0.016166285 -0.02910984 0.015361581
-0.008104026 0.0011046156 -0.050142072 -0.09365576 -0.027258802 0.017827073 0.2502614 0.08368316
-0.05711588 0.017803788 -0.08437824 -0.05484037 -0.04017898 -0.0027165806 -0.06985451 -0.015207736
00000000: 2268 683d 9c43 893c f1c4 8a3d 04f1 00bd
00000010: c234 683d 2648 0c3d 937c 9b3d bcdd b43c
00000020: 3de9 ae3d 1bc1 9cbd dd89 61bd c832 e43c
00000030: b532 b03d d04f 843b ee61 4d3d 8752 32bd
00000040: 5727 983d 50eb 8ebb 6862 e23c a0b4 e43c
00000050: e25a 323d 87b4 af3d 5c95 c5bc e89d b43c
00000060: 117a 933d 660b 14bd 308d 903b 4a69 4c3d
00000070: 0027 79bd 4e9c 153d 389d 53bd 1a69 2a3d
00000080: d062 83bc 4407 aebd 79db 8bbd 0f87 91bd
00000090: f836 9cbc 44d3 ecbc 86e2 213d 0763 993d
000000a0: 5449 a0bd 4334 823d f2ae 003d a87b 02bd
000000b0: 61e1 9fbd 8dcd 853d 948b a7bd b9ae 37bd
000000c0: a35e 873d 2ab6 9fbd e75d 873d c07d 6abd
000000d0: ac8a b8bc f4f9 88bc f805 acbd 23a7 8d3d
000000e0: 20a6 de3b 6dd3 983d 278f 913d dc5f 82bc
000000f0: c006 9e3a b834 18bc 700a 813b aeb2 1a3d
00000100: 347e 963c 2e68 6e3d 8807 393c fe18 89bd
00000110: 966e 623d a107 873d b531 88bd c55b b4bd
00000120: 647c 8d3c 539d 19bd 9aa9 8bbd aaa6 373d
00000130: d3aa 1fbd 5cc3 113d 35ff 9d3d c06d 3bbc
00000140: aa3f 4f3d 347f 04bd d624 323d 8fed aa3d
00000150: dbd9 a23d d07b c5bb 249e 7cbd 4074 babc
00000160: 4092 de3a 3885 d03c 7997 aabd 1067 65bd
00000170: 7634 a5bd 4440 8dbc f2e3 043d 48a1 903c
00000180: 102d a23b 4051 ca3b 5c8d 8dbd c06a 73bc
00000190: 90cc d2bb de44 02bd 7df3 873d aea4 6a3d
000001a0: 852f b43d 0020 52bc 60e1 c0bb 9968 ae3d
000001b0: 0059 54bb 3037 153d 57ad 05bd fee4 6ebd
000001c0: d183 9c3d 63b4 9d3d 5c01 a8bd 8039 77bc
000001d0: 5df2 863d 9227 063d 6053 123d 0ae4 4c3d
000001e0: ea62 7f3d 14f1 7bbd b6e6 34bd eab1 643d
000001f0: 703e 0b3c b0ea 803c 9e88 233d 7548 2abd
00000200: 7858 073d e0f9 b63b 5ab8 a33d 5406 abbc
00000210: 9923 1a3d c178 913d 4aba 443a 08fb abbd
00000220: 6939 cabd edef 22bd 8783 633d 20ca 36bc
00000230: 04f5 df3c 4dab 2ebd 6e3a 9bbd 121a 9fbc
00000240: bab3 733d c2fb 45bd 34ea 59bd ea20 7d3d
00000250: 7cdf 89bd 2793 b33d a205 413d 6fea 10bd
00000260: ed55 fb3c 28b8 e23c dd45 a7bd d0c2 ae3b
00000270: e079 dcbb 6069 7f3c 87b6 b33d b8be 99bc
00000280: 23f4 0a3d a2b2 3d3d 08f9 8c3c e43a afbc
00000290: 9383 09be 4184 3c3e 26cc 00be 1eb9 54bd
000002a0: 6685 30bd 4fb1 cfbc 8614 daba 3708 8e3d
000002b0: 9743 34bd cb77 cdbc ed12 ce3c 6c61 2cbd
000002c0: 4f77 45bd d950 f3bb d3c7 ac3d 70f4 07be
000002d0: e138 f43c aa40 413d 061f c23d 2e7f 0bbd
000002e0: 177b 0abd ae4c 943d 23a7 833e c67f 193d
000002f0: c1b3 9b3d 56cd 4a3d 18ce 6d3c 41eb a63d
00000300: a580 da3c fe9d 223d c4a9 8abd 5a66 ab3d
00000310: 6610 973d 6bae 3abd 8264 ff3c 484d 50bc
00000320: bfc6 933c 2e30 af3d edab 4abd 2cda 0e3d
00000330: 723b 1cbc 99a0 82bd 9e6d 353d 50d5 003c
00000340: 1119 913d 5a49 8ebd 99a7 b0bc ce22 223d
00000350: de0a 7f3d 1cea a73c 9443 a4bc ccdc f33c
00000360: 6977 14bd 129f 123d 7f9f 8dbd 6014 2cbb
00000370: 3c12 e93d e031 15bc 1087 323c d3ab 1ebd
00000380: 2a19 83bd 9a36 473d 6a32 1e3d 308b bfbc
00000390: ac5f cdbc 31c1 18bd 804a 173a 5f4d a23d
000003a0: a7d5 03bb 9c94 4fbd cd4f 1bbd 0f8d 8f3d
000003b0: 42c5 5bbd 286f 843c c277 eebc 24af 7b3c
000003c0: c0c6 04bc c0c8 903a c661 4dbd 97ce bfbd
000003d0: da4d dfbc 150a 923c 4322 803e 1462 ab3d
000003e0: 57f2 69bd 40d9 913c 80ce acbd 4ca0 60bd
000003f0: b792 24bd a908 32bb e20f 8fbd de29 79bc

bias f4 [64]
0.06710174 0.049201794 -0.05705319 0.07046061 -0.052252017 0.06343048 0.03745434 -0.01947026
0.0775208 0.0022319965 -0.09100239 -0.0027029067 0.025155567 -0.028405407 -0.05703501 0.046290208
-0.07156549 -0.042901285 -0.0018627569 -0.05153943 0.04906794 0.04155443 0.052001674 -0.015325561
0.080570154 -0.048791885 0.06372812 -0.026627567 -0.0403668 0.044206716 0.017636083 0.06284333
0.046314217 -0.0122740045 0.048524782 -0.06849766 0.03846292 0.00861901 0.0870427 0.07404739
-0.007276356 -0.012180977 -0.05412807 0.06828686 0.07817263 -0.017316535 0.051603537 0.028307274
0.058227845 -0.039340828 -0.015133922 0.063023336 -0.053389482 -0.038949873 0.009517484 -0.053204093
-0.0749051 -0.018177625 -0.031136151 0.0059813038 -0.035089348 -0.046379637 0.018973222 -0.05387127
00000000: a36c 893d d287 493d 9bb0 69bd a74d 903d
00000010: 3606 56bd d7e7 813d b969 193d 1880 9fbc
00000020: 3ac3 9e3d b046 123b 765f babd 4023 31bb
00000030: 0c13 ce3c 75b2 e8bc 8b9d 69bd cd9a 3d3d
00000040: ed90 92bd 42b9 2fbd c027 f4ba 021b 53bd
00000050: 77fb 483d fa34 2a3d b5ff 543d 1018 7bbc
00000060: f701 a53d 00da 47bd e383 823d 0e22 dabc
00000070: a857 25bd 1a12 353d 8c79 903c 01b4 803d
00000080: fab3 3d3d e818 49bc ecc1 463d 8048 8cbd
00000090: 4b8b 1d3d c036 0d3c 7143 b23d 28a6 973d
000000a0: 806e eebb b892 47bc 65b5 5dbd fbd9 8b3d
000000b0: f918 a03d 68db 8dbc 3b5e 533d a8e4 e73c
000000c0: 5280 6e3d d923 21bd 45f4 77bc 6112 813d
000000d0: eeae 5abd e789 1fbd 39ef 1b3c 89ec 59bd
000000e0: d867 99bd 3ee9 94bc 3e11 ffbc d0fe c33b
000000f0: d9b9 0fbd 93f8 3dbd bb6d 9b3c 1fa8 5cbd

weight f4 [32, 64]
-0.012486517 0.069916576 0.027177393 -0.12480861 0.11154424 0.11652635 0.11954185 0.008019224
0.045442864 -0.053778395 0.11140296 -0.10559955 -0.022157505 -0.04782234 0.06106752 0.017908692
0.03323026 0.039018452 0.12267679 0.016680494 -0.09873927 0.11133309 0.08521058 -0.03349346
0.07666579 -0.049892753 -0.07806927 -0.03797096 -0.015124068 0.11810133 -0.016242519 -0.011942148
-0.06144406 0.036992714 -0.07801981 -0.04092048 -0.087032884 -0.043810964 -0.017843246 0.080598906
-0.102725565 0.106904626 0.073349044 0.07708591 0.0761669 0.105485976 -0.09667969 0.106007144
-0.03338565 -0.110515416 -0.018163413 -0.06899467 -0.100082606 -0.06488323 0.08941065 0.06712933
-0.068109676 -0.060770705 0.042678148 0.082108095 0.07189764 -0.0043274015 -0.10578467 0.06255333
-0.056043074 0.079522744 0.023287043 0.01656881 0.05068387 0.0508572 -0.01675941 -0.08370139
0.018591896 0.0057566613 0.09581229 -0.033986107 -0.08191754 0.046461105 0.08167891 -0.09089668
-0.10111934 0.073289916 0.05174811 0.10513429 0.11697559 -0.09980561 -0.11826211 -0.014252633
0.021406353 -0.08001575 -0.09459476 0.03690982 0.007852271 -0.10020512 -0.11095601 0.10750653
-0.09950064 -0.014291942 -0.08250506 0.10186289 -0.10607161 -0.12280287 -0.10057965 -0.029707193
0.08624528 0.06037417 0.009585485 -0.08804394 -0.09803958 0.018138632 -0.03812553 0.10813989
0.032290593 0.11412954 -0.04302603 -0.07595284 -0.06625007 0.093899295 -0.07145251 0.028478429
0.030701846 -0.08819623 -0.020671487 0.023408309 -0.08882271 -0.06891219 0.11580199 0.0005763769
-0.09077059 0.018711584 -0.08535878 -0.06671232 -0.012549624 0.121595025 0.084806725 0.08502108
-0.09065432 -0.099028595 0.014087683 -0.11255668 -0.031856783 0.08363396 0.012142569 -0.116592124
-0.0348562 -0.0068494305 0.12359622 -0.081243366 0.0014275452 -0.12394509 -0.080114186 -0.015922943
0.119222626 -0.08236188 -0.12510374 -0.026454568 0.036748976 -0.039208993 -0.018749004 -0.005116865
-0.08007127 0.08132734 -0.11948354 -0.055628195 0.06817524 0.0053621233 0.06316064 -0.12194903
-0.056325734 -0.09463644 -0.03610909 -0.03534899 -0.064796016 0.07834375 0.11113827 -0.01916024
0.055719703 0.03394161 -0.1024255 -0.05201226 -0.032636732 0.020725712 -0.065444015 0.028267017
-0.10545418 0.11217083 0.005964911 -0.020808965 0.0035795122 0.07757175 0.11350044 -0.027552329
-0.0939855 -0.006608933 -0.10487461 0.032940865 0.020814508 0.10768236 -0.023384556 0.05684489
-0.06452194 0.08540127 0.08629781 0.025492206 0.069399655 -0.08831696 0.094124585 -0.004307583
-0.09544858 -0.03699775 -0.11404079 0.07501489 0.09083445 -0.11942962 -0.077344686 0.01678823
-0.07747322 0.101117864 -0.0038279146 -0.06297289 0.098212436 -0.061251417 -0.06318298 0.07426359
0.032145053 -0.05028546 -0.076446354 -0.047031313 -0.08579633 -0.047243685 -0.10549632 -0.11023143
-0.020539537 -0.11126754 -0.12127015 -0.010612175 0.0556325 -0.08897255 -0.076762825 -0.08962721
-0.08538675 0.030765712 0.06608249 0.07943912 0.08392073 -0.12374017 -0.07832748 -0.10940032
0.10713428 -0.05658409 -0.12452856 -0.0006674975 0.099391505 -0.040120512 0.01826024 0.039435938
00000000: 4094 4cbc 6c30 8f3d 20a3 de3c a89b ffbd
00000010: 4e71 e43d 5ea5 ee3d 5cd2 f43d 1063 033c
00000020: 4c22 3a3d bc46 5cbd 3c27 e43d 9444 d8bd
00000030: a883 b5bc 5ce1 43bd f021 7a3d 40b5 923c
00000040: 741c 083d d0d1 1f3d f83d fb3d 88a5 883c
00000050: d037 cabd 9a02 e43d e282 ae3d 7030 09bd
00000060: f402 9d3d 585c 4cbd c8e2 9fbd 7087 1bbd
00000070: f0ca 77bc 1cdf f13d 080f 85bc 00a9 43bc
00000080: c4ac 7bbd ac85 173d dac8 9fbd 3c9c 27bd
00000090: 4c3e b2bd 2073 33bd 002c 92bc 0a11 a53d
000000a0: c861 d2bd d0f0 da3d 0638 963d 38df 9d3d
000000b0: 64fd 9b3d 0809 d83d 0000 c6bd 461a d93d
000000c0: 64bf 08bd e855 e2bd 70cb 94bc 144d 8dbd
000000d0: 1cf8 ccbd 80e1 84bd ee1c b73d 1a7b 893d
000000e0: 167d 8bbd b4ea 78bd 48cf 2e3d 4a28 a83d
000000f0: 123f 933d e0cc 8dbb a2a5 d8bd f61b 803d
00000100: 6c8d 65bd d2dc a23d 78c4 be3c 50bb 873c
00000110: e499 4f3d a44f 503d 084b 89bc a26b abbd
00000120: 084e 983c 60a2 bc3b 3c39 c43d 0435 0bbd
00000130: 62c4 a7bd 004e 3e3d 4647 a73d 0a28 babd
00000140: a817 cfbd 0619 963d d4f5 533d a650 d73d
00000150: e690 ef3d e266 ccbd 6833 f2bd e083 69bc
00000160: 605c af3c 4cdf a3bd e6ba c1bd c02e 173d
00000170: d0a6 003c 5838 cdbd e83c e3bd 622c dc3d
00000180: fec6 cbbd c028 6abc 6af8 a8bd 7e9d d03d
00000190: 123c d9bd 1280 fbbd b4fc cdbd 805c f3bc
000001a0: 5ea1 b03d e84a 773d 700c 1d3c 6250 b4bd
000001b0: fac8 c8bd 7897 943c 8429 1cbd 7278 dd3d
000001c0: 2443 043d c0bc e93d 103c 30bd 2a8d 9bbd
000001d0: 1eae 87bd 464e c03d b255 92bd 984b e93c
000001e0: 7082 fb3c 3aa0 b4bd 4057 a9bc c8c2 bf3c
000001f0: aee8 b5bd d621 8dbd 9829 ed3d 0018 173a
00000200: eee5 b9bd 0949 993c 96d0 aebd 78a0 88bd
00000210: f09c 4dbc d006 f93d 26af ad3d 881f ae3d
00000220: f9a8 b9bd 81cf cabd 06d0 663c 1e84 e6bd
00000230: 427c 02bd 4848 ab3d a0f1 463c dac7 eebd
00000240: 60c5 0ebd 3071 e0bb 0420 fd3d ec62 a6bd
00000250: 781c bb3a ecd6 fdbd e812 a4bd d570 82bc
00000260: fe2a f43d 58ad a8bd 321b 00be 40b7 d8bc
00000270: 1886 163d 9c99 20bd 8397 99bc 60ab a7bb
00000280: 68fc a3bd f38e a63d c9b3 f4bd 64da 63bd
00000290: 769f 8b3d c0b4 af3b 5e5a 813d 6ac0 f9bd
000002a0: d0b5 66bd c0d0 c1bd 20e7 13bd 1aca 10bd
000002b0: c6b3 84bd b072 a03d 769c e33d f0f5 9cbc
000002c0: 583a 643d 5c06 0b3d 76c4 d1bd cf0a 55bd
000002d0: 18ae 05bd f8c8 a93c 8307 86bd 3b90 e73c
000002e0: 5cf8 d7bd d2b9 e53d 4d75 c33b 9077 aabc
000002f0: 4096 6a3b f0dd 9e3d eb72 e83d 6cb5 e1bc
00000300: 787b c0bd c08f d8bb 80c8 d6bd 00ed 063d
00000310: 3083 aa3c 9288 dc3d f890 bfbc 30d6 683d
00000320: 1424 84bd dce6 ae3d e8bc b03d 08d5 d03c
00000330: 6821 8e3d 86df b4bd 64c4 c03d a026 8dbb
00000340: 8c7a c3bd f48a 17bd 388e e9bd 68a1 993d
00000350: 6a07 ba3d 8497 f4bd e466 9ebd 7887 893c
00000360: 48aa 9ebd e216 cf3d c0dd 7abb eef7 80bd
00000370: 9a23 c93d c4e2 7abd 1466 81bd 8217 983d
00000380: 88aa 033d 20f8 4dbd e88f 9cbd e8a3 40bd
00000390: fcb5 afbd 9882 41bd 740e d8bd 04c1 e1bd
000003a0: 8842 a8bc 3ce0 e3bd 7c5c f8bd b0de 2dbc
000003b0: e8de 633d 3e37 b6bd d435 9dbd 788e b7bd
000003c0: 40df aebd 6008 fc3c 4256 873d fab0 a23d
000003d0: a2de ab3d 7c6b fdbd 286a a0bd 460d e0bd
000003e0: 3869 db3d b8c4 67bd d408 ffbd 00fb 2eba
000003f0: c68d cb3d 6855 24bd 8096 953c 9487 213d

bias f4 [32]
-0.104913116 -0.0075155795 -0.078278475 -0.07085514 -0.050326884 -0.08708948 0.1402413 0.039268546
-0.083076015 0.042551234 -0.12025218 -0.031983837 -0.055506676 -0.04810849 0.007988144 0.05046426
0.027180102 -0.11630363 0.06921837 0.030966863 0.09657633 0.065487325 -0.10278028 0.03479631
-0.028405562 0.06513989 0.11712174 0.032061126 0.018937964 -0.09524977 -0.0098152105 -0.0032476273
00000000: b0dc d6bd 4045 f6bb 7750 a0bd 801c 91bd
00000010: 9023 4ebd f85b b2bd 6a9b 0f3e 0ed8 203d
00000020: c223 aabd 344a 2e3d c646 f6bd 7c01 03bd
00000030: f85a 63bd 680d 45bd b4e0 023c 9db3 4e3d
00000040: cea8 de3c 9930 eebd 5cc2 8d3d 38ae fd3c
00000050: d0c9 c53d 381e 863d 787e d2bd 9386 0e3d
00000060: c8b2 e8bc 1068 853d 86dd ef3d 8752 033d
00000070: ca23 9b3c 5012 c3bd facf 20bc 25d6 54bb

weight f4 [8, 32]
0.11386396 -0.11276851 0.16591384 0.09474267 0.111179 0.007600531 -0.14049558 0.016089357
0.13723284 -0.16150503 -0.14422734 -0.0040121973 0.14882867 0.020359876 -0.11051227 -0.04912768
0.103492156 -0.035954703 -0.17384471 -0.13722569 -0.17311189 0.09333105 0.0041205734 -0.021138502
0.05753523 -0.12846977 0.003962933 -0.07658933 0.019592194 -0.11332894 0.08866696 -0.072366506
-0.12524548 0.14906205 0.15823291 -0.08333936 -0.15236804 0.018951407 0.04037143 -0.1306366
-0.06658718 -0.065021984 -0.04142495 0.14876626 0.0146461725 -0.014296041 0.13751124 -0.018218404
0.08779988 0.12633659 0.016502742 -0.100890286 -0.16028921 -0.060987018 0.02660495 0.13114889
0.14104106 0.0052684546 -0.04631415 0.13539164 -0.1479902 0.12823965 0.10709936 -0.09865122
0.12180601 -0.14413157 0.09444252 -0.07099702 0.13554324 -0.1206373 0.0664121 -0.052747257
0.21575728 -0.025894238 -0.009023554 0.037749946 0.0366653 -0.20290267 0.13775826 0.00237187
0.12628224 -0.010242793 0.22687039 0.065872625 0.02652701 -0.12647925 0.08139084 -0.04094203
0.009180129 0.12700163 -0.0027751913 0.15812407 -0.04606261 0.17979543 0.05476931 0.17318937
-0.07122145 -0.15480869 -0.0623016 0.016645178 -0.06999234 -0.088538304 -0.019857913 -0.07466603
-0.059295222 -0.09815194 -0.12669985 0.03066516 0.06732634 -0.029970378 -0.11325486 0.009254977
0.058997244 0.05182214 -0.10151199 -0.14431185 0.14412571 -0.010739371 0.16346456 -0.10874245
-0.004190013 -0.1475056 -0.045388132 -0.0056337416 -0.12228836 0.1751108 -0.079175405 0.02654767
-0.1577159 0.02490358 0.08535432 -0.08033733 -0.02524348 0.061494265 0.25378183 0.070703685
0.060828276 -0.1196098 -0.12837107 -0.027550593 0.00770053 -0.022265825 -0.19216941 0.028732043
0.14005336 -0.1808973 0.094484776 0.11407883 -0.29028413 0.23895767 -0.041663006 -0.1436891
0.08084662 -0.00614433 -0.17100969 -0.20672445 0.047797814 -0.031569306 0.06648377 -0.2806179
0.0154783875 0.06991854 -0.0824792 0.1586499 -0.12925848 0.061914455 0.09141433 -0.1470228
0.08983954 0.007887048 -0.10652927 -0.0822191 0.117235534 0.08936636 -0.17610924 -0.16876972
0.055261556 -0.009105524 0.10007423 -0.07672178 -0.24983329 0.077612765 -0.0030461848 -0.07867815
-0.17574117 -0.021284744 0.10256986 -0.08697549 -0.069558576 -0.00037806036 -0.20321892 -0.14495021
0.1306241 0.021342516 0.028494937 0.11076258 -0.111874186 0.07218382 -0.0648704 0.14198738
0.13309671 -0.0153617915 0.16860043 0.005646348 -0.15702774 -0.17339237 0.07164757 0.03638749
0.112294346 -0.1763251 -0.00073198084 -0.13389632 0.07379301 0.08550744 -0.14603537 -0.015269594
0.084547445 0.12742324 0.16093935 0.021101315 -0.026861915 -0.07996886 -0.05142307 -0.07327932
0.0053135157 0.12017028 0.09942918 -0.026940525 0.14906365 -0.15463597 0.0019113513 0.12686779
0.033018094 0.044039838 0.07144686 0.0010817796 -0.12682149 -0.021203369 -0.12340637 -0.0002868246
0.12318024 -0.13328119 0.10596605 -0.07871665 0.1641696 -0.12502633 -0.08665877 -0.014445644
-0.113157034 -0.007819906 -0.016315516 -0.072084494 -0.08438777 -0.16646214 -0.09807249 0.058793586
00000000: 8231 e93d 2df3 e6bd 51e5 293e 7208 c23d
00000010: d1b1 e33d e00d f93b 13de 0fbe d4cd 833c
00000020: c486 0c3e 9361 25be 55b0 13be c078 83bb
00000030: 8b66 183e c1c9 a63c 4254 e2bd 1b3a 49bd
00000040: b2f3 d33d 3d45 13bd 5904 32be e484 0cbe
00000050: 3e44 31be 5924 bf3d e005 873b a72a adbc
00000060: 10aa 6b3d 948d 03be 7edb 813b deda 9cbd
00000070: cf7f a03c 0119 e8bd 0697 b53d e434 94bd
00000080: 5a40 00be b9a3 183e cf07 223e d4ad aabd
00000090: 5e06 1cbe fb3f 9b3c 835c 253d 9ac5 05be
000000a0: dc5e 88bd 3f2a 85bd 35ad 29bd 2f56 183e
000000b0: 80f6 6f3c f139 6abc bfcf 0c3e c33e 95bc
000000c0: 6cd0 b33d 615e 013e c230 873c 919f cebd
000000d0: db22 24be 86cd 79bd a0f2 d93c e54b 063e
000000e0: 116d 103e 00a3 ac3b e8b3 3dbd 1ba4 0a3e
000000f0: be8a 17be 4151 033e e956 db3d a709 cabd
00000100: 6e75 f93d 3a97 13be 146b c13d e366 91bd
00000110: d9cb 0a3e b010 f7bd 1103 883d 820d 58bd
00000120: 7aef 5c3e 2720 d4bc 87d7 13bc b09f 1a3d
00000130: 5b2e 163d b8c5 4fbe 8010 0d3e 6071 1b3b
00000140: 2250 013e 63d1 27bc b650 683e 3ae8 863d
00000150: 2c4f d93c c783 01be 3eb0 a63d d4b2 27bd
00000160: 4068 163c b70c 023e fcdf 35bb 47eb 213e
00000170: 26ac 3cbd 4b1c 383e c955 603d 8e58 313e
00000180: 8ddc 91bd 2b86 1ebe f62f 7fbd 785b 883c
00000190: 2558 8fbd 9253 b5bd 10ad a2bc 81ea 98bd
000001a0: 8cdf 72bd e203 c9bd 9bbd 01be 8035 fb3c
000001b0: 64e2 893d 7084 f5bc 2af2 e7bd 30a2 173c
000001c0: 18a7 713d 7443 543d 85e5 cfbd 7cc6 13be
000001d0: b195 133e 30f4 2fbc 4163 273e 5db4 debd
000001e0: 604c 89bb b50b 17be e8e8 39bd 409b b8bb
000001f0: 5272 fabd 3f50 333e b726 a2bd 807a d93c
00000200: 4780 21be 9802 cc3c 3fce ae3d e687 a4bd
00000210: 6acb cebc 69e1 7b3d b1ef 813e 18cd 903d
00000220: 1227 793d fcf5 f4bd b573 03be c8b1 e1bc
00000230: ba54 fc3b d266 b6bc 0fc8 44be 765f eb3c
00000240: 266a 0f3e 243d 39be 3c81 c13d 29a2 e93d
00000250: 1fa0 94be 52b1 743e d4a6 2abd 3c23 13be
00000260: ea92 a53d 6056 c9bb 2a1d 2fbe 93af 53be
00000270: a4c7 433d d14e 01bd a528 883d 26ad 8fbe
00000280: 1099 7d3c 7431 8f3d dbea a8bd 1f75 223e
00000290: 565c 04be 039a 7d3d 7037 bb3d 258d 16be
000002a0: cbfd b73d ad38 013c 052c dabd 7d62 a8bd
000002b0: 2f19 f03d b605 b73d fb55 34be f8d1 2cbe
000002c0: f159 623d 562f 15bc b8f3 cc3d 4f20 9dbd
000002d0: 4cd4 7fbe 71f3 9e3d 80a2 47bb 0322 a1bd
000002e0: 7ef5 33be 585d aebc 2610 d23d 3520 b2bd
000002f0: ba74 8ebd 6736 c6b9 9f18 50be d46d 14be
00000300: 53c2 053e 80d6 ae3c 376e e93c 7ed7 e23d
00000310: 4b1e e5bd 1cd5 933d c6da 84bd 2465 113e
00000320: 814a 083e 06b0 7bbc 97a5 2c3e 0005 b93b
00000330: e1cb 20be c58d 31be f6bb 923d 0c0b 153d
00000340: 94fa e53d 918e 34be 67e2 3fba 1e1c 09be
00000350: ca20 973d 861e af3d 4c8a 15be 522d 7abc
00000360: 3627 ad3d 3d7b 023e 49cd 243e aadc ac3c
00000370: 850d dcbc b7c6 a3bd ffa0 52bd 7813 96bd
00000380: 001d ae3b d61b f63d 87a1 cb3d 60b2 dcbc
00000390: 24a4 183e e458 1ebe 4f86 fa3a a1e9 013e
000003a0: fb3d 073d 1e63 343d bb52 923d 80ca 8d3a
000003b0: 7edd 01be b0b2 adbc 7bbc fcbd f260 96b9
000003c0: ec45 fc3d dd7a 08be ba04 d93d 3236 a1bd
000003d0: 131c 283e e706 00be 277a b1bd 6cad 6cbc
000003e0: e0be e7bd 101f 00bc 1ea8 85bc 09a1 93bd
000003f0: 7fd3 acbd 0d75 2abe 3bda c8bd 8bd1 703d

bias f4 [8]
-0.12707072 -0.16745332 0.17913911 -0.014994979 0.057150476 -0.06796936 -0.16770956 0.08337764
00000000: d41e 02be e278 2bbe 3e70 373e 80ad 75bc
00000010: 9e16 6a3d 8533 8bbd 0ebc 2bbe e5c1 aa3d

weight f4 [4, 8]
-0.27282962 -0.18466975 0.21009055 -0.07747257 -0.31289086 -0.080899656 0.3167486 -0.24931061
-0.06258428 -0.35045505 0.20543906 0.29448822 -0.340031 -0.068081796 -0.2706889 0.32676616
-0.23959248 -0.04527402 0.1561226 0.20575115 0.06286684 -0.25304747 -0.18068121 0.18792388
-0.09151062 -0.033355296 0.19715753 0.29600766 -0.18687288 -0.0032013357 0.18914405 -0.2608778
00000000: 53b0 8bbe 111a 3dbe fa21 573e f0a9 9ebd
00000010: 3b33 a0be b8ae a5bd df2c a23e 484b 7fbe
00000020: 302c 80bd d86e b3be 9e5e 523e 29c7 963e
00000030: 8b18 aebe 786e 8bbd bc97 8abe e54d a73e
00000040: bb57 75be 4071 39bd 9ade 1f3e 6eb0 523e
00000050: 54c0 803d 708f 81be 7f04 39be 1e6f 403e
00000060: ec69 bbbd 909f 08bd aae3 493e 518e 973e
00000070: 9b5b 3fbe 80cd 51bb faae 413e c691 85be

bias f4 [4]
0.14564994 -0.18047205 0.19423756 0.23274592
00000000: 4225 153e aacd 38be 36e6 463e f254 6e3e
