training/ann/models/ann21ep1600.pth (torch, 69232 bytes, 10 tensors)

weight f4 [128, 40]
0	0x3db05992	0.08610834
1	0xbbfa7684	-0.0076435227
2	0xbeabbef8	-0.33544135
3	0x3eb0ce6c	0.34532487
4	0xbe648cd1	-0.22319342
5	0xbdddff42	-0.10839702
6	0x3e31a1ee	0.17346928
7	0xbe100323	-0.14063697
8	0x3f721d35	0.94575816
9	0xbdb96f45	-0.09054426
10	0xbd7a3077	-0.061081376
11	0x3dbb28aa	0.091386154
12	0x3d1c3867	0.038139727
13	0x3e5a9cad	0.2134883
14	0xbcfd95fa	-0.030955303
15	0x3f1331b8	0.5749774
16	0xbeb68ad9	-0.35652807
17	0x3f27936b	0.65459317
18	0xbe5c309e	-0.21502921
19	0x3f4d3c55	0.80170184
20	0x3e2d1504	0.16902548
21	0xbf5a7512	-0.85334885
22	0xbf1c5565	-0.610678
23	0x3e72d5be	0.23714349
24	0xbe13ac0b	-0.14421098
25	0x3e8aadc2	0.27085692
26	0x3cfb2b9f	0.030660449
27	0x3d09d631	0.033651534
28	0xbe8ec038	-0.27881026
29	0xbe80777c	-0.2509116
30	0x3f5f33cf	0.8718843
31	0xbf5b0016	-0.85547006
32	0xc000122a	-2.0011086
33	0x3e50f134	0.20404512
34	0x3f0d0386	0.550835
35	0xbed0f91a	-0.4081505
36	0x3f1a8672	0.603614
37	0xbcfd0c38	-0.030889615
38	0x3dc7882b	0.09742769
39	0x3db0b545	0.086283244
40	0x3d6ba81c	0.05753337
41	0xbcd64e78	-0.026160464
42	0x3e129ca7	0.1431757
43	0xbe192d05	-0.1495858
44	0xbc05b0a0	-0.008159786
45	0x3dd30eca	0.10305555
46	0x3d751988	0.0598388
47	0xbd8e0e22	-0.06936289
48	0xbdb05384	-0.08609679
49	0x3d55b844	0.052177683
50	0x3cb70938	0.022343263
51	0x3d27e770	0.0409922
52	0x3d99e284	0.075139076
53	0x3dab515a	0.08365126
54	0x3e0d313f	0.13788317
55	0xbb96e560	-0.0046049803
56	0xbcba2d58	-0.0227267
57	0xbd0c055e	-0.034184806
58	0x3a1f6c00	0.0006081462
59	0x3e1b2d01	0.15153886
60	0x3d918c68	0.071068585
61	0xbd0f23f6	-0.034946404
62	0x3d181c94	0.03713663
63	0x3c4938f0	0.012281641
64	0x3d8e62a2	0.069524065
65	0xbd17ff64	-0.037108794
66	0xbd623748	-0.0552285
67	0x3e0fbf1f	0.1403775
68	0x3d44aa50	0.048013985
69	0xbdb77a63	-0.0895889
70	0xbdbaf3ab	-0.09128507
71	0x3e1468f9	0.14493169
72	0x3e1d2a73	0.15348224
73	0xbd13e6dc	-0.036108837
74	0x3dc1d3ce	0.09464227
75	0x3cbe36d0	0.023219496
76	0x3e1b1eff	0.15148543
77	0xbcea7fe0	-0.028625429
78	0x3d2b833c	0.0418732
79	0xbd927d9e	-0.07152866
80	0xbe320f2f	-0.17388605
81	0x3db309d3	0.08742108
82	0xbf1b3561	-0.60628325
83	0x3f240e8d	0.640847
84	0x3f17b48f	0.59259886
85	0xbf499a83	-0.7875139
86	0xbf00b91a	-0.5028244
87	0xbe1729a1	-0.14761974
88	0x3ab8c61f	0.0014097131
89	0xbf30d927	-0.6908135
90	0x3f0e5d59	0.5561119
91	0xbf9db2f0	-1.2320232
92	0x3f092bea	0.5358263
93	0xbde8622f	-0.11346852
94	0x3c2de932	0.01061468
95	0x3e46ec57	0.19426094
96	0xbdc02ec8	-0.09383923
97	0x3f138549	0.5762525
98	0xbdffc21e	-0.12488197
99	0x3d34a039	0.044098113
100	0x3d1281ee	0.03576844
101	0xbebd0e6b	-0.36925063
102	0xbf680534	-0.9063294
103	0x3efad4d3	0.48990497
104	0x3eac7825	0.33685413
105	0x3e100c8a	0.14067283
106	0xbd26b269	-0.04069749
107	0x3dbcbdb1	0.09215868
108	0xbee81485	-0.45328155
109	0x3cffd32b	0.031228622
110	0x3e3b3895	0.18283303
111	0xbed1b363	-0.40957174
112	0xbf863120	-1.0483742
113	0xbdcbf29d	-0.09958384
114	0x3e8c22f8	0.2737043
115	0x3e42c5ac	0.19020718
116	0x3f4e9db7	0.80709404
117	0x3ed4ec31	0.4158645
118	0xbe857e72	-0.26073033
119	0x3d99a96f	0.0750302
120	0x3df736ca	0.12070997
121	0xbe06c4f8	-0.13161075
122	0x3cdbe9b0	0.02684483
123	0x3d8fa500	0.07013893
124	0xbd30b22c	-0.043138668
125	0x3df3a56e	0.118967876
126	0xbdeb8afe	-0.1150112
127	0xbbf2a900	-0.0074054003
128	0x3d96ec32	0.073692694
129	0x3de5b056	0.11215274
130	0xbcb94408	-0.022615448
131	0xbe02f45e	-0.12788531
132	0xbdd03c32	-0.10167731
133	0xbca6f360	-0.020379722
134	0x3cde2608	0.027117744
135	0xbcb26d70	-0.0217807
136	0x3dec8eaa	0.115506485
137	0xbdec0ff4	-0.1152648
138	0x3c1c74a0	0.00954929
139	0xbd97cac5	-0.07411722
140	0x3b8eff60	0.004363939
141	0x3d90f1a4	0.07077339
142	0xbdef800e	-0.11694346
143	0x3da3bb72	0.07994737
144	0xbe04602a	-0.12927309
145	0x3e1c62c7	0.15272056
146	0x3dcd55ae	0.10026108
147	0x3db3d33c	0.08780524
148	0x3d3c1bc0	0.045924902
149	0x3e19f657	0.15035377
150	0x3daabb96	0.083365604
151	0xbdf568ec	-0.11982903
152	0xbcc1dd78	-0.023665175
153	0x3da6678c	0.08125219
154	0x3d36be54	0.044615105
155	0xbda292db	-0.07938167
156	0x3d0e1cc4	0.0346954
157	0x3e1524b1	0.14564778
158	0xbc89a988	-0.016804472
159	0x3e113c19	0.14183082
160	0xbd5ca811	-0.053871218
161	0x3da2da56	0.079518005
162	0xbf32504c	-0.69653773
163	0x3f44ad30	0.76826763
164	0xbe786622	-0.2425771
165	0xbd518156	-0.051148735
166	0xbe9dc8f5	-0.3081738
167	0x3e8a4b68	0.27010655
168	0xbeecb596	-0.4623229
169	0xbead56c2	-0.33855253
170	0x3ea627ac	0.32452142
171	0xbee19bab	-0.44064078
172	0x3db3c909	0.08778579
173	0xbe999978	-0.299999
174	0x3e9c9da2	0.30589014
175	0x3c0a21b3	0.008430886
176	0x3de1c1dd	0.110233046
177	0x3eb910c0	0.36145592
178	0xbdf5dad2	-0.12004627
179	0x3ebbcafa	0.36678296
180	0x3e1d7572	0.15376833
181	0xbf8ab34f	-1.0835971
182	0xbf0470dc	-0.5173471
183	0xbbf4a374	-0.007465774
184	0xbefdf00d	-0.49597207
185	0x3f61cac0	0.88199997
186	0xbe8a7686	-0.2704355
187	0x3ea32ff7	0.31872532
188	0xbf60e914	-0.8785565
189	0x3de134e9	0.1099642
190	0x3e5890e3	0.2114902
191	0xbe62cbfe	-0.2214813
192	0xbd594bd4	-0.05305083
193	0x3f41a83a	0.7564732
194	0xbc131ea9	-0.008979478
195	0xbea59dfd	-0.32347098
196	0x3d5fda85	0.054651756
197	0x3ea4d8e1	0.32196715
198	0x3d62185e	0.05519902
199	0x3d8efc9d	0.06981776
200	0x3c04cef0	0.008105978
201	0xbdadd1f8	-0.08487314
202	0x3dddc0da	0.10827799
203	0xbe022a91	-0.1271155
204	0x3d2c1110	0.04200846
205	0x3d92213c	0.07135245
206	0x3d99a294	0.075017124
207	0xbcc01150	-0.023445755
208	0x3d788e70	0.060682714
209	0xbe179c5c	-0.1480574
210	0x3e082c2f	0.13298105
211	0x3e057611	0.1303332
212	0x3ccb5fc0	0.02482593
213	0x3d0f1890	0.034935534
214	0xbe02bc3d	-0.1276712
215	0xbd2522c0	-0.040316343
216	0x3e10d603	0.14144139
217	0x3d0e6684	0.034765735
218	0xbd88a627	-0.06672316
219	0xbdc39ff9	-0.09551997
220	0xbd883f52	-0.066527024
221	0x3cebc698	0.02878122
222	0xbd51a8b4	-0.05118628
223	0xbd466f0c	-0.048445746
224	0xbdd7ae02	-0.10531236
225	0xbdc93548	-0.09824616
226	0x3be002c0	0.0068362653
227	0xbe0900b8	-0.1337918
228	0xbd8f348b	-0.06992444
229	0x3dc749aa	0.09730847
230	0x3d577738	0.05260393
231	0xbe007d3f	-0.12547778
232	0xbd0575b4	-0.032582954
233	0xbcd671e8	-0.026177362
234	0xbd4e8850	-0.050422966
235	0xbca74b00	-0.020421505
236	0xbc7ca130	-0.0154192895
237	0x3d6bcd08	0.05756858
238	0xbd3c40a8	-0.0459601
239	0xbd90f3ba	-0.07077737
240	0x3db76c18	0.08956164
241	0x3d7ff2aa	0.06248728
242	0x3f1959ea	0.5990282
243	0xbf2d9c60	-0.67816734
244	0xbe9d4db6	-0.3072335
245	0xbf2e917a	-0.6819073
246	0x3f2ca52c	0.6743953
247	0x3e5ad51b	0.21370356
248	0x3eec9819	0.4620979
249	0x3db3df0a	0.08782776
250	0xbe845b9d	-0.25851145
251	0x3d816095	0.0631725
252	0xbe18c9b7	-0.14920698
253	0x3f29d613	0.66342276
254	0xbf2ff014	-0.68725705
255	0xbd97c117	-0.07409876

bias f4 [128]
0	0xbd367d5e	-0.044553153
1	0xbdaae8a2	-0.083451524
2	0xbc873ae3	-0.016507572
3	0x3db47272	0.08810891
4	0x3ca162d1	0.01970044
5	0xbd741756	-0.059592567
6	0xbe6bc54c	-0.23024482
7	0xbc20dcc0	-0.009818256
8	0x3ddf53c7	0.10904651
9	0xbdbeb202	-0.09311296
10	0xbd839cc8	-0.06426388
11	0x3dbfbb42	0.093618885
12	0xbdbfed0d	-0.09371386
13	0xbda3e7de	-0.080032095
14	0xbb948de0	-0.0045335144
15	0x3d20e27b	0.03927849
16	0xbdc28631	-0.09498251
17	0xbd2e0c4c	-0.042492196
18	0x3e0b5685	0.13607223
19	0xbe205b95	-0.15659936
20	0x3e00d093	0.12579565
21	0x3b40c440	0.002941385
22	0x3e0665af	0.13124727
23	0xbdf9df25	-0.122007646
24	0xbe6ac4f3	-0.22926693
25	0x3dd6218a	0.10455616
26	0xbd2875b3	-0.04112787
27	0xbd81e42e	-0.0634235
28	0x3d8055be	0.06266354
29	0xbe17f860	-0.14840841
30	0xbd4d13e1	-0.050067786
31	0xbdcdbeb6	-0.10046141
32	0xbe2d7d4f	-0.16942333
33	0x3d2f9280	0.042864323
34	0xbddf3473	-0.10898676
35	0x3e14f2eb	0.14545791
36	0xbdb1b830	-0.08677709
37	0x3e124126	0.14282665
38	0x3df0522e	0.117344245
39	0xbe0373bf	-0.12837122
40	0xbe500fe7	-0.20318566
41	0xbdfbd4b2	-0.12296428
42	0xbe32ff29	-0.17480148
43	0x3e1cc961	0.15311195
44	0x3cfcb1f0	0.030846566
45	0x3c27c2a5	0.010239278
46	0xbe46b0bc	-0.19403356
47	0xbd79e2ef	-0.061007436
48	0x3cb91ab1	0.022595735
49	0xbe52cad0	-0.2058518
50	0x3dedb782	0.11607267
51	0xbd35a7bf	-0.04434943
52	0x3d0fa294	0.035067156
53	0xbda0b11a	-0.078462794
54	0x3d461c01	0.04836655
55	0x3dbea3be	0.09308575
56	0xbe0787bf	-0.13235377
57	0xbdf29a80	-0.11845875
58	0xbe20a157	-0.15686546
59	0xbd80c0ab	-0.062867485
60	0x3dadc115	0.08484093
61	0x3e0f00e5	0.13965185
62	0x3d4d17de	0.05007159
63	0x3dfca5fe	0.12336348
64	0xbe53f198	-0.2069763
65	0x3e122367	0.14271317
66	0x3e16b801	0.1471863
67	0xbd243ec1	-0.04009891
68	0x3aa78245	0.0012779912
69	0xbe17b8c9	-0.14816584
70	0x3d335fc7	0.043792512
71	0x3d2bd28f	0.04194885
72	0x3e2da43e	0.16957185
73	0x3e262e35	0.16228564
74	0xbe09b398	-0.13447416
75	0x3e0a1958	0.1348623
76	0x3daebf76	0.08532612
77	0x3e1081d3	0.14112024
78	0xbd94048e	-0.07227431
79	0xbd1facf2	-0.038983293
80	0xbdb508bc	-0.088395566
81	0xbe076d3a	-0.1322526
82	0x3cacedbc	0.021109454
83	0x3d38b524	0.045094624
84	0x3e1b32f9	0.15156163
85	0x3d5d8190	0.05407864
86	0xbdd95c41	-0.10613299
87	0xbd1fa2ba	-0.038973548
88	0x3d847ea4	0.06469467
89	0x3c71acbf	0.014750659
90	0x3ca47bbd	0.020078534
91	0xbdcb49ca	-0.099261835
92	0x3e0bca03	0.1365128
93	0x3d208948	0.03919342
94	0xbdc1e0b8	-0.0946669
95	0x3d7c7480	0.06163454
96	0xbe4e993d	-0.20175643
97	0x3df2d776	0.11857502
98	0xbdb756a7	-0.089520745
99	0xbe7fd82c	-0.24984807
100	0x3e01e2ed	0.12684222
101	0xbda50cdc	-0.08059093
102	0xbd03fd74	-0.032224134
103	0xbe15ca1b	-0.14627878
104	0xbe24d6cc	-0.16097564
105	0xbd2f126e	-0.042742185
106	0xbdd70483	-0.104989074
107	0xbdd733f0	-0.10507953
108	0x3d0b8d6c	0.034070417
109	0x3e05b9c7	0.1305915
110	0x3d8af720	0.067854166
111	0xbddbd89e	-0.10734676
112	0xbdc71ba0	-0.09722066
113	0xbdd06426	-0.10175352
114	0xbd847a1a	-0.064686015
115	0xbd7579f1	-0.059930746
116	0xbd73e838	-0.059547633
117	0xbd56af17	-0.052413072
118	0x3e02da6a	0.12778631
119	0xbd00e794	-0.03147085
120	0xbdecae02	-0.11556627
121	0x3deacaf6	0.11464493
122	0xbdd6309a	-0.10458489
123	0x3d21284c	0.03934507
124	0x3cceaf20	0.02522999
125	0x3cb4f19f	0.02208787
126	0x3d0673ef	0.032825407
127	0xbdb873d7	-0.0900647

weight f4 [64, 128]
0	0x3d1b3604	0.03789331
1	0x3c89439c	0.016755871
2	0x3d551997	0.052026358
3	0xbd00f104	-0.03147985
4	0x3d23e5b9	0.040014002
5	0x3d0c4826	0.034248494
6	0x3d6f04e9	0.058354292
7	0x3cb4ddbc	0.022078387
8	0x3d867a82	0.06566335
9	0xbdc16280	-0.094426155
10	0xbd83da42	-0.06438114
11	0x3ce432c8	0.027856246
12	0x3db032b5	0.086034216
13	0x3b844fd0	0.0040378347
14	0x3d4d61ee	0.05014222
15	0xbd73d4f6	-0.059529267
16	0x3d54ce4a	0.051954545
17	0xbb8eeb50	-0.0043615475
18	0x3c1bd933	0.009512234
19	0x3ce4b4a0	0.02791816
20	0x3d325ae2	0.043543704
21	0x3dafb487	0.08579355
22	0xbcc5955c	-0.024119072
23	0x3cb49de8	0.022047952
24	0x3d57dabb	0.052698832
25	0xbd140b66	-0.036143683
26	0xbc200c47	-0.009768552
27	0x3d4c694a	0.0499051
28	0xbd792700	-0.06082821
29	0x3d159c4e	0.036526017
30	0xbd841142	-0.06448604
31	0x3d2a691a	0.04160414
32	0xbd01b07d	-0.031662453
33	0xbdae0744	-0.084974796
34	0xbd8bdb79	-0.068289705
35	0xbd91870f	-0.071058385
36	0xbcc30fe4	-0.023811288
37	0xbd363855	-0.044487316
38	0x3cc08e0e	0.023505237
39	0x3d632812	0.055458136
40	0xbdae8341	-0.085211284
41	0x3d37bfaa	0.04486052
42	0x3c6e90ed	0.01456092
43	0xbd027ba8	-0.03185621
44	0xbd9fe161	-0.078066595
45	0x3d55826f	0.052126344
46	0xbdd22d0a	-0.10262497
47	0xbd7679f9	-0.060174916
48	0x3d61f441	0.05516458
49	0xbdbddf80	-0.09271145
50	0x3d875de7	0.06609707
51	0xbd9386ab	-0.0720342
52	0xbcfc0b44	-0.03076709
53	0xbc88f9f4	-0.01672075
54	0xbdd0bd66	-0.10192375
55	0x3d8da723	0.069166444
56	0xbc01e83a	-0.007928902
57	0x3d67d328	0.05659786
58	0x3d51f2ec	0.05125706
59	0xbc825fdc	-0.01591485
60	0xbc8bfc53	-0.017088091
61	0xbce8aaca	-0.028401751
62	0xbbe4b41b	-0.006979478
63	0x3d1ab2ae	0.03776806
64	0xbabb6b37	-0.001429892
65	0x3d6e682e	0.058204822
66	0xbc18e0c4	-0.009330932
67	0xbd993ebc	-0.07482669
68	0x3d19ed98	0.037580103
69	0x3d8707a1	0.06593252
70	0xbd9e4597	-0.07728117
71	0xbdb45bc5	-0.08806566
72	0x3c399789	0.011327633
73	0xbd60d2df	-0.054888602
74	0xbd8ba99a	-0.06819458
75	0x3cc0fda9	0.023558455
76	0xbd639bcf	-0.055568513
77	0x3d11c35c	0.0355867
78	0x3d9dff35	0.077146925
79	0xbc3b6dc0	-0.011439741
80	0x3d067347	0.03282478
81	0xbd047f34	-0.032347873
82	0x3cdb11e0	0.026741922
83	0x3daaed8f	0.08346092
84	0x3da2d9db	0.07951709
85	0xbbc57bd0	-0.0060267225
86	0xbd99bcd0	-0.07506716
87	0xbcba7440	-0.02276051
88	0x3ade9240	0.0016980842
89	0x3c0a4166	0.008438444
90	0xbdc4d3dd	-0.09610722
91	0xbd656710	-0.05600649
92	0xbdcd6b3c	-0.10030219
93	0xbc8d4044	-0.017242558
94	0x3d04e3f2	0.032443948
95	0x3c2d6a60	0.010584444
96	0xbbd6f0cc	-0.006559467
97	0x3bca5140	0.0061742365
98	0xbd9eb403	-0.07749178
99	0xbce6210e	-0.028091934
100	0x3b8b336c	0.0042480733
101	0xbd4dfb54	-0.050288513
102	0x3d87f37d	0.066382386
103	0x3d6aa4ae	0.057285957
104	0x3dcbe07b	0.099549256
105	0xbc522000	-0.012825012
106	0xbcd11a9b	-0.025525382
107	0x3dae6899	0.08516044
108	0xbb545900	-0.003240168
109	0x3d153730	0.036429584
110	0xbd4dbce4	-0.05022897
111	0xbd98c984	-0.07460311
112	0x3d9c83d1	0.076423295
113	0x3d9db463	0.07700422
114	0xbda8015c	-0.08203384
115	0xbcd16560	-0.025561035
116	0x3d86f25d	0.06589196
117	0x3caca950	0.021076828
118	0x3c80e975	0.015736321
119	0x3d0146af	0.03156155
120	0x3d7f62ea	0.06235019
121	0xbd9cc34d	-0.07654438
122	0xbd34e6b6	-0.044165336
123	0x3d64b1ea	0.055833735
124	0x3c0b3e70	0.008498773
125	0x3bd982e8	0.0066379197
126	0x3d031d16	0.03201016
127	0xbd7cb29c	-0.061693773
128	0x3e7bcbe3	0.24589495
129	0x3bb6f9e0	0.0055839866
130	0x3de324f2	0.11091031
131	0xbcab0654	-0.02087704
132	0x3d1906a7	0.03735986
133	0x3d9178c1	0.0710311
134	0x3c8511ce	0.016243841
135	0xbdabfb08	-0.0839749
136	0xbc84c2fa	-0.016206253
137	0xbc1a077e	-0.0094012
138	0x3d790210	0.060792983
139	0xbc36ca20	-0.011156589
140	0x3cdff504	0.027338512
141	0xbd2eab4d	-0.042643834
142	0xbd9b3a6e	-0.07579504
143	0xbd561278	-0.052263707
144	0x3d27cd15	0.040967066
145	0xbd45fbc2	-0.048335798
146	0x3bdc9793	0.0067319362
147	0x3d7d20ea	0.061798967
148	0xbd89df7c	-0.067320794
149	0x3db39327	0.087683015
150	0x3d4105a2	0.047124512
151	0xbd10ea6f	-0.035379823
152	0x3c4547d7	0.012041054
153	0x3ce2b828	0.027675703
154	0xbda844e1	-0.082162626
155	0x3baec2d0	0.005333282
156	0xbbdc79e0	-0.006728396
157	0x3c7f6960	0.015589088
158	0x3da6cb43	0.08144238
159	0xbc99beb8	-0.0187677
160	0x3d8aab5f	0.06770968
161	0x3d3db2a2	0.046312936
162	0x3c8cf908	0.017208591
163	0xbcaf3ae4	-0.021390386
164	0xbe5ae4cb	-0.2137634
165	0x3e29628f	0.16541503
166	0xbed5a635	-0.41728368
167	0xbef0fb48	-0.47066712
168	0xbd950be0	-0.072776556
169	0x3d888368	0.06665689
170	0x3d62cd5c	0.055371627
171	0x3d8e0837	0.069351606
172	0xbd344397	-0.04400977
173	0xbd0cf409	-0.034412418
174	0xbe019318	-0.12653768
175	0xbd7fb093	-0.062424254
176	0xbe0c5f22	-0.13708165
177	0xbbe66f22	-0.007032291
178	0x3dacc7d3	0.08436551
179	0xbe587ae1	-0.21140625
180	0xbc93679a	-0.017993737
181	0x3d4140aa	0.04718081
182	0x3da5efb7	0.081023626
183	0xbd0b7f2e	-0.034056835
184	0xbd4b52a8	-0.049639374
185	0x3df679f7	0.12034982
186	0x3e79ba49	0.24387468
187	0x3d197fc6	0.03747537
188	0x3d958fb2	0.07302798
189	0x3e112d34	0.141774
190	0x3c79c3d3	0.015244442
191	0x3da6eb41	0.0815034
192	0x3cd4d8ea	0.025982339
193	0x3d229dfe	0.039701454
194	0xbe1547d7	-0.14578186
195	0x3d9a2a06	0.075275466
196	0x3e28091f	0.1640973
197	0xbd3aae6b	-0.045576494
198	0xbaccd8f7	-0.0015628625
199	0xbc504d48	-0.012713738
200	0xbe1fdadb	-0.1561083
201	0x3e8212d1	0.2540498
202	0xbd4aabed	-0.049480367
203	0x3f37e140	0.7182808
204	0x3c9c9357	0.019113226
205	0xbd82a099	-0.06378288
206	0x3d356d9e	0.044293992
207	0x3c00d550	0.007863358
208	0x3dc7667a	0.09736343
209	0xbd8e495a	-0.069475845
210	0xbc703424	-0.014660869
211	0x3d2222ce	0.039583974
212	0x3d7f0ade	0.062266223
213	0x3ca7ea1c	0.020497374
214	0x3e16ea66	0.14737853
215	0x3cf3dccc	0.02976837
216	0xbd147769	-0.03624669
217	0x3d13327a	0.03593681
218	0xbdab171f	-0.083540194
219	0xbb2c1460	-0.0026257262
220	0x3d16678b	0.03671984
221	0xbc1531e0	-0.009106129
222	0x3c328710	0.010896459
223	0xbe116722	-0.14199498
224	0xbdd34f9b	-0.10317918
225	0x3d47369a	0.048636056
226	0xbddf49c9	-0.10902745
227	0xbe535bc4	-0.20640475
228	0xbe623528	-0.2209059
229	0xbbddb120	-0.0067654997
230	0x3a174a80	0.0005771294
231	0x3da24d5f	0.079249136
232	0x3ea589b0	0.3233161
233	0xbd4f949c	-0.050678834
234	0xbcf6ed25	-0.030142376
235	0x3d8f8d0f	0.07009327
236	0xbd5bc542	-0.053654917
237	0x3c846f28	0.016166285
238	0x3c597bf8	0.013274185
239	0x3ca8c19d	0.020600135
240	0xbc04c6c0	-0.008104026
241	0x3a90c8c0	0.0011046156
242	0xbd4d61c6	-0.050142072
243	0xbef4a927	-0.47785303
244	0xbcdf4dda	-0.027258802
245	0xbd288cb8	-0.041149825
246	0x3e82ac70	0.25522184
247	0x3ddedaea	0.10881598
248	0xbd69f257	-0.05711588
249	0x3d29cb72	0.041453786
250	0xbdacce80	-0.08437824
251	0xbd60a04c	-0.05484037
252	0xbd2492b7	-0.04017898
253	0xbdf77d78	-0.12084478
254	0xbe093649	-0.13399614
255	0x3c6b21e0	0.014351338

bias f4 [64]
0	0x3d456d4f	0.048199948
1	0x3d7d948c	0.061909243
2	0xbd1acb0e	-0.037791304
3	0x3d904da7	0.07046061
4	0xbd560636	-0.052252017
5	0x3d81e7d7	0.06343048
6	0x3cefb806	0.029262554
7	0xbc9f8018	-0.01947026
8	0x3ca79fc6	0.020461928
9	0xb9d25cf3	-0.00040123574
10	0xbe33a0de	-0.17541835
11	0xbbc52765	-0.006016659
12	0x3c9b9cbe	0.018995639
13	0x3cb0c98b	0.021580478
14	0xbd90d44f	-0.07071745
15	0x3d64fc61	0.05590475
16	0xbd590f33	-0.05299301
17	0xbd7ec58b	-0.06220011
18	0xbaf427c0	-0.0018627569
19	0xbc9a2572	-0.018816683
20	0x3d48fb77	0.04906794
21	0x3cdbeb91	0.026845725
22	0x3d54ffb5	0.052001674
23	0x3b809b27	0.0039247456
24	0x3d88c12f	0.06677472
25	0xbd84ea96	-0.06490056
26	0x3d1e0807	0.038581874
27	0xbd2bce7d	-0.04194497
28	0x3b3e8f6e	0.002907719
29	0x3cf22b47	0.029561652
30	0xba02fa82	-0.0004996435
31	0x3d801730	0.06254423
32	0x3d3db3fa	0.046314217
33	0xbc8bb2b5	-0.017052988
34	0x3cad4bdc	0.021154337
35	0xbd8c4880	-0.06849766
36	0x3cd6b17f	0.026207684
37	0x3c0d36c0	0.00861901
38	0x3db1b567	0.08677178
39	0x3d8a1efe	0.067441925
40	0xbbee6e80	-0.007276356
41	0xbc4792b8	-0.012180977
42	0xbd5db565	-0.05412807
43	0x3dfabc9e	0.12243007
44	0x3da018f9	0.07817263
45	0xbc8ddb68	-0.017316535
46	0x3e7dde06	0.24791726
47	0x3ce7e4a8	0.028307274
48	0x3d6e8052	0.058227845
49	0xbd525e61	-0.051359538
50	0x3c480727	0.0122087365
51	0x3d3f9293	0.046770643
52	0xbd5aaeee	-0.053389482
53	0xbd1f89e7	-0.038949873
54	0x3d106e33	0.035261344
55	0xbd90ebdb	-0.07076236
56	0xbd9967d8	-0.0749051
57	0xbcabee11	-0.020987542
58	0x3cbbaee7	0.022910548
59	0xbbe02ea5	-0.006841498
60	0xbd0fb9d9	-0.035089348
61	0xbd3df893	-0.046379637
62	0x3ca93acb	0.020657917
63	0xbd274941	-0.040841345

weight f4 [32, 64]
0	0xbc4c9440	-0.012486517
1	0x3d5d7f2d	0.054076362
2	0x3cdea320	0.027177393
3	0xbdff9ba8	-0.12480861
4	0x3de4714e	0.11154424
5	0x3deea55e	0.11652635
6	0x3df4d25c	0.11954185
7	0x3c036310	0.008019224
8	0x3cf27ce2	0.029600564
9	0xbd5c46bc	-0.053778395
10	0x3dc3b4ab	0.09555944
11	0xbdd84494	-0.10559955
12	0xbcb583a8	-0.022157505
13	0xbd8246d2	-0.06361164
14	0x3d7a21f0	0.06106752
15	0x3b076451	0.0020659158
16	0x3c8e6d84	0.017386205
17	0x3cbdda8a	0.023175497
18	0x3dfb3df8	0.12267679
19	0x3a5b5ee2	0.00083683257
20	0xbdca37d0	-0.09873927
21	0x3de4029a	0.11133309
22	0x3dae82e2	0.08521058
23	0xbd4a13b8	-0.04933521
24	0x3d9d02f4	0.07666579
25	0xbd86a07b	-0.06573578
26	0xbdc0490e	-0.09388934
27	0xbd1b8770	-0.03797096
28	0xbcfdae2e	-0.030966844
29	0x3df1df1c	0.11810133
30	0xbc850f08	-0.016242519
31	0xbc43a900	-0.011942148
32	0xbd7bacc4	-0.06144406
33	0x3cad47ac	0.02115234
34	0xbdc03aeb	-0.09386238
35	0xbd279c3c	-0.04092048
36	0xbdd2a4a1	-0.10285307
37	0xbd337320	-0.043810964
38	0xbc922c00	-0.017843246
39	0x3d849e79	0.06475539
40	0xbdd261c8	-0.102725565
41	0x3ddaf0d0	0.106904626
42	0x3d963806	0.073349044
43	0x3d7ad94b	0.061242383
44	0x3d9bfd64	0.0761669
45	0x3dd80908	0.105485976
46	0xbde6731a	-0.11252423
47	0x3dd91a46	0.106007144
48	0xbd08bf64	-0.03338565
49	0xbde255e8	-0.110515416
50	0xbd0b4ad5	-0.034006912
51	0xbd8d4d14	-0.06899467
52	0xbdccf81c	-0.100082606
53	0xbd84e180	-0.06488323
54	0x3d96aaea	0.07356818
55	0x3d521931	0.051293556
56	0xbd8b7d16	-0.068109676
57	0xbd9ce71e	-0.076612696
58	0x3cdbd4e8	0.02683492
59	0x3da8284a	0.082108095
60	0x3d933f12	0.07189764
61	0xbb8dcce0	-0.0043274015
62	0xbdf906d3	-0.12159505
63	0x3d3f59a6	0.046716355
64	0xbd658d6c	-0.056043074
65	0x3da2dcd2	0.079522744
66	0x3cbec478	0.023287043
67	0x3c87bb50	0.01656881
68	0x3d4f99e4	0.05068387
69	0x3d504fa4	0.0508572
70	0xbc894b08	-0.01675941
71	0xbdab6ba2	-0.08370139
72	0x3c984e08	0.018591896
73	0x3bbca260	0.0057566613
74	0x3dc4393c	0.09581229
75	0xbd0b3504	-0.033986107
76	0xbda7c462	-0.08191754
77	0x3d3e4e00	0.046461105
78	0x3da74746	0.08167891
79	0xbdba280a	-0.09089668
80	0xbdcf17a8	-0.10111934
81	0x3d961906	0.073289916
82	0x3d53f5d4	0.05174811
83	0x3dd750a6	0.10513429
84	0x3def90e6	0.11697559
85	0xbdcc66e2	-0.09980561
86	0xbdf23368	-0.11826211
87	0xbc6983e0	-0.014252633
88	0x3caf5c60	0.021406353
89	0xbda3df4c	-0.08001575
90	0xbdc1bae6	-0.09459476
91	0x3d172ec0	0.03690982
92	0x3c00a6d0	0.007852271
93	0xbdcd3858	-0.10020512
94	0xbde33ce8	-0.11095601
95	0x3ddc2c62	0.10750653
96	0xbdcbc6fe	-0.09950064
97	0xbc6a28c0	-0.014291942
98	0xbda8f86a	-0.08250506
99	0x3dd09d7e	0.10186289
100	0xbdd93c12	-0.10607161
101	0xbdfb8012	-0.12280287
102	0xbdcdfcb4	-0.10057965
103	0xbcf35c80	-0.029707193
104	0x3db0a15e	0.08624528
105	0x3d774ae8	0.06037417
106	0x3c1d0c70	0.009585485
107	0xbdb45062	-0.08804394
108	0xbdc8c8fa	-0.09803958
109	0x3c949778	0.018138632
110	0xbd1c2984	-0.03812553
111	0x3ddd7872	0.10813989
112	0x3d044324	0.032290593
113	0x3de9bcc0	0.11412954
114	0xbd303c10	-0.04302603
115	0xbd9b8d2a	-0.07595284
116	0xbd87ae1e	-0.06625007
117	0x3dc04e46	0.093899295
118	0xbd9255b2	-0.07145251
119	0x3ce94b98	0.028478429
120	0x3cfb8270	0.030701846
121	0xbdb4a03a	-0.08819623
122	0xbca95740	-0.020671487
123	0x3cbfc2c8	0.023408309
124	0xbdb5e8ae	-0.08882271
125	0xbd8d21d6	-0.06891219
126	0x3ded2998	0.11580199
127	0x3a171800	0.0005763769
128	0xbda008e7	-0.07814198
129	0x3e17af88	0.14813054
130	0xbdf1a4fe	-0.11799048
131	0xbd88a078	-0.06671232
132	0xbc4d9cf0	-0.012549624
133	0x3df906d0	0.121595025
134	0x3dae0378	0.08496755
135	0x3dae1f88	0.08502108
136	0xbf52970e	-0.8226174
137	0xbdcacf81	-0.099028595
138	0x3deea35f	0.11652254
139	0xbde924ba	-0.11383958
140	0x3b8a6792	0.0042237723
141	0x3ebc1a93	0.36739025
142	0x3d24cee0	0.040236354
143	0xbda199d3	-0.07890668
144	0xbd902af8	-0.07039446
145	0xbf1e76e0	-0.6190014
146	0x3dfd2004	0.12359622
147	0xbe802035	-0.25024572
148	0x3abb1c78	0.0014275452
149	0xbdfdd6ec	-0.12394509
150	0xbda412e8	-0.080114186
151	0x3e5a3c9e	0.21312186
152	0x3e0b152a	0.13582292
153	0xbefeb7eb	-0.49749693
154	0xbe6c8418	-0.23097265
155	0xbd2b7586	-0.041860126
156	0x3e47018c	0.19434184
157	0xbd20999c	-0.039208993
158	0xbc80a0c3	-0.015701657
159	0xbba778ba	-0.0051108273
160	0xbda3fc68	-0.08007127
161	0x3e43856e	0.19093868
162	0xbd7aa74a	-0.061194696
163	0xbd63da64	-0.055628195
164	0xbe19adb3	-0.15007667
165	0x3bafb4c0	0.0053621233
166	0x3d868388	0.06568056
167	0xbe8a4118	-0.27002788
168	0xbd66b5d0	-0.056325734
169	0xbdc1d0c0	-0.09463644
170	0xbd13e720	-0.03610909
171	0xbd539dd2	-0.05166418
172	0xbd84b3c6	-0.064796016
173	0x3da072b0	0.07834375
174	0x3e2c1355	0.1680425
175	0xbc9cf5f0	-0.01916024
176	0x3d643a58	0.055719703
177	0x3d49eb16	0.04929646
178	0xbdc21905	-0.09477428
179	0xbd549937	-0.05190393
180	0xbd05ae18	-0.032636732
181	0x3ca9c8f8	0.020725712
182	0x3d8292d0	0.063756585
183	0x3d139126	0.036027096
184	0xbdd7f85c	-0.10545418
185	0x3e661f3a	0.2247285
186	0xbd11c98e	-0.03559261
187	0xbc5615fc	-0.013066765
188	0x3b6a9640	0.0035795122
189	0x3d9eddf0	0.07757175
190	0x3e086478	0.13319576
191	0x3e7d98ec	0.24765366
192	0xbdc07b78	-0.0939855
193	0xbbd88fc0	-0.006608933
194	0xbdd6c880	-0.10487461
195	0x3d06ed00	0.032940865
196	0x3caa8330	0.020814508
197	0x3ddc8892	0.10768236
198	0xbcbf90f8	-0.023384556
199	0x3d68d630	0.05684489
200	0xbd842414	-0.06452194
201	0x3daee6dc	0.08540127
202	0x3db0bce8	0.08629781
203	0x3cd0d508	0.025492206
204	0x3d8e2168	0.069399655
205	0xbdb4df86	-0.08831696
206	0x3dc0c464	0.094124585
207	0xbb8d26a0	-0.004307583
208	0xbdc37a8c	-0.09544858
209	0xbd178af4	-0.03699775
210	0xbde98e38	-0.11404079
211	0x3d99a168	0.07501489
212	0x3dba076a	0.09083445
213	0xbdf49784	-0.11942962
214	0xbd9e66e4	-0.077344686
215	0x3c898778	0.01678823
216	0xbd9eaa48	-0.07747322
217	0x3dcf16e2	0.101117864
218	0xbb7addc0	-0.0038279146
219	0xbd80f7ee	-0.06297289
220	0x3dc9239a	0.098212436
221	0xbd7ae2c4	-0.061251417
222	0xbd816614	-0.06318298
223	0x3d981782	0.07426359
224	0x3d03aa88	0.032145053
225	0xbd4df820	-0.05028546
226	0xbd9c8fe8	-0.076446354
227	0xbd40a3e8	-0.047031313
228	0xbdafb5fc	-0.08579633
229	0xbd418298	-0.047243685
230	0xbdd80e74	-0.10549632
231	0xbde1c104	-0.11023143
232	0xbca84288	-0.020539537
233	0xbde3e03c	-0.11126754
234	0xbdf85c7c	-0.12127015
235	0xbc2ddeb0	-0.010612175
236	0x3d63dee8	0.0556325
237	0xbdb6373e	-0.08897255
238	0xbd9d35d4	-0.076762825
239	0xbdb78e78	-0.08962721
240	0xbdaedf40	-0.08538675
241	0x3cfc0860	0.030765712
242	0x3d875642	0.06608249
243	0x3da2b0fa	0.07943912
244	0x3dabdea2	0.08392073
245	0xbdfd6b7c	-0.12374017
246	0xbda06a28	-0.07832748
247	0xbde00d46	-0.10940032
248	0x3ddb6938	0.10713428
249	0xbd67c4b8	-0.05658409
250	0xbdff08d4	-0.12452856
251	0xba2efb00	-0.0006674975
252	0x3dcb8dc6	0.099391505
253	0xbd245568	-0.040120512
254	0x3c959680	0.01826024
255	0x3d218794	0.039435938

bias f4 [32]
0	0xbdf745f5	-0.1207389
1	0xbbf64540	-0.0075155795
2	0x3ab11408	0.0013509998
3	0xbd911c80	-0.07085514
4	0xbc1a054e	-0.009400679
5	0xbdca41db	-0.09875842
6	0x3e633020	0.22186327
7	0x3d20d80e	0.039268546
8	0xbda421e5	-0.08014277
9	0x3cd8e69a	0.026477147
10	0xbe0eb8b1	-0.13937642
11	0xbd9bd6d2	-0.07609333
12	0xbd8ac317	-0.06775492
13	0x3b2a7253	0.0026008084
14	0xbd8287a6	-0.06373529
15	0x3d4eb39d	0.05046426
16	0x3cdea8ce	0.027180102
17	0xbdad5088	-0.08462626
18	0x3ca7623e	0.020432588
19	0x3dba95ed	0.09110627
20	0x3dc04dce	0.0938984
21	0x3e06494f	0.13113903
22	0xbdd27e78	-0.10278028
23	0x3e45dd25	0.19322641
24	0xbd147a0c	-0.036249205
25	0x3d4f3047	0.05058315
26	0x3ded3a26	0.115833566
27	0xbc3e762e	-0.011624856
28	0x3d272913	0.040810656
29	0xbd6cf54c	-0.05785112
30	0x3a7918a9	0.0009502271
31	0xbc34ecb9	-0.011042767

weight f4 [8, 32]
0	0x3de93182	0.11386396
1	0xbde6f32d	-0.11276851
2	0x3e29e551	0.16591384
3	0x3dc20872	0.09474267
4	0x3de3b1d1	0.111179
5	0x3bf90de0	0.007600531
6	0xbe20023e	-0.15625855
7	0x3c83cdd4	0.016089357
8	0x3e0b1844	0.13583475
9	0xbe256193	-0.16150503
10	0xbe13b055	-0.14422734
11	0xbb8378c0	-0.0040121973
12	0x3e18668b	0.14882867
13	0x3c7fa396	0.015602967
14	0xbde25442	-0.11051227
15	0xbd493a1b	-0.04912768
16	0x3dd3f3b2	0.103492156
17	0xbd13453d	-0.035954703
18	0xbe320459	-0.17384471
19	0xbe0c84e4	-0.13722569
20	0xbe31443e	-0.17311189
21	0x3dae7c5a	0.08519812
22	0x3b8705e0	0.0041205734
23	0xbcad2aa7	-0.021138502
24	0x3d6baa10	0.05753523
25	0xbe038d94	-0.12846977
26	0x3b81db7e	0.003962933
27	0xbd9cdade	-0.07658933
28	0x3ca07fcf	0.019592194
29	0xbe0c299f	-0.13687752
30	0x3d9cbee9	0.07653601
31	0xbd948e08	-0.07253653
32	0xbe00405a	-0.12524548
33	0x3e18a3b9	0.14906205
34	0x3e95c049	0.29248264
35	0xbdaaadd4	-0.08333936
36	0xbf8046a3	-1.0021557
37	0x3c9b3ffb	0.018951407
38	0x3a8e5b18	0.0010860888
39	0xbe05c59a	-0.1306366
40	0xbe4e9028	-0.20172179
41	0xbd852a3f	-0.065021984
42	0xbd29ad35	-0.04142495
43	0x3e27e8e2	0.16397431
44	0xbd32ce5d	-0.043653835
45	0x3e5e89bb	0.21732228
46	0x3f0d7316	0.5525373
47	0xbc953ec3	-0.018218404
48	0x3db3d06c	0.08779988
49	0x3e66a56d	0.22524042
50	0xbf2d04c5	-0.675854
51	0xbef0c94f	-0.47028586
52	0xbe43f497	-0.19136272
53	0xbe663b16	-0.22483477
54	0x3cd9f2a0	0.02660495
55	0x3efb7a5f	0.491168
56	0x3dfa7933	0.12230148
57	0xbbb6e7b9	-0.0055818227
58	0xbd3bfd5d	-0.045895923
59	0x3e19dc22	0.1502538
60	0xbf430765	-0.7618316
61	0x3e1ec4f0	0.15504813
62	0x3eb18b32	0.3467651
63	0xbe0d3b98	-0.13792264
64	0x3df3ab27	0.11897879
65	0xbe13973a	-0.14413157
66	0x3e668d5d	0.22514863
67	0xbd9166e3	-0.07099702
68	0x3f4f8ba6	0.8107246
69	0xbe1555c3	-0.14583497
70	0x3ccf6e7c	0.025321238
71	0xbd580d82	-0.052747257
72	0x3ec26e01	0.3797455
73	0xbe02213f	-0.12707995
74	0xbd9d2fdc	-0.07675144
75	0x3e3ff521	0.18745853
76	0x3d454f04	0.04817106
77	0xbf00ddc9	-0.5033842
78	0x3f114ac6	0.5675472
79	0x3b1b7160	0.00237187
80	0x3e015022	0.12628224
81	0xbd9c48f1	-0.076311
82	0x3f7a9c2c	0.9789455
83	0x3e056e29	0.13030304
84	0x3d7a8ba9	0.061168347
85	0xbe165b5b	-0.14683287
86	0x3da6b03e	0.08139084
87	0xbe6563ba	-0.22401324
88	0x3cdbf90a	0.02685215
89	0x3e01f5a1	0.12691356
90	0xbb479483	-0.003045351
91	0x3eb8360f	0.35978743
92	0xbd9c5341	-0.07633067
93	0x3e74a30e	0.23890325
94	0x3db34714	0.087537915
95	0x3eb05a9a	0.34444124
96	0xbdb23e2b	-0.08703264
97	0xbe1e862b	-0.15480869
98	0xbf373439	-0.7156406
99	0x3c885b78	0.016645178
100	0xbe4701ec	-0.19434327
101	0xbd93ea5e	-0.07222436
102	0x3db7bdf9	0.08971781
103	0xbd98ea81	-0.07466603
104	0x3b6a59b3	0.0035759031
105	0xbca5605c	-0.02018755
106	0xbdc7e5a4	-0.09760597
107	0xbf6eba90	-0.9325342
108	0x3c8050eb	0.015663585
109	0x3dffdf1f	0.12493729
110	0xbefb99fa	-0.49140912
111	0x3c17a230	0.009254977
112	0x3d71a718	0.058997244
113	0x3e9a41b9	0.30128267
114	0xbee01d2e	-0.43772262
115	0xbea851f8	-0.32875037
116	0x3eb12cb6	0.34604424
117	0x3dc9453a	0.09827657
118	0x3e276341	0.16346456
119	0xbeab95f7	-0.33512852
120	0xbb9ed21e	-0.0048468253
121	0xbe0bec11	-0.13664271
122	0xbdcd66c6	-0.10029368
123	0x3c982f05	0.018577108
124	0x3d85d944	0.06535581
125	0x3e9d1e9c	0.30687416
126	0xb9d02dc9	-0.00039706964
127	0x3dfa2f82	0.12216093
128	0xbe114f6e	-0.14190456
129	0x3ccc0298	0.02490358
130	0x3fa6a3b2	1.3018706
131	0xbda487e6	-0.08033733
132	0xbf9725bd	-1.1808392
133	0x3d403ffd	0.046936024
134	0x3ec225f0	0.3791957
135	0x3d90cd18	0.070703685
136	0xbc407d44	-0.011748616
137	0xbe18c316	-0.1491817
138	0xbdfa1d58	-0.12212628
139	0xbe64995c	-0.22324127
140	0x3ca4ce0e	0.020117786
141	0x3e48bb98	0.19602811
142	0xbfb0b107	-1.3804024
143	0x3ceb5f76	0.028732043
144	0x3e0f6a26	0.14005336
145	0xbed70277	-0.41994068
146	0xbf9d7244	-1.2300496
147	0x3f107ad1	0.564374
148	0xbeee6147	-0.46558592
149	0x3ebada9b	0.36494908
150	0xbd2aa6d4	-0.041663006
151	0x3f10b672	0.5652839
152	0x3d808faa	0.06277402
153	0xbbc95660	-0.00614433
154	0xbe2f1d2a	-0.17100969
155	0xbf7a6f84	-0.9782641
156	0x3e1d74b4	0.1537655
157	0xbe1412d6	-0.1446031
158	0x3d5c8962	0.053841956
159	0xbf0b1a67	-0.5433716
160	0x3c7d9910	0.0154783875
161	0x3d8f3174	0.06991854
162	0xbdb1361e	-0.086529
163	0x3e22751f	0.1586499
164	0xbe045c56	-0.12925848
165	0x3d7d9a03	0.061914455
166	0x3d8d44fe	0.06897925
167	0xbe168d25	-0.1470228
168	0x3db15695	0.08659092
169	0xba510255	-0.0007973065
170	0xbdda2c05	-0.10652927
171	0xbda8627d	-0.0822191
172	0x3ddc049d	0.107430674
173	0x3d9b6c07	0.07588964
174	0xbe3455ff	-0.1761093
175	0xbe2cd1f8	-0.16876972
176	0x3d6259f1	0.055261556
177	0xbc28a308	-0.010292776
178	0x3dccf3b8	0.10007423
179	0xbda69cfe	-0.08135413
180	0xbefdf378	-0.49599814
181	0x3d5c89f6	0.053842507
182	0xbb47a280	-0.0030461848
183	0xbda191ff	-0.07889175
184	0xbe33f57e	-0.17574117
185	0xbcae5d58	-0.021284744
186	0x3dd21026	0.10256986
187	0xbdb22035	-0.08697549
188	0xbd9c1288	-0.07620722
189	0xbd042999	-0.032266233
190	0xbe583c1b	-0.21116678
191	0xbe1489f2	-0.14505747
192	0x3e05c253	0.1306241
193	0x3caed680	0.021342516
194	0x3ce96e37	0.028494937
195	0x3de2d77e	0.11076258
196	0xbde51e4b	-0.111874186
197	0x3d93d51c	0.07218382
198	0xbd84dac6	-0.0648704
199	0x3e116524	0.14198738
200	0x3e084a81	0.13309671
201	0xbc7bb006	-0.0153617915
202	0x3e2ca597	0.16860043
203	0x3bb90500	0.005646348
204	0xbe20cbe1	-0.15702774
205	0xbe318dc5	-0.17339237
206	0x3d92bbf6	0.07164757
207	0x3d150b0c	0.03638749
208	0x3de5fa94	0.112294346
209	0xbe348e91	-0.1763251
210	0xba3fe267	-0.00073198084
211	0xbe091c1e	-0.13389632
212	0x3d9720ca	0.07379301
213	0x3daf1e86	0.08550744
214	0xbe158a4c	-0.14603537
215	0xbc7a2d52	-0.015269594
216	0x3dad2736	0.084547445
217	0x3e027b3d	0.12742324
218	0x3e24cd49	0.16093935
219	0x3cacdcaa	0.021101315
220	0xbcdc0d85	-0.026861915
221	0xbda3c6b7	-0.07996886
222	0xbd52a0ff	-0.05142307
223	0xbd961378	-0.07327932
224	0x3bae1d00	0.0053135157
225	0x3df61bd6	0.12017028
226	0x3dcba187	0.09942918
227	0xbcdcb260	-0.026940525
228	0x3e18a424	0.14906365
229	0xbe1e58e4	-0.15463597
230	0x3afa864f	0.0019113513
231	0x3e01e9a1	0.12686779
232	0x3d073dfb	0.033018094
233	0x3d34631e	0.044039838
234	0x3d9252bb	0.07144686
235	0x3a8dca80	0.0010817796
236	0xbe01dd7e	-0.12682149
237	0xbcadb2b0	-0.021203369
238	0xbdfcbc7b	-0.12340637
239	0xb99660f2	-0.0002868246
240	0x3dfc45ec	0.12318024
241	0xbe087add	-0.13328119
242	0x3dd904ba	0.10596605
243	0xbda13632	-0.07871665
244	0x3e281c13	0.1641696
245	0xbe0006e7	-0.12502633
246	0xbdb17a27	-0.08665877
247	0xbc6cad6c	-0.014445644
248	0xbde7bee0	-0.113157034
249	0xbc001f10	-0.007819906
250	0xbc85a81e	-0.016315516
251	0xbd93a109	-0.072084494
252	0xbdacd37f	-0.08438777
253	0xbe2a750d	-0.16646214
254	0xbdc8da3b	-0.09807249
255	0x3d70d18b	0.058793586

bias f4 [8]
0	0xbe02ab03	-0.12760548
1	0xbdca3aae	-0.098744735
2	0x3e2ad96c	0.16684502
3	0x3dcc3f2d	0.09972987
4	0x3dcd7947	0.100328974
5	0xbd9292c7	-0.07156902
6	0xbe2bbc0e	-0.16770956
7	0x3daac1e5	0.08337764

weight f4 [4, 8]
0	0xbe8bb053	-0.27282962
1	0xbe3d1a11	-0.18466975
2	0x3e5721fa	0.21009055
3	0xbd9ea9f0	-0.07747257
4	0xbea0333b	-0.31289086
5	0xbda5aeb8	-0.080899656
6	0x3ea22cdf	0.3167486
7	0xbe7f4b48	-0.24931061
8	0xbd802c30	-0.06258428
9	0xbeb36ed8	-0.35045505
10	0x3e525e9e	0.20543906
11	0x3e96c729	0.29448822
12	0xbeae188b	-0.340031
13	0xbd8b6e78	-0.068081796
14	0xbe8a97bc	-0.2706889
15	0x3ea74de5	0.32676616
16	0xbe7557bb	-0.23959248
17	0xbd397140	-0.04527402
18	0x3e1fde9a	0.1561226
19	0x3e52b06e	0.20575115
20	0x3d80c054	0.06286684
21	0xbe818f70	-0.25304747
22	0xbe39047f	-0.18068121
23	0x3e406f1e	0.18792388
24	0xbdbb69ec	-0.09151062
25	0xbd089f90	-0.033355296
26	0x3e49e3aa	0.19715753
27	0x3e978e51	0.29600766
28	0xbe3f5b9b	-0.18687288
29	0xbb51cd80	-0.0032013357
30	0x3e41aefa	0.18914405
31	0xbe8591c6	-0.2608778

bias f4 [4]
0	0x3e152542	0.14564994
1	0xbe38cdaa	-0.18047205
2	0x3e46e636	0.19423756
3	0x3e6e54f2	0.23274592
