training/ann/models/ann4.pth (torch, 68622 bytes, 10 tensors)

weight f4 [128, 40]
00000000: cf92 02bf 6a42 a3be 3a03 e1be 94a2 5bbd
00000010: fbbb a7be d549 f5be 0788 a33d 1d68 14be
00000020: 9852 16be 59b7 abbe a51e b9be 8964 0abf
00000030: b017 40be fed8 d9be 6e64 98be de7b efbe
00000040: 729d a5be d09b efbe f0c4 42be 3550 a9be
00000050: ac5e 85be 9b10 a6bb b043 75be 46d3 ddbe
00000060: 92e6 f7be b49c 54be 3e41 dbbe 5aab 75be
00000070: 04c0 a4be b2f5 d5be 8a8e e8be d24c 77be
00000080: 09af 29bf daa3 d8bd e238 64be aae8 96be
00000090: e33f 02bf 79c2 9bbe 58ec f9be 2607 59be
000000a0: bba6 00be c827 c7bc 9df9 0cbe 18cd 11bd
000000b0: 8a39 f93d 0ccb 553d cd75 a2bd 0035 3d3b
000000c0: d285 c23d f22c d3bd fecd e43d 247c debd
000000d0: 5774 d1bd 163c e33d f0dd af3c a026 823c
000000e0: d892 663d 86e1 0dbd d2e7 c7bd 9e89 ec3d
000000f0: 4f55 b5bd 80c0 b8bb ed7a 113e cd6f 1b3e
00000100: 962b 833d c092 123b f39f 203e 9040 423c
00000110: f14c 0cbe acb4 5c3d c487 5c3d 6024 d53c
00000120: 9061 34bc c066 aa3c c861 b3bc 3c95 fcbd
00000130: 00ac 19ba cec2 e83d 481d 33bd 1676 20bd
00000140: 3c3b 3c3d 289c 84bc 6969 05be 55a7 03be
00000150: 0852 d0bd bbdd 10be 972a 053e 16a8 d53d
00000160: 00b2 3d3c 8087 b7bd 3ce6 9b3d 4bd9 20be
00000170: ba63 9f3d 0035 353b 94f9 a73d 187e a0bc
00000180: 8049 973b fe33 b0bd c814 7cbd 091e 90bd
00000190: 3d99 02be 90e2 083c b02f ec3c 53d2 98bd
000001a0: ec2f 2abd 9a40 5abd c4fe e7bd c825 db3c
000001b0: 5a91 0cbe 0d7d 0b3e 3e9b 0abe 70c6 63bc
000001c0: 04b4 153d 25cd c8bd b2ab 883d d78e 203e
000001d0: 818c 14be e6aa c03d e4ad 413d e455 4d3d
000001e0: beeb a53d f84a 98bd c424 69bd 32b3 b53d
000001f0: e407 2c3d 34b8 f3bd 46b8 e13d 4cf0 bb3d
00000200: 4619 f43d 0e66 17be 8215 08bd 40c9 a43b
00000210: 7a38 c53d 36b5 d33d 2a44 02be 7437 8b3d
00000220: c428 10bd 7520 1d3e 6674 87bd d21b d93d
00000230: 0a6f 9dbd d84d 733d 5b3e 123e f079 1cbc
00000240: 468b f1bd 2e92 e33d cefc 0bbe d637 f7bd
00000250: 0814 debc d349 053e 203e 3c3c 20f2 dbbb
00000260: 042a 15be 7c53 8c3d 3827 ebbc 4064 383b
00000270: ae90 e2bd ea0d d53d 86b8 28bd 9fff 12be
00000280: 3979 bfbe 6bc5 8fbe aebb 87bd ea6e db3d
00000290: 660c e1be 4d11 953e f243 dc3e 85f4 b6be
000002a0: 9a21 97be 0bc8 e3be 7695 933e d4a2 69be
000002b0: 87b9 abbe 1bb2 c0be 2b79 babe 1124 1dbe
000002c0: 09c8 debe 36b8 cdbe 5422 a0be e55b 93be
000002d0: 695f b8be cf53 6a3e 3c37 ab3e a676 74be
000002e0: 820d 1abe 7762 83be 7b4c b9be 7e10 e03e
000002f0: 1b9a 93be 8113 983e 86f8 44be dbf1 873e
00000300: ae24 3a3e 17f4 d4be 8f67 aebe 4111 8abe
00000310: bc19 c9be d1ee b03e 3a68 c3be e6e5 27be
00000320: e06d b13c f0ab 43bd aef1 de3d ee1f 86bd
00000330: 6834 56bd df57 15be feae c53d 389c ebbc
00000340: 905f 71bc 58c3 8a3d ae44 3ebd 92c0 02be
00000350: d86a 1cbe 7445 073d 59fd 1a3e 8e29 c43d
00000360: e673 913d 3771 183e 841e 21be 60dc 9dbb
00000370: d544 edbd 38e0 2d3d 77d3 193e 4a79 a73d
00000380: 6c5d 06bd 42d8 f4bd 7464 813d d84e 98bd
00000390: a096 3b3d b0d2 3f3c e062 07bd 00e1 9f3b
000003a0: 14d8 afbd aceb dabd befb a03d 2e00 bbbd
000003b0: 10a0 7dbc 0c3c b5bd d605 ea3d fd81 92bd
000003c0: 7356 85be e852 b4be d779 14be c818 1abd
000003d0: 6ac5 48be 1397 b5be 40b6 19bf 9bba bbbe
000003e0: 4219 e6be 26a6 afbe f481 d4be 1a17 63be
000003f0: b6f7 f8be 8885 cebe 2e1b 04bf 421a cabe
-0.5100526 -0.31886607 -0.43947774 -0.053621843 -0.32760605 -0.47907892 0.079849295 -0.14492841
-0.14679945 -0.3353832 -0.36156192 -0.54059654 -0.18759036 -0.42548364 -0.29764122 -0.4677419
-0.32346684 -0.46798563 -0.19020438 -0.33069006 -0.2604879 -0.0050678975 -0.23951602 -0.4332525
-0.484181 -0.20762902 -0.42823213 -0.23991147 -0.32177746 -0.41789013 -0.4542125 -0.24150398
-0.6628271 -0.10578127 -0.22287324 -0.29474384 -0.50878733 -0.30421808 -0.48813128 -0.21194133
-0.12563603 -0.024310961 -0.13767095 -0.035595983 0.12169178 0.052195594 -0.07932625 0.0028870702
0.094981804 -0.10311307 0.111721024 -0.10863522 -0.10227268 0.11095445 0.021468133 0.015887558
0.056292385 -0.034638904 -0.09761013 0.11549686 -0.08854162 -0.005638182 0.14207049 0.15179367
0.06404798 0.0022365302 0.15686016 0.011856213 -0.13701226 0.05388324 0.053840414 0.026018322
-0.011009589 0.020800948 -0.021897212 -0.12333152 -0.0005862117 0.11365281 -0.043729097 -0.039175116
0.045954928 -0.016187742 -0.13028492 -0.12856801 -0.10171896 -0.14147083 0.13004528 0.104324505
0.011578083 -0.089613914 0.07612273 -0.1570789 0.07782693 0.0027649999 0.082019 -0.019591376
0.004616916 -0.08603667 -0.061543256 -0.07036979 -0.12753768 0.008354798 0.028831333 -0.07461991
-0.041549608 -0.053284265 -0.113278896 0.026751414 -0.13727322 0.13621922 -0.13535783 -0.013902292
0.03654863 -0.09804753 0.06673373 0.15679489 -0.14506723 0.09407596 0.047284976 0.05013074
0.08101605 -0.07436174 -0.056919828 0.088720694 0.041999713 -0.11900368 0.110214755 0.09176692
0.11918883 -0.14785025 -0.033223636 0.0050288737 0.09629913 0.103372976 -0.12721315 0.06797686
-0.035195127 0.15344413 -0.06613998 0.106010094 -0.07687195 0.05940041 0.14281599 -0.009550557
-0.117941424 0.11111866 -0.13670656 -0.12071197 -0.027109161 0.13016443 0.011489421 -0.006712213
-0.14566809 0.06851861 -0.028705224 0.0028135926 -0.11062752 0.104030445 -0.0411916 -0.14355324
-0.37397173 -0.28080305 -0.06627594 0.107145146 -0.43954772 0.29114762 0.43020588 -0.3573343
-0.29517823 -0.44488558 0.28824967 -0.2281602 -0.33539984 -0.37635884 -0.3642057 -0.1534579
-0.4351199 -0.40179604 -0.3127619 -0.28781047 -0.36010292 0.22883533 0.33440578 -0.23873386
-0.15044215 -0.2566106 -0.36191162 0.43762583 -0.2882851 0.2970238 -0.19235429 0.2655171
0.18178055 -0.41592476 -0.34063384 -0.2696629 -0.39277446 0.34557202 -0.38165456 -0.16396293
0.021658838 -0.047771394 0.108859405 -0.06549059 -0.052296072 -0.14584301 0.09652518 -0.028761014
-0.0147322565 0.0677554 -0.046452217 -0.12768772 -0.15275133 0.03302522 0.15135707 0.095782384
0.07102184 0.14886938 -0.15734297 -0.0048175305 -0.11585394 0.04245016 0.15022074 0.08177431
-0.032803938 -0.119553104 0.06317988 -0.07436913 0.045797944 0.011707947 -0.03305328 0.004879117
-0.085861355 -0.10689482 0.07860516 -0.09130894 -0.015480056 -0.08849344 0.11426894 -0.071536995
-0.26042518 -0.35219502 -0.14499603 -0.03762129 -0.19606557 -0.35466823 -0.60043716 -0.36665806
-0.44941145 -0.3430645 -0.41505396 -0.22176781 -0.48626488 -0.4033625 -0.5160397 -0.39473158

bias f4 [128]
00000000: a2f8 97be 107d 533d de1f 1abe b314 f9bd
00000010: 3a70 9fbe 327e db3d acc6 0abf 0f22 e1be
00000020: 059a acbe ddad d4bd 724b f8be ac44 1cbe
00000030: a7bc c0be 8fa9 8ebe 7c28 a7be 554c f0be
00000040: fb4e d5bd bb93 e4be f01c c2be ea9e ccbd
00000050: ec99 dbbd b037 403d 0c27 debe a4cd 473d
00000060: d439 f1be 68a5 82bc 3285 cb3d 0087 97bb
00000070: 2036 6abd 631c b3be 8d88 06bf 2832 dcbe
00000080: 7cb3 88bd 4d80 0b3e 96ff a3be 81d1 083e
00000090: 4408 753d ee62 c3be 34aa 033d 8200 c23d
000000a0: 187b 0bbd a984 1a3e ef86 c8be 95cc eabe
000000b0: 4957 b5bd 97c8 f5be 48b1 5d3d be98 97be
000000c0: de39 cebe aacf bf3d b8ec 8cbe b0b3 69bc
000000d0: d440 a03d 46dc e2be 666d cb3d 38eb 9dbe
000000e0: d20b 52bd 67fe e7be c8a7 cfbe 7eae babe
000000f0: 64c4 9bbd 61e7 93be d479 c3bd 0a5c e6be
00000100: a188 aabe 9814 683d 40f6 393d 5857 243d
00000110: d959 ebbe 0960 a4be 1c2d 07bf 250c 0bbf
00000120: 7cf1 bcbe 445f f1be 77f0 f3be f683 ffbd
00000130: 8f54 b7be 7f9b d2be 5d4c 1bbe deb1 b73d
00000140: 976c b9be 93e7 073e cc47 983d 1fa9 0fbf
00000150: 5bfb e4be 5666 edbe 6088 81bb 9302 fabe
00000160: 3a70 a0be 234c 07bf 8c3d 0cbe b272 ebbe
00000170: 6bbe 213e f662 d6bd 7db2 85be 5aae b03d
00000180: 3499 16bd 645a e9be 419f 5cbe 4ccc adbe
00000190: 747d 13bf 4014 aebe 4455 7cbd ca38 c5be
000001a0: 00ab 51be 6845 96be aefc fd3d f3c5 00be
000001b0: c853 07bf 1d32 febe 1e78 0fbe 1112 f0be
000001c0: 83bf 01be 526c 1abe b9a4 03bf 08e1 b1be
000001d0: 21ce 0bbe b0d5 8b3d 3266 7dbd b44b f7bd
000001e0: 4fba f0bd 268e 8ebd 036e 19be 3596 21be
000001f0: 4461 96be 307a d2be 9afc ddbd 8e66 bdbe
-0.2968188 0.05163294 -0.15051219 -0.12162151 -0.3114031 0.10717429 -0.542094 -0.43971297
-0.33711258 -0.10384724 -0.4849506 -0.15260571 -0.3764393 -0.27863738 -0.32648075 -0.46933237
-0.10415455 -0.4464396 -0.37912703 -0.09991248 -0.10722718 0.046928108 -0.43389165 0.0487801
-0.47114432 -0.015948012 0.09937514 -0.0046242476 -0.057180524 -0.34982595 -0.5255211 -0.43007016
-0.06674859 0.13623162 -0.32030934 0.1336117 0.059822336 -0.38161415 0.03214474 0.09472753
-0.03405294 0.15089668 -0.39165446 -0.4585921 -0.08854539 -0.480046 0.054124147 -0.2960872
-0.40278524 0.09365781 -0.27524352 -0.014264032 0.07824865 -0.4430868 0.099329755 -0.3084352
-0.051280804 -0.4531128 -0.40557694 -0.36461252 -0.07605818 -0.28887466 -0.09544721 -0.44992095
-0.33307365 0.056660265 0.045400858 0.04012236 -0.45966986 -0.3210452 -0.52803206 -0.54315406
-0.36902988 -0.47142994 -0.47644398 -0.124763414 -0.358067 -0.4113426 -0.15165849 0.08969472
-0.3621566 0.13271932 0.07435569 -0.56117433 -0.4472302 -0.4636714 -0.0039530247 -0.4883009
-0.31335622 -0.5285055 -0.13695353 -0.45985943 0.15795295 -0.10468094 -0.26112738 0.08627005
-0.0367672 -0.45576775 -0.21545126 -0.3394493 -0.576133 -0.33999825 -0.061604753 -0.3851989
-0.20475388 -0.29349828 0.124017105 -0.12575512 -0.52862215 -0.49647608 -0.14010665 -0.46888784
-0.12670712 -0.15080383 -0.5142322 -0.34741998 -0.1365285 0.06827867 -0.06186504 -0.12074986
-0.117542855 -0.069607064 -0.14983372 -0.15779956 -0.29371083 -0.41108847 -0.108391955 -0.36992306

weight f4 [64, 128]
00000000: 66b2 7fbd 30ba 0e3d d3d6 a6bd 9b3f 8d3d
00000010: af1e 52bd 000a 91bd 6430 95bc a161 a33d
00000020: c832 d63c de2b 533d 76fb 98bd a7d7 96bd
00000030: 7830 253c ac8a 02bd f73f 9dbd d88a d23c
00000040: ddab 6dbd fcfd 9f3c 4a49 b0bd e47f c63c
00000050: b3f9 abbd e3f8 a9bd 4bce 3ebd 46db 703d
00000060: 801c 1bbc 769a 293d 80d3 ee3c 3eb4 6b3d
00000070: 92ba 033d 7293 11bd 1c08 9abd 809d ef3b
00000080: f51e b4bd 028d 683d 1900 843d 23e0 60bd
00000090: 6202 283d 1649 5b3d e6b1 553d a0f4 eabb
000000a0: 5084 0e3d d13c 813d 09fa 27bd 88de 673c
000000b0: ddc7 a93d cfe5 48bd 8072 253c e824 5cbd
000000c0: c483 92bd d04e 6d3c 78b7 60bc 600d 823c
000000d0: a0bf 6e3c 9900 24bd 4bb6 913d af20 a73d
000000e0: d677 3b3d 8c71 b63c bc41 b4bd 5671 fcbc
000000f0: 7c9b afbc a88b 4bbc f87f 02bc 107a 643c
00000100: 203c 17bc 8440 a53c 0830 76bc 0628 3c3d
00000110: 01fe a53d bd73 a5bd 4937 09bd c4d1 c2bc
00000120: 648c 9dbd b01f 50bd eaae 353d 4b3f aabd
00000130: c51a ab3d 0e60 40bd 4ee1 e3bc 7a88 7d3d
00000140: 8b90 29bd 078b 803d 1ffd 44bd 60be 253c
00000150: 1c3b b4bc c45a ccbc c888 50bd b10c 09bd
00000160: 7481 a7bc 08f1 253c dc18 c7bc 8d59 913d
00000170: 48e0 bd3c db33 a33d 0123 acbd fefa a7bd
00000180: 73a9 903d 8f24 a4bd cc9a 913c 5a48 703d
00000190: 97c8 a53d 0c8d 8abc f030 cd3b 2976 9a3d
000001a0: b65e 6a3d b4e6 53bd 3b8a 9d3d 8389 a13d
000001b0: 1a28 243d 00d9 f7bc d076 abbb f4f8 ed3c
000001c0: 3a19 5d3d 5084 523c 3cf6 9abc ae17 233d
000001d0: 700e 133c e6e3 74bd ea62 85bd 680b 5ebd
000001e0: 5462 123d 6b17 923d 8b2f 4cbd c990 73bd
000001f0: 84f8 11bd f656 3ebd e055 54bc 3098 6d3c
00000200: 1962 b7be 0c1b 8dbd 1a83 4f3d 4897 d6bc
00000210: d361 b9be 26bc 5f3d 25f8 87be dea1 7ebe
00000220: f675 5ebe 78a7 ecbc 51d1 59be 449e a3bd
00000230: 7133 b3be 50a4 7cbc e783 86be 5ec2 9bbe
00000240: 3ac6 343d 6a68 5bbe f11b 5bbe c1e8 813d
00000250: ac7e febc 48eb 0bbc 47da a4be c717 8a3d
00000260: 9b9a 6ebe 58c9 0c3d 9490 0b3d f6ac 783d
00000270: 6cc1 25bd bd55 95be 9333 b8be 5abe b3be
00000280: a900 aebe c0ea d0ba 9833 85be e93c 993d
00000290: 2033 0a3c d701 98be b5c9 ad3d e052 00bd
000002a0: e27e dbbc 22c1 173d 927b acbe 2dd6 83be
000002b0: 2cab 6ebd 3533 82be b13c a73d 1d96 99be
000002c0: aff5 6ebe 2087 683b 7c8f 9ebe 94af 49bd
000002d0: a876 14bd 9f6f 81be c8bc e53c bf23 b2be
000002e0: a09e 913c aa68 9bbe 6a1e 71be 2edc 9abe
000002f0: 04bf 6ebd 9ff6 7bbe 96e7 92bd 5ed3 93be
00000300: 80f2 8fbe cf62 a4bd 335f 0abd e6db 0d3d
00000310: 679b 85be dcea 5ebe 3c2e bbbe 45b3 a1be
00000320: f79f abbe b530 99be f8d8 76be b6d5 46bd
00000330: 03e8 bdbe 1c9d 68be a439 5cbe ae52 7b3d
00000340: eb0b 81be 597e 1abd dada 713d 7a0b 88be
00000350: 01d5 a2be 1fd9 65be 475b 34bd e114 c2be
00000360: 2d27 79be 98a7 98be aa22 c6be 85ad 6ebe
00000370: 6a50 673d b45b 873c 3f0f 75be 4353 943d
00000380: 0fae 61bd 562b a6be da70 a3be 5789 99be
00000390: d1ff 6fbe 613b 79be a8ce 21bc 5cc2 b5be
000003a0: 6419 acbe ae1f bbbe 98f0 b2bc a0d3 c0bc
000003b0: e970 a5be 59eb 5ebe b21f 62bd 40bc afbe
000003c0: c471 c0bc aa70 503d 49d2 b9be 7d42 c2be
000003d0: 9b9a 973d 7da0 1ebd e03e e23c 471a 9c3d
000003e0: b42b 6cbd 00dd 223a 94fb e7bc c040 c4be
000003f0: b0c1 fe3c 74d2 92be 66f2 493d 8f26 97be
-0.062425993 0.03484553 -0.08146443 0.068968974 -0.051298793 -0.070819855 -0.018211551 0.079776056
0.026147261 0.051555507 -0.07469837 -0.07365351 0.010082357 -0.03187053 -0.07678216 0.025700971
-0.05802523 0.019530289 -0.08607729 0.024230905 -0.08397236 -0.082994245 -0.046583455 0.058802865
-0.009467244 0.04140707 0.029153585 0.05754494 0.03216035 -0.035541005 -0.07521078 0.0073124766
-0.08794967 0.0567751 0.06445331 -0.054901253 0.041017897 0.053536497 0.05217161 -0.007170275
0.03479415 0.06310428 -0.041009936 0.014152177 0.08290074 -0.049047288 0.0100981 -0.053746134
-0.071540385 0.014484122 -0.013715617 0.015875518 0.014572054 -0.040039632 0.07114848 0.08160531
0.04576858 0.02227094 -0.088016 -0.030815762 -0.021436445 -0.012423433 -0.00796508 0.013945118
-0.0092306435 0.020172365 -0.0150261 0.045936607 0.08105088 -0.08078716 -0.03349999 -0.023781665
-0.07692793 -0.05081147 0.044356264 -0.083128534 0.08354715 -0.046966605 -0.027817395 0.061897732
-0.041397613 0.06276517 -0.048092958 0.01011619 -0.022000842 -0.024945624 -0.050911695 -0.03345937
-0.02044747 0.010128267 -0.024303846 0.070971586 0.023178235 0.07968875 -0.08405114 -0.0820217
0.0706357 -0.080147855 0.017774008 0.05866275 0.080949 -0.01691296 0.0062619373 0.075420685
0.05721923 -0.051733688 0.07692381 0.078875564 0.040077306 -0.03025484 -0.0052326694 0.029049374
0.053979136 0.012848929 -0.018916242 0.039817505 0.00897561 -0.059787653 -0.06513007 -0.054210097
0.035738304 0.07133373 -0.049850028 -0.05946425 -0.035637394 -0.04646965 -0.012959927 0.014501616
-0.3581703 -0.068899244 0.050662138 -0.026195183 -0.36207446 0.05462279 -0.26556507 -0.24866435
-0.21724686 -0.02888845 -0.21271254 -0.07989171 -0.35000184 -0.0154200345 -0.26272509 -0.30421728
0.044134356 -0.2142655 -0.21397378 0.063432224 -0.031066261 -0.008539982 -0.32197782 0.067428164
-0.23301165 0.034371704 0.034073427 0.060711823 -0.040467665 -0.29166976 -0.35976848 -0.35106164
-0.3398488 -0.0015939102 -0.26015925 0.07482321 0.008435041 -0.29688904 0.08485738 -0.031329036
-0.0267939 0.03704942 -0.33688027 -0.2574934 -0.05826871 -0.25429693 0.08165873 -0.2999734
-0.23335908 0.0035480931 -0.30968845 -0.04923971 -0.036245972 -0.25280473 0.02804412 -0.34792897
0.017775834 -0.3035329 -0.23546758 -0.3024611 -0.058287635 -0.24605797 -0.07173078 -0.28872198
-0.281147 -0.08026659 -0.033782195 0.03463354 -0.26095125 -0.21769279 -0.36558712 -0.31582084
-0.3352048 -0.29919973 -0.24106205 -0.048543654 -0.37091073 -0.22716182 -0.21506363 0.061358146
-0.25204405 -0.03771815 0.059046604 -0.26571256 -0.31803134 -0.22446106 -0.04403236 -0.37906554
-0.2433135 -0.29815364 -0.38698322 -0.2330838 0.056473173 0.01652322 -0.23931597 0.072424434
-0.055097636 -0.32454938 -0.31922036 -0.29987594 -0.2343743 -0.24339058 -0.009875931 -0.35499847
-0.33613122 -0.36547607 -0.02184324 -0.02353841 -0.32312706 -0.21769466 -0.05520601 -0.3432331
-0.023491748 0.050888695 -0.36293247 -0.37941352 0.074025355 -0.038727272 0.027617872 0.076221995
-0.057658866 0.0006212741 -0.028318204 -0.3833065 0.031098217 -0.28676188 0.049303435 -0.29521605

bias f4 [64]
00000000: f082 96bc fc70 c1be b7f1 69be 4996 abbe
00000010: d2df 5bbe 5f07 a5be 369c fdbc afcf a8be
00000020: 300b 9abe 295f b8be 884a 13be 9ed2 52be
00000030: d101 aabe 08b9 a4be a3a2 69be 05e7 77be
00000040: f73e bdbe 0e73 8fbe ee0f 41be 2b47 12bd
00000050: 4d0f bfbe 70f6 acbe ab19 a7be 8edc 72be
00000060: ddce 02bd 2932 70be 35b8 9dbe da14 fdbc
00000070: 81a7 81be 661a 86be 52df b5be 8a62 c2be
00000080: 7f8b febb 5197 babe b5b4 73be 334c 7bbe
00000090: d59c 0ebe b621 6abe 98f3 aebe 1a10 b5be
000000a0: 5aa0 58be 043a c8bd 51a0 a0be 230d 9fbe
000000b0: 236c dbbc 3b8d 36be 1c02 b1be ec37 95be
000000c0: 9760 92be 6091 73be 3cd6 81bd 8095 bebe
000000d0: b56a 8fbe 6c19 12bd d2cf 8bbe cbdd b2be
000000e0: 6136 32bd 5c93 97be 3f23 aebe 6c4e 42be
000000f0: ce3c a6be 17f6 bbbe 1fb5 0bbe 1b67 69be
-0.018372983 -0.37781513 -0.22846113 -0.33513096 -0.214721 -0.32232186 -0.030958276 -0.3297095
-0.3008666 -0.360101 -0.143839 -0.20588157 -0.3320451 -0.32172418 -0.22815947 -0.2420922
-0.369621 -0.28017467 -0.18853733 -0.035712402 -0.3731636 -0.33781767 -0.3263677 -0.23716947
-0.03193556 -0.23456635 -0.308046 -0.030893732 -0.25323108 -0.26192015 -0.35521942 -0.37965804
-0.007768094 -0.3644357 -0.23799403 -0.24540786 -0.13927014 -0.22864422 -0.34170222 -0.35363847
-0.2115492 -0.097766906 -0.31372312 -0.3106471 -0.026784962 -0.17827313 -0.34571922 -0.29144228
-0.28589317 -0.23785925 -0.0633969 -0.37223434 -0.28011099 -0.035668775 -0.27306992 -0.3493484
-0.04350889 -0.29604614 -0.34011266 -0.18975228 -0.32468265 -0.3671119 -0.13643311 -0.22793238

weight f4 [32, 64]
00000000: 002d ad3b 46e4 a4bd eaaa c7bd e071 5a3d
00000010: 20f2 7b3d 8af8 b23d 280f 75bd dc33 013d
00000020: 0e0b 953d 1464 ccbd 8436 d5bd 5867 77bd
00000030: 7c99 3dbd 806b 0abb 4a0b abbd 6eb6 bdbd
00000040: d0ed f1bc 9822 dcbc ca81 823d baa5 d2bd
00000050: 12ba c63d c8bd c63c 38f6 8cbc 10a1 f3bd
00000060: 9240 f33d a45e 38bd 2ebf d9bd c0ab 183b
00000070: cee4 92bd e435 9bbd 7807 2f3d 38f1 57bd
00000080: 94d6 1c3d 8c3c 773d 6209 bebd 94f3 f33d
00000090: 44e8 b13d b8c5 8abc 8481 cfbd 205f 063c
000000a0: 4c99 68bd 1cf0 9d3d 2c1d 30bd 50a6 bb3d
000000b0: 708e 04bc f0a1 5e3d 9267 c63d 7875 e7bd
000000c0: b86f e53c 502e 433c 7c7c dfbd d250 91bd
000000d0: 6466 c3bd b239 e83d ce9e bebd 6c26 35bd
000000e0: c0b3 1ebb f857 fd3c 2876 d03c c09f 633d
000000f0: 6235 febd c8c9 113d 22ba 953d d4d5 a9bd
00000100: 405a fdbc 7f16 ab3e b3db a93e 60af 76be
00000110: d050 b3be 00ac a0be 4899 9ebc 8414 b9bd
00000120: f91e 82be ceaf cfbe 406e 5ebe bc96 d3be
00000130: 177e 603e a167 853e 2ee1 763e 0ace c8be
00000140: a627 463e e8ce bcbe 7a64 f9bd 0062 3aba
00000150: 25f6 b33e 15e7 afbe 58ae 883d 572a 893e
00000160: 9073 69bc 42b8 823d 8959 623e 004c f23d
00000170: 10db c9bd 1a23 983e 6504 8f3e 5218 683e
00000180: e04f b1bc c578 9e3e 745f d2be 40e8 1ebd
00000190: 164f 5ebe 359a 42be 5214 9d3e f0e9 823e
000001a0: a1fd 8abe ac9b acbe c2ae f43d a563 7ebe
000001b0: 04ca 553d 78ca a7bc 1b93 923e 0b91 ccbe
000001c0: 0f7f a5be 597e 5cbe 284b 7bbd f909 893e
000001d0: 5a04 8fbe 18d2 81bd fc52 86be 950e a4be
000001e0: 8267 d0be 60aa b1be 49d4 41be da01 c8be
000001f0: d81c 983c a115 b4be 718e bbbe 7930 7a3e
00000200: 802e e73a 849c de3d e253 b83d ce01 efbd
00000210: 50cf 20bc 0039 a73c 5930 36bc b098 dd3d
00000220: 1cc7 9bbd 2edc ac3e bcc9 393b f65f 283e
00000230: ba5b 8ebd 1c2a 91bd c2bd a8bd f6c3 de3d
00000240: 025a e03d 7a2d be3d 44b8 afbd 7299 e8bd
00000250: b42b 50bd 4c33 73bd 4011 303b 9213 babd
00000260: 5d00 ffbd a9ac 7f3e befc a7bd 24fb cfbd
00000270: 7dc1 9b3e ae6d dd3d 341e 90bd b8f9 f3bc
00000280: f67c c03d 7060 043d 7a2e 0abd cbf3 523e
00000290: ecc3 c5bd d488 89bd 34f8 703d 42b6 9e3d
000002a0: c86d b83c 063b 813d 4449 973d 204f b3bc
000002b0: 6493 79bd e078 a9bc 009a d1bc a807 bfbc
000002c0: 08ce b33c f8fd 22bd e03a 813b ccd2 653d
000002d0: 8096 503b 39b3 b8bd 5024 03bd c85d c8bd
000002e0: e756 233f dee2 a53d 707a eebd a79c 2d3f
000002f0: a4db 803e c69f b13d 2c20 3b3d a85a c9bd
00000300: 80cf ccba bc96 7f3d 6ced 8a3d 4196 823e
00000310: c2b8 6d3e 4fe2 24bd 22a7 e03e 175d 4bbe
00000320: 7327 363e e74a b43b 231b 0e3e d717 51be
00000330: 0c46 923d a833 80bd 78e1 dcbc 327e 2a3e
00000340: d864 acbc b358 d93c b507 f13e b2e4 e53e
00000350: 10a0 2f3d 7faf 853e 9c70 8f3e 345e d93d
00000360: 9952 063f 788e 8f3e 54dd 44bd c707 ea3e
00000370: 9994 a23e 807a f83b b8e5 c63d d8e4 54bd
00000380: 5877 f03e 3a14 92bd 8937 cf3d 3354 4e3e
00000390: c782 4e3d 48c6 80bd 9480 10bd a819 bebd
000003a0: 9d64 6e3e 4b52 463e 4b81 0cbe e260 483e
000003b0: 676e a23e 37a7 87be 18a8 eebc b83e 9e3e
000003c0: 2d3d b33e 16e8 9b3e 40d8 d0bc 3880 48bd
000003d0: 8569 163e 082a f03e e1d5 663e f924 973e
000003e0: 8191 dcbd c536 8d3e 3c23 763d 813f 3dbe
000003f0: 3c6d 443e 1f3d 1e3e be59 663c fa45 adbd
0.0052849054 -0.08051352 -0.09749396 0.053331256 0.061510205 0.08738811 -0.059828907 0.031543598
0.07277499 -0.09980026 -0.10410789 -0.06040129 -0.046288952 -0.0021121204 -0.083517626 -0.09263311
-0.029532343 -0.026871964 0.063724115 -0.10285516 0.09703459 0.024260417 -0.01720725 -0.118959546
0.1187755 -0.04501213 -0.10632168 0.002329573 -0.07172547 -0.07578638 0.042731732 -0.05272028
0.038290575 0.060360476 -0.092791334 0.11911693 0.08686879 -0.016939983 -0.10132125 0.0082013905
-0.05678682 0.07711813 -0.04299657 0.09162581 -0.0080906 0.054353654 0.09687723 -0.11301702
0.028007373 0.011912897 -0.109124154 -0.070954934 -0.09541014 0.113391295 -0.09307633 -0.044226095
-0.0024216026 0.030925736 0.025446966 0.05557227 -0.12412526 0.035592824 0.07310893 -0.082927376
-0.030926824 0.334156 0.3317543 -0.24090338 -0.35022593 -0.31381226 -0.0193602 -0.09037116
-0.25414255 -0.40563816 -0.21721745 -0.4132594 0.219231 0.26055625 0.24109337 -0.39219695
0.19351062 -0.36876607 -0.121773675 -0.000710994 0.3514873 -0.3435599 0.066738784 0.26790115
-0.014248744 0.06382801 0.22104467 0.11830902 -0.09856236 0.2971428 0.2793304 0.22665527
-0.021644533 0.30951515 -0.4108845 -0.03879571 -0.21709856 -0.19004138 0.30679566 0.25569105
-0.27146628 -0.33712518 0.11947395 -0.24842699 0.05219461 -0.020482287 0.28627858 -0.3995441
-0.323235 -0.21532573 -0.06135097 0.2676542 -0.27933007 -0.063389 -0.26235187 -0.32042375
-0.4070397 -0.34700298 -0.18928637 -0.39063913 0.018568441 -0.35172752 -0.36632112 0.24432553
0.001763776 0.10869697 0.090003744 -0.11670266 -0.009815052 0.020412922 -0.011119925 0.108201385
-0.076063365 0.33761734 0.0028349003 0.16442856 -0.06951089 -0.0708811 -0.082393184 0.1087722
0.10954668 0.09286018 -0.08580068 -0.11357392 -0.05082293 -0.059375092 0.002686575 -0.09085764
-0.12451241 0.24968208 -0.082025036 -0.10155323 0.30421057 0.10811935 -0.07037011 -0.029782161
0.093988344 0.032318532 -0.03373573 0.20600812 -0.0965651 -0.06715551 0.058830455 0.07749607
0.022513285 0.06310086 0.07387021 -0.021888316 -0.06093158 -0.02068752 -0.025586128 -0.02331908
0.02194883 -0.039792985 0.003943786 0.056109235 0.0031827986 -0.09018559 -0.032017052 -0.09783512
0.6380448 0.08099912 -0.11644447 0.6781716 0.25167572 0.086730525 0.04568498 -0.098317444
-0.0015625805 0.06239961 0.06783566 0.2550526 0.23215011 -0.040254887 0.43877512 -0.1985973
0.17788486 0.005502093 0.1387754 -0.2041925 0.07142267 -0.06259853 -0.02696298 0.16649702
-0.02104418 0.026531553 0.47076192 0.44901043 0.042877257 0.26110455 0.28015602 0.10613671
0.52469784 0.28038383 -0.048062637 0.4570906 0.31753996 0.0075829625 0.09711784 -0.051976055
0.46966052 -0.07132764 0.10118014 0.20149307 0.050417688 -0.06287819 -0.03527887 -0.09282237
0.23280568 0.1936733 -0.13721196 0.19568208 0.31724855 -0.26494762 -0.029132888 0.30907226
0.3500761 0.30450505 -0.025493741 -0.048950404 0.1468869 0.46907067 0.22542526 0.29520395
-0.1076994 0.27580848 0.060092196 -0.18481256 0.19182295 0.15453003 0.014059482 -0.084606126

bias f4 [32]
00000000: c802 19bd d7bd 87be a065 a8bc ddd8 16bd
00000010: a1f7 b5be 90cb 053d 2fbb 43be bf5a a6be
00000020: e525 8abe c6a4 c2be 80ab 5dbe 43f4 9bbe
00000030: c372 d9be 0167 68be aa55 58be d696 9cbb
00000040: 923b cebe cb15 c8be 1227 5cbc 6bbd aebd
00000050: d1be 63be 0484 81be dd9c 60be d028 8ebe
00000060: bf51 cabe 8da0 babe 8ea9 cdbe c859 59bd
00000070: 61da 98be 9460 a0bd 3136 9dbe 6e3c ffbd
-0.037356168 -0.26512024 -0.020556271 -0.03682791 -0.35540488 0.032664835 -0.19114374 -0.3249111
-0.26982036 -0.38016337 -0.21647453 -0.30459794 -0.4247037 -0.22695543 -0.21126428 -0.004778723
-0.40279824 -0.39079127 -0.013437049 -0.08532222 -0.2224076 -0.25296032 -0.21934839 -0.27765512
-0.39515492 -0.36450616 -0.40168422 -0.053064138 -0.2985411 -0.07830921 -0.30705407 -0.12462698

weight f4 [8, 32]
00000000: c81c 94bc eaf9 d63d aeb4 84be 246c d7be
00000010: 105b bb3c 031c aebe f83b 0abe f788 67be
00000020: 3a3c 11be d3c5 2e3e 05da 1bbe 77d2 28be
00000030: 9a1d f53d f89b debe 3dbf b5bd e2ce c1be
00000040: 1077 5abd 494c 273e 079c dabe e89f 9bbc
00000050: a1e0 11be 2f1e 85bd 4098 443c 2ce8 c3be
00000060: d6dd d2bd 4890 1b3d 3335 24be 204f bfbe
00000070: babf f73d 3412 843d d0e2 08bd 5520 d6bd
00000080: ed70 0cbe a86d 58be 2d10 183e caaf 8dbe
00000090: c483 3bbe 281c 80be 05d9 95be 58f0 7abe
000000a0: 5bad 23be 47a5 04be f25a cdbe 27ae 52be
000000b0: bd1d 27be cc29 25be 21a8 13be fb20 2c3e
000000c0: 0eba bebe 131c 043e 878c 8abe 1955 e6be
000000d0: 0ff4 c1be fa03 a4bd a91e 42be 170c 32be
000000e0: 0ff1 333e 7943 32be c76b 07be a018 223c
000000f0: 04f8 8bbe 0f7f acbe daa4 89be 5b7e cbbe
00000100: 9478 00be 7061 dc3e 400b 873d fa41 923b
00000110: 4747 2e3e 3437 d33c f9cf fb3e cbc7 2c3e
00000120: 12da bbbc ce68 9f3e 12ad 35be b33f a73e
00000130: ac99 793e 3831 8c3e 9506 a03e fecb f03b
00000140: e389 493e a0b2 29be 37dd 3fbd 3d7d 363e
00000150: e1e9 a83e 036b 043e b87b 1d3e 70a3 bdbd
00000160: 62b5 283e d303 b33e 73aa 0abe 1b34 bf3d
00000170: 715f 27be d410 493e f782 293e 9665 99bc
00000180: 4455 483d 2931 93bd eef5 ca3d fa72 abbe
00000190: fee2 443e dc11 cabe 8091 c9bd b533 bdbd
000001a0: ee9a eb3d 2838 d1bc 8b9b b03e 61e6 663e
000001b0: 599d d63e 0452 d4bd 6726 bf3e 184e 08be
000001c0: 74a1 453e ec17 1a3d b30f dbbe 4f2e 4cbe
000001d0: 34e8 f6bd 81a3 85be a20a 243e f0b1 583c
000001e0: 6db8 d9bd b76d 45be a43f ea3e 75ba 263e
000001f0: dbc2 8a3e 79df 14be 82bc fbbd 6209 9fbe
00000200: 64c9 4ebd 8ef6 633e 72db b23d 2a60 c03b
00000210: 73fb 523e c09a 133d 2677 2e3e 0c8a 853c
00000220: 936f f0bd 017a 30be 7f33 cc3e 9d0a bb3e
00000230: c221 643e c9a2 723e 073d f03e 51e3 6d3c
00000240: 3192 983e 5695 cc3e 5e28 16be 098b 7b3e
00000250: c20d dd3e 2ce6 d23e 3be5 ae3e 330b b1be
00000260: a4a0 903e 1a43 523e ad60 e03e f31b 0e3e
00000270: ca5d f23e 4e51 d03e 786b 523e 63a3 c83c
00000280: 94a7 843d 3017 b7be f899 c03c ac39 cabe
00000290: b95d 22be d495 91be a929 81be 3e82 a3be
000002a0: a9af 7abe 8e1d 853d 09c8 1dbe 5900 82be
000002b0: 39c6 71be ba9f 9b3d 912e 6bbe b8ed ea3c
000002c0: 83b8 69be 5d93 273e 3506 80be b23a bbbe
000002d0: 0e0b 84be fec0 d73d b241 d0be a650 e0bd
000002e0: f913 143e 6e46 0bbe 6ff4 d0be 2a7d 96bd
000002f0: 9f9b 8bbe 424f a5be b439 51be 71ec 99be
00000300: 511e 093e f84d babe 8088 723c 69b3 1cbe
00000310: 7f33 a1be 00b1 e3be 896d 5abe 1927 16be
00000320: 74f3 563d a0f1 e4bb 22f8 2bbe f455 c8be
00000330: 4a86 6ebe 1b0d 2c3e aaf0 49be 8f84 2ebe
00000340: 6dbc 8bbe 0040 19ba 4063 8b3b 96c7 3dbe
00000350: 9d69 b9be f982 95bd e7d4 8ebe ea82 9ebd
00000360: e1e5 0b3e 18d1 0dbe a798 52be 0485 09be
00000370: 17d2 02be 3699 ccbe 7946 213e e6b8 f53d
00000380: bafe b83d 79a3 8a3d cb7f 72be eeb4 4bbe
00000390: 40a0 fcbc ca72 53be 7e8f 083e a04d 0e3c
000003a0: 14b2 eabd a0f6 4f3c 9910 333e 181c 933c
000003b0: bc81 45bd 2ca0 76bd f2b9 2dbe f6d6 cfbe
000003c0: 077b 13be ad1e 293e b195 ddbe 106e 0ebd
000003d0: 48c5 04bd 62d2 97bd 19b7 dfbd 76ce ccbe
000003e0: 4b41 0fbe b94b f4bd 78b5 9cbc 5c01 0dbe
000003f0: 0583 1a3e cf80 c03d de4a f03d 026e 07bc
-0.01808013 0.10496886 -0.25919098 -0.42074692 0.02287057 -0.34005746 -0.13499439 -0.22610842
-0.14183131 0.17067651 -0.15219887 -0.16486536 0.11968537 -0.4347837 -0.088743664 -0.37853152
-0.053336203 0.16337694 -0.42697164 -0.018997148 -0.14245845 -0.06499898 0.01199919 -0.3826307
-0.10296218 0.037979394 -0.16035919 -0.37365055 0.12097116 0.064487845 -0.03341943 -0.104553856
-0.13714953 -0.2113558 0.1484992 -0.2767318 -0.18311983 -0.25021482 -0.29267135 -0.24505746
-0.15984099 -0.12953673 -0.40108448 -0.20574246 -0.16319938 -0.16129225 -0.14419605 0.16809456
-0.37251323 0.12901334 -0.2706034 -0.449868 -0.37881514 -0.08008571 -0.18957008 -0.17387424
0.17572425 -0.17408551 -0.13224708 0.009893566 -0.27337658 -0.33690688 -0.26883584 -0.3974484
-0.12545997 0.4304309 0.06593943 0.0044634314 0.17019378 0.025783159 0.49182108 0.1687309
-0.022931132 0.31134647 -0.17741802 0.32665786 0.24375027 0.273813 0.31255022 0.0073485365
0.19681506 -0.16572046 -0.046841826 0.17821212 0.32990935 0.12931447 0.15379226 -0.09259689
0.16475442 0.34963855 -0.13541584 0.0933611 -0.16345002 0.19635326 0.16553865 -0.018725198
0.04890944 -0.07187111 0.099101886 -0.33486158 0.19227216 -0.3946675 -0.09842205 -0.09238378
0.1150416 -0.025539473 0.3449367 0.2254882 0.41916922 -0.10367206 0.37333986 -0.1331104
0.1929987 0.03762047 -0.42785415 -0.1993954 -0.12056008 -0.26101306 0.16019681 0.013226017
-0.106308796 -0.19280134 0.4575168 0.16282065 0.27101788 -0.14538373 -0.122918144 -0.31061846
-0.05048503 0.22262022 0.08733262 0.0058708386 0.20603733 0.036036253 0.17037639 0.016301177
-0.11740031 -0.17234041 0.39883038 0.36531535 0.22278503 0.2369491 0.4692156 0.0145195285
0.29799035 0.39957684 -0.14663836 0.24564756 0.4317456 0.41191232 0.34159264 -0.34578857
0.2824756 0.2053341 0.43823758 0.1387785 0.4733718 0.4068703 0.20548809 0.024491971
0.064772755 -0.35759878 0.023510918 -0.39497125 -0.15856065 -0.28434622 -0.25227097 -0.31935304
-0.24481072 0.06499778 -0.15408339 -0.2539089 -0.23610772 0.07598825 -0.22966982 0.028677806
-0.22824292 0.16364808 -0.25004736 -0.36568218 -0.25789684 0.10534857 -0.40675122 -0.109528825
0.14460744 -0.13601086 -0.40811488 -0.07348092 -0.27267167 -0.3228703 -0.20432168 -0.30063203
0.13390471 -0.3638761 0.014803052 -0.15302815 -0.314846 -0.44470978 -0.21330847 -0.14663352
0.05247827 -0.0069868118 -0.16793874 -0.39128077 -0.23293415 0.16801874 -0.19720712 -0.17042755
-0.27292195 -0.00058460236 0.004253775 -0.18533167 -0.3621339 -0.07300372 -0.27896807 -0.077398136
0.1366191 -0.13849294 -0.20566045 -0.13429648 -0.12775455 -0.3996064 0.1574954 0.11998157
0.0903296 0.06769461 -0.23681562 -0.19893238 -0.030838132 -0.20649257 0.13335988 0.008685499
-0.11459747 0.012693077 0.174868 0.017957732 -0.048219427 -0.060211346 -0.16965464 -0.4059369
-0.144024 0.16515608 -0.43278268 -0.034772933 -0.032414705 -0.07413174 -0.10923595 -0.40001267
-0.13989751 -0.119285055 -0.0191295 -0.1377005 0.15089042 0.09399568 0.1173303 -0.008265974

bias f4 [8]
00000000: a5a1 8abe fee3 d2be 9de3 df3f 7e52 c8bd
00000010: fba4 813f 4791 0bbf 3486 babe 8bc9 5fbe
-0.2707645 -0.4118957 1.7491337 -0.09781359 1.0128473 -0.5451855 -0.36430514 -0.21854226

weight f4 [4, 8]
00000000: 1cd4 7fbe a85a 7abe 70b4 883d cb72 98be
00000010: 1344 8c3e cccc f33d b838 12be c04b d3bc
00000020: cd6f 953e 813d ab3e 7678 37be dee3 673e
00000030: 87a8 98be 30fa 88be 0060 073c 9ec4 5c3e
00000040: 697d 993e 81e2 68be 563e 8bbe e129 873e
00000050: a914 913e db38 2fbe 153f a0be 60e2 35be
00000060: eba2 afbe 3a39 9ebe 9860 b3bd 4c4a e73d
00000070: 4493 a2bd 569e 243e 5703 903e 14fc fe3d
-0.24983257 -0.24448645 0.06675041 -0.2977508 0.27395687 0.11904296 -0.14279449 -0.025792956
0.2918686 0.3344536 -0.17917046 0.22645518 -0.29816076 -0.26753378 0.008262634 0.21559379
0.29978493 -0.22742654 -0.27195996 0.2639914 0.28336075 -0.17111532 -0.31298128 -0.17762136
-0.34303984 -0.30903035 -0.08758658 0.11293468 -0.07938245 0.16076025 0.28127548 0.12450424

bias f4 [4]
00000000: e83d 7bbd bfd6 8d3e c900 963e fef6 4a3e
-0.061338335 0.277029 0.29297474 0.19820783
