training/ann/models/ann5.pth (torch, 68622 bytes, 10 tensors)

weight f4 [128, 40]
0	0xbd608c42	-0.05482126
1	0xbd88ce4e	-0.066799745
2	0xbcd70430	-0.026247114
3	0xbd9f4913	-0.0777761
4	0xbdfd0be2	-0.12355782
5	0x3d3d3760	0.046195388
6	0x3dd9ce96	0.10635106
7	0x3e06f0f5	0.13177855
8	0x3cd26648	0.025683537
9	0x3e116051	0.14196898
10	0x3d0401b0	0.03222817
11	0x3e1d3567	0.15352403
12	0xbde213a9	-0.11038906
13	0x3d18032c	0.0371124
14	0x3dde9eaa	0.108701065
15	0xbdcef5dc	-0.10105488
16	0xbd57ba00	-0.052667618
17	0xbdc23d9f	-0.094844095
18	0x3d31d6b8	0.043417662
19	0x3db4bcb6	0.08825056
20	0x3dbf4af6	0.093404695
21	0x3dcbe5fe	0.09955977
22	0xbdea05f6	-0.11426918
23	0xbd732d36	-0.05936929
24	0xbdd24d50	-0.102686524
25	0x3e14420f	0.14478324
26	0xbdeb2a86	-0.1148272
27	0xbd467eb8	-0.048460692
28	0x3e1a64b9	0.15077485
29	0x3d8edfb0	0.06976259
30	0xbd539c7c	-0.051662907
31	0x3de6704e	0.11251889
32	0x3d87a072	0.066223994
33	0x3d171f90	0.036895335
34	0xbdba24e5	-0.09089068
35	0x3d8ce462	0.06879498
36	0xbd836393	-0.06415477
37	0x3e092d37	0.13396154
38	0xbc9c02c0	-0.01904428
39	0xbdc9fd54	-0.09862772
40	0x3eafa8f4	0.34308589
41	0x3edcf504	0.43155682
42	0x3e7d2097	0.24719463
43	0xbd24070e	-0.04004579
44	0x3ee645ac	0.4497503
45	0x3ec8b46e	0.39200157
46	0x3db2bbf2	0.08727254
47	0x3e3fc7e7	0.187286
48	0xbe5e959a	-0.21736756
49	0x3eeb8e20	0.4600687
50	0x3d6b64e8	0.05746928
51	0x3ea597c9	0.32342365
52	0x3ec42278	0.38307548
53	0x3ee1fde8	0.44139028
54	0x3ec4b96b	0.38422713
55	0x3d0dee01	0.034650806
56	0x3f106816	0.5640882
57	0x3f00175f	0.5003566
58	0x3ecf4feb	0.4049066
59	0x3eb3b9f8	0.3510282
60	0x3e8b8f11	0.27257589
61	0xbd8712d9	-0.06595392
62	0x3e038f7f	0.12847708
63	0x3ec2e292	0.38063484
64	0x3e8ade8e	0.2712292
65	0x3e867b25	0.26265827
66	0x3df3e67e	0.11909197
67	0x3ebab5d0	0.36466837
68	0x3f0561c2	0.5210229
69	0x3e97490f	0.29547927
70	0x3e488adc	0.1958422
71	0x3f0db34b	0.55351704
72	0xbe63ca8c	-0.22245234
73	0x3e5004c6	0.20314321
74	0x3ee34e7b	0.44395813
75	0x3f06121d	0.5237139
76	0x3ec3574e	0.38152546
77	0x3eb890c4	0.36047947
78	0x3ee16ef3	0.4402996
79	0x3ea7f6d5	0.32805505
80	0xbd43ee4e	-0.047834687
81	0x3e5ca4b5	0.21547206
82	0x3eac6f12	0.3367849
83	0xbd7e5182	-0.06208945
84	0x3e230488	0.15919697
85	0x3e67cbe0	0.22636366
86	0x3e87ec32	0.2654739
87	0x3e03d773	0.12875156
88	0x3e8963c7	0.26833937
89	0x3dcf29d0	0.10115397
90	0x3c951b32	0.018201444
91	0x3e0c3bb7	0.13694654
92	0x3e3df48f	0.18550323
93	0xbd7608d4	-0.060067013
94	0x3e80c55a	0.25150567
95	0xbdf60811	-0.12013257
96	0x3dc52e74	0.09628001
97	0xbda68785	-0.08131317
98	0x3c5c6edb	0.013454164
99	0x3de15858	0.11003178
100	0x3b4db6b5	0.003138942
101	0xbccb0713	-0.024783647
102	0xbbb582c2	-0.005539269
103	0x3de4e612	0.11176695
104	0xbd3831b1	-0.044969264
105	0x3e37b61b	0.17940561
106	0x3e6965a3	0.22792678
107	0x3ca347f2	0.019931767
108	0x3e499a5b	0.19687788
109	0x3e1f9adf	0.15586422
110	0x3e47c99e	0.19510505
111	0x3e170587	0.14748202
112	0xbe41f91c	-0.18942684
113	0x3ca34181	0.019928696
114	0x3df9f847	0.12205558
115	0x3d05fbb4	0.032710746
116	0x3d961bdd	0.07329533
117	0x3dc392f1	0.09549511
118	0x3e284529	0.16432633
119	0x3d8a047f	0.06739139
120	0x3dbb6eb6	0.09151976
121	0xbd6b2190	-0.057405055
122	0xbd924ed1	-0.07143939
123	0x3d233d90	0.039853632
124	0xbcb7d538	-0.022440538
125	0xbd90c497	-0.070687465
126	0x3e04e46f	0.12977766
127	0x3a72c100	0.00092603266
128	0xbe0eda94	-0.13950568
129	0xbe17ed3e	-0.14836594
130	0x3dffe5a2	0.12494971
131	0xbd98de80	-0.074643135
132	0x3dd0a3a6	0.101874635
133	0x3da10d62	0.07863881
134	0xbd96d090	-0.07363999
135	0x3c0c1fb0	0.008552477
136	0x3e000177	0.12500559
137	0xbd349ece	-0.04409676
138	0xbdab188f	-0.083542936
139	0xbd19a140	-0.037507296
140	0xbe019ef7	-0.12658297
141	0xbdf8cb7e	-0.12148188
142	0x3e0be055	0.13659795
143	0x3cf8a7c0	0.030353427
144	0xbdf5e4f1	-0.12006558
145	0xbdcde5d8	-0.10053605
146	0xbe182c96	-0.14860758
147	0xbd3208dc	-0.04346548
148	0xbc60ccd0	-0.013720706
149	0x3e069df5	0.13146193
150	0x3dc52986	0.096270606
151	0xbd1977dc	-0.037467822
152	0x3d81ca4a	0.06337412
153	0xbdaa3335	-0.08310548
154	0x3c0ddad0	0.008658126
155	0xbc91cda8	-0.01779826
156	0xbd4d2dd8	-0.050092548
157	0xbe13b15a	-0.14423123
158	0x3d2c87b4	0.042121604
159	0x3e1a5c7f	0.15074347
160	0xbf0539f1	-0.52041537
161	0xbe9cf4b3	-0.3065544
162	0xbe15b7eb	-0.1462094
163	0x3c736270	0.014855012
164	0xbe75ed0d	-0.24016209
165	0xbee309ea	-0.443435
166	0xbedf2467	-0.4358246
167	0xbedb12e1	-0.4278784
168	0xbeefa83e	-0.46808046
169	0xbef3baad	-0.4760336
170	0xbeae5a50	-0.34053278
171	0xbee2af71	-0.44274476
172	0xbeff6de8	-0.4988854
173	0xbe8eb26b	-0.27870497
174	0xbeeb4f47	-0.4595892
175	0xbebdb9bb	-0.37055764
176	0xbe8885d4	-0.26664603
177	0xbedbd035	-0.42932287
178	0xbe90c95c	-0.28278625
179	0xbeb65992	-0.35615212
180	0xbecbc70c	-0.39800298
181	0xbebd4be3	-0.3697196
182	0xbe88a62c	-0.2668928
183	0xbe9ff939	-0.3124483
184	0xbef029c7	-0.46906874
185	0xbea09f8b	-0.31371722
186	0xbe9e3014	-0.30896056
187	0xbeddac5e	-0.43295568
188	0xbe919af8	-0.28438544
189	0xbf012bfd	-0.50457746
190	0xbeaa9a9f	-0.33321092
191	0xbe7db638	-0.24776542
192	0xbf0eb6a2	-0.55747426
193	0xbea4126e	-0.3204531
194	0xbefcaaa4	-0.49348938
195	0xbe98c2b1	-0.29836038
196	0xbecdb243	-0.40175065
197	0xbec28a20	-0.37996006
198	0xbecb96ca	-0.3976348
199	0xbf045ee8	-0.51707315
200	0xbeb5b18c	-0.3548702
201	0xbe7c3590	-0.24629807
202	0xbeb26f4b	-0.34850535
203	0x3df84ff6	0.12124626
204	0xbebf8b69	-0.3741105
205	0xbe63840f	-0.22218345
206	0xbee7b8b8	-0.45258117
207	0xbeda70c2	-0.42664152
208	0xbe59968f	-0.2124884
209	0xbed1e890	-0.40997744
210	0xbec1f30f	-0.37880751
211	0xbe5cac36	-0.21550068
212	0xbecae163	-0.3962508
213	0xbe144ea3	-0.14483123
214	0xbebdbc5f	-0.37057778
215	0xbee95f02	-0.45580298
216	0xbe97cd44	-0.29648793
217	0xbe3b5b76	-0.18296608
218	0xbe1d883f	-0.15384005
219	0xbe2bce95	-0.16778024
220	0xbe1f8dfd	-0.15581508
221	0xbe5cc3b0	-0.21559024
222	0xbe5fcf2d	-0.21856375
223	0xbede2346	-0.43386286
224	0xbe82b7ff	-0.25531003
225	0xbe4d94ed	-0.20076342
226	0xbe2f7018	-0.17132604
227	0xbebe91d6	-0.3722064
228	0xbe659c21	-0.2242284
229	0xbeb2d75d	-0.34929934
230	0xbee819c4	-0.45332158
231	0xbebab9a8	-0.3646977
232	0xbea9c702	-0.33159643
233	0xbe8676bb	-0.2626246
234	0xbea9b004	-0.33142102
235	0xbeced3d6	-0.40395993
236	0xbee683f5	-0.4502255
237	0xbe379f2e	-0.17931816
238	0xbee6223f	-0.44948003
239	0xbe814af8	-0.2525251
240	0xbbc539c0	-0.006018847
241	0xbdeb2efa	-0.114835694
242	0xbdda8294	-0.10669437
243	0xbe0deab9	-0.13859071
244	0x3ddb780e	0.10716258
245	0x3befe1c0	0.0073206127
246	0x3dfea162	0.12433125
247	0xbdf200ad	-0.11816535
248	0x3e0cd50d	0.13753147
249	0x3e01f535	0.12691195
250	0x3d77153c	0.060322985
251	0xb9cc6e00	-0.00038991868
252	0xbe00f5a0	-0.12593699
253	0xbdf584e0	-0.119882345
254	0x3d7eb478	0.062183827
255	0x3da12daa	0.07870038

bias f4 [128]
0	0xbde1d4a4	-0.11026886
1	0x3e73ab14	0.2379573
2	0x3d979799	0.07401962
3	0x3cee0808	0.029056564
4	0xbebed650	-0.37272882
5	0xbe95b1f4	-0.2923733
6	0xbd7df6ee	-0.06200307
7	0xbdf81c90	-0.12114823
8	0x3d9bdaa0	0.07610059
9	0xbef37445	-0.47549644
10	0xbea56e14	-0.32310545
11	0xbe9c14d1	-0.30484632
12	0xbde26db0	-0.110560775
13	0xbd706362	-0.05868853
14	0xbdaa549b	-0.083169185
15	0xbd3966c8	-0.045264035
16	0x3e2bc866	0.16775665
17	0x3d93c068	0.07214433
18	0xbd0f8ebb	-0.035048228
19	0xbdb3474b	-0.087538324
20	0xbebf0018	-0.3730476
21	0x3e039ef5	0.12853606
22	0xbe73fd7e	-0.23827168
23	0xbeaea20a	-0.34108
24	0xbeca19f2	-0.3947292
25	0x3d413058	0.047165245
26	0xbdb2d191	-0.08731378
27	0xbed866a8	-0.4226582
28	0x3e0b94ab	0.13630931
29	0xbbb652e0	-0.0055640787
30	0xbd20dac8	-0.039271146
31	0xbe089a25	-0.13340051
32	0xbe9f1ca3	-0.31076536
33	0x3df6607a	0.1203012
34	0xbd7a64c0	-0.06113124
35	0xbc903700	-0.017604351
36	0xbee54b33	-0.44783935
37	0xbca0b488	-0.019617334
38	0x3ddc73a6	0.10764246
39	0xbe24fd95	-0.16112359
40	0x3ded49fe	0.115863785
41	0xbdb6954d	-0.089151956
42	0x3db3b3e6	0.08774547
43	0xbe41b291	-0.18915774
44	0xbe9bfbfc	-0.30465686
45	0x3d408fc4	0.047012106
46	0x3e937591	0.28800634
47	0x3ce618b8	0.028087959
48	0xbe87c139	-0.26514605
49	0xbd8fd9e6	-0.07023983
50	0x3e90ac89	0.28256634
51	0xbd58b6ab	-0.05290858
52	0x3db32218	0.08746737
53	0xbe3285be	-0.17433831
54	0xbdfada10	-0.12248623
55	0x3d50d0a8	0.05098024
56	0x3cd20620	0.025637686
57	0x3ec0da68	0.3766663
58	0xbe79acd8	-0.24382341
59	0xbec1eccf	-0.37875983
60	0xbd7f7cd0	-0.06237489
61	0x3d467a1c	0.048456296
62	0x3df1c462	0.11805035
63	0xbe0f132f	-0.13972162
64	0xbe04c876	-0.12967095
65	0x3e01873f	0.12649249
66	0x3e0c0a59	0.13675822
67	0xbe8ac322	-0.27102
68	0x3dc8dc2a	0.09807618
69	0x3ed23310	0.41054583
70	0xbf01a795	-0.50646335
71	0x3e1fdf0d	0.15612431
72	0x3e78a09d	0.24280019
73	0xbe1d2d57	-0.15349327
74	0xbd2fec08	-0.042949706
75	0xbefb65e8	-0.49101186
76	0x3dc9915a	0.09842177
77	0xbdd455e2	-0.10367943
78	0x3e52bc73	0.205797
79	0xbb52e480	-0.0032179654
80	0x3d0aa5b8	0.033849448
81	0x3c7f1540	0.015569031
82	0xbd1fdf80	-0.039031506
83	0xbe4f67c3	-0.20254426
84	0xbe85d2cc	-0.26137388
85	0xbeb638b4	-0.35590136
86	0x3d85914c	0.06521854
87	0x3c9f52a8	0.019448593
88	0xbee0d5b8	-0.43913054
89	0xbe02505e	-0.1272597
90	0xbd9b7472	-0.075905696
91	0xbefb00b4	-0.49023974
92	0x3eeb829c	0.45998085
93	0x3cd1be79	0.02560352
94	0xbeda589e	-0.42645735
95	0xbe1cb6ea	-0.15304151
96	0x3d4ba6e1	0.049719695
97	0x3ece23d9	0.40261725
98	0xbdae7802	-0.085189834
99	0x3da76dbe	0.081752285
100	0x3d18a300	0.037264824
101	0xbd1d11e6	-0.038347147
102	0xbd6a7a14	-0.05724533
103	0x3deac2c6	0.11462931
104	0xbe5ebe3c	-0.21752256
105	0x3ea3facf	0.3202729
106	0xbe81f1d2	-0.25379807
107	0x3df7ecfa	0.121057466
108	0xbebca766	-0.36846465
109	0xbd0e0c98	-0.03467998
110	0x3e54d3f8	0.20783985
111	0x3e0f4719	0.13991965
112	0xbdbf6ff6	-0.09347527
113	0x3e08f775	0.13375647
114	0xbe983cb5	-0.29733816
115	0xbc9782d0	-0.018494993
116	0x3d80030a	0.0625058
117	0xbddb3a1e	-0.10704444
118	0xbe766fb5	-0.2406605
119	0xbd84d6fa	-0.06486316
120	0x3e83281d	0.25616542
121	0x3e211edf	0.15734433
122	0x3d0aae3c	0.03385757
123	0xbc6cf217	-0.014462016
124	0xbd118832	-0.035530277
125	0x3c3190b0	0.010837719
126	0xbcdddbb0	-0.027082294
127	0xbebc35c0	-0.36759758

weight f4 [64, 128]
0	0x3d139e48	0.03603962
1	0x3ead805f	0.33887002
2	0x3e9927c8	0.29913163
3	0x3c1c4bb8	0.009539537
4	0x3e6d9ad1	0.23203589
5	0x3ea43e42	0.3207875
6	0x3d872b9d	0.066001154
7	0xbb61bf00	-0.003444612
8	0x3d84bbad	0.06481109
9	0x3e84e18d	0.25953332
10	0x3e9f63fb	0.31130967
11	0x3e9b7e43	0.30369768
12	0xbda7061a	-0.08155461
13	0x3d98bae5	0.07457522
14	0x3d93dc6f	0.07219779
15	0xbb9e4740	-0.004830271
16	0x3ed41922	0.41425425
17	0x3d277482	0.040882595
18	0x3edeaadb	0.43489727
19	0x3d821cd3	0.06353154
20	0x3ecb08f0	0.39655256
21	0x3eadeeaa	0.3397115
22	0x3e85eb25	0.26155964
23	0x3e96b74b	0.29436716
24	0x3e771662	0.24129632
25	0xbd972345	-0.07379774
26	0xbd2794bb	-0.040913325
27	0x3ea2a579	0.3176687
28	0xbd58e116	-0.052949034
29	0xbd6cbf7e	-0.05779981
30	0xbd6722d4	-0.0564297
31	0x3db1253b	0.08649679
32	0x3e840c62	0.25790697
33	0xbd364315	-0.04449757
34	0x3cba80a4	0.022766419
35	0x3cf2b748	0.029628411
36	0x3ecec949	0.40387943
37	0x3cffb788	0.031215444
38	0xba4d6180	-0.0007834658
39	0x3e915a7e	0.28389353
40	0xbd698bd0	-0.0570181
41	0xbbb811b0	-0.005617343
42	0xbc263990	-0.01014556
43	0x3ea5bcb3	0.3237053
44	0x3ec6fe40	0.38865852
45	0x3d282fd6	0.041061245
46	0x3ebc3881	0.3676186
47	0xbd50e597	-0.051000204
48	0x3ec6bcd1	0.3881593
49	0x3ec91a26	0.39277762
50	0x3ef9e053	0.48803958
51	0x3ecef7b2	0.40423352
52	0xbca5d134	-0.020241357
53	0x3ebe677f	0.37188336
54	0xbd82b3d8	-0.06381959
55	0xbdacb7bc	-0.08433482
56	0xbda01208	-0.07815939
57	0x3e99f545	0.30069938
58	0x3eb1a4e4	0.34696114
59	0x3e702639	0.23452081
60	0x3c14eb30	0.009089276
61	0xbd95c9ba	-0.07313867
62	0xbd4f412c	-0.050599262
63	0x3e7443d2	0.23853996
64	0x3cf763f4	0.030199029
65	0xbd8a8a5b	-0.067646705
66	0x3e83bbc5	0.25729194
67	0x3eb12c88	0.34604287
68	0xbc33a138	-0.0109637305
69	0x3ee61a2d	0.44941846
70	0x3eae69d5	0.34065118
71	0x3d7fbe56	0.062437378
72	0x3ebc069e	0.367238
73	0xbce06f1e	-0.027396735
74	0xbd1990c0	-0.03749156
75	0x3ea8b6b5	0.32951894
76	0xbcb878c4	-0.022518523
77	0x3d4979d2	0.049188443
78	0x3ee59710	0.44841814
79	0xbcb2ebd4	-0.021840967
80	0x3cb04ee0	0.021521986
81	0x3d61c7da	0.055122234
82	0x3d81bfe1	0.06335426
83	0x3eb66d72	0.35630375
84	0x3ec459e7	0.3834984
85	0x3ec44528	0.38334012
86	0xbd9a99d9	-0.07548875
87	0xbd80a7a8	-0.06281978
88	0x3ea53576	0.3226735
89	0x3d496bbe	0.049175017
90	0x3d91a27d	0.0711107
91	0x3e88d609	0.26725796
92	0x3ef76486	0.4831888
93	0x3eb97302	0.36220556
94	0x3e8ed4ac	0.2789663
95	0xb8affc00	-8.391589e-05
96	0x3ec6b2e2	0.38808352
97	0x3ea9fe77	0.33201954
98	0xbd9776bb	-0.07395693
99	0x3d704966	0.05866375
100	0x3d5db006	0.054122947
101	0x3d39c91a	0.0453578
102	0x3d5818d6	0.05275806
103	0xbd671e8a	-0.05642561
104	0x3eec75f3	0.46183738
105	0x3edbfdd3	0.4296709
106	0x3e860c07	0.2618105
107	0x3db21749	0.086958475
108	0x3ece44e4	0.40286934
109	0x3d0d4478	0.034489125
110	0x3ee3c01f	0.44482514
111	0x3ecdbf26	0.40184897
112	0xbc3e4c20	-0.011614829
113	0xbd8a15a8	-0.06742412
114	0x3eb55b57	0.3542125
115	0xbd1350ab	-0.035965603
116	0xbda51ba8	-0.08061916
117	0x3d6153de	0.055011623
118	0x3e753451	0.23945738
119	0x3d19a1ba	0.03750775
120	0x3eb082ee	0.3447489
121	0x3c6a1e88	0.014289506
122	0xbc5ac388	-0.013352282
123	0x3eb5bbb0	0.35494757
124	0xba4aa700	-0.00077305734
125	0xbbf0d760	-0.0073498935
126	0x3ed12ec6	0.40855998
127	0x3ec837fe	0.3910522
128	0x3d524a16	0.051340185
129	0xbe672244	-0.22571665
130	0xbe7db22c	-0.24774998
131	0xbbb8dc00	-0.0056414604
132	0xbe9f25b4	-0.31083453
133	0xbe90c2bf	-0.2827358
134	0xbd3ae8c1	-0.045632128
135	0x3d35e556	0.044408165
136	0x3da9044d	0.082527734
137	0xbebeb32a	-0.37246066
138	0xbebb85e8	-0.366256
139	0xbe868d7b	-0.26279816
140	0xbd5cc00a	-0.05389408
141	0xbbf28060	-0.0074005574
142	0xbd7fbc0e	-0.062435202
143	0x3d0fa166	0.03506603
144	0xbe97717c	-0.2957877
145	0xbd8d6bea	-0.069053486
146	0xbebdee1b	-0.37095723
147	0x3d6cdd16	0.05782803
148	0xbe812647	-0.25224516
149	0xbe97b3eb	-0.29629454
150	0xbe941fe8	-0.28930593
151	0xbeafed01	-0.34360507
152	0xbe718d6a	-0.23589101
153	0xbd98a714	-0.074537426
154	0x3b277260	0.002555035
155	0xbeaa8aeb	-0.3330911
156	0xbd43d95f	-0.047814723
157	0x3d591552	0.05299885
158	0x3cdbdd98	0.026839063
159	0xbcad4650	-0.021151692
160	0xbeb44535	-0.3520905
161	0x3d587966	0.05285015
162	0xbd10c49b	-0.035343748
163	0xbd4d07e5	-0.050056357
164	0xbe983e03	-0.2973481
165	0x3db1e86f	0.08686911
166	0xbcf015b2	-0.02930722
167	0xbea469ed	-0.32112065
168	0xbc6ad268	-0.014332391
169	0x3da05921	0.078295
170	0x3b5dde20	0.003385432
171	0xbebe5c87	-0.37179968
172	0xbe79e4ab	-0.24403636
173	0xbc0984f0	-0.008393511
174	0xbeae7bac	-0.3407873
175	0xbce7f55e	-0.028315242
176	0xbea50de9	-0.32237175
177	0xbe8f8d44	-0.28037465
178	0xbebfedd9	-0.3748615
179	0xbe67eb96	-0.22648463
180	0xbd11c78a	-0.035590686
181	0xbec6a145	-0.38794914
182	0xbda8700e	-0.08224498
183	0x3d026934	0.03183861
184	0x3d2b7726	0.041861676
185	0xbe651c69	-0.22374119
186	0xbec3813a	-0.3818453
187	0xbeb699d7	-0.35664245
188	0xbce6d72a	-0.02817877
189	0x3d9fdecd	0.07806168
190	0xbd9ce042	-0.07659961
191	0xbea16015	-0.31518617
192	0x3cf29dd4	0.029616274
193	0xbd830181	-0.06396771
194	0x3cba10b4	0.022713043
195	0xbe7f0d9b	-0.24907534
196	0x3d890495	0.06690327
197	0xbe645120	-0.22296572
198	0xbec66f0a	-0.3875659
199	0xbc4a3f90	-0.012344256
200	0xbe63e2f2	-0.22254542
201	0x3c8e78e0	0.017391622
202	0xbd832ab6	-0.06404631
203	0xbe8d4ee2	-0.27599245
204	0xbb8947c0	-0.0041894615
205	0x3d0b5f76	0.034026586
206	0xbe6c2ab9	-0.23063172
207	0xbd66a584	-0.05631019
208	0xbd71a96a	-0.058999456
209	0x3d7bb7c6	0.061454557
210	0xbd1892b3	-0.03724928
211	0xbe710f59	-0.23541011
212	0xbe86b000	-0.26306152
213	0xbe9420c8	-0.2893126
214	0x3d786b3a	0.060649134
215	0x3d37ada2	0.044843324
216	0xbe927611	-0.28605703
217	0xbd6f5952	-0.058434792
218	0x3d53f846	0.051750444
219	0xbe9072df	-0.2821264
220	0xbea31489	-0.31851605
221	0xbe9a9982	-0.30195242
222	0xbea0bf44	-0.31395924
223	0x3da104b5	0.07862226
224	0xbeada674	-0.33916056
225	0xbeb014ef	-0.3439097
226	0xbcd02238	-0.025406942
227	0xbdab6881	-0.08369542
228	0x3c401f20	0.011726171
229	0xbd9051c8	-0.070468485
230	0xbcde5bc6	-0.02714337
231	0xbc789508	-0.015172251
232	0xbea2fbf6	-0.31832856
233	0xbe930dc4	-0.2872144
234	0xbe924c10	-0.28573656
235	0xbd68dda1	-0.056851987
236	0xbe981845	-0.29706016
237	0x3c1e1e50	0.009650782
238	0xbe92d5e3	-0.28678808
239	0xbeb43f36	-0.35204476
240	0x3d36f34e	0.044665627
241	0xbbafa040	-0.0053596795
242	0xbe648417	-0.22316013
243	0x3d8ae06d	0.06781087
244	0x3ad09300	0.001591295
245	0x3d403632	0.046926685
246	0xbe7cbcc1	-0.24681379
247	0xbd443cd8	-0.047909588
248	0xbead7c74	-0.33884013
249	0x3c386128	0.011253633
250	0xbd75d546	-0.060017847
251	0xbe884365	-0.26613918
252	0x3da12f9b	0.07870408
253	0xbd9d856a	-0.07691462
254	0xbeab8b86	-0.33504885
255	0xbe89d3d1	-0.26919416

bias f4 [64]
0	0x3eb0d540	0.34537697
1	0xbead3cad	-0.33835354
2	0x3ea30b6a	0.31844646
3	0xbeaffe03	-0.34373483
4	0x3c4ba6c0	0.012429893
5	0xbe89465b	-0.2681149
6	0xbe167719	-0.1469387
7	0xbec09db0	-0.37620306
8	0xbe790dd6	-0.24321684
9	0x3cded260	0.027199924
10	0xbec61b8f	-0.386929
11	0x3d86888b	0.06569012
12	0x3c4bc5c0	0.012437284
13	0x3d0e4440	0.034733057
14	0x3e94eb79	0.290859
15	0x3e4c544c	0.19954032
16	0xbca62724	-0.020282336
17	0xbeb7100a	-0.35754424
18	0xbe8d2a65	-0.27571407
19	0xbc327e50	-0.010894373
20	0xbd26646c	-0.040623114
21	0xbe51496b	-0.20438163
22	0x3e408942	0.1880236
23	0xbb944e00	-0.0045259
24	0xbea31d24	-0.3185817
25	0xbcc59fc9	-0.024124043
26	0x3d90b38b	0.07065495
27	0xbd4eb6e5	-0.05046739
28	0xbe8c135d	-0.27358523
29	0xbea54d43	-0.3228551
30	0xbc608568	-0.0137036815
31	0xbc5b3960	-0.0133803785
32	0xbda45c33	-0.08025398
33	0xbe98e368	-0.29860997
34	0x3b405160	0.0029345378
35	0x3e64f163	0.22357707
36	0xbebb5546	-0.36588496
37	0x3da87fc1	0.08227492
38	0xbd882341	-0.06647349
39	0xbec19576	-0.37809342
40	0xbeb42c0a	-0.3518985
41	0x3e368500	0.17824173
42	0xbeb2519e	-0.34827894
43	0xbd423d5f	-0.04742181
44	0x3d668dd2	0.056287594
45	0xbe9d40b1	-0.30713418
46	0x3da31967	0.079638295
47	0x3ebf65e3	0.3738242
48	0xbea507f0	-0.32232618
49	0xbd84cb43	-0.064840816
50	0x3c66a530	0.01407747
51	0xbe79c82a	-0.24392763
52	0x3c59fad8	0.013304435
53	0xbe92f0ed	-0.28699437
54	0x3c6a9890	0.0143186
55	0xbe80965b	-0.25114712
56	0x3eca84a1	0.39554313
57	0xbe78e9a1	-0.24307872
58	0xbe5dfe8d	-0.21679135
59	0xbeafe9ae	-0.3435797
60	0xbe987242	-0.29774672
61	0xbea79077	-0.32727405
62	0xbe71c39b	-0.23609774
63	0xbe644da3	-0.22295241

weight f4 [32, 64]
0	0xbe94b6c3	-0.29045686
1	0xbdd9df08	-0.10638243
2	0xbe900aec	-0.28133333
3	0xbd6ea3c8	-0.058261663
4	0xbd66e01c	-0.05636607
5	0xbe9c3c31	-0.30514672
6	0xbea68fdd	-0.32531634
7	0xbcbeaed8	-0.023276731
8	0xbd5f8910	-0.054574072
9	0x3d97d588	0.07413775
10	0xbd7e0fb4	-0.062026694
11	0xbdd33d02	-0.10314371
12	0x3d5a9b8c	0.053370997
13	0xbcd88ec8	-0.02643527
14	0xbeb3c57b	-0.35111603
15	0xbe7a8729	-0.24465622
16	0x3db5b566	0.0887249
17	0xbcb80fb0	-0.022468418
18	0xbdf40bc4	-0.119163066
19	0xbd1791d8	-0.03700432
20	0xbdb90d3a	-0.09035726
21	0xbe860a5b	-0.26179776
22	0xbe27ce0f	-0.16387199
23	0x3df41f90	0.119200826
24	0xbebaa4b4	-0.36453784
25	0xbe61e8ca	-0.22061458
26	0xbd23701c	-0.039901838
27	0xbe793a0a	-0.24338546
28	0x3d1df1e4	0.038560763
29	0xbdd03222	-0.10165812
30	0x3d8186fc	0.06324574
31	0xbdea0550	-0.114267945
32	0x3caf6a58	0.021413013
33	0x3dea299a	0.11433716
34	0xbdc008b6	-0.093766615
35	0xbeb27a7a	-0.34859067
36	0xbd908df4	-0.070583254
37	0x3d3970f0	0.04527372
38	0xbdade050	-0.0849005
39	0xbd4ca0e4	-0.049958125
40	0xbd91021e	-0.07080482
41	0xbe759ed6	-0.23986372
42	0xbde347e2	-0.11097695
43	0x3da5efea	0.081024006
44	0x3b2f3f00	0.0026740432
45	0x3c67f7a0	0.0141581595
46	0x3ca84690	0.02054146
47	0xbe9a8edb	-0.30187115
48	0xbeb8d6f4	-0.36101496
49	0xbd04600c	-0.03231816
50	0xbd7e16e8	-0.062033564
51	0xbd507704	-0.050894752
52	0x3d4926c0	0.04910922
53	0x3dd4ada4	0.10384682
54	0x3cc5baa0	0.024136841
55	0xbe355811	-0.17709376
56	0xbe85bc47	-0.26120207
57	0xbe92b023	-0.28650007
58	0xbdfc769c	-0.123273104
59	0xbd20ce08	-0.039258987
60	0x3d675af0	0.05648321
61	0x3c10cba0	0.0088376105
62	0xbcb16020	-0.021652281
63	0xbe6e43ea	-0.23268095
64	0xbec7f12c	-0.39051187
65	0x3def8af4	0.11696425
66	0xbea15c22	-0.31515604
67	0x3c866680	0.016406298
68	0x3ddeb118	0.10873622
69	0xbe67b448	-0.22627366
70	0xbe6189e9	-0.22025265
71	0x3d941216	0.07230012
72	0x3cb7d7f0	0.022441834
73	0x3a059500	0.000509575
74	0x3d8081ea	0.06274779
75	0xbd9ed2a0	-0.07755017
76	0xbd9776c4	-0.073956996
77	0x3dcb6f88	0.09933382
78	0xbec281fe	-0.379898
79	0xbe8c6b36	-0.27425545
80	0x3d0d22d4	0.034457043
81	0x3d51d2f0	0.051226556
82	0xbdec69e6	-0.11543636
83	0xbcb03268	-0.02150841
84	0x3d442b0c	0.047892615
85	0xbe866a04	-0.26252759
86	0xbe6eafd6	-0.23309264
87	0x3cc291e8	0.023751214
88	0xbe5d4243	-0.21607308
89	0xbe1d1d4c	-0.15343207
90	0x3db1e7c2	0.086867824
91	0xbe43723c	-0.19086546
92	0x3dfc7c7e	0.123284325
93	0xbde6154a	-0.11234529
94	0xbd82b2a8	-0.06381732
95	0x3c34edd0	0.011043027
96	0x3d53fb98	0.05175361
97	0xbdbb4586	-0.0914412
98	0x3dc9c0c6	0.09851222
99	0xbe9fecef	-0.31235453
100	0xbd33ccd4	-0.04389651
101	0xbd837f36	-0.06420748
102	0xbd37439c	-0.04474221
103	0x3dd62ea8	0.10458118
104	0xbdfa45de	-0.12220357
105	0xbe32810b	-0.17432038
106	0x3d87697a	0.06611915
107	0xbdd89b3a	-0.10576482
108	0xbd9ecf48	-0.077543795
109	0xbc9a7548	-0.018854752
110	0xbd5ced44	-0.05393721
111	0xbea3ca01	-0.31990054
112	0xbe82142a	-0.2540601
113	0x3de0a442	0.1096883
114	0x3b659480	0.003503114
115	0x3dd35a24	0.10319927
116	0x3c149b00	0.009070158
117	0x3d82918a	0.063754156
118	0x3d90f2b4	0.07077542
119	0xbe880a85	-0.26570526
120	0xbe8af58e	-0.27140468
121	0xbe2aa554	-0.1666463
122	0x3d90ed64	0.07076529
123	0x3cfabd90	0.030607969
124	0x3dea1dd2	0.11431469
125	0x3d972192	0.0737945
126	0xbd8070d4	-0.0627152
127	0xbe85765d	-0.26066867
128	0xbe633cb4	-0.22191125
129	0xbe35e0fd	-0.17761607
130	0xbe8d9ec9	-0.27660206
131	0xbe8448a1	-0.2583666
132	0xbd23582c	-0.03987901
133	0x3db150b8	0.08657974
134	0xbebc7e0d	-0.3681492
135	0xbe697282	-0.22797588
136	0xbe75aef5	-0.23992522
137	0x3dd612d4	0.1045281
138	0xbec3c591	-0.3823667
139	0x3d5f9bc8	0.054591924
140	0x3d4bcb64	0.049754515
141	0x3dca6320	0.09882188
142	0xbed49590	-0.41520357
143	0x3d30a8b4	0.043129638
144	0x3dfb47f2	0.12269582
145	0xbe88df00	-0.26732635
146	0xbea0229c	-0.31276405
147	0x3cd624a0	0.026140511
148	0x3c739ce0	0.014868945
149	0xbbb12c80	-0.005406916
150	0xbec90656	-0.39262646
151	0x3bd82b80	0.0065969825
152	0x3dea5cb2	0.114434615
153	0xbed20082	-0.41016012
154	0x3dd17a96	0.102284595
155	0xbe908763	-0.28228292
156	0xbe473e88	-0.19457448
157	0xbeac0f29	-0.33605316
158	0xbd9740d8	-0.07385415
159	0x3ddca756	0.10774104
160	0xbd8b0bb4	-0.067893416
161	0xbebc51bb	-0.36781105
162	0xbcc8bf40	-0.024505258
163	0xbc880b48	-0.016606942
164	0xbec85684	-0.39128506
165	0xbdf781e6	-0.12085323
166	0xbd4c0624	-0.049810544
167	0xbe91df94	-0.2849089
168	0xbea2fc6f	-0.31833217
169	0xbe8387f7	-0.2568967
170	0xbe61933c	-0.22028822
171	0x3d98b2be	0.07455967
172	0xbd0f8b80	-0.035045147
173	0xbe8d76aa	-0.27629596
174	0x3ca4aa68	0.020100787
175	0xbe8caaa4	-0.27473938
176	0x3d869f5e	0.06573366
177	0xbdaab64c	-0.083355516
178	0x3d89e532	0.06733169
179	0xbe60ca16	-0.2195209
180	0xbc8cc2a8	-0.017182663
181	0xbe9a6ecc	-0.30162656
182	0x3cceddb0	0.025252193
183	0xbc8a69f0	-0.016896218
184	0xbe9eeba4	-0.31039155
185	0xbea4d092	-0.32190377
186	0xbe56b2ce	-0.20966646
187	0xbece0da9	-0.40244797
188	0xbe8de371	-0.27712587
189	0xbebb652e	-0.3660063
190	0xbebe64ad	-0.37186185
191	0xbc846db8	-0.0161656
192	0x3dbaa514	0.091135174
193	0xbc57af80	-0.013164401
194	0xbdd9867c	-0.10621354
195	0xbdf9d67a	-0.12199111
196	0x3d0b3524	0.033986226
197	0x3df8498e	0.121234044
198	0xbdc9b712	-0.09849371
199	0x3d71f150	0.059068024
200	0xbda143b0	-0.078742385
201	0x3cc36918	0.023853824
202	0xbd2ca6a8	-0.042151123
203	0x3d48ebb4	0.04905291
204	0xbd936a44	-0.07198003
205	0xbdc916b4	-0.098187834
206	0xbd3ac970	-0.045602262
207	0x3cb15518	0.021647021
208	0xbd329f7c	-0.043609127
209	0xbda48f8e	-0.080351934
210	0xbd0de858	-0.03464541
211	0xbd91796e	-0.07103239
212	0xbcdec6d8	-0.027194425
213	0x3ccc1c80	0.024915934
214	0xbdf446a6	-0.119275376
215	0xbc70c9c0	-0.014696538
216	0x3d77ca50	0.060495675
217	0xbda137b6	-0.07871954
218	0x3d5de350	0.05417186
219	0xbdabd1b8	-0.0838961
220	0xbbe9c980	-0.0071346164
221	0xbcca5f38	-0.024703607
222	0x3daddf8c	0.08489904
223	0x3c7e2370	0.015511379
224	0x3df41a16	0.11919038
225	0x3c0eb150	0.008709267
226	0x3dcd428c	0.100224584
227	0x3d8623b0	0.065497756
228	0x3c185530	0.009297654
229	0x3d954d22	0.072901025
230	0x3bebdec0	0.0071981847
231	0xbdc1a992	-0.09456171
232	0xbbdb29e0	-0.0066883415
233	0x3db44018	0.088012874
234	0xbda0d5cc	-0.078532785
235	0x3b1e02c0	0.0024110526
236	0x3dd2a2fc	0.10284993
237	0xbc8d0b00	-0.01721716
238	0x3d7bbcc4	0.061459318
239	0xbd7bfce8	-0.061520487
240	0x3dffe7c8	0.12495381
241	0xbd3c31d4	-0.045945957
242	0xbd091878	-0.0334706
243	0xbcabff70	-0.020995826
244	0x3daf94ea	0.08573325
245	0x3df01ae2	0.117238775
246	0x3d0b41f8	0.03399846
247	0xbdf68368	-0.120367825
248	0x3adf3800	0.0017030239
249	0xbc59a180	-0.0132831335
250	0x3de5eb56	0.112265274
251	0x3db3c1dc	0.0877721
252	0xbdd18cc0	-0.10231924
253	0xbd827ab6	-0.063710615
254	0xbd304a44	-0.043039575
255	0x3d550b90	0.05201298

bias f4 [32]
0	0xbe856200	-0.2605133
1	0xbe513d77	-0.20433603
2	0xbe39462a	-0.18093172
3	0xbc8fea80	-0.017567873
4	0xbea2ee80	-0.31822586
5	0xbcba7740	-0.022761941
6	0xbe42e7a0	-0.1903367
7	0xbe8bfb0b	-0.27339968
8	0xbe9c9872	-0.30585057
9	0x3ead0092	0.33789498
10	0xbe5efd72	-0.21776369
11	0xbe4013c5	-0.18757541
12	0xbeaaba85	-0.33345428
13	0x3cac2bc8	0.02101697
14	0xbe417822	-0.18893483
15	0x3ee40b28	0.44539762
16	0xbea14fa5	-0.31506076
17	0xbe4a2cf9	-0.19743718
18	0xbe48a37c	-0.19593614
19	0xbea592b4	-0.32338488
20	0x3edbd345	0.42934623
21	0xbe027db4	-0.12743264
22	0x3ec34f5e	0.3814649
23	0xbea86afe	-0.3289413
24	0xbe57d748	-0.21078217
25	0x3dcb443a	0.099251226
26	0xbdf61c16	-0.12017076
27	0xbc3bcd70	-0.011462554
28	0xbeaf1536	-0.3419587
29	0x3e27cc1d	0.16386457
30	0xbeaa7e53	-0.33299503
31	0x3dacab98	0.084311664

weight f4 [8, 32]
0	0x3cc53ad0	0.024075896
1	0x3dbc9fee	0.09210192
2	0x3dc7e9d2	0.097613946
3	0xbdcbb62f	-0.09946858
4	0xbe0e1f52	-0.13879135
5	0x3d9f50e2	0.07779099
6	0xbd6c655c	-0.05771385
7	0xbde5cea2	-0.11221053
8	0x3da5002e	0.08056675
9	0xbe2be386	-0.16786012
10	0xbe2dd13c	-0.16974348
11	0x3d9be076	0.07611172
12	0x3d9a44ca	0.07532652
13	0x3e0ea3ab	0.13929622
14	0xbd0f0e94	-0.034926012
15	0xbe000cdb	-0.12504904
16	0x3e0faf05	0.14031608
17	0xbdbe1089	-0.092804976
18	0xbc819688	-0.01581885
19	0xbc98fc50	-0.018675
20	0x3d1e3e54	0.03863366
21	0xbc3e4170	-0.011612281
22	0xbdfbbb67	-0.122916035
23	0xbd935a39	-0.07194943
24	0x3c733b90	0.014845744
25	0x3dbf8d5e	0.093531355
26	0x3e204d35	0.15654452
27	0x3d72434c	0.05914621
28	0xbda0e40d	-0.07855997
29	0xbd3a3a0c	-0.045465514
30	0xbe270d1f	-0.16313599
31	0xbe0a8291	-0.1352637
32	0xbe1b91c7	-0.15192328
33	0xbd7355ec	-0.059408113
34	0xbe66cdff	-0.22539519
35	0x3df07a92	0.117421284
36	0xbe93a4ca	-0.28836662
37	0xbddd7efb	-0.10815235
38	0xbec04816	-0.37554997
39	0xbec3fe07	-0.38279745
40	0xbde072bc	-0.10959384
41	0x3dcd84ca	0.10035093
42	0xbea66805	-0.32501236
43	0xbed80cf0	-0.4219737
44	0xbdc98ead	-0.09841666
45	0x3d1082dc	0.035281047
46	0xbe5e34c3	-0.21699814
47	0xbe94fd68	-0.29099584
48	0xbea7952a	-0.3273099
49	0xbec53491	-0.38516667
50	0x3e28c781	0.16482355
51	0xbe1383d8	-0.14405763
52	0xbe3d493c	-0.18484968
53	0xbeec03ee	-0.46096748
54	0xbe0183e6	-0.12647972
55	0xbee70e2c	-0.45128
56	0xbed40edf	-0.41417596
57	0x3db8d07e	0.09024142
58	0x3c20f3d0	0.009823754
59	0xbddec262	-0.10876919
60	0xbe1ef3bd	-0.15522666
61	0xbe296735	-0.16543277
62	0xbed95294	-0.42445815
63	0xbdea888e	-0.11451827
64	0x3e1d6bf5	0.15373214
65	0xbde45afe	-0.11150168
66	0x3d89ad76	0.06722538
67	0x3d8c46b8	0.06849426
68	0xbe2ee8a6	-0.17080936
69	0x3e01478d	0.1262495
70	0x3dba0992	0.09083857
71	0xbe021762	-0.12704232
72	0xbdd59d87	-0.104304366
73	0x3df2f932	0.118639365
74	0x3e06c05d	0.13159318
75	0xbdc708ab	-0.0971845
76	0x3db3a3aa	0.08771451
77	0xbd7aed06	-0.0612612
78	0x3c827ba0	0.01592809
79	0xbe20693b	-0.15665142
80	0xbe0de69f	-0.13857506
81	0x3dab0c92	0.08352007
82	0x3db0a792	0.086257115
83	0xbdec0a92	-0.115254536
84	0x3cc0a300	0.023515224
85	0x3e23d887	0.16000567
86	0x3ceac158	0.028656647
87	0xbe0d4da2	-0.13799146
88	0xbdccc2da	-0.099981025
89	0x3e2c07db	0.16799872
90	0xbe0acf29	-0.13555588
91	0x3e1095ef	0.14119695
92	0xbcca6dd0	-0.024710566
93	0x3ca5c830	0.020237058
94	0x3e032a1f	0.12809037
95	0x3d5dc364	0.054141417
96	0xbe1cb35b	-0.15302794
97	0xbdd48760	-0.10377383
98	0xbdfcf542	-0.12351467
99	0x3c1f5530	0.0097249
100	0xbd36f144	-0.044663683
101	0x3da2e25e	0.07953332
102	0xbe343bc8	-0.1760093
103	0xbc1ebbd0	-0.009688333
104	0xbe6ee267	-0.23328553
105	0xbea1e8d3	-0.31622943
106	0x3e0afe7d	0.13573642
107	0xbde12d7a	-0.10995002
108	0xbe27c327	-0.16383038
109	0x3de12152	0.109926835
110	0x3d93e6f0	0.07221782
111	0xbea7a635	-0.32743993
112	0xbe197fca	-0.14990154
113	0xbd428c90	-0.047497332
114	0xbc3711d0	-0.01117368
115	0x3dca6d22	0.09884097
116	0xbeab1b9b	-0.334195
117	0xbdfd19f9	-0.123584695
118	0xbe9fb1e1	-0.31190398
119	0x3ce9d630	0.028544515
120	0x3d23767c	0.039907917
121	0x3d6aaa5c	0.057291374
122	0xbd350900	-0.044198036
123	0xbe12bedd	-0.14330621
124	0x3de30012	0.11083998
125	0xbe9d19ff	-0.30683896
126	0xbd0aed6c	-0.03391783
127	0x3cefeaf0	0.029286832
128	0xbdddeee1	-0.10836578
129	0x3dc2c63a	0.09510465
130	0xbd95e27f	-0.07318591
131	0x3df18fde	0.117950186
132	0xbe08d550	-0.13362622
133	0xbd59f9e8	-0.053216845
134	0xbd1c4c90	-0.038158953
135	0xbdfefe82	-0.12450887
136	0x3e065b1d	0.13120694
137	0xbd92b2ac	-0.07162985
138	0x3ddc573e	0.107588276
139	0x3d63b194	0.055589274
140	0x3dbb688a	0.091507986
141	0xbe0528db	-0.13003866
142	0xbd8e3375	-0.069434084
143	0xbe00185c	-0.12509292
144	0xbe1d8dab	-0.15386073
145	0xbe271253	-0.16315584
146	0xbd0781a4	-0.03308262
147	0x3e3078f3	0.17233638
148	0xbdc1b96e	-0.09459196
149	0xbd90c83d	-0.070694424
150	0x3c8f5b90	0.017499715
151	0xbdb85375	-0.09000293
152	0xbdad536a	-0.084631756
153	0x3e141789	0.14462103
154	0xbcbf3318	-0.023339793
155	0x3dfa38a2	0.12217833
156	0xbda2f257	-0.07956379
157	0x3df42876	0.1192178
158	0x3dbd1442	0.092323795
159	0x3bc47780	0.005995691
160	0x3d3b5da4	0.0457436
161	0xbe22d1e1	-0.15900375
162	0xbe0ad81f	-0.13559006
163	0xbd2720cc	-0.040802762
164	0xbe83cb2d	-0.25740948
165	0xbe301a66	-0.1719757
166	0xbe3fbee7	-0.18725167
167	0xbe35f679	-0.17769803
168	0xbe26253d	-0.16225143
169	0x3d86ccc2	0.06582023
170	0xbe9a024a	-0.3007987
171	0xbe82ba12	-0.25532585
172	0xbdcca96b	-0.099932514
173	0xbdbad4ab	-0.091225944
174	0xbe942c8b	-0.28940234
175	0xbebf0042	-0.37304884
176	0xbe794ba6	-0.24345264
177	0xbe41f85c	-0.18942398
178	0xbe07f3a8	-0.13276541
179	0xbe4439e4	-0.19162709
180	0xbea990e5	-0.33118358
181	0xbeb0923b	-0.34486565
182	0x3d92b78c	0.07163915
183	0xbe3f9f3a	-0.18713084
184	0xbe7e6936	-0.24844822
185	0x3d34ef0c	0.044173285
186	0xbe0d8fb8	-0.13824356
187	0x3d28f7ac	0.041251823
188	0xbe05c4ac	-0.13063306
189	0xbdbe4bf5	-0.092918314
190	0xbe9fc0eb	-0.31201872
191	0x3dba57fa	0.090988114
192	0xbe260815	-0.1621402
193	0x3df93d6a	0.12169917
194	0xbe2afdc1	-0.16698362
195	0x3dbf9186	0.09353928
196	0xbdcd6517	-0.10029047
197	0xbd9a3e85	-0.07531456
198	0x3db29526	0.08719854
199	0xbdb2ebb1	-0.08736361
200	0x3bf763e0	0.007549748
201	0x3dd83986	0.10557847
202	0x3dd10a5e	0.102070555
203	0xbdd7a5ce	-0.105296716
204	0x3d2917a0	0.041282296
205	0x3d284388	0.041080028
206	0x3d1e5180	0.038651943
207	0xbe22eeac	-0.15911359
208	0xbe0e58bb	-0.13901035
209	0xbe0c4a94	-0.13700324
210	0x3d969d96	0.07354276
211	0xbd244810	-0.040107787
212	0x3d7cacfc	0.06168841
213	0x3d2bca94	0.04194124
214	0xbe3435a0	-0.17598581
215	0x3e01e37b	0.12684433
216	0xbdb636af	-0.08897149
217	0xbdb93a86	-0.090443656
218	0xbd4b0be8	-0.0495719
219	0x3c3c6590	0.011498824
220	0xbc8b1ed0	-0.016982466
221	0xbd8cff8f	-0.068846814
222	0x3dcea26e	0.10089575
223	0xbda49e2c	-0.080379814
224	0xbdac6015	-0.08416764
225	0xbe1f800c	-0.1557619
226	0xbea5e981	-0.32404712
227	0x3d63efd4	0.05564864
228	0xbe182c71	-0.14860703
229	0x3d90aa74	0.07063761
230	0xbea919e8	-0.33027577
231	0xbec92bcb	-0.39291224
232	0xbdb81431	-0.08988226
233	0xbd977557	-0.07395428
234	0xbe8d9bf2	-0.2765804
235	0xbed02090	-0.40649843
236	0x3dbe02d2	0.09277882
237	0x3d8860cc	0.066590875
238	0xbe47a372	-0.19495943
239	0xbea8bb40	-0.3295536
240	0xbe926e53	-0.28599796
241	0xbe2e36a1	-0.17013027
242	0xbe91f024	-0.28503525
243	0xbe739f43	-0.23791222
244	0xbe8db2be	-0.27675432
245	0xbe69a167	-0.22815476
246	0xbe21efea	-0.15814176
247	0xbe013ff8	-0.12622058
248	0xbeec6cca	-0.4617675
249	0xbd127688	-0.03575757
250	0x3e253587	0.161337
251	0xbdab3be4	-0.083610326
252	0xbe99b7e3	-0.30023107
253	0x3dac03f2	0.0839919
254	0xbe6d3d05	-0.23167808
255	0xbd99fca6	-0.07518892

bias f4 [8]
0	0xbd511a44	-0.05105044
1	0xbea6d4ed	-0.32584324
2	0x3c2cc800	0.010545731
3	0xbe96f215	-0.2948157
4	0xbc5c5c70	-0.013449773
5	0xbe295b27	-0.16538678
6	0xbdf65a82	-0.12028982
7	0xbe9f31c5	-0.3109266

weight f4 [4, 8]
0	0x3e97dfc7	0.29662916
1	0xbe5bd060	-0.21466208
2	0xbea53676	-0.32268113
3	0xbe3bce8b	-0.18340509
4	0xbdd83506	-0.105569884
5	0xbe959ce0	-0.2922125
6	0x3e55d702	0.208828
7	0x3e83769b	0.25676426
8	0x3c386060	0.011253446
9	0xbe6d0a78	-0.23148525
10	0x3e2030fe	0.15643689
11	0xbe94d9bf	-0.29072377
12	0x3e945105	0.28968063
13	0xbdf06688	-0.11738306
14	0x3eab72a7	0.3348591
15	0x3df13270	0.11777198
16	0xbe33ddaa	-0.17565027
17	0x3e44ccce	0.19218752
18	0xbe9a56e9	-0.30144432
19	0x3e195f9a	0.14977875
20	0x3dc240fc	0.09485051
21	0x3e10a2fc	0.14124674
22	0x3c7ce280	0.015434861
23	0xbe1c9094	-0.15289527
24	0xbc883cb0	-0.0166305
25	0x3e336d52	0.17522171
26	0x3e8689f3	0.26277122
27	0xbe1891fb	-0.14899437
28	0xbd2ec730	-0.04267043
29	0x3e86a981	0.26301196
30	0x3e96a725	0.29424396
31	0x3cfb5e10	0.030684501

bias f4 [4]
0	0x3e3da776	0.18520913
1	0x3db207b0	0.086928725
2	0x3e636876	0.22207817
3	0x3e0172bc	0.12641424
