training/ann/models/ann6.pth (torch, 68622 bytes, 10 tensors)

weight f4 [128, 40]
0.04672815 -0.08117783 0.05880454 0.0015434772 -0.02054362 -0.037561744 -0.009517252 -0.1226102
0.02971813 -0.153995 0.020660147 0.14133586 -0.118544094 0.033960536 -0.13337816 0.09881966
0.100834265 0.11631961 -0.14516258 -0.113076895 0.04623398 -0.12844035 0.14588623 0.0074092895
0.099794075 -0.08884617 0.07097162 0.15100493 -0.03510931 -0.050463192 0.11758371 -0.072191454
0.10488777 -0.09802959 0.121515885 -0.002976641 0.015770525 -0.09436858 0.10770528 0.07406843
-0.016227461 -0.04967514 -0.005973522 0.03700079 0.05223044 -0.22418411 0.17493376 0.034859963
-0.087741315 0.008548359 -0.020362759 0.0038323686 -0.107913874 -0.027711617 -0.08832552 0.10414899
-0.044822235 -0.13018796 -0.11528543 0.11224385 0.0092170965 -0.16675504 0.029912967 -0.02018457
-0.16303664 0.019209884 -0.11810227 0.07749296 -0.041428406 -0.054514166 0.02389437 -0.07912476
-0.071894154 -0.17475125 0.017074678 -0.09962357 -0.10542762 0.14926253 -0.13489087 0.068053015
-0.131517 -0.0007389823 -0.123190045 0.06708413 0.06663184 0.04293396 0.051239997 0.08125457
0.00771419 0.022908296 -0.11803195 -0.04638611 -0.16964762 -0.18408692 -0.19991235 0.07724674
0.048646197 0.0475864 0.02532731 -0.070165105 -0.0061395373 0.07655409 -0.04432676 -0.12299795
0.009740453 -0.11147521 -0.09704095 -0.09034606 -0.15114288 -0.16943462 -0.08431178 -0.07147038
-0.11086612 -0.18474706 -0.10736122 -0.00418947 -0.09517175 -0.13097224 0.07742633 -0.12870409
-0.3928526 -0.06124498 -2.9516475 -0.39329144 0.5990255 -0.25194415 2.3160596 -1.3625513
0.033238795 -6.6718483 4.085325 -1.527593 0.353575 -2.4050841 1.007602 4.276691
-3.1922128 -1.4623705 0.33293372 -2.4529529 1.4119407 -0.9608185 2.3282614 -2.33185
1.5048456 -0.4326684 1.8737726 1.4339125 -4.550956 4.360719 -4.1304946 -0.9056407
0.017366726 3.8321404 -3.3876026 -2.0772336 0.42056772 1.2844794 0.6673142 -1.8834957
-0.1523064 -0.108865395 -0.1385653 0.04822719 -0.059641764 -0.0040815473 0.10266085 -0.092193164
-0.14136493 -0.13381653 0.10861598 0.15051444 0.004766315 0.042331412 0.050581202 0.13787599
-0.12606403 -0.07014085 0.04520765 0.068158254 -0.08291562 -0.13441104 -0.030218482 -0.10158124
-0.037692346 -0.15029585 -0.04326704 0.04432535 -0.01889342 0.028382868 -0.105649136 -0.12820546
0.024522543 -0.10375798 -0.15273307 -0.0683547 -0.15325177 -0.09192329 0.10703169 0.020262778
0.059301183 -0.1122747 -0.06551581 -0.0639142 -0.055909 0.110614195 -0.11471893 0.040283814
-0.0110293925 0.032339618 0.10662992 0.0120501965 0.09879042 0.03654401 -0.08561783 0.059486866
0.103562996 0.021937847 -0.029763818 -0.009034395 -0.12565967 -0.06807389 -0.033705615 -0.13757423
-0.13074756 -0.14248213 -0.08196672 0.12919264 0.06090398 0.07157475 0.029238537 -0.042024463
0.052509442 0.1043119 -0.059906587 0.012401447 0.13065688 -0.13165238 -0.1012176 -0.010454148
0.077506095 -0.06250274 0.08031188 -0.04748916 -0.055811964 0.033286765 -0.044016197 -0.040302925
0.065922305 -0.10880668 0.1264853 -0.09123132 0.031793013 -0.00051003695 0.11412327 -0.05701556
00000000: 0466 3f3d 9040 a6bd 08dd 703d 804e ca3a
00000010: 184b a8bc 58da 19bd 40ee 1bbc 0e1b fbbd
00000020: 7073 f33c deb0 1dbe 783f a93c 59ba 103e
00000030: 3fc7 f2bd 341a 0b3d 4994 08be f661 ca3d
00000040: 3282 ce3d fa38 ee3d 80a5 14be dc94 e7bd
00000050: d85f 3d3d de85 03be 3363 153e a0c9 f23b
00000060: d660 cc3d fbf4 b5bd 9259 913d 09a1 1a3e
00000070: c8ce 0fbd 7eb2 4ebd bacf f03d 1dd9 93bd
00000080: 66cf d63d bdc3 c8bd 52dd f83d c013 43bb
00000090: 3031 813c 5044 c1bd 9694 dc3d 30b1 973d
000000a0: 74ef 84bc 2978 4bbd 89bd c3bb 248e 173d
000000b0: 96ef 553d 8590 65be d621 333e 52c9 0e3d
000000c0: b8b1 b3bd 6b0e 0c3c cdcf a6bc 7a28 7b3b
000000d0: f301 ddbd 7903 e3bc 03e4 b4bd 114c d53d
000000e0: 8597 37bd fe4f 05be c41a ecbd 1be0 e53d
000000f0: 4e03 173c d5c1 2abe 0a0c f53c 1d5a a5bc
00000100: 14f3 26be 0c5e 9d3c 9adf f1bd a1b4 9e3d
00000110: d5b0 29bd 3f4a 5fbd 20be c33c 2a0c a2bd
00000120: 3e3d 93bd fef1 32be 32e0 8b3c 7107 ccbd
00000130: 70ea d7bd 47d8 183e d520 0abe 615f 8b3d
00000140: 64ac 06be 43b8 41ba 104b fcbd 6863 893d
00000150: 4676 883d 85db 2f3d 08e1 513d cc68 a63d
00000160: 51c7 fc3b 2eaa bb3c bcba f1bd 5dff 3dbd
00000170: 1bb8 2dbe 4881 3cbe d3b5 4cbe 8a33 9e3d
00000180: 3c41 473d f5e9 423d 387b cf3c b9b2 8fbd
00000190: 2c2e c9bb 64c8 9c3d fa8f 35bd 59e6 fbbd
000001a0: 6c96 1f3c 1d4d e4bd 68bd c6bd 5b07 b9bd
000001b0: 33c5 1abe 4580 2dbe a8ab acbd 105f 92bd
000001c0: c70d e3bd 552e 3dbe 33e0 dbbd d247 89bb
000001d0: 68e9 c2bd 961d 06be b291 9e3d 01cb 03be
000001e0: fa23 c9be 04dc 7abd cbe7 3cc0 7f5d c9be
000001f0: bc59 193f d3fe 80be 523a 1440 1568 aebf
00000200: 6725 083d c87f d5c0 fbba 8240 2b88 c3bf
00000210: c807 b53e e6ec 19c0 1af9 803f a7da 8840
00000220: 374d 4cc0 f52e bbbf 4a76 aa3e 2efd 1cc0
00000230: 79ba b43f 34f8 75bf 3c02 1540 083d 15c0
00000240: c89e c03f b686 ddbe c8d7 ef3f 728a b73f
00000250: 6ea1 91c0 038b 8b40 032d 84c0 12d8 67bf
00000260: aa44 8e3c ca41 7540 7bce 58c0 65f1 04c0
00000270: a754 d73e d269 a43f 1ad5 2a3f 6316 f1bf
00000280: 35f6 1bbe d2f4 debd 10e4 0dbe e089 453d
00000290: ec4a 74bd 80be 85bb da3f d23d c5cf bcbd
000002a0: f8c1 10be 3307 09be 0e72 de3d 7520 1a3e
000002b0: c02e 9c3b b463 2d3d 3c2e 4f3d 5d2f 0d3e
000002c0: ee16 01be 02a6 8fbd a82b 393d 8e96 8b3d
000002d0: aacf a9bd 0ca3 09be c08c f7bc d309 d0bd
000002e0: 4a63 1abd 28e7 19be c838 31bd 808e 353d
000002f0: 60c6 9abc 3083 e83c 935e d8bd 4b48 03be
00000300: 80e3 c83c 107f d4bd 0f66 1cbe 8dfd 8bbd
00000310: 08ee 1cbe 4742 bcbd 6e33 db3d 20fe a53c
00000320: cce5 723d 47f0 e5bd 272d 86bd 73e5 82bd
00000330: d600 65bd b289 e23d c2f1 eabd a400 253d
00000340: a0b4 34bc 8c76 043d ca60 da3d 306e 453c
00000350: a252 ca3d 2caf 153d 6758 afbd 80a8 733d
00000360: d618 d43d 00b7 b33c 40d3 f3bc 0005 14bc
00000370: eeac 00be 536a 8bbd e60e 0abd 42e0 0cbe
00000380: b0e2 05be d6e6 11be 2bde a7bd 134b 043e
00000390: 7476 793d c895 923d a885 ef3c d821 2cbd
000003a0: 2414 573d 7aa1 d53d 9c60 75bd 702f 4b3c
000003b0: ebca 053e e2cf 06be 2c4b cfbd e047 2bbc
000003c0: 84bb 9e3d 7001 80bd 8e7a a43d fe83 42bd
000003d0: 169b 64bd b457 083d 544a 34bd ae14 25bd
000003e0: 4602 873d 09d6 debd 5d85 013e 7cd7 babd
000003f0: 6439 023d 00b4 05ba 76b9 e93d 2689 69bd

bias f4 [128]
-0.08976195 -0.08179685 -0.04250546 0.12283872 -0.09343286 -0.09560196 0.015406296 -0.15926172
0.14193659 0.06760438 -0.19260539 0.06575051 -0.13913956 0.050377943 0.055581965 0.02137895
0.08637273 0.04575549 0.011225879 -0.1510476 -0.032477796 -0.05777302 -0.06774187 -0.15619795
-0.07723382 -0.23422866 0.09976684 -0.06533511 0.11967261 -0.19070776 -0.0068958746 0.053022463
-0.06100156 0.07716057 -0.15441424 -0.14426963 0.07041231 -0.03932723 0.015596256 -0.27638197
0.07720227 0.087001696 0.08556501 -0.017896011 -0.057726648 -0.11080484 -0.00076015666 0.12744789
0.11620043 -0.25045282 -0.05328655 -0.029572159 -0.00949344 0.057990316 -0.049349345 -0.09775489
-0.21634397 -0.0939966 -0.04129968 -0.0006459484 -0.053607315 0.057641074 0.04369087 -0.28346276
-0.065017946 -0.13307278 0.062880605 0.0018331851 0.018737327 -0.19474927 -0.330551 0.15701918
-0.21850649 -0.16901633 0.05302173 -0.28394955 0.09529135 -0.14467947 0.026046813 0.09284748
-0.12264171 -0.0776259 0.06056702 -0.26285392 0.015465341 -0.095565975 0.010284794 -0.11927655
0.1578312 -0.2373369 -0.008432898 -0.09600747 -0.1526036 -0.08453078 -0.13677743 0.1139753
-0.15684608 -0.14852199 -0.117397465 0.057926834 -0.068516254 -0.00016819396 0.01167822 -0.021998715
-0.17155415 -0.042965822 -0.115142085 -0.21605909 0.044173613 -0.22302039 -0.17679226 0.08619163
-0.25322622 -0.17531301 -0.13635176 0.15824547 -0.153535 0.09219067 -0.14287311 -0.030270621
-0.2621312 0.018046826 -0.15167601 -0.18672073 0.14072253 0.14819081 0.026475182 -0.3391876
00000000: 1dd5 b7bd 1b85 a7bd 351a 2ebd de92 fb3d
00000010: ba59 bfbd f6ca c3bd b06a 7c3c 8115 23be
00000020: d357 113e 2a74 8a3d 593a 45be 34a8 863d
00000030: 9a7a 0ebe 1a59 4e3d eaa9 633d e822 af3c
00000040: 30e4 b03d 1c6a 3b3d c0ec 373c 39ac 1abe
00000050: 7007 05bd 67a3 6cbd 40bc 8abd 5bf2 1fbe
00000060: c42c 9ebd a3d9 6fbe 8f52 cc3d 6ace 85bd
00000070: ea16 f53d e548 43be caf6 e1bb 152e 593d
00000080: c6dc 79bd 5c06 9e3d c41e 1ebe 6bbb 13be
00000090: 5434 903d 9715 21bd 7087 7f3c f081 8dbe
000000a0: 391c 9e3d f22d b23d b53c af3d a89a 92bc
000000b0: c772 6cbd a6ed e2bd 4045 47ba b381 023e
000000c0: 7efa ed3d 5a3b 80be ff42 5abd 5041 f2bc
000000d0: 608a 1bbc 4187 6d3d 8a22 4abd b733 c8bd
000000e0: 4689 5dbe 4a81 c0bd da29 29bd dd54 29ba
000000f0: 5893 5bbd 0c19 6c3d 33f5 323d 0822 91be
00000100: 2128 85bd 3b44 08be 8cc7 803d 7c47 f03a
00000110: 067f 993c 5a6c 47be fb3d a9be a3c9 203e
00000120: 2ac0 5fbe 9e12 2dbe 502d 593d d661 91be
00000130: 1c28 c33d db26 14be 2060 d53c d226 be3d
00000140: 942b fbbd 54fa 9ebd 2015 783d ca94 86be
00000150: 5762 7d3c 18b8 c3bd 8d81 283c 4447 f4bd
00000160: 819e 213e 7208 73be 232a 0abc 909f c4bd
00000170: 1e44 1cbe 791e adbd 620f 0cbe e26b e93d
00000180: 429c 20be 2616 18be 156e f0bd b044 6d3d
00000190: 4052 8cbd 395d 30b9 0156 3f3c a636 b4bc
000001a0: e4ab 2fbe eefc 2fbd 9dcf ebbd 983e 5dbe
000001b0: 64ef 343d 755f 64be 0809 35be 3d85 b03d
000001c0: dea6 81be 4185 33be cc9f 0bbe 1a0b 223e
000001d0: 4738 1dbe 76ce bc3d 544d 12be 18fa f7bc
000001e0: 1036 86be f0d6 933c f550 1bbe b833 3fbe
000001f0: 9119 103e 55bf 173e 7be2 d83c ffa9 adbe

weight f4 [64, 128]
-0.06238026 0.07407486 -0.023460947 -0.16546054 0.075936176 -0.061446723 0.063551985 -0.058751505
-0.18475458 0.081305824 -0.12845168 -0.05011943 0.039494254 -0.1599327 -0.036477834 -0.055677164
0.03253036 0.06936275 -0.023119546 -0.108962275 0.07657101 -0.057238474 0.072155766 0.03784702
-0.063298665 0.02415207 -0.048847914 -0.10793122 0.051846392 -0.05798958 -0.02318512 -0.0037030205
0.050238602 0.0831439 0.046092547 -0.04421436 -0.044789646 -0.13660643 -0.045687594 -0.07617311
-0.071064346 -0.067431785 0.026143745 -0.0654167 -0.05449361 0.02025228 0.02644018 0.042967536
-0.025593638 -0.12548663 -0.07204232 0.029159203 -0.05240146 -0.09239602 0.0053656846 0.005955167
-0.04575719 -0.10940936 -0.065608636 0.009755455 -0.027047485 0.06320814 -0.12474265 -0.12918286
0.075405054 0.034517013 -0.0026376992 -0.07090417 -0.15562484 -0.021632142 -0.12944742 -0.07395521
-0.119919255 -0.1899505 -0.024496846 -0.011064075 0.058973126 -0.046075135 -0.030187499 0.047625743
0.0071331784 -0.12415256 0.006724909 -0.06006422 -0.16362125 0.08513107 -0.05841392 0.020779125
0.08423748 -0.13650025 -0.10525228 -0.053265423 -0.028066134 0.023282744 -0.12709142 0.082924895
-0.082537584 0.05926571 -0.03919769 0.012784347 -0.101326466 -0.062338345 0.07114514 -0.07803058
0.072516225 0.0687586 -0.015729196 0.082684346 -0.025260694 0.0033842325 0.0053264573 0.03383311
-0.11415317 -0.0997655 -0.0755104 -0.11636913 -0.061310787 0.004133001 -0.053464055 -0.06311048
-0.11380967 -0.04130643 -0.052059077 -0.06443107 -0.03264343 -0.08170095 -0.18608995 -0.177994
0.06410829 -0.037946265 0.014616727 -1.1449353 0.023789704 0.07001134 0.08030405 0.47438782
-1.693491 0.013792865 -0.037755452 -0.085808404 -0.034137387 -0.04696935 0.06405529 -0.0056279004
0.026863307 0.08298197 -0.07693924 -0.11679425 -0.055955503 -0.031105574 0.03352513 -0.04314534
0.012745842 -0.086327866 0.5069218 0.04573379 0.07689517 -0.20248413 -0.058937207 0.0051779286
0.05459144 -0.033602405 -0.054465793 0.07830561 0.016291052 -0.0029999036 0.047579877 0.041221146
-0.061420143 0.028550968 0.061274137 -0.023925103 -0.10596186 -0.06947219 0.020501202 0.024617977
-0.08350027 0.016939705 -0.10519386 -0.034697592 0.087097146 0.20024037 0.07490636 -0.012751073
0.08980632 0.03199247 0.012400106 -0.027522413 -0.07872589 -0.044656683 -0.14287259 -0.7549877
-0.037919033 -0.059327748 0.03378173 -0.046658393 -0.10731914 0.04162594 -0.15724993 -0.048381105
-0.02203007 0.0022938685 0.023017123 -0.05730337 0.0056413226 0.006157592 0.027237736 0.04810629
-0.054657277 -0.2507061 0.03394989 -0.024687989 -0.09845603 -0.068412386 -0.0794784 0.059216075
0.059999235 0.05858239 -0.027103923 -0.07183102 -0.118632555 0.051645614 -0.057657424 -0.04359394
-0.09038615 0.017517464 -0.048693873 -0.08092057 0.032472108 -1.9099982 -0.1438698 0.018189918
0.029808711 0.036687173 0.013984442 0.049835656 0.05902749 -0.023794651 0.05970133 -0.030326895
-0.12427567 0.039551303 0.003166949 1.1445711 0.047377624 -0.035511352 0.046023123 0.022673339
-0.054197416 0.017353877 -1.2980268 -0.05343712 -0.06573397 -0.0037657395 -0.029810406 -0.602466
00000000: 7282 7fbd 8fb4 973d 2c31 c0bc 7d6e 29be
00000010: 6d84 9b3d 8faf 7bbd 8b27 823d 6ba5 70bd
00000020: 4e30 3dbe ab83 a63d d688 03be 084a 4dbd
00000030: bac4 213d 66c5 23be c869 15bd bd0d 64bd
00000040: 8e3e 053d 0f0e 8e3d 3465 bdbc 9d27 dfbd
00000050: 43d1 9c3d e472 6abd 67c6 933d 7a05 1b3d
00000060: bba2 81bd 90da c53c c014 48bd 0b0b ddbd
00000070: e25c 543d 7b86 6dbd b9ee bdbc 60ae 72bb
00000080: fec6 4d3d 5947 aa3d 8acb 3c3d 1e1a 35bd
00000090: 5975 37bd 8ee2 0bbe ea22 3bbd a600 9cbd
000000a0: 2f8a 91bd ad19 8abd 682b d63c 31f9 85bd
000000b0: b134 5fbd 1ce8 a53c 1499 d83c bafe 2f3d
000000c0: c0a9 d1bc 917f 00be ed8a 93bd 48df ee3c
000000d0: eaa2 56bd 203a bdbd a0d2 af3b 9023 c33b
000000e0: e46b 3bbd 0412 e0bd d25d 86bd 58d5 1f3c
000000f0: b092 ddbc 4573 813d 1379 ffbd 8348 04be
00000100: f76d 9a3d b661 0d3d 40dd 2cbb 3536 91bd
00000110: 1e5c 1fbe e435 b1bc dd8d 04be d475 97bd
00000120: 3a98 f5bd 6282 42be 9cad c8bc 1846 35bc
00000130: ce8d 713d 48b9 3cbd c64b f7bc 3613 433d
00000140: 70bd e93b b343 febd a05c dc3b e605 76bd
00000150: 548c 27be 3359 ae3d 6f43 6fbd fc38 aa3c
00000160: b384 ac3d b9c6 0bbe 828e d7bd d82c 5abd
00000170: f3ea e5bc 74bb be3c 4124 02be 87d4 a93d
00000180: 7709 a9bd 9ac0 723d c28d 20bd 7075 513c
00000190: 4084 cfbd 7e56 7fbd 8bb4 913d 7fce 9fbd
000001a0: 6383 943d 4fd1 8c3d 84da 80bc 6956 a93d
000001b0: 84ef cebc 00ca 5d3b 9089 ae3b 9694 0a3d
000001c0: 23c9 e9bd db51 ccbd 32a5 9abd f052 eebd
000001d0: 0521 7bbd 206e 873b 20fd 5abd 1140 81bd
000001e0: 0b15 e9bd ee30 29bd e63b 55bd 70f4 83bd
000001f0: 1eb5 05bd d452 a7bd 5d8e 3ebe 0f44 36be
00000200: 354b 833d 8b6d 1bbd ff7a 6f3c 3d8d 92bf
00000210: a0e2 c23c 1b62 8f3d 7376 a43d f6e2 f23e
00000220: 50c4 d8bf 78fb 613c 76a5 1abd 51bc afbd
00000230: a5d3 0bbd ef62 40bd 6b2f 833d 406a b8bb
00000240: 7010 dc3c 73f2 a93d 5292 9dbd d331 efbd
00000250: 9931 65bd 1ed1 febc a651 093d 2bb9 30bd
00000260: f0d3 503c aacc b0bd a1c5 013f 5b53 3b3d
00000270: 377b 9d3d 0058 4fbe 2468 71bd 9dab a93b
00000280: 469b 5f3d ada2 09bd 8617 5fbd b15e a03d
00000290: d074 853c 089a 44bb 1ee3 423d 81d7 283d
000002a0: b093 7bbd b8e3 e93c 97fa 7a3d 94fe c3bc
000002b0: 8802 d9bd 7047 8ebd 23f2 a73c a4ab c93c
000002c0: 3102 abbd 23c5 8a3c e16f d7bd 101f 0ebd
000002d0: fd5f b23d d00b 4d3e 8168 993d e0e9 50bc
000002e0: 60ec b73d 890a 033d d029 4b3c af76 e1bc
000002f0: 0a3b a1bd ede9 36bd 314d 12be e046 41bf
00000300: fd50 1bbd a701 73bd b65e 0a3d df1c 3fbd
00000310: 23ca dbbd f67f 2a3d 2006 21be 442b 46bd
00000320: 6878 b4bc ba54 163b 688e bc3c f0b6 6abd
00000330: d8da b83b a0c5 c93b ac21 df3c 1a0b 453d
00000340: 4fe0 5fbd 8d5c 80be 0a0f 0b3d 773e cabc
00000350: 51a3 c9bd cb1b 8cbd 92c5 a2bd 8e8c 723d
00000360: c2c1 753d 17f4 6f3d 0c09 debc 241c 93bd
00000370: a0f5 f2bd 5a8a 533d 312a 6cbd 8f8f 32bd
00000380: 601c b9bd c980 8f3c 3a73 47bd afb9 a5bd
00000390: 7901 053d d27a f4bf 9b52 13be 0603 953c
000003a0: 6631 f43c 4a45 163d 001f 653c 7920 4c3d
000003b0: cfc6 713d 00ed c2bc 6289 743d 1c70 f8bc
000003c0: 3e84 febd 8c00 223d 968c 4f3b 4e81 923f
000003d0: 0a0f 423d 5a74 11bd be82 3c3d 70bd b93c
000003e0: 1cfe 5dbd b829 8e3c be25 a6bf e2e0 5abd
000003f0: 889f 86bd a0ca 76bb f434 f4bc 363b 1abf

bias f4 [64]
-0.08874473 -0.9668277 -0.2859401 -0.30681583 -0.12075981 -0.024378091 -0.09376318 -0.0961294
-0.620994 -0.3089526 -0.12374124 -0.0889684 -0.07029541 -0.26599425 -0.09189447 0.26775
-0.038525313 -0.10358797 -0.68081945 -0.1068106 -0.067627735 -0.25610927 -0.07008525 -0.095598966
-0.40095362 0.38746274 -0.048978765 -0.3628688 0.10622157 -1.6823033 -0.039287984 -0.11383491
-0.0304851 -0.31846932 -0.03975629 -0.25148302 -0.39753935 -0.12158384 0.35196418 -0.8558417
0.31041697 -0.18767516 -0.26252395 -0.06757748 -0.09239296 -0.3378335 -0.061580077 -0.06579545
-0.3638318 -0.029130751 -0.060351193 -0.23631224 0.82918084 -0.10253015 -0.38051844 0.0009244583
-0.161989 0.010974565 0.10314049 -0.16138703 -0.19642743 -0.21126273 0.15323274 -0.42467517
00000000: ccbf b5bd 0582 77bf be66 92be f716 9dbe
00000010: eb50 f7bd 90b4 c7bc e906 c0bd 7edf c4bd
00000020: 76f9 1ebf 092f 9ebe 0c6c fdbd 1135 b6bd
00000030: 0af7 8fbd 6630 88be 2b33 bcbd 8716 893e
00000040: b8cc 1dbd ee25 d4bd 2f4a 2ebf 84bf dabd
00000050: 6980 8abd c120 83be db88 8fbd 64c9 c3bd
00000060: cb49 cdbe 8461 c63e f59d 48bd f0c9 b9be
00000070: b28a d93d b755 d7bf 70ec 20bd 4722 e9bd
00000080: e3bb f9bc 690e a3be 7ed7 22bd 62c2 80be
00000090: 478a cbbe f300 f9bd a634 b43e 7118 5bbf
000000a0: f9ee 9e3e eb2d 40be 8a69 86be 1066 8abd
000000b0: 8538 bdbd 83f8 acbe 643b 7cbd c4bf 86bd
000000c0: 2948 babe 9da3 eebc d032 77bd d6fb 71be
000000d0: 3245 543f 54fb d1bd 50d3 c2be 5957 723a
000000e0: 72e0 25be a9ce 333c 523b d33d a442 25be
000000f0: 4624 49be 4255 58be 0be9 1c3e 066f d9be

weight f4 [32, 64]
-0.09219777 -0.46798345 -0.0034470754 -0.0028670975 0.015829504 0.04742302 0.03222802 -0.028453529
-0.30470353 0.106874265 0.22852114 0.06134089 -0.057054833 -0.12145668 0.04619755 0.42041135
0.0012063297 0.0056086616 0.27103472 0.07728769 0.063098736 0.08108379 -0.05375315 0.0602483
-0.22701755 0.6305212 0.08649141 0.2308517 -0.65925556 -0.4241418 0.0075126756 0.21911633
0.120395266 0.1253332 0.3257116 0.0336164 0.30453086 -0.050971437 0.05204149 0.46887338
-0.11523765 0.12229824 0.09850447 0.055324305 0.08595052 0.029255688 0.0070486544 0.05563698
0.34676236 0.0032907873 0.11661402 0.018073319 0.15685295 0.08527737 0.3270891 0.1230949
-0.04165383 0.009719777 -0.55479556 -0.057212748 -0.07545577 0.23898654 0.39030093 -0.83197284
0.04856409 0.07793109 -0.05349368 -0.059847753 0.10491266 0.019527504 0.057570554 -0.055567298
0.06479715 0.07873994 -0.10765734 0.02352553 -0.032393485 0.096877575 0.06343472 -0.14828385
0.06691888 0.10075312 -0.16485278 -0.052313134 0.03676682 0.07225694 0.027032077 -0.057777703
-0.03071776 -0.06786991 0.061867744 0.03767767 -0.10789937 -0.09970913 -0.03835021 -0.105164945
0.010749757 0.0036803484 0.0630112 0.024164462 -0.09917541 -0.06010893 -0.11595616 0.0005104041
-0.12530063 -0.1047644 0.012775242 0.080946 -0.06318899 -0.0132477665 0.11645603 -0.008139986
-0.0075177876 -0.04028678 0.15538038 -0.02543449 -0.106568806 0.17193112 0.027853817 0.115447775
0.12330355 -0.03001203 -0.09732908 0.15742117 0.068150334 0.005687669 -0.14506003 -0.14618666
-0.03761901 -0.04647565 -0.10661934 -0.09178954 -0.050986513 -0.18299608 -0.044257402 -0.044229925
-0.00047056377 -0.015447825 0.062057227 0.08799292 -0.24370526 0.10706203 0.051204756 0.035905987
0.033190235 -0.048232496 -0.14295007 -0.011405796 -0.03369522 -0.111997604 0.022173062 -0.07801603
-0.07939316 -0.2634094 -0.11148897 -0.065139025 -0.28107136 -0.20898652 -0.07535292 -0.066004336
0.030779764 -0.07116456 0.008206636 -0.11156654 -0.011238247 -0.19479942 -0.34589496 -0.25697544
-0.2142468 -0.057230964 -0.05146335 0.10368684 0.024497151 -0.016168937 -0.045353025 -0.039852366
-0.20662662 -0.09885284 0.109806925 -0.007630512 -0.15096456 0.07093495 -0.112350315 -0.0655618
0.07515657 0.12363334 -0.1706875 0.028062046 -0.06890865 -0.022432055 -0.34023544 -0.36780873
-0.055133805 -0.122215 0.11289504 0.10976444 0.071031675 -0.16677506 0.123502225 -0.045694366
-0.018193498 -0.08920835 0.03571418 0.082392365 0.049550682 -0.08557911 0.107839644 -0.13803105
-0.072203636 0.06501889 -0.07084218 0.0704909 -0.02175726 0.032426104 -0.0096298605 0.116447344
0.056539357 0.04268688 -0.11432804 0.06919935 -0.17046435 -0.10246926 -0.018161386 -0.03850299
0.06498365 0.15349582 0.06445563 -0.21935523 -0.11370255 -0.21494444 -0.21678537 0.015572369
-0.17723519 -0.056943193 0.030660719 0.021987006 0.015942782 -0.0484806 -0.11145909 0.10291378
0.02072367 0.0070250332 -0.09658787 0.028815582 -0.048406903 -0.014791563 0.02062495 -0.007856265
-0.11773597 -0.110912874 -0.05717205 -0.05049461 -0.083863884 0.085822344 -0.19146368 0.0396618
00000000: 2fd2 bcbd 879b efbe 54e8 61bb eae5 3bbb
00000010: e0ac 813c a43e 423d 8701 043d 6017 e9bc
00000020: 1a02 9cbe e5e0 da3d 7201 6a3e 9640 7b3d
00000030: 54b2 69bd 48be f8bd a439 3d3d 2840 d73e
00000040: b51d 9e3a ddc8 b73b 10c5 8a3e 0249 9e3d
00000050: e939 813d 420f a63d 432c 5cbd ecc6 763d
00000060: 4a77 68be d669 213f 6922 b13d 6364 6c3e
00000070: f9c4 28bf 1d29 d9be e42c f63b 0860 603e
00000080: cb91 f63d 5957 003e acc3 a63e 5ab1 093d
00000090: 78eb 9b3e 6dc7 50bd 7529 553d 2c10 f03e
000000a0: b801 ecbd 8077 fa3d b6bc c93d bd9b 623d
000000b0: d406 b03d a0a9 ef3c 66f8 e63b 9ae3 633d
000000c0: d68a b13e 40aa 573b 55d3 ee3d 7f0e 943c
000000d0: 0f9e 203e e7a5 ae3d 3978 a73e 2e19 fc3d
000000e0: 359d 2abd b33f 1f3c 1507 0ebf ea57 6abd
000000f0: 8e88 9abd e3b8 743e 86d5 c73e 2cfc 54bf
00000100: 24eb 463d 569a 9f3d 301c 5bbd eb22 75bd
00000110: 73dc d63d 25f8 9f3c 1acf 6b3d 899a 63bd
00000120: 5eb4 843d 6842 a13d 747b dcbd 9db8 c03c
00000130: 08af 04bd c067 c63d 10ea 813d b9d7 17be
00000140: c40c 893d a757 ce3d 2bcf 28be 4c46 56bd
00000150: ce98 163d 72fb 933d 6072 dd3c 50a8 6cbd
00000160: d0a3 fbbc 61ff 8abd 0869 7d3d e753 1a3d
00000170: 58fa dcbd 4d34 ccbd 1c15 1dbd b860 d7bd
00000180: c01f 303c 0032 713b 040c 813d 8df4 c53c
00000190: 7a1c cbbd c834 76bd 6c7a edbd a4cc 053a
000001a0: cf4e 00be b88e d6bd 404f 513c 04c7 a53d
000001b0: 3b69 81bd 290d 59bc 8080 ee3d 935d 05bc
000001c0: c657 f6bb c003 25bd 091c 1f3e fe5b d0bc
000001d0: bf40 dabd b60e 303e b02d e43c e26f ec3d
000001e0: 9286 fc3d cadb f5bc 7854 c7bd 0433 213e
000001f0: 6792 8b3d a05f ba3b 9e8a 14be f5b1 15be
00000200: 6416 1abd 405d 3ebd 3e5b dabd 28fc bbbd
00000210: 3cd7 50bd 5363 3bbe 4047 35bd 702a 35bd
00000220: 00b6 f6b9 e018 7dbc b82f 7e3d a235 b43d
00000230: df8d 79be 5643 db3d 14bc 513d 2812 133d
00000240: 7cf2 073d 708f 45bd 8161 12be 60df 3abc
00000250: 0004 0abd 005f e5bd 48a4 b53c dec6 9fbd
00000260: e298 a2bd 99dd 86be 5454 e4bd 9c67 85bd
00000270: 96e8 8fbe 9000 56be a252 9abd 482d 87bd
00000280: d825 fc3c babe 91bd 2075 063c 007d e4bd
00000290: a020 38bc 8079 47be 2519 b1be 4992 83be
000002a0: 8363 5bbe 046b 6abd 3ccb 52bd c459 d43d
000002b0: 40ae c83c b874 84bc 18c4 39bd 3c3c 23bd
000002c0: ee95 53be 5c73 cabd 74e2 e03d 6009 fabb
000002d0: 7496 1abe 5846 913d ec17 e6bd 4445 86bd
000002e0: b0eb 993d 7a33 fd3d b4c8 2ebe 60e2 e53c
000002f0: fa1f 8dbd 6ec3 b7bc 5733 aebe 6d51 bcbe
00000300: fcd3 61bd dc4b fabd 8435 e73d 2ecc e03d
00000310: 0e79 913d 15c7 2abe bcee fc3d 042a 3bbd
00000320: 880a 95bc deb2 b6bd 0849 123d 54bd a83d
00000330: a8f5 4a3d 1a44 afbd 08db dc3d 0358 0dbe
00000340: 80df 93bd a028 853d b415 91bd 885d 903d
00000350: 483c b2bc 3cd1 043d 90c6 1dbc f27b ee3d
00000360: d095 673d 70d8 2e3d d224 eabd 64b8 8d3d
00000370: 358e 2ebe 67db d1bd 30c7 94bc 50b5 1dbd
00000380: 2616 853d 022e 1d3e 5001 843d a89e 60be
00000390: e2dc e8bd 651a 5cbe fcfc 5dbe 4023 7f3c
000003a0: 247d 35be 443d 69bd 302c fb3c 181e b43c
000003b0: 709a 823c 9893 46bd aa44 e4bd 76c4 d23d
000003c0: b0c4 a93c 4032 e63b dccf c5bd a80e ec3c
000003d0: 5146 46bd 5058 72bc a8f5 a83c 90b7 00bc
000003e0: 8e1f f1bd 4a26 e3bd 3d2d 6abd 70d3 4ebd
000003f0: d4c0 abbd a0c3 af3d 0e0f 44be 6974 223d

bias f4 [32]
1.1431117 0.01660306 0.04040306 -0.07288118 -0.36842024 -0.0044427263 -0.27825204 -0.14543639
-0.08377945 0.12221564 -0.14693254 -0.30919564 -0.6040878 1.4910122 -0.30386236 -0.30629724
-0.1819928 -0.085774265 -0.2195181 -0.25060537 0.01727946 -0.18936191 -0.29541847 -0.21689849
-0.25143382 -0.14019895 -0.031914946 0.42491114 -0.71549845 -0.06118671 -0.33231372 -0.017307844
00000000: 7c51 923f 2403 883c ae7d 253d ba42 95bd
00000010: 94a1 bcbe 4a94 91bb 0d77 8ebe 47ed 14be
00000020: 8f94 abbd 324c fa3d 7c75 16be e44e 9ebe
00000030: 80a5 1abf 7dd9 be3f d993 9bbe fed2 9cbe
00000040: 525c 3abe 6baa afbd 5ac9 60be 594f 80be
00000050: a78d 8d3c 17e8 41be 1741 97be a31a 5ebe
00000060: efbb 80be 5090 0fbe 3fb9 02bd f48d d93e
00000070: e82a 37bf ea9e 7abd 0625 aabe 2ec9 8dbc

weight f4 [8, 32]
-0.19752423 0.17366387 -0.004451528 -0.090581454 0.107707605 -0.17652601 -0.1489476 0.136138
-0.08643891 -0.12382363 -0.12853874 -0.021864355 -0.016593277 -0.067127794 0.034823522 -0.12622333
0.017508566 -0.09285875 0.16373731 -0.11210214 -0.103869244 0.015928194 -0.16477853 -0.09698742
-0.045559272 0.07672836 -0.12012395 -0.17295283 -0.0659183 0.14095123 0.057395086 -0.14381476
0.2944005 -0.12734921 0.108419254 -0.14618307 -0.28692287 -0.118300885 -0.21427 0.043257594
0.0096172355 -0.1572375 -0.08451455 -0.1231913 -0.48768786 -0.46573958 0.33338955 -0.020595964
0.020141356 -0.06501519 -0.23842655 -0.14212671 -0.06856331 0.077367805 0.18254001 -0.20528945
-0.0018227138 0.09224746 -0.039002046 0.5106199 0.3993776 0.0038424355 -0.15607241 0.049918525
0.43934357 -0.09030914 -0.059790257 -0.097676 0.10064677 0.053916857 0.07174608 0.020002648
0.084108785 0.012586492 -0.16110674 -0.26563057 -0.05480163 0.4158605 -0.12013006 -0.043162327
-0.41611215 -0.1993513 0.13834365 -0.111940615 -0.13803783 -0.03504568 -0.11670024 0.14755513
0.04554176 -0.04737192 -0.1842551 0.3896927 0.35788342 0.14863287 -0.074845225 0.10842125
0.26527077 0.035507444 0.007396713 0.09609388 0.13199921 0.10388884 -0.59407204 0.22344425
-0.027083358 0.1562842 0.014095492 -0.40735114 -0.1789832 0.6305282 -0.16382562 -0.046576962
0.064281695 0.11383309 -0.10781297 -0.1759229 0.073146984 0.15049487 -0.08622736 0.06616685
-0.27231643 -0.02502369 -0.08137905 -0.01309721 -0.086442344 0.04306461 -0.3065285 0.08164393
-0.89867264 -0.24265248 -0.20212993 -0.006425825 -0.57076156 -0.04265002 0.0007879885 0.08784251
0.07331319 -0.22567141 -0.027599245 0.3379075 -0.16395901 0.5031534 0.0680233 -0.27632153
0.14056483 -0.17596139 0.08280179 -0.11973597 -0.09548887 0.020301312 -0.23260543 0.03840736
-0.1630709 -0.02035358 0.050465964 0.7442491 0.20151468 0.17032032 0.15117228 -0.0976926
-0.12260449 -0.10386496 0.120273754 -0.05166395 0.06936462 0.050059184 0.088464454 -0.12694614
-0.1544111 -0.12386714 -0.121972874 -0.013358787 0.05916047 0.0010524243 -0.14082882 0.16446416
0.17012466 0.012219742 0.019841895 0.11615963 0.064044535 0.1275179 0.084036306 -0.14490762
-0.08207106 -0.030251876 0.12868296 -0.089980066 -0.21853988 0.035536245 -0.08106908 -0.13529235
-0.18512513 0.0066110296 -0.014435589 0.14865173 0.05902086 0.08785771 0.0011739731 0.10199311
0.16825707 -0.12009576 0.099246755 0.030910768 -0.18185604 -0.0985423 0.08902906 -0.103803925
0.14160113 0.020056823 -0.23130748 -0.11870797 -0.018771414 0.13449638 -0.15883237 0.111199245
0.10805574 0.15439336 0.089504614 -0.039541174 -0.18373476 0.029063828 0.012999469 -0.1872973
-0.30759516 -0.09133146 0.16358654 0.055710524 0.12890284 0.10846631 -0.06919456 0.16360821
-0.14009695 -0.08898003 -0.10861034 0.14316513 0.10455854 -0.077666186 0.14752917 -0.16783172
0.16947068 0.084514454 -0.054757312 0.0056622177 -0.17373352 -0.08275144 -0.100507334 -0.03809738
-0.0133190155 0.13049023 -0.07262827 -0.1430742 -0.3507114 -0.090758055 0.044431657 -0.10087157
00000000: cb43 4abe f1d4 313e 20de 91bb c582 b9bd
00000010: ce95 dc3d 3cc3 34be b885 18be c367 0b3e
00000020: e206 b1bd 3e97 fdbd a99f 03be e01c b3bc
00000030: a0ee 87bc 4c7a 89bd 1ca3 0e3d b040 01be
00000040: 206e 8f3c ba2c bebd c1aa 273e cf95 e5bd
00000050: 66b9 d4bd d87b 823c b4bb 28be 57a1 c6bd
00000060: 5c9c 3abd c223 9d3d 8c03 f6bd 8c1a 31be
00000070: 2c00 87bd 8555 103e 1c17 6b3d 2d44 13be
00000080: aabb 963e d567 02be ea0a de3d 04b1 15be
00000090: 8ee7 92be bc47 f2bd 9869 5bbe e02e 313d
000000a0: 9c91 1d3c de02 21be f715 adbd b84b fcbd
000000b0: 39b2 f9be 6b75 eebe 09b2 aa3e deb8 a8bc
000000c0: 7cff a43c af26 85bd 1726 74be aa89 11be
000000d0: ec6a 8cbd 0373 9e3d c5eb 3a3e 6637 52be
000000e0: 20e8 eeba 3cec bc3d 9cc0 1fbd fcb7 023f
000000f0: 397b cc3e 5fd1 7b3b 72d1 1fbe 5e77 4c3d
00000100: a4f1 e03e 00f4 b8bd a1e6 74bd 5b0a c8bd
00000110: e51f ce3d ecd7 5c3d 9cef 923d 98dc a33c
00000120: 3a41 ac3d 9337 4e3c 2af9 24be bb00 88be
00000130: ad77 60bd abeb d43e c006 f6bd fbca 30bd
00000140: a70c d5be bf22 4cbe f5a9 0d3e 1f41 e5bd
00000150: ca59 0dbe 0f8c 0fbd 8900 efbd b118 173e
00000160: ff89 3a3d 0f09 42bd 5ead 3cbe cd85 c73e
00000170: 7f3c b73e 3733 183e 7448 99bd f60b de3d
00000180: 92d1 873e 4170 113d 2060 f23b decc c43d
00000190: cd2a 073e acc3 d43d 1b15 18bf 92ce 643e
000001a0: ebdd ddbc f708 203e c7f0 663c 5490 d0be
000001b0: 5f47 37be 4c6a 213f e7c1 27be 7cc7 3ebd
000001c0: 1fa6 833d 5321 e93d 0ccd dcbd 2225 34be
000001d0: 16ce 953d 541b 1a3e f897 b0bd 7c82 873d
000001e0: 0f6d 8bbe 7bfe ccbc 0faa a6bd ae95 56bc
000001f0: af08 b1bd 8464 303d 4ef1 9cbe ef34 a73d
00000200: 690f 66bf e479 78be 26fb 4ebe ba8f d2bb
00000210: 6e1d 12bf cab1 2ebd 0391 4e3a c6e6 b33d
00000220: 3a25 963d 6816 67be d017 e2bc 3602 ad3e
00000230: dfe4 27be a9ce 003f cd4f 8b3d 047a 8dbe
00000240: 3af0 0f3e 392f 34be fc93 a93d 2238 f5bd
00000250: ab8f c3bd f04e a63c 1e30 6ebe 0951 1d3d
00000260: 0ffc 26be 8dbc a6bc 66b5 4e3d 1c87 3e3f
00000270: dd59 4e3e 7368 2e3e e8cc 1a3e 0f13 c8bd
00000280: 1018 fbbd 27b7 d4bd 1652 f63d 949d 53bd
00000290: 0a0f 8e3d dc0a 4d3d da2c b53d 2bfe 01be
000002a0: f21d 1ebe 0eae fdbd eacc f9bd d0de 5abc
000002b0: 4052 723d 80f1 893a 6e35 10be 4b69 283e
000002c0: 2935 2e3e 5035 483c 788b a23c 1ae5 ed3d
000002d0: c829 833d 0d94 023e 3a1b ac3d aa62 14be
000002e0: df14 a8bd c8d2 f7bc 77c5 033e 7847 b8bd
000002f0: ebc8 5fbe 748e 113d 8c07 a6bd 148a 0abe
00000300: 7191 3dbe 56a1 d83b 4083 6cbc 2938 183e
00000310: dbbf 713d beee b33d 00e0 993a c3e1 d03d
00000320: 954b 2c3e c4f4 f5bd e241 cb3d 9438 fd3c
00000330: 7838 3abe 8cd0 c9bd de54 b63d 2797 d4bd
00000340: e3ff 103e 354e a43c dedb 6cbe 2a1d f3bd
00000350: 82c6 99bc 6bb9 093e f4a4 22be 6ebc e33d
00000360: 544c dd3d 4b19 1e3e 324e b73d edf5 21bd
00000370: f724 3cbe 4417 ee3c bafb 543c ddca 3fbe
00000380: 1d7d 9dbe fd0b bbbd 3b83 273e b830 643d
00000390: 1bff 033e 9623 de3d e1b5 8dbd e988 273e
000003a0: 9375 0fbe 293b b6bd 196f debd e199 123e
000003b0: ca22 d63d 730f 9fbd e311 173e 14dc 2bbe
000003c0: b989 2d3e ea15 ad3d 3449 60bd 208a b93b
000003d0: 33e7 31be 9679 a9bd cad6 cdbd 000c 1cbd
000003e0: 0038 5abc 3b9f 053e 21be 94bd 0b82 12be
000003f0: 7290 b3be 5cdf b9bd f8fd 353d c195 cebd

bias f4 [8]
-0.16857146 2.388437 -0.80963737 1.0468369 0.7082588 -0.21511999 -0.13975711 -0.0894398
00000000: ff9d 2cbe 27dc 1840 6544 4fbf c0fe 853f
00000010: 7350 353f 6a48 5cbe 7d1c 0fbe 372c b7bd

weight f4 [4, 8]
0.2556757 -0.023182452 0.29825804 0.11975294 0.16560248 -0.049869508 0.107976526 0.10980016
0.33782104 0.09536636 -0.18735665 -0.13619691 -0.0583511 -0.25948963 -0.09895891 -0.095993906
0.32645956 -0.2200664 -0.19972569 -0.3472345 0.10294807 -0.22951373 0.30333123 -0.10222462
-0.034489572 0.110703915 0.16180947 -0.20536144 -0.11785805 0.18368861 0.083581 0.09724912
00000000: ede7 823e 20e9 bdbc 47b5 983e 0841 f53d
00000010: b293 293e f843 4cbd cc22 dd3d e8de e03d
00000020: e1f6 ac3e 704f c33d 6cda 3fbe 3477 0bbe
00000030: 9001 6fbd d3db 84be f8aa cabd 7498 c4bd
00000040: b525 a73e 1659 61be e484 4cbe b8c8 b1be
00000050: 70d6 d23d a605 6bbe 3b4e 9b3e 245b d1bd
00000060: f044 0dbd bcb8 e23d 62b1 253e 454a 52be
00000070: 905f f1bd de18 3c3e 842c ab3d 8c2a c73d

bias f4 [4]
0.00833264 -0.13803324 0.21948156 -0.29259
00000000: a085 083c 9658 0dbe c6bf 603e 5bce 95be
