training/ann/models/ann7.pth (torch, 68622 bytes, 10 tensors)

weight f4 [128, 40]
000000 80 57 95 3d 1d f8 dd bd 35 b5 15 3e 20 95 12 3d
       0.0729208 -0.108383395 0.14619906 0.035786748
000010 a1 5d aa bd d6 6e 1d bd c6 3e 14 bd 8a 6b da 3d
       -0.083186395 -0.03843578 -0.036192678 0.10665043
000020 66 d4 f2 3d 36 bc a4 3d b0 55 ef 3c 00 c4 5d 3d
       0.11856918 0.08043711 0.029215664 0.054142
000030 d1 c6 ac bd a8 05 d4 3c 98 81 24 3d 76 db c1 3d
       -0.08436359 0.025881603 0.040162653 0.09465687
000040 12 69 1b bd 31 17 16 be 70 fa ef bc 06 93 df 3d
       -0.037942 -0.14657284 -0.029294223 0.10916714
000050 84 41 26 3d 14 99 48 3d 0f ee 8c bd d0 08 85 3c
       0.040589824 0.04897411 -0.068813436 0.016239554
000060 30 e9 0d 3c 9e b7 56 bd 31 b2 06 be 58 a4 ec bd
       0.008661553 -0.052421205 -0.13153912 -0.115547836
000070 c0 3c 63 3d 16 f5 09 bd 40 29 25 3b 22 8c 01 be
       0.055477858 -0.033680998 0.002520159 -0.12651113
000080 30 f4 f5 3c 5f 8e ee bd 78 12 15 3d c8 3c 79 3d
       0.030023664 -0.11648249 0.036394566 0.06084898
000090 26 ee 03 be a3 e4 da bd 4c ff 81 3d fb de 10 3e
       -0.12883815 -0.1068814 0.06347522 0.1414756
0000a0 99 d6 a7 bd ab 1e 14 be 5e 0b 4b bd df 63 05 3e
       -0.08195228 -0.14464824 -0.049571387 0.13026379
0000b0 48 ee e4 3c 34 d6 1d be 0c 58 09 3d 88 8f 1a 3d
       0.027945653 -0.15413743 0.033531234 0.03773454
0000c0 84 4d 14 bd 92 a6 eb 3d 7e 0d c1 3d f0 0d 0a bc
       -0.036206737 0.1150638 0.094264016 -0.0084261745
0000d0 cc 46 2a 3d 6a 0f c3 3d 91 87 e2 bd 94 dc 5d bd
       0.041571423 0.095244244 -0.110610135 -0.054165438
0000e0 c2 52 dd bd c2 23 e1 3d 28 2c b0 3d e0 47 68 bc
       -0.108068004 0.109931484 0.08602172 -0.014177293
0000f0 68 26 da bd 72 79 0a be de 47 fb 3d 90 cb 8b 3d
       -0.10651857 -0.1352289 0.12269567 0.06825936
000100 0c ba 6f bd 62 d6 64 bd 78 a7 cc 3c 05 2a 01 be
       -0.058527038 -0.055868514 0.0249822 -0.12613685
000110 08 b0 b8 bc 68 67 df bc ee e4 0e bd 3e a5 0c bd
       -0.022544876 -0.027270988 -0.034886293 -0.034337275
000120 80 61 76 3d f0 bf 11 3c 96 e7 21 be e0 b8 41 bd
       0.060151577 0.008895859 -0.15811 -0.04729545
000130 38 41 d3 bc 07 ce 12 3e 28 ed d8 bc 2c df 33 bd
       -0.025787935 0.14336406 -0.026480272 -0.043914005
000140 63 b2 1e be 28 f2 f2 bd 48 7f 79 3d ce a5 ec 3d
       -0.15497737 -0.11862594 0.0609124 0.11555062
000150 82 1a bf 3d 18 cd 9a 3d ac 43 89 3d 00 87 e5 3a
       0.09331228 0.0755865 0.067023605 0.0017511547
000160 b6 5a d5 bd 1a a6 f0 bd 04 a1 47 bd b9 58 1f be
       -0.10417692 -0.11750431 -0.04873754 -0.15561189
000170 c0 1c d0 bb ef d2 09 3e b5 a0 11 3e f0 89 56 3d
       -0.0063510835 0.13459371 0.14221461 0.05237764
000180 ea 68 38 bd 2d 87 1b be 08 58 17 bd 20 b9 80 3b
       -0.04502193 -0.15188284 -0.036949188 0.0039283186
000190 32 3f e4 bd c0 e1 d3 bd c1 c2 08 3e d8 e8 17 bd
       -0.11144866 -0.10345793 0.13355543 -0.03708729
0001a0 2a 87 d1 bd 36 17 c9 bd 96 2a d6 3d b3 a9 b5 bd
       -0.102308586 -0.0981888 0.104573414 -0.08870258
0001b0 14 71 8c 3d 0c 9a 86 3d d2 4c b5 3d 3c c3 91 3d
       0.068575054 0.06572351 0.08852543 0.07117316
0001c0 ca 7a ca 3d f6 4d fb 3d d0 c7 44 bd 34 5a 00 3d
       0.098867014 0.12270729 -0.04804212 0.031336024
0001d0 17 15 d0 bd 4a b8 d8 3d aa 37 20 be 1c fe 48 3d
       -0.101602726 0.10582025 -0.15646234 0.049070463
0001e0 90 48 7b bd 08 9a 35 3d 97 26 2a 3d 3e fe cd bf
       -0.061348498 0.04433635 0.04154071 -1.6093214
0001f0 f0 2c 49 3e 26 54 59 bf 7e 9d 9e 40 f8 a8 8b bf
       0.19646049 -0.84894025 4.956725 -1.091094
000200 c2 f2 9b 3f ff ac 04 bf 15 2a 4b 3e a6 08 30 bf
       1.2183459 -0.5182647 0.19840272 -0.68763196
000210 92 e6 db 3d e4 58 94 3f 33 b1 67 bf 82 e1 42 3f
       0.10737337 1.1589627 -0.9050476 0.7612535
000220 b2 07 ab bf b6 60 07 bf 8b ea 04 3d a1 c8 13 bf
       -1.3361723 -0.52881944 0.03245024 -0.5772801
000230 c0 d9 fd bf 81 26 a8 40 3d ab 51 40 86 c6 33 3f
       -1.9832077 5.2547 3.2760766 0.702248
000240 3c 23 86 c0 6a 19 90 bf e6 ad 81 3f 2e 80 65 bf
       -4.191801 -1.1257756 1.0131195 -0.8964871
000250 a2 a7 cf bc 64 8c d4 3e 62 e9 0c bf 12 ed b5 be
       -0.025348488 0.4151336 -0.55043614 -0.35532433
000260 a3 9c 10 40 db f3 ce bf a3 2b dc be a3 72 cb 3e
       2.2595603 -1.6168169 -0.43002042 0.39735898
000270 a4 b9 4d 3d db 50 91 3d 18 ef 17 3e 35 b3 37 bf
       0.05022587 0.070955 0.14837301 -0.71757823
000280 59 aa d0 3e a2 4f 0c bd 9f b3 ea bf 8c 3b e6 3f
       0.40754965 -0.03425563 -1.8336066 1.7986922
000290 7d 61 21 bf 12 8c 63 3f fb f9 57 c0 23 47 12 3e
       -0.6303938 0.88885605 -3.3746326 0.14284949
0002a0 04 b4 7f 3f e8 04 14 40 58 ff 0d c0 f7 57 02 40
       0.9988406 2.3127995 -2.21871 2.036619
0002b0 c6 0f 34 bf 95 2b e1 3f 2b 0f 5d bf d1 30 f1 3f
       -0.7033657 1.7591425 -0.8635127 1.8843023
0002c0 4b 3c be bf 99 84 57 be bd 0f 16 be fd 56 81 3f
       -1.486215 -0.21046676 -0.14654441 1.0104672
0002d0 13 71 87 3d 34 85 7d bf bb bd 09 c0 d1 77 09 3f
       0.06613364 -0.99031377 -2.1522052 0.5369845
0002e0 63 1e d7 3f e7 c6 cd be b1 57 15 bf d9 1d 38 3f
       1.6806148 -0.40190813 -0.5833693 0.71920544
0002f0 0b bc 99 3c ec ca 13 3e 10 33 3c bd 48 68 2e bf
       0.018766424 0.14432877 -0.045947134 -0.6812787
000300 a1 de 84 c0 b1 24 09 bf be 0a ea 3f 9e 08 9b 3e
       -4.1521764 -0.5357161 1.8284528 0.30280012
000310 a8 b9 59 3f a1 75 2a 3d 56 2c a6 be e2 25 8d 3c
       0.85048914 0.041616086 -0.324557 0.017229978
000320 37 4c 20 be 7b 1f 0a be 05 be 09 be e7 a2 07 3e
       -0.15654074 -0.13488571 -0.13451393 0.13245736
000330 78 46 a7 bd 66 77 1c be c8 08 04 3d fc f0 5a 3d
       -0.08167738 -0.15279922 0.032234937 0.053452477
000340 5f 46 c3 bd f8 b6 a9 bc 52 62 e0 bd e2 68 c8 bd
       -0.095349066 -0.02071713 -0.10956253 -0.0978563
000350 80 d3 b3 3b a8 84 5f 3d f8 0a 44 bd 7b 4d 13 3e
       0.0054878592 0.05456987 -0.047862023 0.14385025
000360 44 e8 05 be c9 a4 10 3e f0 86 1f bc 77 bc 07 be
       -0.13076884 0.1412536 -0.009736761 -0.13255487
000370 16 36 db 3d 59 35 18 be 10 da 80 3c 9b 86 02 be
       0.107036754 -0.148641 0.01572898 -0.1274666
000380 20 c5 d9 bc 3e 8d e4 3d 36 68 f3 3d 70 01 cf bc
       -0.026583254 0.11159752 0.11885111 -0.02526924
000390 2c d1 30 3d 07 93 0a 3e 4f 00 08 3e 6b 16 16 3e
       0.04316823 0.13532649 0.13281368 0.1465699
0003a0 d8 86 46 3d 4d 32 15 3e bc 1d b9 3d 76 d7 bb bd
       0.04846844 0.1456997 0.090388745 -0.09171955
0003b0 20 9d 26 3c 1e 58 e2 3d 06 f7 8e 3d b5 c0 9a bd
       0.010169297 0.11051963 0.0698071 -0.07556287
0003c0 c4 4a b5 3d 30 3b a8 bd 4e fe 4a bd 99 9a 84 bd
       0.08852151 -0.08214414 -0.04955893 -0.064748
0003d0 18 5d 90 bd 68 ba c5 bc 60 40 13 3c 31 29 14 be
       -0.07049006 -0.024136737 0.008987516 -0.14468838
0003e0 00 33 70 bd 6f 0b 13 3e 2e a0 b7 3d dd 6b f8 bd
       -0.058642387 0.1435983 0.08966099 -0.12129948
0003f0 78 7b de 3c 0a 62 cf 3d 5e cb c5 bd f0 ef 5e bc
       0.027158484 0.10126121 -0.0965793 -0.01360701

bias f4 [128]
000000 74 66 16 3d 16 c5 a5 bd 90 b4 6c bc fa a3 8c bd
       0.0367188 -0.08094232 -0.014447346 -0.068672135
000010 df 6d 85 be d6 1d 89 bd 20 c8 24 bc c7 10 11 3e
       -0.26060387 -0.06695144 -0.010057479 0.14166556
000020 80 d2 d5 3c 10 e5 09 bd 89 d5 86 bd 04 36 10 be
       0.02610135 -0.033665717 -0.06583697 -0.14083105
000030 10 c8 2f bd 67 32 a4 be 02 6a 13 bd c1 af 36 be
       -0.042915404 -0.32069704 -0.03598977 -0.17840482
000040 e1 11 01 be 08 95 9e 3d b6 83 6b bd cc b3 19 be
       -0.12604477 0.07743269 -0.057498656 -0.15009993
000050 62 d7 d5 bd f3 2b 06 3e 46 1d 4d be de dc ef 3d
       -0.10441472 0.13102703 -0.20030698 0.11712049
000060 d4 be f1 bd 50 4a eb 3c 2b b3 01 be 40 a2 a3 bb
       -0.11803976 0.028721958 -0.12666003 -0.004993707
000070 98 31 31 be c9 37 f2 3b c0 e9 1e be 26 e7 8d be
       -0.17304075 0.007391904 -0.15518856 -0.27715415
000080 e5 15 83 bd 40 3e b6 bd c6 40 c2 bd bc 49 67 bd
       -0.064006604 -0.08898592 -0.09485011 -0.056466803
000090 24 41 6b 3d 80 09 4b be 9d b8 1b 3e 80 8d 71 bc
       0.05743517 -0.19827843 0.15207143 -0.014743209
0000a0 15 4d 85 bd 6c ab c2 bd 57 3e d8 bd ed ba 0c be
       -0.06508843 -0.095053524 -0.105587654 -0.13743182
0000b0 ee 7c 07 be 6a 02 d1 bd 1e 77 7e bd e3 50 05 3c
       -0.1323125 -0.102055386 -0.062125318 0.008136961
0000c0 b1 04 97 be 66 bf 07 bd c6 01 cd 3d 6d 81 11 be
       -0.29495767 -0.033141516 0.10010104 -0.14209528
0000d0 84 14 97 3d 10 26 27 bb ee cd a0 bd 83 5f e4 3d
       0.0737696 -0.0025504865 -0.07851778 0.1115103
0000e0 60 8b df bc d8 0a b0 bd f9 90 00 be 96 5a 04 be
       -0.027288139 -0.08595818 -0.12555303 -0.12925181
0000f0 e7 16 00 3e e0 ed 3b be 6e 8b 13 be 7d 00 50 bc
       0.12508737 -0.18352461 -0.14408657 -0.012695429
000100 b1 cf 15 be a3 a6 aa 3d f0 fb b1 bd ea f9 17 be
       -0.14630009 0.08332565 -0.086906314 -0.14841428
000110 10 f9 14 3c 0d 94 48 be 18 c0 a9 3c 0e fe 1d be
       0.009092584 -0.19587727 0.02072148 -0.15428945
000120 75 fe de bd 92 40 b6 bd 10 2b c3 3c 7a 3f f8 bd
       -0.108883776 -0.088990346 0.023824245 -0.12121482
000130 bc c7 db bd a8 67 23 be a8 b2 0b 3d cd 2f c7 bd
       -0.10731456 -0.1595751 0.034105927 -0.09725914
000140 ae 8f 0a bd a2 ba 0a bd f2 bb 7d 3c 7e 0e 17 be
       -0.03382843 -0.033869393 0.015486704 -0.14751622
000150 c4 18 47 bd d1 cc 76 be 10 41 96 3c f5 e3 ab 3d
       -0.048607603 -0.24101569 0.018341571 0.08393089
000160 a8 c7 d1 bc 41 ac f1 bd 6e 1a 2a be f4 96 83 bd
       -0.025607899 -0.11800433 -0.16611645 -0.064252764
000170 75 80 45 be 2c 3d 6b bd 2e 6d c5 3d 67 0a b1 3c
       -0.19287284 -0.057431385 0.09639965 0.021611406
000180 c5 a5 c4 bd 88 85 83 3d 1d a1 5d bc d0 b0 5b bd
       -0.096019305 0.064219534 -0.013527182 -0.05363542
000190 ab e3 92 be f3 24 4d 3d 21 94 b0 bd c1 ae 1b be
       -0.28689322 0.050084066 -0.08622003 -0.15203382
0001a0 22 3d c7 3d 1f 3a d9 bd 70 85 b4 bc 8e 87 1f be
       0.09728457 -0.10606789 -0.022036284 -0.15579054
0001b0 12 5d 1a be 52 67 f9 3d 38 78 96 3c e6 c6 21 be
       -0.15074566 0.1217791 0.018367872 -0.1579853
0001c0 a8 9f 41 3d 62 90 44 be c8 d8 df bd c3 22 d1 be
       0.0472714 -0.19195703 -0.109300196 -0.40846834
0001d0 29 9c 45 be ba a8 37 bd 7d 5b f3 bd 53 38 91 be
       -0.19297852 -0.044838645 -0.118826844 -0.28363284
0001e0 8e e4 9c bd f8 e8 bd 3c 1e c2 43 be e6 5b d8 3d
       -0.07660781 0.023182377 -0.19117019 0.10564403
0001f0 ff 92 7d bd 61 bc 6c be a8 fc 26 bd 24 fd 9d bd
       -0.061907765 -0.23118736 -0.040768296 -0.07714298

weight f4 [64, 128]
000000 44 c9 b7 3c f5 bc 9a 3d df 55 af bd b7 d6 a2 bd
       0.022434838 0.07555572 -0.085613005 -0.0795111
000010 8b c2 5f be 21 18 a5 3d 87 53 37 bd 9a 9e 38 3d
       -0.21851556 0.08061243 -0.044757392 0.04507313
000020 1b 13 a5 3d 1f a1 24 bd b8 32 9c 3c 94 95 9c bc
       0.08060285 -0.04019272 0.019067153 -0.019114293
000030 41 21 68 bd fd 8f 23 3a b9 07 a0 3d a4 30 06 be
       -0.05667234 0.00062394125 0.07813973 -0.13104492
000040 7b b3 d4 3c 99 e6 67 bd 10 99 da 3b 66 92 e3 3c
       0.02596449 -0.0566164 0.0066710785 0.02777977
000050 78 72 4a 3c 85 2a 19 bd 64 ed af bc d5 86 aa bd
       0.012356393 -0.037394065 -0.021475501 -0.083264984
000060 6d e2 82 bd 61 cb bb 3c e9 04 8e 3d d4 8b 86 3c
       -0.063908435 0.022924127 0.0693453 0.016424097
000070 a6 5f 10 be 5d 2f 92 bc ca df ac bd 4d 87 58 3c
       -0.14098987 -0.01784485 -0.08441122 0.013215852
000080 8c 12 81 bc 2a 36 5b 3d c0 56 ba ba 92 4f 2a 3d
       -0.015755914 0.05351845 -0.0014216527 0.04157979
000090 13 07 10 be 47 9e 19 bd 08 22 a4 3c 20 7f c4 3b
       -0.14065199 -0.03750446 0.020035759 0.0059966
0000a0 a1 7d 86 bd ed 35 9f bd 68 58 fe bd 03 48 ed bd
       -0.065669306 -0.077739574 -0.12419206 -0.11586001
0000b0 47 0a 55 bc b9 d5 c1 bc e4 b1 b0 bd 02 d4 e1 bc
       -0.013002939 -0.023661481 -0.0862768 -0.027566914
0000c0 24 f1 ca bc b0 58 a9 3c 62 8c 49 3d f8 7c 68 3c
       -0.024773188 0.020672172 0.049206145 0.014189951
0000d0 20 ed 63 3c e6 a4 10 be 79 45 c4 bd 70 1e 8b 3c
       0.0139115155 -0.14125404 -0.09583563 0.016982287
0000e0 27 41 b4 bd f4 7e 73 bd b7 dd 2c ba 83 1d 66 3c
       -0.08801489 -0.059447244 -0.00065943174 0.014045122
0000f0 32 26 a0 3b 1b cd 21 bd 07 0c 94 bd d4 66 18 3c
       0.0048873657 -0.039502244 -0.072288565 0.00930186
000100 e6 68 55 3d 1c 2a 74 bc ac da 49 bd 1c 3a 16 be
       0.052101992 -0.014902618 -0.049280807 -0.14670604
000110 c3 c5 5c bd 27 b8 48 bd e0 76 0e 3d ce 4b cd bc
       -0.053899538 -0.049003746 0.034781337 -0.02506056
000120 4c f1 fa bd 00 b0 40 b9 dc a9 bc bd 6b 6e 01 be
       -0.12253055 -0.00018376112 -0.092120856 -0.12639777
000130 cc 8e b3 bd 7a f9 ee bd 82 c6 33 3d aa 5c 0c bd
       -0.08767471 -0.11668678 0.043890484 -0.03426806
000140 ca ee 03 bd 08 29 73 bc 0a 8c a5 bd a8 38 4d bc
       -0.03221015 -0.014841326 -0.08083351 -0.012525715
000150 ee 20 c4 bd 4b c9 b8 bd 56 85 53 3d c3 96 01 be
       -0.09576593 -0.090227686 0.05164083 -0.12655167
000160 e0 e0 0c bc 5e 68 61 3c 2e 0f 7d bd 6d c8 86 3d
       -0.008598536 0.013757793 -0.061782055 0.06581197
000170 38 af b2 bd d5 89 39 bd 40 10 6b 3b 30 4f d0 bd
       -0.087248266 -0.045297462 0.003586784 -0.10171354
000180 12 a4 5a bc ae 5e 29 3d 55 32 87 bb f0 59 c9 bc
       -0.0133447815 0.04135006 -0.004125873 -0.024579018
000190 f4 67 06 be 87 96 f8 bd 2f a8 e1 3c 2c 09 fd 3c
       -0.13125592 -0.12138086 0.027546016 0.030888163
0001a0 4b 90 8f 3d 30 30 06 bc e2 4c a8 bd bc 68 7b 3c
       0.070099436 -0.0081902 -0.08217789 0.015344795
0001b0 08 18 ab bd d6 ea 52 3d 90 0f d5 bb aa 4d dc bd
       -0.08354193 0.05149349 -0.0065020993 -0.10757001
0001c0 2c 9f 96 bc a6 12 53 3d 0b b8 92 bd 6b e2 93 bd
       -0.018386446 0.051531456 -0.0716401 -0.0722092
0001d0 96 c5 c9 bd 45 cc 58 bd 68 7d 0c 3c 4a 33 a2 bd
       -0.0985214 -0.05292918 0.008574821 -0.07919939
0001e0 59 87 ab bd 20 7b bc bc 43 2e 9d bc 40 8b 03 3b
       -0.08375425 -0.02300793 -0.019187098 0.0020072013
0001f0 d0 7a 85 bc 26 e9 0a be cb 5e 59 bd 9f 80 6a bd
       -0.016293913 -0.13565502 -0.053068917 -0.05725157
000200 84 11 32 bd 02 a8 7d 3d f6 53 48 3d ba 6c b4 bd
       -0.043473735 0.061927803 0.048908196 -0.088098004
000210 5f 35 1b be 20 01 e5 3c c8 73 42 bc 13 c2 92 bd
       -0.15157078 0.027954638 -0.011868425 -0.07165923
000220 06 e1 ac bd cb 61 a9 bd ce 3d f0 bc 62 eb 1b bd
       -0.08441357 -0.08270606 -0.029326346 -0.038066275
000230 7d 4b 4f bd eb 8e 5d bd d6 b5 45 3d b3 c4 47 be
       -0.0506091 -0.054091375 0.048269115 -0.19508629
000240 21 93 80 bd 80 df 76 bd d8 91 6a 3c 0c 28 2f be
       -0.062780626 -0.06027174 0.014316998 -0.1710512
000250 32 c1 6f 3d 94 39 98 3c fa 13 33 bd 56 06 37 3d
       0.058533855 0.018582143 -0.043720223 0.044683777
000260 b8 94 e1 3c ab 86 93 bd 30 1b 09 bd 80 f5 c1 bb
       0.027536735 -0.0720342 -0.033473194 -0.0059191585
000270 a8 30 03 bc 63 0c 99 bd e0 32 a7 3b 1b b7 33 be
       -0.008007206 -0.07473066 0.0051025003 -0.17550318
000280 e7 44 8a 3d bb 88 80 3d 0b 7c 87 3d cc 5b 32 bd
       0.06751423 0.06276079 0.06615456 -0.043544576
000290 e0 43 39 be a9 35 78 bc e0 e8 17 bb 68 1d 48 bc
       -0.18092299 -0.015149512 -0.0023179576 -0.012214042
0002a0 7f 4b 34 bd b7 ec 07 bd d4 43 32 bd be ce 7e bd
       -0.04401731 -0.033184733 -0.043521717 -0.062208883
0002b0 54 2f a6 bd f8 b9 d3 bc d6 ce 95 bd 26 0c 0a be
       -0.08114496 -0.025845513 -0.073148414 -0.13481197
0002c0 ff 9d 35 be c0 9a ec bb 61 31 49 bd 55 48 44 bd
       -0.17736052 -0.007220596 -0.049119357 -0.047920544
0002d0 f0 37 08 bc 7d 0e 8b 3c 49 7e 2f bd 9b 5d f0 bd
       -0.008314118 0.016974682 -0.042845044 -0.11736604
0002e0 c4 87 54 bd 7e b9 58 3d a4 df 40 bd 18 7d b8 3c
       -0.05188729 0.052911274 -0.04708828 0.022520587
0002f0 d1 8f b9 bc b5 8f f3 bd ae 34 e3 bc e5 4f 1a bd
       -0.022651585 -0.11892644 -0.02773508 -0.03767385
000300 6e 0b 54 3d b8 94 82 bd 0c 0c 87 bd 98 47 84 3c
       0.051768713 -0.06376022 -0.06594095 0.01614742
000310 6a d2 45 3d 6b d7 27 be 05 ec 0f bd cd b5 3e be
       0.04829637 -0.16390769 -0.035137195 -0.18624039
000320 0e 08 88 bd 42 28 57 bd d8 30 18 bc b9 d8 ad 3d
       -0.06642161 -0.052528627 -0.009288989 0.08488602
000330 68 70 57 3d 86 09 07 be 3d 28 af bd 7c 4e 2e be
       0.052597433 -0.13187227 -0.08552597 -0.17022127
000340 50 5c 61 bc 28 2b df bc c8 ea 50 bc 30 ce b4 bc
       -0.013754919 -0.027242258 -0.012751289 -0.022070974
000350 c0 d0 02 bd 94 75 0d 3d 75 6f b0 bd 87 bd 13 bc
       -0.03193736 0.03453596 -0.08615009 -0.009017355
000360 bc c4 d6 3c 42 39 e8 bd f1 99 7b bd 85 70 82 3d
       0.026216857 -0.11339046 -0.061426107 0.06369118
000370 48 68 c5 bc f0 de cd 3b a0 22 8b bc 44 e9 06 be
       -0.024097577 0.0062826797 -0.016984284 -0.13174921
000380 94 a2 9e bd 3b 90 95 bd 04 62 0c be 00 b0 0e 38
       -0.07745853 -0.073029004 -0.13709265 3.401935e-05
000390 27 54 b8 bd 2d 3d 19 bd e1 97 1a be c8 62 70 bd
       -0.09000426 -0.037411857 -0.15097 -0.058687955
0003a0 87 53 2a bd 8e 0a 22 be 65 4d ef bd 19 be 96 3d
       -0.041583564 -0.15824339 -0.11684684 0.07360477
0003b0 54 1e 13 3d be 04 e5 bc c4 09 9d 3c 09 c6 ce bd
       0.035917595 -0.027956363 0.019169696 -0.10096366
0003c0 7c a8 9e bd e8 8d a1 bc 80 e7 75 3c b3 cc 09 be
       -0.077469796 -0.019720986 0.015008807 -0.13456993
0003d0 cf d2 3a be 05 49 2f bd 88 33 d2 3c 8d f8 2f be
       -0.1824448 -0.042794246 0.025659338 -0.17184658
0003e0 33 34 99 3d 46 aa 59 3d 50 d2 38 bc 08 60 f5 3c
       0.07480659 0.0531409 -0.011280611 0.029953018
0003f0 21 d2 86 bd fd 86 8d bc ad ff a9 3d 74 d7 6e bd
       -0.06583048 -0.017276281 0.083007194 -0.05831094

bias f4 [64]
000000 5e a5 31 bd 23 a6 9f bc 28 7b c6 bd 3b d1 a7 be
       -0.043370597 -0.0194884 -0.09691459 -0.32776818
000010 3b 0e 86 be 86 c8 03 be 49 98 c2 ba c6 18 1a be
       -0.26182732 -0.12869462 -0.001484641 -0.15048513
000020 ea 01 de bd 89 77 2f 3c 49 11 67 be 51 7a 32 3e
       -0.10840209 0.010709652 -0.22565188 0.17429473
000030 3b ad d2 bd 08 95 67 bd ca df 0a bd bb de 8a be
       -0.10286947 -0.05653861 -0.033904828 -0.27123055
000040 ae ac 3a 3e 91 e7 bf be 3a 25 7b 3e 55 bc 7f be
       0.18229935 -0.3748136 0.2452592 -0.24974187
000050 68 47 56 bd ca 77 36 3b 9c e1 29 be 65 7c 15 bd
       -0.052314192 0.0027842396 -0.1658997 -0.036495585
000060 cd 24 7e be bf 67 c9 3e 21 9a ba 3b 63 0b 9b be
       -0.24818726 0.39336964 0.005694643 -0.30282125
000070 23 b4 f3 3e 21 c0 e4 bd 22 5e 89 bb 6c 72 9b bc
       0.4759837 -0.11169458 -0.0041921297 -0.018975459
000080 93 91 92 3c 56 40 36 be 95 a1 bd bd 39 84 27 3f
       0.01789168 -0.1779798 -0.09259335 0.6543613
000090 78 0b 92 bd 71 65 b6 bd 94 16 ae be ba ae 07 be
       -0.07131094 -0.08906067 -0.340016 -0.13250247
0000a0 23 fd ec be e4 ce 43 3c d8 61 8f be 53 4e 0b 3c
       -0.46286878 0.011951182 -0.28004336 0.008502561
0000b0 3f 1c d4 be 7c 25 c1 bd 98 4c 59 3e 78 0d e0 bc
       -0.414278 -0.09430978 0.21220624 -0.027350172
0000c0 3c c0 1a be 3f 2f a8 3c 36 13 8c bd e9 13 f3 bd
       -0.15112394 0.020530341 -0.06839602 -0.11869032
0000d0 2b 10 cc bd 4e c4 2a bb f5 de c2 bb d8 02 8a bd
       -0.09964021 -0.0026056948 -0.0059469887 -0.06738824
0000e0 8a 44 09 3f 13 a0 59 3d d3 ad 41 3f f8 8a 80 be
       0.5362021 0.053131174 0.7565586 -0.25106025
0000f0 b9 81 27 be e5 92 55 be 49 c1 12 be 23 2a a2 3e
       -0.16358079 -0.20856817 -0.14331545 0.31672773

weight f4 [32, 64]
000000 cb c4 8c be 58 1f 1d 3d 5c 03 5b bd 18 c1 08 3f
       -0.2749389 0.03835997 -0.05347 0.5341964
000010 48 15 6a be 68 df 3a 3d 58 4d e4 3c 2c f2 f7 3d
       -0.2285968 0.045623213 0.027868912 0.121067375
000020 e0 eb bc bb 80 0f e2 3d ae 37 8e 3d 48 76 77 be
       -0.005765423 0.11038113 0.06944214 -0.24166214
000030 ba ad 94 3d e0 9f 54 3d fc 6b 00 bd 80 08 f9 3c
       0.07259698 0.05191028 -0.031352982 0.03039956
000040 94 e0 c4 be 75 fa bf 3e 7a 09 b1 bf 7e 7e 9a bd
       -0.3845259 0.3749577 -1.3831017 -0.07543658
000050 e0 82 0e 3c 20 45 78 bd b4 a5 36 3d 4f df 83 be
       0.008698195 -0.060612798 0.04459162 -0.25756308
000060 20 a1 0c bd f7 e1 52 3e ee 4b a5 bd 18 c4 55 bd
       -0.03433335 0.20594011 -0.08071123 -0.052188963
000070 d5 2a 73 3f 02 67 cf bd 92 5d 94 be ef e3 5b be
       0.9498723 -0.10127069 -0.28977638 -0.21473669
000080 e4 47 68 3d 08 3a 58 bd ac b0 5a bd 8e d6 69 bf
       0.056709185 -0.052789718 -0.053391144 -0.9134301
000090 da 07 a2 3d 5a ca 1e c0 af 72 9e be 68 71 85 bc
       0.07911654 -2.4811006 -0.30946872 -0.016289428
0000a0 9b d7 8f 3e d0 7a 73 3c 1b 09 e8 be 20 6e aa 3c
       0.2809418 0.014860824 -0.45319447 0.020804465
0000b0 d8 26 e8 be 00 ad 93 bd b7 07 32 3d e0 7d 77 be
       -0.45342135 -0.072107315 0.04346439 -0.24169111
0000c0 a2 4a 4c 3d 9e 62 81 3d d7 cb a0 bd ec bd 5f bd
       0.049875863 0.06317638 -0.07851379 -0.054624483
0000d0 d0 dd 38 3c f8 2e 05 be 77 ea 0a bf a4 8b 2f bd
       0.011283353 -0.13006198 -0.54264015 -0.04285778
0000e0 c3 7a 4b bf d4 4d 3a bf 8f 89 20 bf 0d 1d 7d be
       -0.79484195 -0.72775006 -0.627099 -0.24718113
0000f0 b8 2a 8a 3e b1 38 0a bd 3e f2 fb be aa 31 82 3e
       0.26985717 -0.03374547 -0.49208254 0.25428516
000100 4c 29 a5 3d 90 f2 57 bd 10 3f f0 3d c8 88 2b 3d
       0.080645174 -0.05272156 0.11730778 0.04187849
000110 b0 b4 44 bc 7e dd 82 3d d4 a8 8c 3d dc 20 ee bd
       -0.01200597 0.063899025 0.06868139 -0.11627361
000120 10 a3 5b bc e0 c2 dc 3b ae 93 ec bd ec b6 26 be
       -0.013405576 0.006737098 -0.11551605 -0.16280717
000130 18 f1 b9 bd 38 25 90 3d a0 9e 2f 3d b6 56 d4 bd
       -0.09079188 0.07038349 0.042875886 -0.10368101
000140 39 82 da bd 94 fb 70 bc ac d2 f5 bd 40 e6 a6 bc
       -0.10669369 -0.014708418 -0.12003073 -0.020373464
000150 e8 ea db bd 30 cc 95 3d 6e 53 d5 bd 67 f7 47 bd
       -0.10738164 0.07314336 -0.104163036 -0.048819926
000160 cc fa 06 3d 8c 6d 13 be 00 0b c4 3a 00 ee e8 3d
       0.032954022 -0.14397258 0.0014956892 0.1137352
000170 b6 3c 94 bc f8 ea b0 3c 42 32 fe 3d 2c 19 93 3c
       -0.018095355 0.021596417 0.1241193 0.017956339
000180 c8 e2 c9 bc 20 32 ad 3c 78 ac 88 bd a8 02 4a be
       -0.02464427 0.021142066 -0.06673521 -0.19727576
000190 20 d6 f9 3c 80 75 cb 3b 6c 6b 49 3c 60 b5 11 bd
       0.03049761 0.0062090755 0.012293678 -0.035573363
0001a0 e4 46 fc bd 18 c7 79 3d c0 75 1c 3c 88 9f e5 3c
       -0.12318209 0.060980886 0.009549558 0.028030172
0001b0 ea 76 d9 3d a8 ff aa bd 5e 7d 04 be 00 67 a9 ba
       0.10618384 -0.08349544 -0.12938449 -0.0012924373
0001c0 92 cc fe bd 5c 83 dd 3d 94 4c ac bd f8 61 a9 bd
       -0.124413624 0.108160704 -0.084130436 -0.08270639
0001d0 9c 56 f3 3d 52 1c 12 be 48 23 b9 bd 90 03 5c 3d
       0.11881754 -0.14268616 -0.090399325 0.053714335
0001e0 da ea 54 bc 44 f3 cb bb bd 74 3f be d6 32 e3 3d
       -0.012995446 -0.006224068 -0.18696876 0.110936806
0001f0 b4 35 9a bd 90 0e d2 bc 74 9a 03 be 14 41 83 3d
       -0.07529774 -0.02564171 -0.12851888 0.06408897
000200 1d 84 5d bd f8 44 05 bd 42 ba 68 bd 0b fc 7c 3e
       -0.05408107 -0.032536477 -0.056818254 0.24705522
000210 2e 63 c6 bd f8 e4 32 3c f0 d6 dd bd 80 9d 97 3c
       -0.09686886 0.010918848 -0.10832012 0.018507719
000220 33 c6 33 ba 00 04 10 bd 84 7c 90 3d 56 b6 cc be
       -0.0006857842 -0.035160065 0.070549995 -0.3998286
000230 5b 0b 46 3d ae b2 83 bd f9 12 67 bb 2c 63 2e 3d
       0.048350673 -0.06430565 -0.0035259111 0.042575046
000240 7b b2 e9 bd 53 d5 3f be 71 32 33 be 34 1d 7a bd
       -0.114109956 -0.1873372 -0.1749971 -0.061063007
000250 6c 67 18 3c a5 c3 4c 3d 58 96 35 bd b6 1b 65 bd
       0.009302001 0.04999127 -0.044332832 -0.05593463
000260 de c8 f9 bc 7d f0 68 be 41 e7 7e 3d d6 d5 ac 3d
       -0.030491289 -0.22747989 0.06223226 0.084392235
000270 19 2b f8 3c 88 2d 02 3d 55 5e b6 bc 29 a6 d1 be
       0.030293988 0.031781703 -0.022261778 -0.40947083
000280 00 6a 2f 3a 78 90 bf bc c0 50 4d 3c ed 7f 26 be
       0.00066915154 -0.023384318 0.012531459 -0.16259737
000290 57 7d c5 bc 56 da 0c be f3 03 d9 bd 4c f2 40 bd
       -0.024107618 -0.13755164 -0.105964564 -0.047106072
0002a0 1c db 72 bd 04 2d db 3c 49 35 c5 3d 88 9f 89 bc
       -0.05929099 0.026754864 0.09629304 -0.016799703
0002b0 6e 36 bb 3d 04 27 e4 bd 7f 68 c6 bd 90 4c 9b be
       0.09141241 -0.11140254 -0.096879 -0.3033185
0002c0 18 e2 d5 bd a9 1e 5e bd 46 0a 3c 3e 54 98 94 3d
       -0.104435146 -0.05422846 0.18363294 0.07255617
0002d0 e6 18 91 bd 55 a2 59 bc 37 7d da be f1 95 f4 bd
       -0.07084827 -0.013283332 -0.42673656 -0.119426616
0002e0 1d e9 69 bd 3d 9d 23 be 81 4b e7 bd 25 7a 66 bd
       -0.05710708 -0.1597795 -0.11293698 -0.05626883
0002f0 a0 5d d2 bd 5e 33 e9 bc a9 e9 27 be ea fa fc bd
       -0.10271764 -0.028466877 -0.16397728 -0.123525456
000300 ec 5a 8d bc 48 e4 9c 3c b8 fa a3 bd a8 1f c7 bc
       -0.017255269 0.019151822 -0.08006805 -0.024307087
000310 a6 b6 e8 3d 3f 52 a6 3c 40 bf 09 3c e2 85 c5 3d
       0.113629624 0.02030289 0.008407414 0.09644677
000320 1b b7 b7 bd 75 5f 36 3d ba 6c d9 bd e5 0f 52 bd
       -0.089704715 0.04452463 -0.10616441 -0.05128469
000330 49 d2 c5 bd 34 45 59 3d 60 e1 a3 3c ce d0 ff 3d
       -0.09659249 0.053044513 0.020004928 0.12490998
000340 6f 2f 9a bb af b3 0c be 91 ba 05 be 78 d5 12 3d
       -0.0047053616 -0.13740419 -0.1305945 0.03584811
000350 4c 67 f9 3d 9d 47 16 be fe 76 b7 bd f0 55 0d 3d
       0.121779054 -0.14675756 -0.08958243 0.034505785
000360 60 1c 14 bd 07 2a 2f be 8c 80 81 3d d8 ad c4 bc
       -0.036159873 -0.17105876 0.063233465 -0.024008676
000370 60 01 84 bc 78 ba 4b 3d ce 61 02 be 40 bd e4 bd
       -0.016113937 0.049738377 -0.12732622 -0.11168909
000380 20 c0 4b 3d 44 75 37 bd 10 53 09 be 0e 84 94 3b
       0.04974377 -0.044789568 -0.13410592 0.0045323437
000390 20 0c be bd 9d d5 96 bd 32 96 f6 bc 9e c9 cd 3d
       -0.092796564 -0.07364962 -0.030100916 0.10048221
0003a0 f8 b6 9f bc ac 84 9b bb 78 4c c6 bc 90 5d 2d 3c
       -0.019496426 -0.0047460403 -0.024206385 0.010581389
0003b0 b4 e2 bf bd 45 93 4d bb 85 1a 07 be de df 90 bc
       -0.09369412 -0.0031368297 -0.1319371 -0.017684873
0003c0 e4 f1 4f bd ec 1d c5 bb e0 07 de 3c e6 36 c6 bd
       -0.050767794 -0.00601553 0.027103364 -0.0967844
0003d0 a0 f0 4b 3d d3 fc 1c bd 85 90 e9 bd 2f db 39 be
       0.049790025 -0.03832705 -0.11404518 -0.18150018
0003e0 a4 92 41 be 89 7f 0d be b5 c1 5c 3c 21 10 87 bd
       -0.18903595 -0.13818182 0.013473918 -0.06594873
0003f0 20 7c 28 bd 8d 41 ec 3c 4b 3f 2d be ee b9 84 bd
       -0.041134 0.02883985 -0.16918676 -0.06480776

bias f4 [32]
000000 bf 9a 20 bf 55 9f 96 bc 93 91 2d be d8 ce 9f bd
       -0.62736124 -0.018386522 -0.16950063 -0.07803124
000010 4c f5 b4 be b7 28 e4 bd dd 7a 65 be 37 de 11 3f
       -0.35343397 -0.11140578 -0.2241015 0.569797
000020 8d bd 2c be f4 4c 0a 3e 6c c4 df 3e e1 8b e0 bd
       -0.16869183 0.13505918 0.43704545 -0.1096418
000030 84 a0 76 be 4f eb d8 bd b1 62 7f be ca c0 83 be
       -0.2408467 -0.105917566 -0.24939992 -0.25733024
000040 e6 27 8c 3e 5b b4 cb 3e d1 36 f3 bd cf 63 d9 3c
       0.2737419 0.39786038 -0.1187569 0.02653685
000050 8a d7 56 be 32 00 fc bd 1b 84 20 be 38 36 78 3e
       -0.20980659 -0.12304725 -0.15675394 0.24239433
000060 a0 e9 91 3e 54 e7 e4 bd 99 ed ba bd 18 ce 20 3d
       0.28498554 -0.11176935 -0.091273494 0.039259046
000070 56 37 08 be 85 f0 d2 be d3 be f2 be 78 f7 5a bd
       -0.13302359 -0.41199127 -0.47411212 -0.05345866

weight f4 [8, 32]
000000 75 f1 97 bd 5c 87 fe bd c9 06 ea 3c 00 33 03 be
       -0.07419101 -0.124281615 0.028567689 -0.12812424
000010 de 17 32 3c c0 93 78 3b 7a e8 a1 3b 4e 29 67 3d
       0.010869948 0.0037929863 0.0049410434 0.056435876
000020 a6 7b 8c 3d 83 a0 64 bf aa 03 28 c0 c9 cc cc bd
       0.068595216 -0.8930742 -2.6252236 -0.09999997
000030 8c d9 30 3d 1e 42 f0 3d 18 b6 88 3d a3 6d 88 bd
       0.04317622 0.11731361 0.066753566 -0.066615365
000040 9f 45 d5 bf 16 69 86 bf 2a 08 ea bd a0 ab ce bd
       -1.6661872 -1.050082 -0.114273384 -0.100913286
000050 0e 3e 7f bd 70 b9 d0 3c e2 17 68 bd 61 42 15 bd
       -0.06231504 0.025479048 -0.0566634 -0.036440257
000060 69 60 08 c0 16 7f 8e bd 7e 1d 16 be 9c 84 f1 bd
       -2.1308844 -0.069578335 -0.14659688 -0.11792871
000070 50 c1 15 3d 3d b9 04 3e 5e 92 cd be 20 8b 30 3c
       0.03656131 0.12961288 -0.40150732 0.0107753575
000080 5c ce 20 3f f7 a2 17 3e f6 92 29 be 70 28 02 bf
       0.6281488 0.1480826 -0.16559967 -0.5084295
000090 4d d3 21 3d 54 fd 5d 3d b6 09 5d bd 90 ac d3 bd
       0.039508153 0.05419667 -0.05396434 -0.10335648
0000a0 36 04 a1 3d 1b 1c 68 bf ca 22 ab 3e b0 37 2d be
       0.07862131 -0.90667886 0.3342498 -0.16915774
0000b0 06 47 8a bd 3a c2 d4 bd 63 3b 5d 3e 3c 3f 14 3d
       -0.06751828 -0.10388608 0.21604685 0.036193117
0000c0 44 d2 13 3f 64 38 04 3e d3 23 ba bd fb b0 83 3e
       0.57742715 0.12912136 -0.09088864 0.25720963
0000d0 7a 2f 70 3e 31 06 9d bd bc d8 f7 bd f0 9e b5 3d
       0.23455611 -0.076671965 -0.12101886 0.088682055
0000e0 8f 97 00 3e 54 aa 04 bd 42 67 dc 3a ee be db bd
       0.12557815 -0.032389 0.0016815441 -0.10729776
0000f0 65 69 ab be 5c af 47 3d af 46 9c 3d b8 20 2d bd
       -0.33478847 0.04875122 0.07630669 -0.04226753
000100 36 65 04 3c a2 18 e6 3c f7 c2 b6 bc 77 71 a7 bd
       0.008080771 0.028087918 -0.022309763 -0.081759386
000110 16 2c cb be 98 96 45 bd e4 00 74 3e 2c f8 ad 3e
       -0.39682072 -0.04823932 0.23828465 0.33978403
000120 fc be 72 be 6c 1f 05 bf b0 c3 9c be 86 cf 35 3e
       -0.23705667 -0.5200107 -0.30618048 0.17754945
000130 df 98 e5 bd 4b cb b7 bd b3 b0 65 3e d5 25 8b bd
       -0.112107985 -0.08974322 0.22430687 -0.06794325
000140 13 95 e5 3d 68 b5 d6 3e 33 5f 05 3d a9 70 f0 3d
       0.11210074 0.41935277 0.032561492 0.11740238
000150 e0 84 0b be b8 1c 48 bd 3b 03 7e 3e b8 f3 ca 3e
       -0.13624907 -0.048855513 0.2480592 0.39639068
000160 9f 85 b1 3e e0 3d 27 3e b5 af 4b 3d 17 1f 9d 3d
       0.34672257 0.16332197 0.049728114 0.076719455
000170 f6 bc 03 3c 20 d7 e0 3d ec ac aa be e6 9b 2e 3e
       0.008040657 0.10978532 -0.33335054 0.17051658
000180 a8 ba e3 3e dd 9c 8b bc 71 cc fd bd 96 fd 7d 3d
       0.44478345 -0.017042572 -0.1239251 0.062009417
000190 a4 a0 92 bc a2 79 a5 3c 8f 88 c9 3d 64 e8 d3 3e
       -0.017898865 0.0201996 0.098404996 0.41388237
0001a0 16 f3 aa 3d e1 8a 6f 3e ca 17 c1 3e c2 1a 31 3d
       0.08347146 0.23392822 0.37713462 0.04323841
0001b0 00 73 f1 bc ef 8d 73 3d 85 81 48 3e 82 d5 3b 3c
       -0.029473782 0.05946153 0.19580658 0.011464478
0001c0 88 6d 7c be 4a 4b bd be 1a 9b 1e be 1c 42 44 bd
       -0.24651158 -0.36971503 -0.15488854 -0.04791461
0001d0 26 e4 6a be e2 cb 07 be e3 08 2d bd 56 6b 77 3e
       -0.22938594 -0.13261369 -0.042244803 0.24162039
0001e0 aa 0d 3c bd 6f b3 47 3d 55 cc 1d be cb 87 68 3d
       -0.04591147 0.048755106 -0.15409978 0.056770127
0001f0 19 93 f3 be f7 f7 87 bd 5d aa 5e 3d 95 9c 52 bc
       -0.47573164 -0.066390924 0.05436169 -0.012854715
000200 c4 8a 47 bf da e9 34 be 64 a2 e8 3e 55 e5 16 be
       -0.77946115 -0.17667332 0.45436394 -0.1473592
000210 3c 64 2f be 11 68 cd 3d bb 0d 5b bd cf b3 39 3e
       -0.1712808 0.10029615 -0.05347989 0.18134998
000220 86 48 6b be 49 6f 8f 3e 09 28 d5 3e b0 ff 25 3d
       -0.22976884 0.2801459 0.41632107 0.040527046
000230 41 ef 29 3e c8 a8 51 3d e0 26 a7 bd 61 7a b8 bd
       0.16595174 0.051186353 -0.08161712 -0.09007717
000240 9b 14 a6 be 49 f3 ff 3e d4 76 0a bd 26 f2 d3 bd
       -0.32437596 0.499903 -0.03380473 -0.103489205
000250 4a 51 dd 3d 9f 93 66 3d 24 9d 33 3e e0 83 39 be
       0.1080652 0.056293126 0.17540413 -0.18116713
000260 66 52 69 3e c8 18 c3 3d c8 4f 00 be 6d 3a c9 3a
       0.22785339 0.09526211 -0.12530434 0.0015352495
000270 ec 63 13 be b6 16 26 3e ad 3e 49 3d 90 c1 8f 3b
       -0.14393586 0.16219601 0.049132038 0.004387088
000280 3a ca cd 3d 60 82 ac bd 3c b0 db bd ea c1 b9 bd
       0.10048337 -0.084233046 -0.107269734 -0.09070189
000290 d5 e5 1b 3e 16 55 9a 3d 04 e5 1a 3d 72 80 2d be
       0.15224393 0.0753576 0.037816063 -0.16943529
0002a0 8c 19 ce bd e1 a7 16 be c0 df 77 bd 77 8e a3 bd
       -0.100634664 -0.14712478 -0.06051612 -0.079861574
0002b0 cd 26 13 3e a4 cd 46 bd c0 42 3b 3c fb 02 83 bd
       0.1437027 -0.048535958 0.011429489 -0.06397053
0002c0 a9 21 25 be 95 c4 12 be 3d 5e 1c 3e 22 35 b3 bd
       -0.16126122 -0.14332803 0.15270324 -0.08750369
0002d0 9a 00 11 be 36 fa dc 3d ca ad 97 3d 4d 45 3a 3d
       -0.14160386 0.107899114 0.074061945 0.045476247
0002e0 e7 6b 30 bd 75 82 aa 3d 4c d8 9d bd 24 db 2d be
       -0.043071654 0.08325664 -0.07707271 -0.16978127
0002f0 ea 62 e4 bd b2 f6 62 bd 47 70 47 be 40 d5 2a 3b
       -0.11151679 -0.05541105 -0.19476424 0.0026067048
000300 66 c2 65 bd 4b 05 07 3e 87 32 9c bc 68 7e e6 3d
       -0.056093596 0.13185613 -0.019067062 0.11254579
000310 80 a8 ff bd fe 4a ca 3d bb b1 15 be 54 be e9 3d
       -0.12483311 0.09877585 -0.1461858 0.11413255
000320 b3 54 03 bd b3 03 60 bd 9f 89 b3 bd 36 08 ca 3d
       -0.032063197 -0.054691028 -0.087664835 0.09864847
000330 17 fb a6 bd 2d 70 42 be dd 75 30 be 5f 53 8f bd
       -0.0815336 -0.18988104 -0.17232461 -0.06998324
000340 ee 17 02 be 08 e7 2b bf 41 f8 1d be 75 9e 90 3d
       -0.12704441 -0.671494 -0.15426733 0.07061473
000350 5b af a1 bd bb ed a4 bd 20 22 55 3c 31 3a 0d be
       -0.078947745 -0.08053156 0.013008624 -0.1379173
000360 2b c6 1e be 82 b5 e3 3d 26 65 9b 3d 38 1d da 3c
       -0.15505283 0.11118604 0.07587652 0.02662526
000370 a8 a6 5e 3d c6 f1 18 be f5 39 14 be f6 95 4b bd
       0.054358155 -0.14935979 -0.14475234 -0.04970356
000380 10 56 cb 3c 42 f9 cd 3d bc d8 ec bd 08 83 23 be
       0.024821311 0.10057308 -0.11564776 -0.15967953
000390 98 4c b3 3c 24 03 53 3d b3 76 0f 3e 21 08 88 bd
       0.021887109 0.051516667 0.14010124 -0.066421755
0003a0 5b 18 05 3e 20 1c 6c be 62 7a e6 3c 91 4d f5 bd
       0.12997572 -0.23057604 0.028134529 -0.11977685
0003b0 96 fd b5 bd de 59 c3 3d 12 b2 07 3d ab 83 bd bd
       -0.08886258 0.09538625 0.033128805 -0.09253629
0003c0 97 fa 9d bc fd 75 91 bd db 75 cc bd f1 c7 a1 bd
       -0.01928453 -0.071025826 -0.09983417 -0.07899464
0003d0 dd eb 04 3e d7 b5 1d 3e d3 cd 17 be 1e 35 c2 bd
       0.129806 0.15401398 -0.1482461 -0.094827875
0003e0 0b f3 5f be 44 4b 42 bd dc d6 bb bb 3d 37 9d 3d
       -0.21870057 -0.04743506 -0.0057324003 0.076765515
0003f0 58 27 89 3d 66 80 97 bd f1 9b 95 bd c8 f9 c0 bc
       0.06696957 -0.07397537 -0.07305134 -0.023556605

bias f4 [8]
000000 17 d5 cf 3d 4e 9c ff 3e f3 96 b3 3b 5e e6 b0 3e
       0.101480655 0.4992394 0.005480641 0.34550756
000010 f0 e4 9c 3e 41 ec 46 be 54 22 72 be ce 4b 53 be
       0.30643415 -0.19426061 -0.23645908 -0.20634386

weight f4 [4, 8]
000000 3a 86 2e 3e 1c 10 8b be c6 62 17 3e d4 be a4 3d
       0.17043391 -0.27160728 0.14783773 0.0804421
000010 20 a8 da 3d 63 d3 0e be 25 0b 94 3e 42 a0 fa bd
       0.106765985 -0.13947825 0.28914753 -0.12237598
000020 80 41 51 bb 25 66 3b be a4 14 d3 3d 58 2d 6f bd
       -0.003192991 -0.18300684 0.10306671 -0.058392853
000030 48 08 bf 3d 10 6c a4 3c d9 18 88 be 00 4b 95 bb
       0.093277514 0.02007106 -0.26581457 -0.00455606
000040 80 bb 81 be fd 01 9e 3e 8a 69 25 3e 29 20 0d be
       -0.25338364 0.30860892 0.16153541 -0.137818
000050 e9 db 85 3e 53 47 16 be 76 55 00 be ce 97 73 3e
       0.2614434 -0.14675646 -0.12532601 0.23788378
000060 65 72 a1 be ed 6d 87 3e dc c7 e1 bd bc 30 94 be
       -0.3153259 0.26451054 -0.11024448 -0.2894343
000070 6f fa ae 3e 35 39 9e 3e 07 9e 85 3e b2 b4 59 3e
       0.3417544 0.3090302 0.26097128 0.21260336

bias f4 [4]
000000 e8 c2 90 be 18 11 0d 3e 20 91 07 bc 46 b2 51 be
       -0.28273702 0.13776052 -0.008274347 -0.20478162
