training/ann/models/ann8.pth (torch, 68622 bytes, 10 tensors)

weight f4 [128, 40]
000000 9b 8f d1 bd 8a 61 42 3c 23 e5 f4 bd f7 c8 25 3d
       -0.10232469 0.011864075 -0.11957767 0.040474858
000010 b2 bd 04 3f 10 b0 ce bd 28 c5 29 3f 43 b5 40 c0
       0.5185195 -0.10092175 0.6631646 -3.0110633
000020 a6 50 3a 40 59 8a b1 3f 98 0f 01 c0 8d 1b df bf
       2.9111724 1.3870345 -2.0165768 -1.7430283
000030 bb 95 8f 3e c1 3d 0a bf c4 38 db 3e 82 a1 87 be
       0.28043923 -0.5400048 0.42816746 -0.26490408
000040 82 b6 b8 bd bb 1b be bf ea 55 91 3e eb d9 17 40
       -0.090191856 -1.4852213 0.2838586 2.3726757
000050 a2 41 7c bf ec d5 46 c0 48 28 52 40 cf 77 ca bf
       -0.9853765 -3.1068068 3.2837086 -1.5817813
000060 8e f1 90 bf 00 74 20 40 b2 dc 5c bf 59 88 7b 3f
       -1.1323717 2.50708 -0.86274254 0.98254925
000070 ad 26 6d c0 88 29 6a c0 e3 6b 06 40 29 60 ec 3e
       -3.7054856 -3.6587849 2.100335 0.46167114
000080 1a 77 68 40 d8 d5 d5 3e d5 ef 0a 3f 03 d6 cc bd
       3.6322694 0.41764712 0.54272205 -0.10001757
000090 62 a0 46 c0 ac 9a 18 c0 31 4a c5 3c 19 d5 b7 3f
       -3.103539 -2.3844404 0.024083229 1.4361907
0000a0 e0 12 c3 3b 20 7c 01 be 18 8c 5b 3d be 7a e6 bd
       0.005953178 -0.12645006 0.0536004 -0.1125388
0000b0 e6 14 89 3d 40 34 08 bc f4 e7 51 bd c0 77 b2 3b
       0.06693439 -0.008313239 -0.0512466 0.005446404
0000c0 b5 d5 fc bd f0 2c a3 3d 7c 0a 52 3d 02 06 9c 3d
       -0.12345449 0.079675555 0.05127953 0.076183334
0000d0 47 ed 11 3e 06 62 d7 3d 2d 0d 1c 3e 58 3f 05 3d
       0.1425067 0.10516743 0.15239401 0.032531112
0000e0 70 fe 20 bd 17 46 1c 3e 04 32 88 3d 7e cd 25 bd
       -0.03930515 0.15261112 0.06650165 -0.040479176
0000f0 80 00 cc bb 82 22 14 bd 90 94 97 3d 08 a6 eb 3c
       -0.0062256455 -0.03616572 0.07401383 0.028765693
000100 5a 4c 91 bd 51 13 d4 bd 63 1c 19 be 98 41 d6 3c
       -0.07094641 -0.10355247 -0.14952235 0.026154324
000110 e4 f3 81 3d bf 76 0b 3e 54 a3 58 3d 85 a5 ea bd
       0.063453466 0.13619517 0.052890137 -0.114573516
000120 80 7e d1 ba 00 66 c3 bc fa 3f 0e bd ec 0b f7 bd
       -0.0015983135 -0.023852348 -0.03472898 -0.12062821
000130 82 8c 35 bd b4 4c a7 3d e0 20 7a 3d 68 32 22 3d
       -0.04432345 0.08168927 0.06106651 0.039598852
000140 04 b7 3e bd a9 0d 35 bd 3a b5 2b be 44 c7 0e 3b
       -0.046561256 -0.04420248 -0.16768351 0.0021786252
000150 1f 97 64 be 93 63 7d bd 59 25 1d 3e 7d 58 02 be
       -0.22323273 -0.06186254 0.15346278 -0.12729068
000160 f7 e0 e9 3c dd 59 75 be 25 40 f2 3c cc ac 82 be
       0.028549654 -0.23960061 0.029571602 -0.2552246
000170 e5 76 3f be b3 ff 96 be 20 fa a2 bd ed 94 2c bd
       -0.18697698 -0.29491958 -0.07957864 -0.042134214
000180 15 f5 72 be 13 d1 b5 bd 6a 00 dd 3c 0f 10 ff bd
       -0.23726304 -0.08877768 0.026977737 -0.12454235
000190 03 4e 1e be 80 bb 6f 3e 4f 46 bc 3d 7b 99 9f bd
       -0.15459447 0.2341137 0.09193098 -0.07792946
0001a0 c1 f2 61 be 73 54 b2 3d 0a 41 52 be 21 1d 2a bd
       -0.2206526 0.08707514 -0.20532623 -0.041531686
0001b0 42 c5 9d be fa b8 4e be a7 ae de bd c1 88 a4 bd
       -0.30814558 -0.2018775 -0.10873156 -0.08033896
0001c0 0b 32 02 3d 1e fd 8d bd ab 5d d2 3d 2b a5 a4 be
       0.031786006 -0.06933044 0.10271772 -0.32157263
0001d0 ae ea 1f be 2f 06 72 bd 01 09 97 be 9f f6 fb 3d
       -0.15616867 -0.05908793 -0.29499057 0.123028986
0001e0 98 2c dc bd 80 f6 f3 bd d2 7c 8a bd 9a be 97 3d
       -0.10750693 -0.119122505 -0.06762089 0.07409401
0001f0 9c b8 30 3d e8 3e 87 bc 00 aa b7 bb 90 2d 66 bd
       0.043144807 -0.016509488 -0.0056049824 -0.056195796
000200 f9 9b 0b 3e 83 bc 17 3e 1a 1f f9 3d fa b9 f1 bd
       0.13633718 0.14818005 0.12164135 -0.1180305
000210 47 89 13 3e 41 a8 07 3e cf 09 03 3e 00 1b 1c bb
       0.14407836 0.13247778 0.1279671 -0.0023819804
000220 58 9c 3f bd 4f 9e cc bd 29 12 ba bd f8 75 6d 3d
       -0.04677996 -0.099911325 -0.09085495 0.057973832
000230 2e 82 da 3d 6b 7d 1a 3e a4 60 05 be 58 b2 e8 3c
       0.10669361 0.15086906 -0.13025147 0.028405353
000240 e8 a3 03 bd 5a 05 e0 3d 00 3e 22 3c de 3a 82 bd
       -0.032138735 0.10938521 0.009902477 -0.06358884
000250 1e 4e c1 3d c9 bc 13 3e 08 dc 16 be c0 f0 0f 3d
       0.09438728 0.14427485 -0.14732373 0.035141706
000260 02 29 e3 3d 62 c0 f0 3d 12 59 b0 3d 19 7c 05 3e
       0.11091806 0.11755444 0.08610739 0.13035621
000270 80 13 60 3d c9 c9 0e 3e 60 0b af 3d b6 a1 8f 3d
       0.054706097 0.13944162 0.085470915 0.07013266
000280 d5 50 90 3a 07 54 a7 bc a8 38 53 bd 96 94 af bd
       0.0011010418 -0.02042581 -0.051567703 -0.085732624
000290 e6 90 bc bd b2 f6 b7 3d 8b 1f 7d 3e c0 6d 23 bd
       -0.09207325 0.089826 0.24719064 -0.039899588
0002a0 87 af 24 3e 20 a2 6f be 17 4f 9a bd f4 7d 31 be
       0.16082583 -0.2340169 -0.075346164 -0.17333204
0002b0 ef 5c 0c be 0f 94 97 bc 1a c4 4a 3d d8 cf 5b 3b
       -0.13707326 -0.018503217 0.049503423 0.0033540633
0002c0 0e 25 eb 3c 9c a5 08 3d 07 f8 f1 bd f8 ea 90 bd
       0.028704192 0.033361062 -0.118148856 -0.07076067
0002d0 af 60 e8 bd 0f 93 2e 3e cd 0b 97 bd f5 5e 6e be
       -0.11346566 0.17048286 -0.07375298 -0.2327841
0002e0 da 39 8d bc 12 3b 07 3e ab 98 61 bd d9 a4 44 bc
       -0.0172395 0.13206127 -0.055077236 -0.012002193
0002f0 50 40 58 bd f8 31 0b 3e 96 62 ac bc 75 fd 07 be
       -0.05279571 0.1359328 -0.021043103 -0.1328028
000300 8f 49 2c 3e 81 5e 06 be ff 4c 6b 3d b2 f4 3b be
       0.16824935 -0.13121988 0.057446476 -0.18355063
000310 35 43 45 bc a2 02 b1 bd fe 17 9f 3d 85 95 0f 3e
       -0.012039949 -0.0864308 0.07768248 0.14021881
000320 09 8f 42 bd a0 b1 a9 bd f6 95 38 be 2c 7d 14 3c
       -0.04749969 -0.082858324 -0.18025956 0.009063046
000330 39 f1 c4 bd 21 a0 cb bd 8f 66 06 be c3 35 f5 bd
       -0.09616322 -0.099426515 -0.1312506 -0.11973145
000340 b1 ae dc 3c e8 ae 26 be cc 99 67 be 21 55 66 be
       0.026938768 -0.16277659 -0.22617263 -0.22493412
000350 5e 2c 37 be f9 01 4a be cd 0f 37 be ee ed 97 bd
       -0.17888018 -0.19727315 -0.17877121 -0.07418428
000360 0a 37 0d 3c b2 76 8a be c3 6c a7 bd 79 60 16 be
       0.008619079 -0.27043682 -0.081750415 -0.14685239
000370 a1 81 10 bd 0b 25 8d bd b0 72 2a be 6a 05 36 be
       -0.035279874 -0.06891831 -0.16645312 -0.17775503
000380 bb 5d a2 3c 77 76 23 be 8e d0 77 bd 95 6e 86 be
       0.019820085 -0.1596316 -0.060501628 -0.26256242
000390 f8 42 2c be 50 b6 5b be 77 1a 50 bc 64 3a 79 be
       -0.16822422 -0.21456265 -0.012701622 -0.2433868
0003a0 68 f1 06 be 1c bf 65 bd 2c 4f 2d be 3f ce 42 be
       -0.13178027 -0.05609046 -0.16924733 -0.19023989
0003b0 88 78 75 be 3b e8 0a 3d 4c c9 bd bd 8d c5 b3 bd
       -0.2397176 0.03391288 -0.0926691 -0.08777914
0003c0 27 36 14 3e 68 4b 0c be 50 1f 41 bc c8 ec 40 3d
       0.14473782 -0.1370064 -0.011787251 0.047100812
0003d0 a8 82 ed bd 5a 96 2c bd 78 a8 d3 bd e7 48 11 3e
       -0.11597186 -0.042135574 -0.10334867 0.14187966
0003e0 71 1a 01 be 60 6c 5d 3c e0 c8 13 bd 48 d1 f6 3c
       -0.12607743 0.013514608 -0.03608024 0.03012909
0003f0 14 c1 b0 3d b8 76 16 3d 70 4e 02 bd e6 92 a0 3d
       0.08630577 0.036734313 -0.031813085 0.07840519

bias f4 [128]
000000 7c 47 99 be 00 f2 8b ba cf 42 1b bd c8 9f b7 bc
       -0.2993735 -0.001067698 -0.03790551 -0.022415057
000010 ae 59 42 3d 91 19 e2 bd 6c c3 a8 3d 8c 4a a6 bd
       0.047448806 -0.11040033 0.08240399 -0.081196874
000020 86 09 8a bd 56 42 19 bd a1 66 47 be 2d 62 19 3e
       -0.06740098 -0.03741678 -0.19472744 0.14978857
000030 9e 0b 96 be 60 ff ef 3c 08 17 1c 3d 8c 0f c7 bd
       -0.29305738 0.029296577 0.0381079 -0.09719762
000040 cd 21 3d be 28 67 05 be 14 49 0e 3d 1a c8 55 bd
       -0.18469925 -0.13027632 0.03473766 -0.052192785
000050 6b 98 0c 3e 8d b0 8b be bc 7c 4f be 4c 09 52 be
       0.13730018 -0.27283135 -0.20262426 -0.20511359
000060 0b 54 bc 3c d8 3e b2 bc 38 68 3b bd 93 ab f7 3d
       0.022989294 -0.021758482 -0.045753688 0.12093272
000070 25 91 8a be 53 6e e8 bd ba 2a 9c 3d 69 8c 9a be
       -0.2706386 -0.11349168 0.07625337 -0.3018525
000080 8c 2e 9c bc 06 5f 05 be 3e 09 16 be 69 22 14 3e
       -0.019065164 -0.1302453 -0.14651963 0.14466251
000090 5c ec e0 bd d0 83 d5 3c 6f da 44 be cc 4f b2 be
       -0.10982582 0.02606383 -0.19223951 -0.34826505
0000a0 c8 6c 91 be 40 31 df bb a8 0f 56 3d 52 af ba 3d
       -0.28403306 -0.006811291 0.052261025 0.09115471
0000b0 ef 48 18 be 3a e0 7d be 7d cd 0d 3c 76 2b a8 bd
       -0.14871572 -0.24792567 0.008654949 -0.082114145
0000c0 b6 38 e4 bd 32 a0 11 be a2 17 04 be df 9f 8d bc
       -0.11143629 -0.14221266 -0.1289964 -0.017288147
0000d0 16 a9 0b be 4d 1e 1f 3e 33 6d 19 3e 3d be 1d bd
       -0.1363872 0.15538903 0.14983062 -0.038511503
0000e0 bb ba ab 3d 93 9e e1 3c a8 d9 0a 3d be e5 25 bd
       0.083852254 0.027541434 0.03389898 -0.040502302
0000f0 80 d6 a5 3c 35 a8 4e bc 57 ea 54 bd 1c 7b b6 3d
       0.020243883 -0.012613346 -0.051981296 0.089102
000100 da 22 06 be e8 ab 97 bc 12 30 68 bd 78 ff e6 bd
       -0.13099232 -0.018514588 -0.05668647 -0.112791955
000110 ef 60 87 bc 44 00 56 be fe e9 9b bd 92 63 26 be
       -0.016525714 -0.20898539 -0.0761299 -0.1624892
000120 00 6f 61 3c 67 b5 d0 bd be af d5 3d 80 a3 1c 3b
       0.013759375 -0.1019085 0.10433911 0.0023901165
000130 2d 5a e7 3d 2c 74 c0 bd 1a ec b1 bd c2 89 4c bd
       0.112964965 -0.09397158 -0.08687611 -0.049936064
000140 ad ed 0a be 2f 2a 9f 3d 59 f1 90 be d8 fe dd 3c
       -0.13567229 0.07771718 -0.28309134 0.027099058
000150 40 f3 d1 3c 80 f8 31 3b e3 86 0e be 9c 06 1d bd
       0.025628686 0.0027156174 -0.13918643 -0.03833638
000160 f4 cd b3 bd 61 11 0e be b0 54 37 bd 9c 63 33 3c
       -0.08779517 -0.13873817 -0.0447585 0.010949042
000170 ec fb 4e bd a0 f0 c8 bb d0 b9 60 be 2c ab d1 bd
       -0.05053322 -0.0061322004 -0.21945882 -0.102377266
000180 62 c4 15 be 7f 64 b5 bc f0 b5 0e 3c 1f d2 70 be
       -0.14625695 -0.022142647 0.0087103695 -0.23517655
000190 a4 67 de bd fe 86 2e be 98 d0 2f bd 34 e5 17 bd
       -0.10859612 -0.17043683 -0.04292354 -0.03708382
0001a0 2f 85 fb bc 92 56 05 be a8 f2 23 3c 64 41 fb bd
       -0.030703155 -0.13021305 0.010006584 -0.12268332
0001b0 a2 ac b3 3d b0 4a 7a 3c d8 5f 00 be 62 ac 06 be
       0.087731615 0.015276596 -0.12536561 -0.13151696
0001c0 17 2e e6 bd a5 db 5b be 64 68 ca bd ec 07 16 bd
       -0.1123926 -0.21470506 -0.09883192 -0.03662865
0001d0 c0 15 24 3d 26 97 50 bd 17 53 3c 3c b6 8d d1 3d
       0.040059805 -0.050925396 0.01149442 0.10232107
0001e0 08 01 34 be 00 a8 c9 ba bf bf 9c be 9f 6a 9f 3d
       -0.17578518 -0.0015385151 -0.3061504 0.07784008
0001f0 80 d0 32 bb 25 f5 87 bd 8e a1 69 be 97 25 1e be
       -0.002728492 -0.066385545 -0.22815534 -0.15444027

weight f4 [64, 128]
000000 b6 a5 bf be 75 8c 40 bd 2f cc 36 3d 4e c1 4c 3d
       -0.37431115 -0.04700895 0.04462832 0.049989037
000010 00 55 44 3d 6a 03 38 3d 72 b3 4b 3d 9c 9c b5 3c
       0.047932625 0.04492513 0.04973168 0.022169404
000020 98 93 14 bd b1 ac 03 be 9f b4 45 bd e8 5f fa 3c
       -0.03627357 -0.12858845 -0.048267957 0.03056331
000030 77 c9 37 3f d1 9a 36 bd b8 a7 2e bc af de 3c 3e
       0.71791786 -0.04458124 -0.010660104 0.18444322
000040 28 2e f3 3d 40 c7 b2 3c 0c d6 87 3c 52 d0 1d bd
       0.11874038 0.021823525 0.016581558 -0.038528748
000050 39 8c 85 3d 77 ee 1a 3f f6 93 87 3e be 15 11 be
       0.06520886 0.6052012 0.26480073 -0.1416845
000060 79 5d 84 bd 50 35 21 bc c6 8b 4a 3e 75 19 de be
       -0.06463141 -0.009839371 0.19779882 -0.43378797
000070 e0 91 8a be 59 92 a1 3e f3 6e 89 bd 45 9c fe 3d
       -0.2706442 0.31556967 -0.06710615 0.1243215
000080 a0 b3 1c 3d 02 b8 a5 3e 60 8f 18 3c d7 f8 b0 3d
       0.03825724 0.3236695 0.009311527 0.086412124
000090 3d ed 94 3d 9d 8b 56 bd bd ca 5b bd e5 6f 85 3d
       0.07271812 -0.05237924 -0.053660143 0.06515483
0000a0 73 42 c0 3e fe da 4e bd 5c c4 81 3c a0 d1 9f 3b
       0.37550697 -0.050501816 0.015840702 0.004877284
0000b0 10 6d 9f 3e c4 87 31 bd 3c 4a 2d bd 99 6f 29 bd
       0.31137896 -0.043342367 -0.042307124 -0.041366193
0000c0 00 da 4a bd c2 83 9c bd 43 b0 86 3d a2 41 cb 3d
       -0.049524307 -0.07642318 0.06576588 0.09924628
0000d0 a0 1c dc bb ab af 97 bd 47 7c 81 bd d1 8e 30 bd
       -0.0067172796 -0.07406553 -0.06322532 -0.04310495
0000e0 e6 28 7e 3c 62 b6 16 bf 00 09 c6 ba 8e 82 7a 3d
       0.015512681 -0.58872044 -0.0015108883 0.061159663
0000f0 8d 24 ad 3d b9 4c c3 bc db c6 89 bd 0c 19 00 bd
       0.08454237 -0.023840295 -0.06727382 -0.031273887
000100 26 cf 3c 3d 00 d9 79 3c 6a 4c aa bd 1e 86 ec 3d
       0.04609599 0.015249491 -0.08315356 0.11549018
000110 58 30 4b 3d 18 f4 67 3c 94 95 f0 3c 9d 7a 6f 3f
       0.04960665 0.014157318 0.0293682 0.9354647
000120 e2 b2 7c 3d 60 ad 02 3e 96 e1 2b bd 8b 46 88 bd
       0.061694033 0.1276145 -0.041963182 -0.0665408
000130 37 56 b5 3d c2 f8 91 bd 3f c2 8c 3d 3f 50 c6 3d
       0.08854335 -0.07127525 0.06872987 0.096832745
000140 27 4f 2a bd 5e b3 79 bd 3a 08 c3 3e a2 91 4f 3d
       -0.04157939 -0.060962074 0.38092214 0.050675996
000150 ca 9d 83 bd 9e 10 5f bd f4 e7 7f bd 20 98 01 3d
       -0.0642658 -0.054459207 -0.062477067 0.03163922
000160 24 18 f9 bc bf fa 8a bd a6 67 c1 3c d0 66 fc 3b
       -0.030407019 -0.06786107 0.023608994 0.007702686
000170 55 fb 45 39 09 f8 a0 3d 89 3f 74 be 90 43 74 3d
       0.00018881013 0.07859809 -0.23852362 0.059634745
000180 ab 04 a4 bd a3 1a b9 3d 20 30 f8 bb 00 aa 5f 3c
       -0.08008703 0.09038284 -0.0075740963 0.013651371
000190 12 34 67 3e 23 c9 81 3d b3 f4 ae 3e c0 1b 51 bc
       0.22578457 0.06337192 0.34171066 -0.012762964
0001a0 7b ad 0c 3e 61 1f 98 3d 5b c9 43 3d c0 5e 6a 3b
       0.13738053 0.0742786 0.04779945 0.0035762042
0001b0 e0 d4 c3 3c 58 e8 aa bc 94 04 91 3c c6 53 06 bd
       0.023905218 -0.020862743 0.017702378 -0.032794736
0001c0 92 4a 87 bd 79 ac 38 3f 48 c3 8e 3c fd 11 10 3d
       -0.0660602 0.7213817 0.017427102 0.035173405
0001d0 40 7a b0 bd d6 64 f3 bc ac 54 7c 3d cc 4a f9 bc
       -0.08617067 -0.029711168 0.061604187 -0.030431174
0001e0 da 5d 8b 3e 77 97 8a 3d 57 41 9b bb be b7 8d 3d
       0.2722004 0.06767171 -0.0047380137 0.06919812
0001f0 85 bb 86 3d ee f6 ab be 45 bb bf bb 76 e7 63 3d
       0.06578735 -0.3358683 -0.0058511817 0.05564066
000200 98 a4 eb bc cb 94 9d 3d ac dc c2 3c c4 26 ad bd
       -0.028765008 0.07694396 0.023786865 -0.084546596
000210 ea 7a e8 bd 54 7a 21 bd 9a b2 72 3d af 6a fe bd
       -0.11351569 -0.0394233 0.05925236 -0.12422692
000220 37 ef 03 bd fe f0 a1 bd 9c 4f ac bd 3a 70 07 3d
       -0.032210555 -0.07907294 -0.08413622 0.033066012
000230 7f a3 67 bd e8 e1 42 bd 7c 2e 75 bd 2d 27 8c bd
       -0.056552406 -0.047578722 -0.059858784 -0.0684341
000240 9a b0 c0 3a cc 9a ab bc b8 da 09 bc 6f c6 88 bd
       0.0014701069 -0.020947836 -0.008413963 -0.06678473
000250 b2 a0 33 3d f8 8e 9b bd 5e 40 0e be 25 7d 96 bd
       0.043854423 -0.075956285 -0.13891742 -0.07348088
000260 e3 44 a2 3d a2 96 68 bd 20 a6 b5 bd 68 58 e8 bd
       0.07923295 -0.05678428 -0.088695765 -0.11344987
000270 37 88 08 be 81 b9 d0 bd 94 29 e0 bc a0 11 dd bd
       -0.13333212 -0.10191632 -0.027363576 -0.10794377
000280 17 2e 27 bb cb 35 0e 3c 0d b8 a7 3d 74 b4 b4 bd
       -0.002550965 0.008679817 0.08189402 -0.08823481
000290 0a 26 04 3d 66 07 7e 3d 8e f4 06 3c 69 e2 cc 3c
       0.03226284 0.062018774 0.008237017 0.025010305
0002a0 e9 3e f9 bd e0 52 1b 3c 5c 83 e5 bc a0 cc 40 bc
       -0.12170202 0.009480208 -0.028016739 -0.011767536
0002b0 ad cb 5f bd 46 f6 b0 bd b2 06 68 3d 51 bf 26 bc
       -0.0546376 -0.08640723 0.05664701 -0.010177449
0002c0 38 62 09 bd 0e f6 49 3d 80 de 39 ba a3 78 ee bd
       -0.033540934 0.04930692 -0.0007090345 -0.116441034
0002d0 40 61 e8 bb 1f 5e a7 3d 00 70 5f 3b 4b 1f b0 bd
       -0.007091671 0.08172249 0.0034093857 -0.08599719
0002e0 fb 3b c8 bd 89 cf a4 3c 5e 1a 37 3d fe 7c 5d 3d
       -0.09777065 0.020118492 0.04470288 0.05407428
0002f0 20 ad cf 3b da 95 a9 bd 4f 95 0d be e0 fb 7c 3c
       0.006337777 -0.08280535 -0.13826488 0.015440911
000300 ee 19 30 3d e0 18 42 bb fb 22 81 3d 00 8f b3 bd
       0.04299348 -0.0029616877 0.063055 -0.087675095
000310 d7 25 ce bb 6d f6 61 bc 80 3d 2f bc 4b 6d 7e 3c
       -0.006291132 -0.013791663 -0.010695815 0.015528987
000320 a8 a7 d5 3c a3 e2 4b 39 5c 7f 84 3c fa 7b 31 3d
       0.026080921 0.00019444017 0.016174011 0.043331124
000330 7d e0 95 bd 12 14 ae 3a 48 d0 ce 3c a1 ae c6 3a
       -0.07318208 0.0013281128 0.0252458 0.0015158245
000340 43 0b 88 3d cd 45 97 bd 6c d8 17 bd c4 3b a4 3c
       0.06642773 -0.0738636 -0.03707163 0.02004803
000350 78 6e 61 3c c8 9d 35 bc 72 de 61 3d 98 5c 70 3c
       0.013759248 -0.011084981 0.05514378 0.014670514
000360 0d ad af bd bf fd 6a 3c 8d 29 fe bc 37 2e a4 bd
       -0.08577929 0.014342724 -0.031025672 -0.08016627
000370 c2 31 ea bd 64 a8 e5 3c 72 41 34 bd 76 d5 5e bd
       -0.11435272 0.028034396 -0.044007726 -0.05440279
000380 a8 1d 2e bd 9f e5 f9 bd 00 57 fb bc b7 47 b9 bc
       -0.04250875 -0.12202 -0.030681133 -0.022617204
000390 c5 cb a6 bb c2 9c f3 3c a5 84 d3 bd 30 38 ba bb
       -0.005090209 0.029737834 -0.10328034 -0.0056829676
0003a0 f4 42 df bd 66 aa 3b 3d 55 bf c4 bc 4c 73 58 bd
       -0.10901442 0.0458168 -0.024017015 -0.05284433
0003b0 b3 d1 a1 bd 3f 82 01 bd 21 74 8a 3d 69 56 b3 3d
       -0.07901325 -0.031618353 0.06760431 0.08756716
0003c0 40 d7 46 bb 55 01 9a bd c0 60 45 bb 85 07 b1 bc
       -0.0030340701 -0.07519785 -0.0030117482 -0.02161003
0003d0 c8 cc a6 3c 4f d6 b2 3d 35 63 8e bd 82 a0 7c 3d
       0.02036132 0.08732282 -0.06952516 0.06167651
0003e0 fc 53 39 bd c0 57 9a 3a 0c eb f9 bb 53 c7 b7 bd
       -0.04524611 0.0011775419 -0.0076268967 -0.08973565
0003f0 e1 65 3f bd 7b 95 82 3c 7b cd cb bd 51 e1 88 bd
       -0.04672802 0.015940418 -0.09951302 -0.06683601

bias f4 [64]
000000 97 81 3a 3e 3b 9d c7 bd 09 2d 66 be fa ad 0f 3e
       0.18213497 -0.09746786 -0.22478117 0.1403121
000010 ca 73 98 bd fc e1 e7 bd c9 d2 1d bd a5 a4 47 bc
       -0.0744396 -0.113224 -0.0385311 -0.01218525
000020 9c eb 73 be 3d e6 4b 3d ea ba f2 bb bb 69 45 be
       -0.23820347 0.04978012 -0.007407536 -0.19278614
000030 12 02 b4 bd cd e7 9f bd d5 ec 9c bd de d1 3e be
       -0.087894574 -0.07807884 -0.076623596 -0.18634745
000040 8e 07 8a bd 3a 62 2e be 27 01 84 be 84 ae 3d be
       -0.06739722 -0.17029658 -0.2578213 -0.18523604
000050 1c fa 6f bd 4b a7 dc bd 50 4b 0a be 95 f0 f3 bd
       -0.058588132 -0.10774096 -0.13505292 -0.11911122
000060 90 30 07 be 64 50 04 3b 4b aa 9e bd 15 a1 8b bd
       -0.13202119 0.0020189518 -0.077473246 -0.06817833
000070 5d 75 99 bd 72 d5 61 3c 15 1e aa bd 94 aa 1a be
       -0.074930884 0.0137837995 -0.08306519 -0.15104133
000080 12 94 85 bd 02 5b 65 bd 5a b3 9d bd ae d6 2a be
       -0.06522383 -0.055994995 -0.07700224 -0.16683456
000090 48 17 65 3c 45 1b 26 bd 6b 26 7e bd 87 bf ed bb
       0.013982601 -0.04055335 -0.062048357 -0.007255498
0000a0 59 d2 17 bd c7 b6 70 bd 9d 81 02 be 56 2a e2 bb
       -0.037065838 -0.05876806 -0.12744756 -0.0069020195
0000b0 0a 46 0b be b7 24 2c be 8a 39 ab bd 04 ec fe bd
       -0.13600937 -0.1681088 -0.08360584 -0.1244736
0000c0 65 6c 84 bd 4d 63 27 3d f3 08 cf bc 03 1b 42 be
       -0.06465987 0.040866185 -0.025272822 -0.18955617
0000d0 35 1d b9 3e 2e e8 05 be 8e 95 bd 3c 58 95 86 3c
       0.36155096 -0.13076851 0.023142602 0.016428635
0000e0 e9 db 6b 3c c9 8c 07 bd a5 60 e5 bd e0 56 b4 be
       0.014395692 -0.033093248 -0.11200074 -0.3522253
0000f0 2e 33 ab 3d 03 cc 85 bd d6 d3 3e bd 32 62 51 be
       0.08359371 -0.06533053 -0.04658874 -0.20447615

weight f4 [32, 64]
000000 41 03 48 3e 30 c9 20 bc d3 c5 ab 3e 86 42 a9 bc
       0.19532491 -0.009813592 0.33549365 -0.020661604
000010 48 b6 e0 bc 20 32 a2 bd da d2 e7 bd ea d4 c3 bd
       -0.027430668 -0.07919717 -0.113195136 -0.095620945
000020 76 b4 34 3e da f1 e4 3e c6 94 15 bd 08 48 82 3e
       0.17646965 0.44715768 -0.036518835 0.2544558
000030 ba da b9 bd dd 90 84 bd 13 e2 9c 3e e7 42 57 3c
       -0.09074922 -0.06472943 0.3064123 0.013138509
000040 98 bb a9 3d 71 12 bf bd e4 e3 30 3e 2b 27 44 be
       0.08287734 -0.09329689 0.17274433 -0.19155566
000050 58 91 62 bd b8 fa 06 bd 3e 4e a9 bd 40 2d c2 bd
       -0.05531439 -0.032953948 -0.08266877 -0.09481287
000060 4d 1a fe 3c 00 ff b2 bc 3b 5e 9e bd ff f1 1f 3d
       0.0310184 -0.02185011 -0.07732817 0.039049145
000070 cc 94 03 3e 85 a9 ac be f8 84 50 be 22 cb 43 3d
       0.1284973 -0.33723083 -0.20363224 0.047801144
000080 7e cc 2d be 80 7a ff bb e9 e9 43 be 00 38 22 b9
       -0.16972539 -0.0077965856 -0.19132198 -0.00015470386
000090 36 0b 67 be f0 c9 d0 3d 6a 96 b6 3d 80 74 e9 bd
       -0.2256287 0.101947665 0.08915408 -0.11399174
0000a0 92 e4 9d bd 50 a1 ad 3d 88 0e 5f bd 05 c5 03 3e
       -0.07709612 0.084780335 -0.054457217 0.12868126
0000b0 c8 78 9b 3c a5 6c ac bd 49 db 77 bc 54 c0 9f 3d
       0.018978491 -0.0841916 -0.015127965 0.078003556
0000c0 0f 01 0c 3e b8 d4 58 3d 12 a2 80 3d bd 12 f8 3d
       0.13672279 0.05293724 0.062809125 0.12112949
0000d0 d3 85 8e bd 26 c8 85 bd 55 10 e6 3d 9f fe 02 be
       -0.06959119 -0.06532316 0.11233584 -0.12792443
0000e0 10 67 41 bc 0c a3 2a bd 50 c0 fc bc 8c 32 5d 3e
       -0.011804357 -0.0416594 -0.03085342 0.21601313
0000f0 61 25 df bd 80 1d 0a 3c 60 7a e6 3c 50 19 5a bd
       -0.10895801 0.008429885 0.028134525 -0.053246796
000100 d9 cc b2 3e b7 bb 99 bc ab 8c b6 3e ff a5 cc 3d
       0.3492191 -0.018766267 0.35654196 0.09992599
000110 fe 6d f1 bb 80 4a 36 3c 5a 58 ad bd d2 8b 22 3d
       -0.0073678484 0.011126161 -0.08464117 0.039684124
000120 b7 b7 43 be 53 32 55 3e b3 41 40 3d ad 42 88 3e
       -0.1911305 0.20819978 0.046937656 0.2661337
000130 82 e9 de bd 16 31 ca 3c a8 48 01 bd 8a d2 a0 3c
       -0.10884382 0.02468161 -0.03156343 0.019631643
000140 c8 95 0b 3d 8e cc 1b 3d e0 b6 6f 3e 94 07 8a be
       0.03407839 0.038036875 0.23409605 -0.26958907
000150 be 6b ef 3d f2 ef 78 bd 1e f0 7f 3b 00 a0 f0 3d
       0.11690472 -0.060775705 0.0039053033 0.117492676
000160 ae 42 df bd 1f 3f 1d 3e e8 7c 93 bd b6 58 0f 3e
       -0.1090139 0.1535611 -0.07201558 0.13998684
000170 71 81 1c 3d 30 5b 79 be d8 ec e1 bc 1a 56 99 bd
       0.038209382 -0.24351192 -0.027578756 -0.07487126
000180 76 db 37 be 4a a9 70 3d 03 fa 15 be ae b3 80 be
       -0.17954811 0.058755197 -0.14646153 -0.25137085
000190 9d a6 41 bf 00 ee 15 bd 4c 77 c7 3d 80 42 9d bd
       -0.75644857 -0.036603928 0.09739551 -0.076786995
0001a0 6b d7 82 3c 33 33 5d 3d 0b f7 89 3d b4 eb 3f 3d
       0.01597186 0.054003906 0.06736573 0.046855643
0001b0 00 ea c3 3b 01 99 fc bc 74 4f 13 be 0a 18 b0 3d
       0.0059788227 -0.030834677 -0.14385778 0.08598335
0001c0 6f 9d 44 bd 09 c0 69 3c 3a 92 ba bd bc a6 06 3e
       -0.048001703 0.014266976 -0.09109922 0.13149542
0001d0 25 ad 57 bd b3 ce 1a 3d 81 d6 b2 3d f0 a2 cf bb
       -0.052655358 0.03779478 0.087323196 -0.0063365623
0001e0 a3 ba e7 bc e2 07 fc bd 50 52 3c 3c 9c d3 4e 3e
       -0.028287238 -0.12306191 0.011494234 0.2019791
0001f0 e6 ca ba bc 60 a5 21 bd d0 b0 be 3c 4c ce a0 3d
       -0.022801828 -0.039464355 0.02327767 0.07851848
000200 99 1f 5b bc f1 4d 31 bd 0c d0 a4 bd ac c5 6b bd
       -0.013374233 -0.04328722 -0.08047494 -0.05756156
000210 b5 b8 c8 3d ae 7e 2d bc 50 b8 34 3e b3 8b 0b 3d
       0.09800855 -0.010589285 0.17648435 0.034068774
000220 64 b4 46 3d 8d da 1e bd 5b 51 f8 3d 80 71 d2 ba
       0.048511878 -0.038782645 0.12124892 -0.0016055554
000230 fc f5 ce bc 1c 3f 38 3d e1 6d 73 bd 40 9b 4d 3d
       -0.025263779 0.04498206 -0.05943096 0.050196886
000240 fe 44 2f bd 28 61 c4 bc f6 c8 f9 bc d9 25 82 3e
       -0.042790405 -0.023972109 -0.030491333 0.254195
000250 e6 0c 43 3d 23 cd 8f 3d a0 86 0f 3d 03 7a a6 3c
       0.047619723 0.070215486 0.035040498 0.020321852
000260 03 c7 5f 3d fd 39 fe bd d6 77 c5 bd 2f 62 89 3d
       0.05463315 -0.12413404 -0.096419975 0.0670818
000270 bf 99 e1 bd 37 fe bf bb ce 96 1d 3e 98 e9 1f bd
       -0.11015653 -0.005859162 0.15389559 -0.03904113
000280 40 66 b6 bc 42 57 a9 bb 18 c5 cb 3c 0a 90 a4 bd
       -0.022265553 -0.0051678726 0.024874255 -0.08035286
000290 69 63 bc 3b fa c6 21 3e b5 86 71 bd 91 37 fa 3d
       0.0057491553 0.1579856 -0.058966357 0.1221763
0002a0 c8 5f b7 bd eb ff 97 3d 81 9f 20 bd 83 1f d9 bd
       -0.08953816 0.07421859 -0.039214615 -0.106017135
0002b0 56 c3 c6 3d 98 ac aa 3c eb 7a d6 3d 57 32 16 bd
       0.09705226 0.020834252 0.104726635 -0.0366691
0002c0 f7 66 70 3d 92 bf 06 3e b4 97 ec 3d 7e 68 d2 bd
       0.058691945 0.13159016 0.115523726 -0.102738366
0002d0 bf 09 19 bd 72 37 ba bd 40 ad ef 3d db 25 6c bd
       -0.03736281 -0.090926066 0.11702967 -0.05765329
0002e0 71 af b1 3d b4 ca 30 3e 30 fd 49 bc a6 6d 38 3e
       0.08676041 0.17264825 -0.012328431 0.18010578
0002f0 21 bd 14 bd 20 51 aa 3d 1a f5 53 3c 20 03 53 3d
       -0.03631318 0.083162546 0.012936855 0.051516652
000300 05 8b 76 3e 22 59 2d 3d d4 4a b8 be f9 63 98 3d
       0.24076469 0.04232133 -0.3599459 0.07440943
000310 aa 47 0f 3e fb 81 14 3e 72 99 02 3e 36 79 c9 3d
       0.13992181 0.14502709 0.12753847 0.09837572
000320 bb fc 9d be 5e 95 9a 3e e4 03 21 bd e5 84 d9 3d
       -0.3085688 0.30192083 -0.03931035 0.10621051
000330 36 fd d6 3b 18 c2 80 bd 25 c0 eb 3d a9 a6 5b be
       0.006560947 -0.062870204 0.11511258 -0.21450295
000340 7e c3 93 bd 82 34 6d bd 48 5f 28 3e 1e 79 3d be
       -0.072150216 -0.057911403 0.16442597 -0.18503234
000350 7f 99 ad 3d 2f e0 a2 bd 40 a0 fc 3d 5c 54 07 3e
       0.08476543 -0.07952916 0.12335253 0.13215774
000360 cf d9 95 bd a5 ef 1b 3b 72 2a 57 be 2c f5 32 3e
       -0.07316934 0.0023793962 -0.21012285 0.17476338
000370 85 ea 0a 3d fc 95 1d be 4c bd 89 bd 90 9a e4 bc
       0.03391506 -0.15389246 -0.06725559 -0.027905732
000380 7a bf 5d bb 90 86 14 3d 0f ee d1 bd ce f0 f7 bd
       -0.0033836053 0.03626114 -0.10250484 -0.12106477
000390 b9 85 db be 6f 9b 64 bd dc fc bf bb c7 df fe 3d
       -0.4287546 -0.055812296 -0.0058590006 0.12445026
0003a0 1d 29 5a be 41 51 eb bd cd cc 01 3d 19 10 1f 3e
       -0.21304746 -0.11490107 0.031689454 0.15533485
0003b0 d0 36 8d 3d ee 4b 29 be 6a c6 7e bd 90 c5 e6 3d
       0.0689522 -0.16532871 -0.06220094 0.11268151
0003c0 e8 7d e5 3d 84 2e 0d bd 7d da ae bb 23 ae 2a 3e
       0.11205655 -0.03446819 -0.0053361044 0.1666799
0003d0 bd 98 8a bd 03 46 b4 3d 9e 09 f1 3d 1e 6f db 3b
       -0.06767414 0.08802416 0.117694125 0.006696596
0003e0 1f 58 7a 3d 97 b7 3a 3e 79 7e 08 bd b5 41 65 ba
       0.061119195 0.18234096 -0.03332374 -0.0008745448
0003f0 c7 d8 68 3d bc cf 16 3e ec 5c 82 bd d5 de 79 3e
       0.05684736 0.14727682 -0.0636538 0.2440141

bias f4 [32]
000000 71 5c 7e 3e fd 8e 32 3e d3 65 a3 bd 51 6f 73 3e
       0.24839951 0.17437358 -0.07978406 0.23772933
000010 b1 15 bd bc d3 63 f0 be f9 75 ce bd 83 94 87 be
       -0.023081632 -0.4695116 -0.10081095 -0.26480493
000020 97 b3 76 3e 11 fd 08 be 5d 88 5f 3e dc cd 3a be
       0.24091946 -0.13377787 0.21829362 -0.18242592
000030 95 ed 52 3e 90 b0 a0 3e 40 38 a8 bd ee d6 bc bc
       0.20598443 0.31384706 -0.08213854 -0.023051705
000040 bb c2 c3 bd 95 d0 7a 3c c9 59 62 bd e7 ed d7 be
       -0.09558626 0.015308519 -0.055261407 -0.42173693
000050 e8 65 68 be 94 43 a5 bc ef 42 39 bd 52 04 07 3d
       -0.22695124 -0.020173825 -0.04522985 0.032963105
000060 1c 86 4a 3e f4 f3 72 be ea e4 9d bd 4a 3f 35 be
       0.19777721 -0.23725873 -0.077096775 -0.17699924
000070 1a ff 09 be 6a 88 cc bd aa d5 b0 bc 2c 9e cb bc
       -0.1347622 -0.099869564 -0.021586258 -0.024855696

weight f4 [8, 32]
000000 a1 ca e0 bd f6 66 88 bd d4 70 e2 3b 18 d9 18 be
       -0.109761484 -0.06660263 0.006910423 -0.14926565
000010 70 0b 2a bc 65 35 22 be 95 18 08 3d 5a 6c dd bd
       -0.0103787035 -0.15840681 0.03322657 -0.10811682
000020 9c 20 07 bf 20 c7 43 bc 2e e8 c8 be 0c e5 3a bd
       -0.5278413 -0.011949331 -0.3923964 -0.045628592
000030 d6 34 ec bd a7 39 ca bd 1f 39 e3 bd cc bf 33 3d
       -0.11533515 -0.098742776 -0.11094879 0.043884084
000040 d8 48 c6 bc e0 7d 5f bc cf a9 b7 bc a1 42 93 3c
       -0.024204656 -0.013640851 -0.022419838 0.017976107
000050 5c d6 f1 bd 39 72 09 be 27 98 c0 bc eb f7 ca bd
       -0.11808464 -0.13422479 -0.023510052 -0.09910568
000060 f1 f6 6f 3c 1b ba d7 3d f9 c5 54 bc 09 62 04 be
       0.014646278 0.10533544 -0.0129866535 -0.12928022
000070 36 ba f3 3d 91 f0 1b 3e 6c 09 37 bd 9f f4 23 be
       0.11900751 0.15228488 -0.04468672 -0.16011284
000080 72 21 95 3e 3c e3 43 be 0c 6e 8a bd 95 84 2a 3e
       0.2912708 -0.19129652 -0.06759271 0.16652139
000090 d0 fd a7 bd ec 0d a7 3c db a3 da bd f8 c2 80 3e
       -0.08202708 0.02039238 -0.10675784 0.2514875
0000a0 e0 8b 2a 3e c2 e6 57 bd 69 fb 83 bf 6a 89 98 3d
       0.1665492 -0.052710302 -1.0311099 0.07448085
0000b0 93 06 4e bf 2a 5d 96 3e ec d8 58 bd 53 3f cf bd
       -0.8047878 0.29367954 -0.052941248 -0.101195
0000c0 be b4 bf bd c7 72 0f be 62 c7 87 be d6 6d 96 3e
       -0.09360646 -0.14008628 -0.26519305 0.29380673
0000d0 9c bf 31 bd 07 01 b6 be 17 73 0b be 38 3d 9f 3d
       -0.043395624 -0.3554766 -0.13618122 0.077753484
0000e0 af 99 16 3e d7 bd a9 be 2c 39 d4 be 07 1b d8 bd
       0.14707063 -0.3315265 -0.4144987 -0.1055203
0000f0 a6 d2 eb be aa 30 7a be fa 43 0e be ff 39 01 3f
       -0.4605915 -0.24432626 -0.13893119 0.5047912
000100 d5 65 89 3e a5 a7 80 3e e2 99 2c bd c7 3b 5c 3e
       0.26835504 0.25127903 -0.04213894 0.21507178
000110 19 41 86 bd cd f0 4f 3e b4 cc 0d 3d 81 86 f1 3d
       -0.06555385 0.20306702 0.03461905 0.11793233
000120 d3 4e 06 3e f4 ed 83 3d 60 a0 9a bf 44 c4 00 bd
       0.13116007 0.0644187 -1.2080193 -0.031437173
000130 ef 56 1b 3e 78 ec 52 3e 61 9a ac bc 20 7e 85 3b
       0.15169881 0.20598018 -0.021069707 0.004073873
000140 e9 b4 8a be 30 f2 01 be 1d 33 19 3e 59 e6 af 3d
       -0.27091148 -0.12690043 0.14960904 0.08588857
000150 b7 44 84 bc 95 12 d2 3c b3 5b 96 3e fe 5d 77 3e
       -0.016146047 0.025643626 0.29366836 0.24156949
000160 20 2d 92 3e b4 c5 d2 3e 96 42 04 be ae b4 62 be
       0.28550053 0.4116646 -0.12916026 -0.22139236
000170 12 8a d9 bc a8 58 25 3d af de 68 bd 9d f1 91 bf
       -0.026555095 0.040367752 -0.056852993 -1.140186
000180 37 3e 63 3e ed 81 6c 3e 14 1a 68 bd a0 b9 49 3e
       0.22191702 0.23096438 -0.056665495 0.19699717
000190 f6 10 90 bd ee d3 37 be 25 52 06 3e 1a fc f7 bd
       -0.07034485 -0.17951939 0.13117273 -0.121086314
0001a0 b7 f9 d5 3e b2 13 d4 3d 2c a2 9c be 6a f0 5e be
       0.4179208 0.10355319 -0.30592477 -0.21771398
0001b0 0e d1 89 3d d3 69 3a 3e dd 19 ba bd ba 81 a0 3d
       0.06729327 0.18204431 -0.09086964 0.078372434
0001c0 80 95 1a bc 21 4f 17 3e 80 79 47 3d e2 3c af be
       -0.009435058 0.14776279 0.048699856 -0.34226137
0001d0 2a 38 a2 be b2 d2 39 3e f2 83 07 be d0 e1 80 3d
       -0.31683475 0.1814678 -0.13233927 0.0629307
0001e0 fb e5 6e 3e 28 35 d7 be 58 65 95 3d b9 ac a4 3d
       0.23329918 -0.42032743 0.072947204 0.08040757
0001f0 6c 00 f7 3d 9c 82 8a bb 6d de 54 bd ab 6a 3a bf
       0.12060627 -0.0042269956 -0.051969934 -0.7281901
000200 ca bc 8b 3b 1d ec 19 3d 00 c6 d7 bc fe fb a1 bd
       0.004264449 0.03757869 -0.026339531 -0.07909392
000210 aa 61 5c bd 84 40 09 bd bb c2 2c 3e 7d 68 ab be
       -0.053804077 -0.033508793 0.16871159 -0.33478156
000220 aa ae c0 bc 42 ce 1e be 5c ef 85 be 46 95 d1 bd
       -0.023520786 -0.15508369 -0.2615918 -0.1023355
000230 f4 e9 3b be 0d 7a 52 be 3c 36 7b bd 74 75 1e 3d
       -0.18350965 -0.20554371 -0.06133102 0.03868623
000240 b0 8b 2d bd 60 76 a9 3b 0d 11 1e be 2c aa d0 bc
       -0.042369545 0.005171582 -0.15436192 -0.02547177
000250 4a db af 3d db e5 6e bd d7 34 fd bd 38 5e 9a be
       0.08586748 -0.058324676 -0.12363594 -0.30150008
000260 20 44 63 be 08 84 cd be d9 6f fd bb ad fd 00 be
       -0.22193956 -0.40139794 -0.0077342805 -0.1259677
000270 da 63 2d be f4 b4 67 3d 8e b9 e3 3d 06 e6 ed bd
       -0.16932622 0.056569055 0.11119376 -0.11616139
000280 fa 2c 73 bd 9b 43 f2 bd 61 c5 60 3d c0 28 e0 bc
       -0.059369065 -0.11829301 0.054875735 -0.027363181
000290 dd 1b 34 be ac 39 1d 3d da af fe 3d 7f 0c da 3b
       -0.17588754 0.03838508 0.12435885 0.0066543217
0002a0 00 f4 0c 3b a7 84 82 bc cf dd c2 bd 70 9d 08 3d
       0.002150774 -0.015932394 -0.09514963 0.03335327
0002b0 2a 5e 51 be 89 eb 1f be c0 15 6a 3d 4c a5 75 3d
       -0.20446077 -0.15617193 0.05714965 0.059972093
0002c0 a3 26 10 be 11 8f e7 3d 57 91 03 be 9e 95 d5 bd
       -0.14077239 0.113065846 -0.12848412 -0.10428928
0002d0 84 72 cc 3d 7a 5e 8b 3d 03 1f 5f be c8 68 e1 bc
       0.099827796 0.06805129 -0.21789174 -0.027515784
0002e0 10 81 f9 bb 93 b8 0b be 54 27 21 be c9 47 58 bd
       -0.0076142624 -0.13644628 -0.15737659 -0.052802835
0002f0 55 a2 e2 bd d6 e1 9e bd 81 51 33 3e 70 3f 19 3c
       -0.11066119 -0.077579185 0.1751156 0.009353504
000300 bf 3a 11 be 18 14 e8 bc 50 9e 5d be ad da d1 bc
       -0.14182566 -0.028329894 -0.21642423 -0.025616968
000310 33 48 13 3e ed 1d 2c be 1a 2c b7 3d 63 57 91 bd
       0.1438301 -0.16808291 0.089439586 -0.07096746
000320 f1 6e 88 bd 1f 71 44 bd ca 79 3d be ca 1a 9b 3d
       -0.066617854 -0.047959443 -0.1850349 0.07573469
000330 20 ab 4d be c6 f6 0f be 2d 73 04 be 72 c3 9c 3d
       -0.2008481 -0.1405898 -0.12934561 0.07654466
000340 0e 80 d1 3d a0 73 bc bc 7e de 5e be ef 4b 10 3c
       0.102295026 -0.023004353 -0.21764562 0.0088071665
000350 3d 73 11 be 60 c9 be bd 90 2a bc 3d f4 f8 af be
       -0.14204116 -0.09315753 0.09187806 -0.34369624
000360 5e 99 e2 bd 70 ca 43 be de 45 87 3d 1d c6 1a be
       -0.11064409 -0.19120193 0.06605123 -0.15114637
000370 01 0b b3 bd 1d c7 af 3d 63 5f 2f be eb c0 2e be
       -0.08742333 0.085829 -0.17126231 -0.1706578
000380 09 bd 30 be 2e 5e f0 3d 1f e2 58 be 8c 93 46 be
       -0.17259611 0.11736713 -0.21180008 -0.19392222
000390 4e d7 00 be 27 dc d0 be a3 31 e8 bd ce 0b 4a be
       -0.12582132 -0.40792963 -0.113375925 -0.19731066
0003a0 e5 f7 dd bd e0 6e 7b 3d b8 5e 1e 3c 54 f5 2c be
       -0.10838298 0.061385036 0.009666137 -0.1689046
0003b0 d4 db ca bd 52 98 51 3d e5 fb 4c 3d 98 da 53 be
       -0.0990521 0.051170655 0.050044913 -0.20688856
0003c0 15 61 13 3e 6c 26 26 be b2 75 ee 3d 6a be cc bd
       0.14392503 -0.16225594 0.11643542 -0.09997256
0003d0 ef 00 dd bd 59 ab 76 be 4b c5 0d be 21 de 4a be
       -0.10791194 -0.24088801 -0.13844793 -0.19811298
0003e0 1e 7a 1e be 6d af 58 3d 2b 0e 08 be 09 dd c3 3d
       -0.15476272 0.052901674 -0.13286655 0.095636435
0003f0 40 92 e5 be 17 06 2d be b7 bb c6 bd 1f 7f 35 bf
       -0.44838142 -0.16896854 -0.097037725 -0.70897096

bias f4 [8]
000000 b9 40 15 3d f7 d6 21 3f bc b2 a9 3d c4 ed 5c 3e
       0.036438677 0.63218635 0.08286044 0.21575075
000010 f9 a7 0d be c3 9e 4b bd 24 0c 96 3c 4d 7e 8f 3d
       -0.13833608 -0.049711954 0.018316336 0.07006512

weight f4 [4, 8]
000000 e0 31 ff 3d 6a 80 1a be 4e bc 3b 3e fa ec ad be
       0.12460685 -0.15088049 0.18333551 -0.3396986
000010 7e c7 5a 3e 71 4d 65 be 33 cd 38 be a0 41 68 be
       0.21365163 -0.22392823 -0.18047027 -0.22681284
000020 9f 93 80 3e a0 a9 40 3c 72 ef 78 3e de 94 79 3e
       0.25112626 0.011759192 0.24310091 0.24373195
000030 36 ad 32 be 16 ad 54 3e 64 29 13 be d4 fb d9 bd
       -0.17448887 0.20769152 -0.14371258 -0.106437355
000040 bc 57 b7 3d b0 41 67 3d 40 0a a2 3c 38 4b c7 3d
       0.08952281 0.05645913 0.019780278 0.09731144
000050 4b dc 8d 3e a8 42 85 bd e4 8d 91 3d d2 6a 46 3e
       0.27707133 -0.06506854 0.071071416 0.19376686
000060 ba c9 52 3e 3e c6 29 3e 4c 44 a4 3d 00 85 3a bc
       0.20584765 0.1657953 0.08020839 -0.011384249
000070 af 46 73 be 4a 70 9d be 06 e7 3e 3e 00 4c 42 bc
       -0.23757432 -0.30749732 0.18642816 -0.01185894

bias f4 [4]
000000 28 16 89 be 34 40 bc bd 5f 0d 98 3e b0 9a 9b 3d
       -0.26774716 -0.09191933 0.296977 0.07597864
